crypto_models/ADA_USD_lstm.pth (torch, 206101 bytes, 9 tensors)

lstm.weight_ih_l0 f4 [256, 1]
0.18356808 0.051075853 -0.022813197 -0.045947675 -0.036765955 -0.08088084 -0.075869456 -0.040784206
0.014552233 0.14618245 0.0045243003 0.060513902 -0.2176045 0.17072086 0.14577541 0.1768591
0.009610227 0.08073892 -0.07887323 -0.032696277 -0.015515405 0.104571424 0.106523626 -0.03165954
0.10456268 -0.0397442 0.100802645 0.15232252 0.012776982 0.0018948696 0.063688904 0.09376191
-0.00035578362 0.03184178 -0.018387841 0.049068894 -0.011731911 -0.010790425 0.09762997 0.120228514
0.004783913 -0.11395018 0.115479015 0.016253186 0.05007283 0.05180466 0.10662095 0.08393385
0.055346705 0.08312742 0.16753922 -0.062403064 0.009281038 -0.031803284 0.052168556 0.048373993
-0.03985451 0.11665579 0.075011715 0.015612881 -0.053391714 0.08128324 0.15652974 0.07705085
0.15463556 -0.12812622 -0.15898505 0.040321216 0.14623193 -0.08746086 0.02477531 -0.0016844758
-0.025755618 0.11413569 0.03279343 -0.052322816 -0.2733547 -0.017888833 0.099135794 -0.040320996
-0.11761624 0.0806387 0.001181515 0.1787636 0.06942744 -0.050644837 -0.086411074 -0.086711854
0.051352758 0.03912492 0.06858624 0.17916973 -0.09553372 0.0006561689 -0.056319624 0.12707771
0.15490034 0.08473473 0.03236268 0.059486754 0.01757101 0.13379598 0.014884297 -0.031934597
0.13536665 -0.026707804 -0.04206748 -0.012479492 -0.07190334 -0.05671152 -0.011912145 -0.015715599
0.11016686 0.0038001852 0.029183688 0.07062046 0.04612212 0.020628655 0.08906294 -0.061447598
0.12983629 0.06268292 -0.09358228 0.028420635 0.009852085 -0.09466827 0.02175768 -0.01660397
-0.18230708 -0.16620703 -0.09383379 -0.1292401 0.13051398 -0.007405417 -0.07248593 -0.0074412837
-0.010329028 0.0013732336 0.035017565 0.13536294 0.008534625 -0.15625148 0.113181055 0.15340962
0.13881251 -0.062980354 -0.06847664 0.18934806 -0.12523139 0.07356853 -0.039122503 0.09582146
-0.061736487 0.17307623 0.090233326 -0.17956774 -0.06253083 0.116771296 -0.12966497 -0.11095692
-0.13928851 -0.19052456 -0.038297594 -0.042863443 -0.08174889 0.05526606 -0.027919792 -0.15032509
-0.15151918 -0.08251047 -0.13943084 0.019888254 0.07083975 0.16640379 0.09095524 0.1198642
0.18346782 0.10944658 -0.15589826 -0.018022096 -0.21353953 0.030719226 0.12894854 0.12960261
-0.15107842 0.16051014 -0.12992859 -0.14554489 -0.09582152 0.04132675 0.11732999 0.09634731
0.03759459 -0.19370537 0.081538 0.0727025 0.05625307 -0.067136444 -0.1676526 0.058731206
0.0046647084 0.07744878 0.07124521 0.07026848 -0.32777667 -0.0353613 0.048206825 0.017962845
0.08632437 0.038745183 0.0065407557 0.019576019 -0.0016339626 0.040847402 0.12594947 -0.0010094665
-0.011892679 -0.031091757 -0.05670277 0.09926829 0.11154985 -0.009123432 0.046699874 0.029846247
0.18149962 -0.02037623 0.024761388 -0.10809449 0.0013191932 -0.029145867 0.06026672 0.19237795
0.032637864 0.03705281 -0.029209513 0.01380633 0.037893124 -0.013790521 -0.116785906 0.074887715
0.1725912 -0.047750995 0.1671358 -0.0007038519 0.0152117675 0.034234226 0.12760676 0.04916378
-0.04275799 -0.09299052 0.089413635 -0.021423832 0.00033016928 -0.10199107 0.1622926 0.062460482
00000000: 45f9 3b3e ea34 513d bee2 babc a133 3cbd
00000010: e697 16bd dba4 a5bd 7261 9bbd 570d 27bd
00000020: 7d6c 6e3c dab0 153e 9540 943b 6ddd 773d
00000030: b7d3 5ebe 73d1 2e3e 2646 153e 8d1a 353e
00000040: 3774 1d3c 725a a53d 4a88 a1bd 88ec 05bd
00000050: 5334 7ebc 8b29 d63d 0f29 da3d 6fad 01bd
00000060: f524 d63d d0ca 22bd 9e71 ce3d 6ffa 1b3e
00000070: 8c56 513c 465d f83a 546f 823d 3f06 c03d
00000080: 7888 bab9 876c 023d 19a2 96bc 77fc 483d
00000090: 3437 40bc 53ca 30bc 39f2 c73d 5e3a f63d
000000a0: 5fc2 9c3b b65e e9bd 4380 ec3d 6725 853c
000000b0: 2b19 4d3d 2031 543d 165c da3d 83e5 ab3d
000000c0: 3ab3 623d b53e aa3d 678f 2b3e 5b9a 7fbd
000000d0: 7f0f 183c 2944 02bd b2ae 553d cf23 463d
000000e0: 7c3e 23bd 3be9 ee3d be9f 993d 2bcd 7f3c
000000f0: 45b1 5abd d477 a63d 5549 203e d6cc 9d3d
00000100: c958 1e3e 8533 03be facc 22be dc27 253d
00000110: d3bd 153e ae1e b3bd 97f5 ca3c a1c9 dcba
00000120: 72fd d2bc f9bf e93d 6752 063d 7350 56bd
00000130: 26f5 8bbe 9a8b 92bc b507 cb3d a127 25bd
00000140: c9e0 f0bd e725 a53d 11dd 9a3a ce0d 373e
00000150: f92f 8e3d f670 4fbd 4af8 b0bd fc95 b1bd
00000160: 4557 523d 7441 203d f176 8c3d 4578 373e
00000170: 2fa7 c3bd c002 2c3a 68af 66bd a920 023e
00000180: 329e 1e3e 6789 ad3d bb8e 043d 62a8 733d
00000190: 14f1 8f3c d001 093e 44dd 733c dacd 02bd
000001a0: 8e9d 0a3e 53ca dabc f34e 2cbd c976 4cbc
000001b0: 0f42 93bd 574a 68bd 282b 43bc 00be 80bc
000001c0: 2a9f e13d 870c 793b a112 ef3c 76a1 903d
000001d0: 8cea 3c3d 6dfd a83c a166 b63d 7ab0 7bbd
000001e0: cef3 043e e75f 803d 11a8 bfbd 64d2 e83c
000001f0: a46a 213c 70e1 c1bd 2a3d b23c 0d05 88bc
00000200: b5ae 3abe 2d32 2abe ee2b c0bd 8457 04be
00000210: 75a5 053e 24a9 f2bb 8173 94bd 03d6 f3bb
00000220: 153b 29bc 13fe b33a 946e 0f3d 959c 0a3e
00000230: d0d4 0b3c 6300 20be 78cb e73d 6917 1d3e
00000240: de24 0e3e d8fb 80bd 7b3d 8cbd 75e4 413e
00000250: a83c 00be 19ab 963d eb3e 20bd 0b3e c43d
00000260: 66df 7cbd e53a 313e 40cc b83d 9be0 37be
00000270: 2a10 80bd ca25 ef3d e5c6 04be 623d e3bd
00000280: a6a1 0ebe df18 43be f0dd 1cbd 9491 2fbd
00000290: f66b a7bd aa5e 623d 0cb8 e4bc d2ee 19be
000002a0: d827 1bbe 40fb a8bd f5c6 0ebe b1ec a23c
000002b0: 6e14 913d c165 2a3e be46 ba3d 5d7b f53d
000002c0: fdde 3b3e 8725 e03d cba3 1fbe 13a3 93bc
000002d0: 1baa 5abe e3a6 fb3c 160b 043e 8cb6 043e
000002e0: 4db4 1abe c55c 243e 000c 05be b809 15be
000002f0: 133e c4bd 3d46 293d b54a f03d bd51 c53d
00000300: c9fc 193d b35a 46be 65fd a63d 0ce5 943d
00000310: 9e69 663d d57e 89bd 20ad 2bbe 2290 703d
00000320: 69da 983b 779d 9e3d 02e9 913d ece8 8f3d
00000330: 58d2 a7be 03d7 10bd 8574 453d d126 933c
00000340: d5ca b03d 45b3 1e3d d653 d63b e35d a03c
00000350: b02a d6ba 9b4f 273d e6f8 003e 1350 84ba
00000360: 83d9 42bc 24b4 febc 2a41 68bd 2c4d cb3d
00000370: 3f74 e43d 737a 15bc 5e48 3f3d 1e80 f43c
00000380: 09db 393e 0dec a6bc 65d8 ca3c a560 ddbd
00000390: c7e8 ac3a 50c3 eebc 3cda 763d bafe 443e
000003a0: 48af 053d b0c4 173d ca48 efbc f233 623c
000003b0: d235 1b3d a3f1 61bc 732d efbd bb5e 993d
000003c0: bfbb 303e 8c96 43bd a625 2b3e b482 38ba
000003d0: c73a 793c 3039 0c3d 59ab 023e f65f 493d
000003e0: 0123 2fbd d071 bebd 7f1e b73d 0881 afbc
000003f0: 921a ad39 b2e0 d0bd 0830 263e 90d6 7f3d

lstm.weight_hh_l0 f4 [256, 64]
-0.000101072204 0.023724532 -0.00036034448 0.034564376 0.09855928 -0.032785524 -0.09928466 0.12303218
-0.022375308 0.0175343 -0.0020638206 0.06837851 0.018583106 -0.08952713 -0.09927376 0.1268818
0.09898921 -0.025651654 -0.036372375 0.11511519 -0.01292294 0.007677 -0.0772488 -0.085251965
0.07455014 -0.096993685 -0.03477041 -0.070947126 -0.0006774107 -0.09027632 -0.053332124 0.109234564
-0.12900214 0.026112435 -0.0789814 0.0756944 0.078854226 0.10349157 0.07059226 -0.059096955
-0.1117415 0.031330526 0.07107858 -0.04124217 -0.11439534 0.0047081807 -0.11213581 0.017767241
0.03507488 -0.059604533 0.045729 0.015230405 -0.05817529 0.027529646 0.1275291 -0.05719701
-0.1129897 0.009939606 -0.05115356 -0.052088935 0.08992439 -0.0019477245 0.07664763 -0.016111357
-0.07294984 0.22380054 0.047834802 -0.1435026 -0.00902203 0.12322625 0.04853331 0.22029655
-0.15577233 -0.08245863 0.021940753 0.14123687 -0.13726018 -0.035078 0.03228131 -0.050698318
-0.03883624 0.0077817817 -0.12878285 0.013262944 -0.12341262 0.13089171 -0.15365194 -0.26612616
0.08567623 0.058696996 -0.09048013 0.055636276 0.08987931 0.030420875 -0.06958578 -0.14804077
-0.03340408 -0.03510087 -0.04284681 0.004359558 -0.15258281 0.09983293 -0.042024143 0.3199595
-0.17707025 -0.17463182 -0.101976186 -0.090101086 0.15187486 0.117411025 -0.2208629 -0.09971967
-0.06915813 0.15793765 0.060638934 -0.25208613 0.18050624 0.02104185 0.012267205 -0.15823711
-0.10526482 -0.04383155 0.07168743 -0.019178614 -0.117381044 0.16310722 0.062309086 -0.12660031
0.07476271 0.0044146827 0.12183566 0.08074416 0.15299144 0.11712677 0.09011168 0.13317136
-0.046523623 -0.19132008 0.036106966 0.16189492 -0.02473077 -0.02131911 -0.018264424 -0.12445889
-0.016868964 -0.0441239 0.06196365 0.14148897 0.045769192 0.108995296 -0.06892366 -0.16582063
0.028608171 0.10845697 -0.08757413 0.107646056 -0.028243603 -0.062027838 0.0016710388 -0.0852085
-0.021995865 -0.009199534 0.010107687 0.02560998 -0.1384579 0.17121105 0.123098716 0.29848385
-0.016403709 0.07982661 -0.019720903 -0.037213936 0.07690123 -0.077265814 0.0074696336 -0.08224747
-0.1100079 -0.002790999 -0.071347125 0.04074361 0.096670635 -0.11366726 -0.08871823 -0.094183356
-0.017549055 -0.24609925 0.071324036 0.037456535 0.05695388 0.039274316 0.029513355 -0.061303392
-0.1423342 -0.012281377 0.119029805 -0.057982128 -0.014179034 0.09357861 -0.074646704 -0.036026172
0.087842 -0.012839813 -0.09332201 -0.028966408 0.027299806 -0.028727435 0.09946352 0.13637006
0.08705214 -0.09218868 -0.07714573 -0.06404947 0.03327012 0.13802262 0.06235034 -0.101711184
-0.02908596 0.13143508 0.038792435 -0.011358253 -0.015949747 0.036316793 -0.057025403 0.019801574
-0.13639241 -0.0013800269 0.045132503 0.108361416 0.110372454 -0.105717696 -0.043658137 0.00783653
0.054139897 0.018008092 -0.07274553 -0.119685926 -0.110191815 -0.06710517 -0.046852533 0.054755777
0.12215163 -0.02435787 -0.017249908 -0.08665825 0.01572857 -0.041632544 0.11259297 0.046615355
-0.11199096 -0.11791802 0.03256984 0.06972047 0.055961277 0.0943968 -0.021901969 0.063892595
00000000: baf6 d3b8 f359 c23c 9eec bcb9 6093 0d3d
00000010: 73d9 c93d 1d4a 06bd c155 cbbd 4cf8 fb3d
00000020: 6c4c b7bc 18a4 8f3c 2a41 07bb 080a 8c3d
00000030: 993b 983c 005a b7bd 0b50 cbbd 4ded 013e
00000040: dbba ca3d 6b23 d2bc 33fb 14bd 83c1 eb3d
00000050: bdba 53bc 588f fb3b 9e34 9ebd 9598 aebd
00000060: bead 983d a0a4 c6bd 6b6b 0ebd ba4c 91bd
00000070: 4394 31ba cbe2 b8bd c972 5abd 5fb6 df3d
00000080: 2319 04be bfe9 d53c 00c1 a1bd aa05 9b3d
00000090: 537e a13d 63f3 d33d ad92 903d a60f 72bd
000000a0: bad8 e4bd 7054 003d a691 913d 8ded 28bd
000000b0: 1b48 eabd 1547 9a3b 76a7 e5bd 9b8c 913c
000000c0: adaa 0f3d e223 74bd 554e 3b3d f388 793c
000000d0: 3649 6ebd da85 e13c fd96 023e 6947 6abd
000000e0: 2567 e7bd bbd9 223c 6586 51bd 355b 55bd
000000f0: 472a b83d ca4a ffba 6ff9 9c3d f7fb 83bc
00000100: ba66 95bd f82b 653e 6dee 433d 58f2 12be
00000110: 23d1 13bc 0b5e fc3d ddca 463d 6b95 613e
00000120: c882 1fbe 12e0 a8bd 18bd b33c 66a0 103e
00000130: ef8d 0cbe f3ad 0fbd 6839 043d 0aa9 4fbd
00000140: c012 1fbd 51fe fe3b a7df 03be d24c 593c
00000150: c1bf fcbd 7a08 063e ef56 1dbe b041 88be
00000160: 0577 af3d 436c 703d a54d b9bd dde2 633d
00000170: a512 b83d 3335 f93c fd82 8ebd 0098 17be
00000180: b7d2 08bd eec5 0fbd 2380 2fbd a0da 8e3b
00000190: ab3e 1cbe 3575 cc3d 8221 2cbd bbd1 a33e
000001a0: e751 35be afd2 32be e4d8 d0bd eb86 b8bd
000001b0: 1585 1b3e 3175 f03d e229 62be d439 ccbd
000001c0: c7a2 8dbd 68ba 213e 8860 783d 6f11 81be
000001d0: a1d6 383e f55f ac3c 63fc 483c e908 22be
000001e0: 1595 d7bd b688 33bd dcd0 923d 781c 9dbc
000001f0: 7965 f0bd 9405 273e d037 7f3d 83a3 01be
00000200: 311d 993d 0ba9 903b f984 f93d 325d a53d
00000210: caa9 1c3e 29e0 ef3d 798c b83d 135e 083e
00000220: 8e8f 3ebd 69e9 43be e6e4 133d c8c7 253e
00000230: 2f98 cabc 6aa5 aebc 469f 95bc 4de4 febd
00000240: c830 8abc 43bb 34bd 99cd 7d3d 7ce2 103e
00000250: 7a78 3b3d ed38 df3d d927 8dbd e2cc 29be
00000260: af5b ea3c b01e de3d 115a b3bd 8975 dc3d
00000270: 215f e7bc e710 7ebd c206 db3a cb81 aebd
00000280: ac30 b4bc a4b9 16bc b69a 253c 05cc d13c
00000290: e8c7 0dbe f351 2f3e 2e1b fc3d e0d2 983e
000002a0: 1261 86bc 227c a33d bb8d a1bc a46d 18bd
000002b0: 647e 9d3d 8a3d 9ebd d4c3 f43b 5d71 a8bd
000002c0: d24b e1bd 31e9 36bb 711e 92bd c6e2 263d
000002d0: 41fb c53d 61ca e8bd e7b1 b5bd 34e3 c0bd
000002e0: 09c3 8fbc 7101 7cbe 5612 923d 066c 193d
000002f0: 7948 693d 1bde 203d fec5 f13c 4419 7bbd
00000300: 0ec0 11be d437 49bc e6c5 f33d ab7e 6dbd
00000310: 2e4f 68bc 24a6 bf3d 5fe0 98bd 2e90 13bd
00000320: 82e6 b33d 145e 52bc 9c1f bfbd f64a edbc
00000330: d8a3 df3c cc55 ebbc 88b3 cb3d 98a4 0b3e
00000340: 6448 b23d 6bcd bcbd 95fe 9dbd 5e2c 83bd
00000350: 4046 083d cd55 0d3e 1263 7f3d f44d d0bd
00000360: ae45 eebc eb96 063e d1e4 1e3d f717 3abc
00000370: 0ba9 82bc ebc0 143d 7893 69bd e936 a23c
00000380: 74aa 0bbe 05e2 b4ba dcdc 383d 97ec dd3d
00000390: f40a e23d 8582 d8bd e0d2 32bd ca64 003c
000003a0: ccc1 5d3d b585 933c 9cfb 94bd e51d f5bd
000003b0: 3fac e1bd 6f6e 89bd 71e8 3fbd 9847 603d
000003c0: a22a fa3d 288a c7bc ae4f 8dbc e179 b1bd
000003d0: 34d9 803c e386 2abd 2597 e63d beef 3e3d
000003e0: 845b e5bd 017f f1bd f467 053d 9bc9 8e3d
000003f0: a737 653d 1c53 c13d c26b b3bc 1fda 823d

lstm.bias_ih_l0 f4 [256]
0.08012562 0.019881945 -0.002197862 0.058652 0.06543869 -0.012512964 -0.10948839 -0.009069819
0.08569316 -0.004361552 -0.12996371 0.09680405 0.18182698 0.13846973 -0.033596292 0.14450198
0.3073979 0.008647914 0.0850013 -0.05593035 -0.061826773 -0.03896231 -0.07009296 0.078634076
0.029872034 -0.049018353 -0.062478457 -0.068778165 -0.002222127 -0.11596915 0.01205971 0.089808844
-0.073998906 0.013452285 0.08062753 -0.068210736 -0.006135549 0.039860867 0.041536827 0.19861321
0.06052941 -0.10734607 0.05557616 -0.10935871 0.049965285 -0.0013863094 0.07060541 -0.042232797
0.032788288 0.06832718 0.05231318 -0.087051876 0.14339691 0.0062698512 0.0691103 -0.054640733
0.11894587 0.1940171 0.14305672 0.13434927 -0.034065865 -0.04346399 -0.086456634 -0.088100806
0.09122958 0.106899634 -0.04071161 0.005561655 0.06991734 -0.02240948 0.10471865 0.09022376
-0.0015288964 -0.06290367 -0.023026338 -0.03634026 0.08500634 -0.00066819944 -0.11659911 -0.026433473
-0.14017127 -0.098988585 -0.14426859 -0.091060825 0.011232396 0.0028357282 -0.10043003 -0.082815215
-0.029744258 -0.043782614 -0.036904998 0.11615031 -0.0039404375 0.04196247 -0.032330368 -0.09495585
0.021482218 0.13260986 -0.06830616 0.08182236 -0.099579826 0.06927403 -0.02682336 -0.0028403525
0.06544263 0.0123064 -0.035943635 0.041668843 -0.043580215 0.09670999 -0.037281062 -0.0057098083
0.052380573 0.13384882 0.050458822 -0.082854204 0.06956021 -0.09540698 -0.056346662 0.11274559
0.088381805 -0.06473333 0.12035515 0.070951834 -0.001132463 -0.14167303 -0.025336888 0.026931103
-0.084538795 0.0926044 0.024231857 -0.1194677 0.064818375 0.09614803 -0.023495428 0.08059222
-0.07335096 -0.044556435 -0.055947952 -0.06458179 -0.11000618 -0.06463023 -0.058853094 0.038143862
0.035349563 -0.008823538 -0.03987581 0.007041431 -0.010936633 0.0644475 -0.05374352 -0.12737243
-0.021419767 -0.00843913 -0.10114026 -0.007954493 0.073493466 0.040266257 -0.07838306 0.038733672
-0.11771974 -0.0038253018 -0.04851832 0.05684648 -0.080815546 0.09112877 0.06603848 0.10589395
-0.04151088 0.0067596203 -0.09051284 0.08378834 -0.070272096 -0.06280362 0.0016219352 -0.045708816
0.082906544 -0.04158641 -0.027375892 -0.0436775 0.07833294 -0.034465797 -0.056123998 -0.13322997
0.07391901 -0.0011523127 -0.079386964 -0.073456906 -0.108971976 -0.094850846 0.113255486 0.008212275
0.090185955 0.06308778 0.03753449 -0.048805784 0.08554826 0.02421258 -0.029267622 0.027963078
0.005092563 0.06819043 -0.01850653 0.14349869 0.039509747 -0.07800506 -0.020311726 0.11131988
0.23390934 -0.034677025 0.05463332 0.07423508 0.0074095908 -0.0020536492 0.037753366 0.0900428
0.094719954 0.07374483 -0.004812004 0.10435298 0.029763322 -0.10109461 -0.063758455 0.0096741645
0.0093721505 -0.038723618 -0.064348094 0.05277745 0.016527196 0.00521078 0.08314332 0.27021652
0.05192667 -0.04942629 -0.0009027291 -0.14253806 0.04255819 0.052694228 0.05410246 0.008360757
0.06435417 -0.086807616 0.017803507 -0.07090755 0.11394146 -0.065458015 -0.023594722 -0.027006816
0.002104641 0.019071529 0.15770294 0.086397134 0.12564671 0.10441408 0.0011319058 -0.029431157
00000000: e718 a43d 76df a23c 010a 10bb 143d 703d
00000010: b804 863d 2d03 4dbc 733b e0bd 9499 14bc
00000020: e57f af3d 5aeb 8ebb 3515 05be 3441 c63d
00000030: da30 3a3e 02cb 0d3e 449c 09bd 54f8 133e
00000040: 4263 9d3e fbaf 0d3c 2915 ae3d 3917 65bd
00000050: 123e 7dbd f196 1fbd e68c 8fbd e70a a13d
00000060: 32b6 f43c 78c7 48bd 69e9 7fbd 91db 8cbd
00000070: 1ba1 11bb 3c81 edbd 1796 453c b3ed b73d
00000080: bd8c 97bd f966 5c3c 0c20 a53d 12b2 8bbd
00000090: b70c c9bb 2645 233d 8522 2a3d 4361 4b3e
000000a0: b0ed 773d 42d8 dbbd d4a3 633d 76f7 dfbd
000000b0: 66a8 4c3d d3b4 b5ba 9299 903d 4cfc 2cbd
000000c0: 034d 063d 1fef 8b3d 5846 563d 4148 b2bd
000000d0: a4d6 123e 5373 cd3b b389 8d3d f6ce 5fbd
000000e0: e499 f33d 6bac 463e 767d 123e db92 093e
000000f0: a688 0bbd 4c07 32bd 2d10 b1bd 326e b4bd
00000100: 93d6 ba3d 32ee da3d 38c1 26bd 8b3e b63b
00000110: d330 8f3d 1694 b7bc bb76 d63d 3cc7 b83d
00000120: 4065 c8ba a4d3 80bd bba1 bcbc 86d9 14bd
00000130: ce17 ae3d 1b2a 2fba 84cb eebd 038b d8bc
00000140: 0f89 0fbe 87ba cabd 25bb 13be 197e babd
00000150: 1508 383c a0d7 393b 42ae cdbd 069b a9bd
00000160: 3baa f3bc 6655 33bd b229 17bd 37e0 ed3d
00000170: c91e 81bb d7e0 2b3d d96c 04bd 3678 c2bd
00000180: 7afb af3c e1ca 073e 1ae4 8bbd 7b92 a73d
00000190: 82f0 cbbd 8bdf 8d3d aabc dbbc 3525 3abb
000001a0: c906 863d c8a0 493c a239 13bd f3ac 2a3d
000001b0: 2b81 32bd e30f c63d 07b4 18bd 5819 bbbb
000001c0: 038d 563d aa0f 093e e9ad 4e3d 77af a9bd
000001d0: 9575 8e3d bc64 c3bd c2cb 66bd 29e7 e63d
000001e0: 8501 b53d e892 84bd c37c f63d 324f 913d
000001f0: 276f 94ba bc12 11be 4e8f cfbc 9e9e dc3c
00000200: ad22 adbd 60a7 bd3d e381 c63c 7bab f4bd
00000210: 7fbf 843d 42e9 c43d 7c79 c0bc 890d a53d
00000220: 0739 96bd cf80 36bd ae29 65bd 7543 84bd
00000230: ec4a e1bd db5c 84bd f10f 71bd bd3c 1c3d
00000240: b4ca 103d 9a90 10bc d154 23bd cebb e63b
00000250: 902f 33bc 0dfd 833d 2a22 5cbd eb6d 02be
00000260: 8278 afbc 4744 0abc a022 cfbd 9053 02bc
00000270: be83 963d 3bee 243d 4c87 a0bd 33a7 1e3d
00000280: 0c17 f1bd eab1 7abb 25bb 46bd dbd7 683d
00000290: 9f82 a5bd b8a1 ba3d 2f3f 873d edde d83d
000002a0: 5007 2abd ce7f dd3b cc5e b9bd 3999 ab3d
000002b0: d1ea 8fbd 2f9f 80bd 1d97 d43a 2b39 3bbd
000002c0: e8ca a93d 8356 2abd 6843 e0bc 2ee7 32bd
000002d0: 056d a03d 022c 0dbd 47e2 65bd 706d 08be
000002e0: da62 973d 3309 97ba a295 a2bd 9370 96bd
000002f0: b32c dfbd 2941 c2bd 7ef2 e73d c78c 063c
00000300: 6ab3 b83d 2a34 813d c4bd 193d 93e8 47bd
00000310: ed33 af3d 7659 c63c a7c2 efbc d312 e53c
00000320: 84df a63b 6da7 8b3d 029b 97bc 52f1 123e
00000330: f9d4 213d 1ec1 9fbd c764 a6bc adfb e33d
00000340: ee85 6f3e 7f09 0ebd 30c7 5f3d 9008 983d
00000350: 27cc f23b 8496 06bb 46a3 1a3d 5c68 b83d
00000360: 89fc c13d 8807 973d 04ae 9dbb 04b7 d53d
00000370: 36d2 f33c b10a cfbd cb93 82bd 6380 1e3c
00000380: a68d 193c a89c 1ebd efc8 83bd 2b2d 583d
00000390: 0b64 873c 31bf aa3b 0c47 aa3d d259 8a3e
000003a0: 0fb1 543d 3973 4abd 20a5 6cba 7ff5 11be
000003b0: 7f51 2e3d e7d5 573d 8b9a 5d3d 8efb 083c
000003c0: 1ecc 833d 31c8 b1bd a9d8 913c fa37 91bd
000003d0: 245a e93d da0e 86bd b849 c1bc 663d ddbc
000003e0: 04ee 093b e53b 9c3c e17c 213e fbf0 b03d
000003f0: 88a9 003e 0dd7 d53d 755c 943a 9c19 f1bc

lstm.bias_hh_l0 f4 [256]
-0.021979792 0.10987233 0.13383107 -0.025137367 0.0003261896 -0.060920022 -0.0685435 0.04982308
0.028174644 0.026530111 0.034490567 0.0056082746 0.14211327 0.093913846 -0.05518034 0.032027498
0.061943956 0.06435019 0.0046879794 0.03234126 0.06627856 0.12825063 -0.06266432 0.108349435
0.08468567 0.13788928 -0.054845214 0.10754741 0.03261823 -0.09684621 -0.024991062 -0.08045987
-0.029064737 0.06062964 0.039314616 -0.14607418 -0.07632775 0.10447617 -0.058088455 0.17715363
-0.08600475 -0.08445893 -0.10717256 -0.013371075 0.101715155 0.06728474 0.008118248 0.18622589
-0.006132841 0.07455716 -0.039438456 -0.003866894 0.11500951 -0.12740284 -0.1168733 0.06822863
0.11960414 -0.019832727 0.20099542 0.08849504 -0.0350027 0.045286983 -0.028394436 0.01967397
0.123657756 0.15266344 -0.10843831 -0.0030724313 0.031790756 -0.0687361 -0.08141755 0.011278929
-0.07485477 -0.10061354 -0.03957055 0.08955612 0.027047591 -0.021634772 -0.065680735 0.019132787
-0.037877493 -0.11482803 -0.121273905 0.12015481 0.07189363 0.09904265 0.10027853 -0.02120273
-0.119623944 0.09084874 0.07459403 0.08791936 0.050689023 -0.06313528 0.041728742 0.04065497
-0.051512428 0.016474979 -0.119599335 -0.03438179 -0.017963234 -0.0557451 -0.0048859916 0.08313188
0.111626945 -0.05040692 -0.05842986 0.050762642 0.014292024 0.0259723 -0.08312182 -0.09735732
-0.058180343 0.05393639 0.1132675 -0.13353892 0.09223545 0.09149462 0.0076750107 0.027695
0.008069707 -0.028468998 0.0029912272 -0.09596023 -0.08912777 -0.11581093 0.12333592 -0.05608699
0.007871194 -0.030351577 0.09655978 0.11035491 0.033201586 -0.046096344 0.038996857 0.07513254
0.039538063 0.022520874 0.06694244 0.11212143 0.0222501 -0.07141272 -0.052859087 0.010815337
-0.09975762 0.011565844 -0.051094737 -0.018446397 0.034340803 0.05548178 0.045902625 -0.104944035
0.09284318 -0.039386746 -0.060205307 0.022014676 -0.007225401 0.036496963 -0.086213246 -0.045083243
-0.0048565487 0.112857394 -0.0761597 0.06779803 -0.10209457 0.04397244 0.033153098 -0.095605396
-0.027461477 0.06069786 -0.004127125 -0.103315495 0.058111973 0.059676867 -0.09909886 -0.033683617
-0.108886585 0.08550101 0.016030354 -0.02645889 0.08219614 -0.09099292 0.022449827 0.09815877
-0.07644424 -0.045518648 0.06607388 0.06029027 0.079188995 0.08035775 0.11028057 -0.121481374
0.12619388 0.170182 0.08428438 0.02608492 0.014781915 -0.007584922 -0.09639735 -0.06410756
-0.11146483 -0.05432309 0.033424284 0.13491422 0.2110356 0.077330366 0.113562986 0.08080963
0.15115501 0.07998617 0.081792966 -0.08482736 0.0361451 -0.037634254 0.088497125 0.034974113
0.035750236 -0.02469757 -0.05760574 -0.00290343 -0.037874248 0.051426806 0.0614032 0.04721291
-0.03379148 0.060139127 -0.05805554 -0.0002927365 -0.10842341 -0.006337373 -0.00052933703 0.33706218
-0.11256077 0.10765591 0.08016605 0.04928662 -0.014670933 -0.027639851 -0.031187186 0.15736888
0.02973073 0.094936915 0.10779754 0.084299505 0.21496129 0.06610047 -0.07402467 0.16441728
0.023409829 0.13292347 0.19124328 -0.074356996 0.036117617 0.020957798 -0.043178085 0.11754339
00000000: f70e b4bc bf04 e13d 030b 093e e1ec cdbc
00000010: 6d04 ab39 4687 79bd 8960 8cbd 4913 4c3d
00000020: 83ce e63c ad55 d93c fb45 0d3d 9ec5 b73b
00000030: 2486 113e e755 c03d c804 62bd 442f 033d
00000040: f2b8 7d3d 08ca 833d 9f9d 993b 4578 043d
00000050: 0ebd 873d 2254 033e 2756 80bd 4fe6 dd3d
00000060: ae6f ad3d d932 0d3e 60a5 60bd d141 dc3d
00000070: b19a 053d 4e57 c6bd 0eba ccbc 25c8 a4bd
00000080: 2c19 eebc c956 783d 5d08 213d 7894 15be
00000090: b951 9cbd 9af7 d53d 29ee 6dbd c367 353e
000000a0: 4223 b0bd cef8 acbd 4a7d dbbd 5a12 5bbc
000000b0: 0950 d03d 95cc 893d 6602 053c 00b2 3e3e
000000c0: 00f6 c8bb 6db1 983d 388a 21bd b76b 7dbb
000000d0: 1b8a eb3d e475 02be 455b efbd 74bb 8b3d
000000e0: 04f3 f43d 3e78 a2bc bed1 4d3e e33c b53d
000000f0: fe5e 0fbd d87e 393d 739b e8bc 4e2b a13c
00000100: 4740 fd3d ce53 1c3e e814 debd d85a 49bb
00000110: 0637 023d 83c5 8cbd 3fbe a6bd 42cb 383c
00000120: 754d 99bd 790e cebd bb14 22bd 3369 b73d
00000130: e992 dd3c 683b b1bc 9f83 86bd 5dbc 9c3c
00000140: 6e25 1bbd f52a ebbd 745e f8bd ba13 f63d
00000150: f83c 933d dfd6 ca3d d45e cd3d 59b1 adbc
00000160: 66fd f4bd e70e ba3d c1c4 983d 110f b43d
00000170: 4b9f 4f3d 124d 81bd c2eb 2a3d d385 263d
00000180: b2fe 52bd 89f6 863c 7ff0 f4bd ebd3 0cbd
00000190: a227 93bc f954 64bd ab1a a0bb 0c41 aa3d
000001a0: ab9c e43d 7d77 4ebd 2654 6fbd 7dec 4f3d
000001b0: 1829 6a3c dcc3 d43c c63b aabd 4663 c7bd
000001c0: 834e 6ebd 67ec 5c3d cbf8 e73d 6dbe 08be
000001d0: f1e5 bc3d 8861 bb3d a87e fb3b a0e0 e23c
000001e0: ce36 043c d137 e9bc 7708 443b cc86 c4bd
000001f0: 9f88 b6bd 482e edbd 8b97 fc3d 79bb 65bd
00000200: 2ef6 003c dfa3 f8bc 22c1 c53d c101 e23d
00000210: 63fe 073d 85cf 3cbd 2bbb 1f3d 17df 993d
00000220: aaf2 213d b27d b83c 1e19 893d ec9f e53d
00000230: d745 b63c d540 92bd c582 58bd d032 313c
00000240: b94d ccbd aa7e 3d3c b748 51bd e61c 97bc
00000250: f1a8 0c3d dd40 633d 6404 3c3d e6ec d6bd
00000260: 9124 be3d ff53 21bd d799 76bd 1f58 b43c
00000270: 0ec3 ecbb d77d 153d 9290 b0bd 35a9 38bd
00000280: af23 9fbb c721 e73d 9ef9 9bbd b2d9 8a3d
00000290: f516 d1bd 721c 343d 8bcb 073d c3cc c3bd
000002a0: e4f6 e0bc 529e 783d d53c 87bb 1397 d3bd
000002b0: d206 6e3d bb6f 743d 58f4 cabd d5f7 09bd
000002c0: eeff debd 271b af3d 1752 833c 50c0 d8bc
000002d0: 7356 a83d 7f5a babd b3e8 b73c 7707 c93d
000002e0: cc8e 9cbd c371 3abd be51 873d eef2 763d
000002f0: d72d a23d 9b92 a43d c8da e13d 3acb f8bd
00000300: f838 013e 3144 2e3e 4a9d ac3d 0bb0 d53c
00000310: d82f 723c f08a f8bb f96b c5bd d34a 83bd
00000320: ac47 e4bd e381 5ebd e7e7 083d f426 0a3e
00000330: b719 583e 625f 9e3d b693 e83d 857f a53d
00000340: 61c8 1a3e cacf a33d 1283 a73d f8b9 adbd
00000350: e20c 143d 6026 1abd fb3d b53d 0441 0f3d
00000360: d76e 123d 8f52 cabc fff3 6bbd 7947 3ebb
00000370: 0722 1bbd eaa4 523d ec81 7b3d 5362 413d
00000380: ef68 0abd 7254 763d a5cb 6dbd 6e7a 99b9
00000390: 180d debd bda9 cfbb 35c3 0aba 6a93 ac3e
000003a0: 4386 e6bd b47a dc3d 192e a43d c4e0 493d
000003b0: 5a5e 70bc f86c e2bc 457c ffbc 4f25 213e
000003c0: dc8d f33c 496e c23d f5c4 dc3d 38a5 ac3d
000003d0: d01e 5c3e af5f 873d 3f9a 97bd 015d 283e
000003e0: f8c5 bf3c 171d 083e 47d5 433e 7b48 98bd
000003f0: 11f0 133d b0af ab3c 81db 30bd 97ba f03d

lstm.weight_ih_l1 f4 [256, 64]
-0.05753697 0.1399458 0.015275133 0.09849281 -0.06876522 -0.0606247 0.14716315 -0.059914183
0.054038037 -0.05556084 0.051753946 0.059195764 -0.16730388 -0.020517878 -0.017071856 -0.057844523
0.00035107252 -0.0047779586 -0.01609618 0.10395905 0.09876615 -0.09917036 0.09020596 -0.067474134
-0.076776646 0.022813141 -0.034626324 -0.13318057 -0.002478231 0.08566011 -0.064811535 -0.064453796
0.07469171 0.0315028 -0.05225197 -0.062871285 -0.02896265 0.028128417 -0.059708793 -0.11177792
-0.13270327 -0.027498618 0.061213665 -0.12249967 0.13536166 -0.03422653 -0.12681468 0.07916601
0.04813321 -0.038538992 0.023782885 -0.08469914 -0.037840497 9.065929e-05 0.124130145 0.060691472
0.10398664 -0.1403005 0.00042534884 -0.015684068 -0.14337361 -0.076443814 0.12575719 -0.094207935
0.082112685 0.12772274 -0.055362113 0.12739965 -0.09105143 -0.0060426765 0.037883345 -0.15826598
0.08059953 -0.07328731 0.0144111905 0.015565137 0.045273654 0.14482315 -0.059782002 0.047888957
0.06801805 0.016207451 0.10632086 -0.018747317 0.06273267 0.021435255 0.102330975 -0.050868627
-0.12267851 0.05033567 0.12609436 -0.047668293 0.023323148 -0.076093465 0.1472156 0.05260123
-0.0024335443 0.024022339 0.09748851 -0.14534514 0.07033503 0.0236871 0.021892102 0.034931608
0.1585267 -0.08357347 -0.07360168 -0.071919724 0.024438567 -0.030627035 -0.041769482 -0.11521809
-0.050070226 -0.13483536 0.067652315 0.06648878 0.0029903518 0.06902937 -0.12768936 -0.021380339
0.14897235 -0.11153452 0.022886833 0.16792832 0.04724891 -0.13233596 -0.16755226 -0.025370875
-0.07969282 -0.09071007 -0.12552923 -0.13413264 -0.088888824 0.1425646 0.04610159 -0.037720446
-0.039304197 0.061198976 -0.09062583 0.051242266 0.16252494 0.07054067 -0.016443506 0.023370057
0.022357859 0.07453887 0.067090765 0.14700325 -0.087616235 -0.058843587 0.06661352 0.110414654
0.10255385 -0.016286427 0.09253823 -0.114047155 -0.051539477 0.0030666734 -0.12577493 -0.007132361
-0.09485075 -0.0183631 0.10187367 0.021773407 -0.12276437 -0.017871244 -0.045551725 -0.020924048
-0.05714393 -0.114696145 0.06277868 -0.023805117 0.07356015 0.1536458 0.048160415 0.14985575
0.17622177 0.03072204 -0.13579305 0.046663508 -0.1292985 -0.063354075 -0.07756382 0.088124305
0.004965819 0.15180843 0.063568 0.021845413 0.04276479 -0.043628544 0.13320403 0.07922815
-0.017353479 -0.045404136 -0.10579218 0.010718691 0.22486618 0.092425965 0.21038651 -0.04113783
-0.20339194 -0.27435768 0.033316687 0.23804158 -0.11021291 -0.17030774 0.14537814 0.23044498
0.08533553 -0.19609743 0.07866829 0.16056317 -0.10777891 0.034303516 -0.011902293 -0.20340401
0.12307315 0.19715738 0.0074586477 -0.11732676 0.039404087 0.13327256 -0.088191815 -0.19080582
-0.03724162 -0.22602896 0.06828807 -0.031347163 -0.07596213 0.1104474 0.069959134 -0.21768966
0.025474539 -0.18702519 -0.10503849 0.0028195174 0.053931028 0.031281475 -0.072210126 0.048355516
0.2255154 0.04655711 -0.18359156 -0.062335063 -0.37450978 0.0011088626 0.04607273 0.046666257
-0.10842817 0.19566944 -0.016129944 -0.24305859 -0.2587903 0.20455176 0.20419192 -0.009986109
00000000: e3ab 6bbd f44d 0f3e 8d44 7a3c 99b6 c93d
00000010: c8d4 8cbd 9b51 78bd f0b1 163e 9368 75bd
00000020: fd56 5d3d c393 63bd f2fb 533d 4277 723d
00000030: b551 2bbe 1c15 a8bc 47da 8bbc 61ee 6cbd
00000040: 2810 b839 6c90 9cbb 23dc 83bc 7be8 d43d
00000050: e845 ca3d d419 cbbd e7bd b83d e12f 8abd
00000060: 133d 9dbd a0e2 ba3c 55d4 0dbd 7d60 08be
00000070: d169 22bb 916e af3d e9bb 84bd 5a00 84bd
00000080: f8f7 983d 1409 013d 2906 56bd a9c2 80bd
00000090: 1443 edbc 916d e63c 3591 74bd d2eb e4bd
000000a0: 5ee3 07be c844 e1bc 2ebb 7a3d 1be1 fabd
000000b0: 3f9c 0a3e 1e31 0cbd b5db 01be ca21 a23d
000000c0: 5427 453d 10db 1dbd 53d4 c23c be76 adbd
000000d0: a3fe 1abd 5620 be38 f237 fe3d 9f97 783d
000000e0: f3f6 d43d efaa 0fbe 5b01 df39 e07b 80bc
000000f0: 88d0 12be 938e 9cbd 7ec6 003e 17f0 c0bd
00000100: b22a a83d c0c9 023e 62c3 62bd 0e75 023e
00000110: 2c79 babd a501 c6bb 912b 1b3d 7a10 22be
00000120: 5e11 a53d a817 96bd ea1c 6c3c eb04 7f3c
00000130: de70 393d 854c 143e f9dd 74bd 3627 443d
00000140: 0c4d 8b3d 7dc5 843c c0be d93d f993 99bc
00000150: fc79 803d fd98 af3c e792 d13d 9f5b 50bd
00000160: df3e fbbd c72c 4e3d e11e 013e d43f 43bd
00000170: 3010 bf3c e4d6 9bbd b0bf 163e 6374 573d
00000180: 197c 1fbb 7fca c43c 0ea8 c73d 5bd5 14be
00000190: d00b 903d 730b c23c 1157 b33c 7214 0f3d
000001a0: d354 223e 9128 abbd 7abc 96bd a64a 93bd
000001b0: 6433 c83c 8ce5 fabc 7a16 2bbd 76f7 ebbd
000001c0: 7016 4dbd 4812 0abe 4c8d 8a3d 452b 883d
000001d0: c7f9 433b 455f 8d3d 00c1 02be d225 afbc
000001e0: 358c 183e 366c e4bd 2b7d bb3c 67f5 2b3e
000001f0: 1388 413d 1483 07be d292 2bbe 95d6 cfbc
00000200: fd35 a3bd 34c6 b9bd bc8a 00be 115a 09be
00000210: 580b b6bd 74fc 113e 05d5 3c3d c180 1abd
00000220: 70fd 20bd c7ab 7a3d 099a b9bd 69e3 513d
00000230: f06c 263e a077 903d 88b4 86bc 9072 bf3c
00000240: d427 b73c d6a7 983d e266 893d 0588 163e
00000250: 2470 b3bd f905 71bd ab6c 883d 1421 e23d
00000260: c107 d23d 1d6b 85bc af84 bd3d 8e91 e9bd
00000270: 0f1b 53bd 3efa 483b 25cb 00be 95b6 e9bb
00000280: 1c41 c2bd 366e 96bc 25a3 d03d 255e b23c
00000290: e36b fbbd b766 92bc 7294 3abd e968 abbc
000002a0: c10f 6abd d0e5 eabd 1c92 803d f302 c3bc
000002b0: b4a6 963d 5355 1d3e db43 453d c973 193e
000002c0: 7b73 343e caac fb3c 550d 0bbe 3c22 3f3d
000002d0: d366 04be c8bf 81bd c8d9 9ebd 847a b43d
000002e0: 4fb8 a23b ab73 1b3e f12f 823d 27f5 b23c
000002f0: 222a 2f3d d8b3 32bd a366 083e 5e42 a23d
00000300: e228 8ebc b0f9 39bd 92a9 d8bd 739d 2f3c
00000310: 5243 663e d349 bd3d 906f 573e 2480 28bd
00000320: fa45 50be 9c78 8cbe 1477 083d 2cc1 733e
00000330: 4eb7 e1bd 2765 2ebe 02de 143e c5f9 6b3e
00000340: 65c4 ae3d c4cd 48be d71c a13d ac6a 243e
00000350: 30bb dcbd d881 0c3d d601 43bc 2449 50be
00000360: c70d fc3d a0e3 493e ac67 f43b 0349 f0bd
00000370: 2e66 213d 9a78 083e e99d b4bd 9a62 43be
00000380: ab8a 18bd 2374 67be 9eda 8b3d e265 00bd
00000390: 0992 9bbd 3f32 e23d bc46 8f3d 0aea 5ebe
000003a0: fbaf d03c 8883 3fbe 6b1e d7bd a7c7 383b
000003b0: c8e6 5c3d 0121 003d e7e2 93bd 6f10 463d
000003c0: 82ed 663e abb2 3e3d 6dff 3bbe 0d53 7fbd
000003d0: bfbf bfbe 4157 913a c2b6 3c3d 1e25 3f3d
000003e0: 970f debd 925d 483e f222 84bc 5ae4 78be
000003f0: 2a80 84be 0476 513e b017 513e c79c 23bc

lstm.weight_hh_l1 f4 [256, 64]
-0.012377487 0.14264546 0.062047563 0.075683735 -0.079821974 0.0043153875 -0.13359696 0.037744585
0.04799905 0.06864121 0.021406969 -0.07000387 0.031193085 0.03434793 -0.11102787 -0.07981772
-0.057995915 -0.010597851 -0.017487727 0.08279036 0.09893077 0.028332815 0.07908634 -0.018903181
-0.056348126 0.07237311 -0.038466677 0.063910164 -0.049251415 -0.11460995 0.017563088 -0.049830362
-0.019182418 -0.0009846116 0.06659367 0.10419236 -0.07068273 0.08713744 0.0024120552 -0.09876091
0.09409036 -0.13277291 -0.07306492 0.066440225 -0.012608524 -0.087199 -0.103804715 0.053122632
-0.13754264 0.023858773 0.01556175 -0.12841213 -0.10546349 -0.040092558 0.07543188 0.008741365
0.008871662 0.054103427 -0.1213082 -0.09828669 0.023033999 -0.032339137 0.097737476 0.06826477
0.013985841 0.04943564 -0.043068398 0.103354 -0.05215775 0.10894034 -0.07148252 0.11876773
-0.03116531 -0.06270875 -0.030102834 -0.007963485 -0.056277093 -0.064101525 0.02562312 0.07025009
-0.05137482 -0.017712526 -0.09960658 -0.12702765 0.09307045 -0.08301943 0.08693598 0.017023765
-0.03397504 -0.05034891 0.16124938 0.1536089 -0.008025673 0.043278698 -0.05180678 0.07165883
-0.08375009 -0.020906318 0.07924056 0.046294346 0.06729795 0.024957294 -0.09669223 0.09602407
0.11275092 0.11124748 -0.010843995 0.015291344 0.055869587 -0.13232338 -0.0897798 -0.029718421
0.12356651 0.05064665 0.07204701 -0.116794325 -0.10305513 0.017318381 0.020421484 0.047325425
-0.0089636985 -0.05466285 0.048716277 -0.0023541576 0.0062548206 -0.10800236 0.03374777 -0.12029903
0.063094094 0.1206593 -0.02899901 -0.05827574 0.06779821 -0.028495267 0.016826237 -0.06905761
-0.02649337 0.12196893 -0.018125257 -0.09956038 0.03085097 0.0523539 0.005777378 -0.020695282
-0.018625077 -0.08095071 -0.045280118 0.11832845 -0.09745121 0.131587 0.10942622 -0.06459257
0.09959414 0.051391292 -0.08164265 0.09524306 0.09047653 0.0792059 -0.12329471 -0.07395659
0.13183789 -0.008006699 -0.116305314 0.019614244 -0.025499756 -0.08934973 0.096542746 0.11554114
0.10455928 -0.045126915 0.0027952476 -0.10742358 -0.011427198 -0.07541969 0.08658385 -0.08544009
0.06824526 -0.10206629 -0.11191637 0.08973782 -0.03903777 -0.13213953 0.08890567 0.107937716
-0.038124193 0.12242769 -0.009871915 0.0074380375 -0.079114184 -0.009342245 -0.105903186 0.10865363
0.079544805 0.1443794 0.20319252 -0.16776283 0.013834716 -0.0031938488 -0.074151404 -0.07278743
0.18998326 0.15772067 -0.26623452 0.06959646 0.13791636 -0.19014813 -0.026269503 -0.02146378
-0.18417102 -0.05838748 0.1306784 0.17263576 -0.13180318 0.08717783 0.12729979 -0.094303675
-0.059461508 -0.08083123 -0.11595325 -0.13499148 -0.14716525 0.0344261 -0.16231158 -0.23514315
0.17927541 -0.0092916805 -0.058270887 0.2073274 0.058594123 -0.1794552 0.22884591 -0.30425394
-0.18825759 -0.19806343 -0.26436484 -0.17276715 -0.2503201 0.0032547663 -0.21475108 0.1859324
-0.12911458 -0.042354867 -0.20960559 -0.12907709 -0.00917105 0.0581496 0.19707444 -0.020883728
-0.13356142 0.08986649 -0.108017825 -0.21168128 -0.22003014 0.08201499 0.050251454 0.20749028
00000000: f1ca 4abc a711 123e 9625 7e3d 1300 9b3d
00000010: b479 a3bd 1868 8d3b a4cd 08be 119a 1a3d
00000020: a79a 443d c393 8c3d ab5d af3c 305e 8fbd
00000030: a488 ff3c 6ab0 0c3d 9462 e3bd 7977 a3bd
00000040: 208d 6dbd 9ca2 2dbc 6c42 8fbc fe8d a93d
00000050: 379c ca3d 381a e83c 05f8 a13d d8da 9abc
00000060: 4bcd 66bd 5a38 943d 3c8f 1dbd 55e3 823d
00000070: dabb 49bd 9fb8 eabd 77e0 8f3c ec1a 4cbd
00000080: 7224 9dbc 150e 81ba 4362 883d ce62 d53d
00000090: 1bc2 90bd 1d75 b23d 9213 1e3b 2943 cabd
000000a0: 72b2 c03d 9ff5 07be 10a3 95bd d011 883d
000000b0: fc93 4ebc 6495 b2bd 9197 d4bd 1e97 593d
000000c0: fad7 0cbe 7973 c33c b6f6 7e3c 787e 03be
000000d0: 3efd d7bd 1838 24bd 087c 9a3d f137 0f3c
000000e0: 735a 113c 8e9b 5d3d 6f70 f8bd 884a c9bd
000000f0: ccb1 bc3c 0b76 04bd 962a c83d 66ce 8b3d
00000100: de24 653c 077d 4a3d 7d68 30bd 43ab d33d
00000110: 5da3 55bd 1d1c df3d 6d65 92bd 7f3c f33d
00000120: 644e ffbc 726d 80bd 389a f6bc 4779 02bc
00000130: cf82 66bd a947 83bd 94e7 d13c 47df 8f3d
00000140: 676e 52bd dc19 91bc 89fe cbbd 8913 02be
00000150: b89b be3d 1706 aabd 7e0b b23d 6c75 8b3c
00000160: 6929 0bbd a93a 4ebd 8f1e 253e a74b 1d3e
00000170: 1d7e 03bc 0145 313d 5933 54bd ddc1 923d
00000180: 2b85 abbd ba43 abbc e048 a23d 249f 3d3d
00000190: 82d3 893d 3d73 cc3c 9306 c6bd 45a8 c43d
000001a0: f4e9 e63d b8d5 e33d 03ab 31bc 8c88 7a3c
000001b0: 82d7 643d c87f 07be 79de b7bd 0c74 f3bc
000001c0: 7010 fd3d dd72 4f3d 628d 933d dd31 efbd
000001d0: 910e d3bd 47df 8d3c f54a a73c 4ed8 413d
000001e0: 7adc 12bc 27e6 5fbd b88a 473d 3648 1abb
000001f0: 3df5 cc3b 5730 ddbd 1a3b 0a3d 565f f6bd
00000200: 7a37 813d 391c f73d 558f edbc 8bb2 6ebd
00000210: cad9 8a3d e86e e9bc 2dd7 893c 146e 8dbd
00000220: a008 d9bc d9ca f93d 6b7b 94bc 50e6 cbbd
00000230: 2cbb fc3c 0b71 563d 2950 bd3b 2789 a9bc
00000240: 9e93 98bc 7cc9 a5bd a577 39bd 3056 f23d
00000250: 8094 c7bd bebe 063e db1a e03d 1c49 84bd
00000260: 03f8 cb3d ad7f 523d 4334 a7bd cb0e c33d
00000270: c24b b93d b436 a23d f081 fcbd 8d76 97bd
00000280: 8300 073e 882e 03bc 7b31 eebd 0dae a03c
00000290: dde4 d0bc fefc b6bd 34b8 c53d d5a0 ec3d
000002a0: 2d23 d63d 00d7 38bd 7930 373b e500 dcbd
000002b0: 2439 3bbc a375 9abd e052 b13d 37fb aebd
000002c0: 2cc4 8b3d 2208 d1bd 6934 e5bd 76c8 b73d
000002d0: 12e6 1fbd 964f 07be 2d14 b63d 730e dd3d
000002e0: 1d28 1cbd 5ebb fa3d d0bd 21bc c8ba f33b
000002f0: 9e06 a2bd 3710 19bc c5e3 d8bd cb85 de3d
00000300: 63e8 a23d 32d8 133e b311 503e 05ca 2bbe
00000310: 01ab 623c e44f 51bb b1dc 97bd 9311 95bd
00000320: f98a 423e 8781 213e e44f 88be 9788 8e3d
00000330: f239 0d3e 31b6 42be 2433 d7bc cfd4 afbc
00000340: 5497 3cbe b627 6fbd 8fd0 053e 6ec7 303e
00000350: 6af7 06be 4a8a b23d e05a 023e 4922 c1bd
00000360: e98d 73bd d88a a5bd e678 edbd 353b 0abe
00000370: 7db2 16be 6202 0d3d 0235 26be 5ec9 70be
00000380: f993 373e 223c 18bc 74ad 6ebd a24d 543e
00000390: 6400 703d 1bc3 37be 9556 6a3e 2cc7 9bbe
000003a0: 99c6 40be 24d1 4abe d45a 87be dfe9 30be
000003b0: f529 80be eb4d 553b b5e7 5bbe 1065 3e3e
000003c0: 9d36 04be 4c7c 2dbd d9a2 56be c92c 04be
000003d0: 2c42 16bc 462e 6e3d e2cd 493e 5a14 abbc
000003e0: 53c4 08be ec0b b83d 7338 ddbd fac2 58be
000003f0: 954f 61be 7af7 a73d 78d4 4d3d 5578 543e

lstm.bias_ih_l1 f4 [256]
-0.0039065653 -0.13307159 0.016546523 0.01979117 -0.10921841 0.0146316625 -0.050821587 -0.052362937
-0.029688133 -0.054437414 0.0035652502 -0.084287316 0.118499935 0.071629755 -0.079510696 -0.03419167
0.06459236 -0.00054328813 0.07984848 0.1275744 0.1294343 0.04251546 -0.010933023 0.06864729
-0.006385238 -0.094235174 0.1314002 0.009245694 -0.095655374 0.08488705 0.0873871 -0.10378172
-0.03795989 -0.101872474 0.10982686 0.07555876 -0.004176636 0.06312492 0.025069902 0.053695966
-0.07368165 0.015915163 -0.10291128 0.12151124 0.01727454 0.09977876 -0.037989546 -2.6254653e-05
-0.09209111 -0.015610568 -0.032178786 0.11799108 -0.106595546 -0.061354946 0.10431752 -0.10396141
0.07289185 0.011427512 0.021889923 0.029859766 0.029819261 -0.0025153 -0.014224211 -0.010023748
-0.08711752 0.026004672 -0.024457606 0.013950604 0.07090992 -0.010441487 0.01688526 -0.029359212
0.028296176 0.1316999 -0.015364249 -0.07552413 0.0014418704 -0.013838677 0.03476783 0.111674786
0.11696075 0.010244955 -0.03143568 0.07513028 -0.0086261025 -0.015584489 -0.11649145 -0.05856367
-0.077033974 -0.071442485 0.10651493 -0.0042090677 -0.064086586 -0.0897936 -0.031912025 0.03363027
0.09636859 -0.084254324 0.13308774 0.10878446 0.084464066 0.10981375 0.035655387 0.0073440475
-0.05231722 0.041718125 0.089359365 0.005521288 0.030542137 0.0513849 -0.04472171 -0.015936099
0.01333168 -0.07653772 -0.06965773 0.09261315 -0.037075188 -0.11959834 0.034619104 0.056072813
-0.017073415 -0.08340008 -0.039771147 0.06581847 -0.07122571 -0.044901628 0.061504014 -0.11121813
-0.041490823 0.044527505 0.017092325 -0.03664141 -0.027530143 -0.10468391 0.030538924 0.0021145304
-0.07033888 0.12676838 -0.091209665 -0.01812289 0.10218473 -0.09103206 -0.11021653 0.0069503146
-0.068009734 -0.023228543 0.0027330942 0.10318042 -0.116253875 0.11197651 -0.09432861 0.020292392
0.07622419 -0.092434935 -0.09603248 -0.09666479 -0.12744696 -0.06484669 -0.017182892 0.03511647
0.12851587 -0.054065496 -0.11145751 0.037678443 0.118781805 -0.01882375 -0.060774982 -0.045399822
0.09878336 0.015608117 0.035401672 -0.027921502 -0.08615245 -0.09707065 -0.047238935 0.1118647
0.059797667 -0.030718513 -0.11618584 0.06279949 -0.05362503 0.021049842 -0.07819052 -0.0041722963
0.01670403 0.026237924 -0.08359727 0.102012984 0.043778334 0.042327326 0.038637314 -0.0767103
0.1050857 -0.13482395 0.13303714 0.016772179 -0.06632346 -0.09586034 -0.064066775 -0.0958809
-0.06724953 0.05217725 0.019955978 -0.07435697 0.010152717 0.123710886 0.0802285 -0.048306376
0.06344474 0.044736296 -0.039143793 0.0725242 0.107247464 0.12773237 -0.005309168 0.061408684
-0.01941127 0.03394008 -0.0059507214 0.0109921945 -0.100857615 0.03527199 0.101478994 -0.04858921
0.13703056 0.043346882 0.11354961 0.13916886 -0.057633575 0.111706614 -0.11099887 -0.12006447
-0.013024058 -0.12473532 0.02812035 -0.034001663 0.110544495 0.007858215 -0.041370634 0.09025549
-0.037126094 -0.0721702 -0.022255765 0.042380042 -0.03023203 -0.07567211 0.0036347571 0.056088947
-0.101721585 0.06311887 -0.004818899 0.044406272 0.10886581 0.08288187 0.08169537 -0.086863175
00000000: a502 80bb eb43 08be 938c 873c 1721 a23c
00000010: e7ad dfbd a4b9 6f3c 4c2a 50bd 857a 56bd
00000020: 8734 f3bc c4f9 5ebd f9a6 693b d49e acbd
00000030: 18b0 f23d 9fb2 923d 81d6 a2bd 910c 0cbd
00000040: 0049 843d 736b 0eba 9a87 a33d dda2 023e
00000050: 6d8a 043e b124 2e3d 6c20 33bc f396 8c3d
00000060: 423b d1bb 5ffe c0bd c68d 063e 407b 173c
00000070: f7e6 c3bd 43d9 ad3d 02f8 b23d 838b d4bd
00000080: d47b 1bbd 84a2 d0bd e8ec e03d 8dbe 9a3d
00000090: 2adc 88bb a347 813d 655f cd3c 4df0 5b3d
000000a0: 68e6 96bd 8460 823c 26c3 d2bd e3da f83d
000000b0: 5683 8d3c ce58 cc3d ed9a 1bbd 703d dcb7
000000c0: 449a bcbd 78c3 7fbc e7cd 03bd 4fa5 f13d
000000d0: c44e dabd 534f 7bbd 6da4 d53d b8e9 d4bd
000000e0: 5248 953d 763a 3b3c 7f52 b33c 789c f43c
000000f0: 8647 f43c bbd7 24bb aa0c 69bc a53a 24bc
00000100: ac6a b2bd c007 d53c 515b c8bc 1391 643c
00000110: 3839 913d c512 2bbc f552 8a3c bb82 f0bc
00000120: 62cd e73c 57dc 063e 55ba 7bbc 65ac 9abd
00000130: 24fd bc3a 9ebb 62bc b668 0e3d c0b5 e43d
00000140: 1e89 ef3d 75da 273c b3c2 00bd e7dd 993d
00000150: 7f54 0dbc 1656 7fbc 1293 eebd 75e0 6fbd
00000160: fdc3 9dbd 7050 92bd 8024 da3d 38ec 89bb
00000170: d43f 83bd b5e5 b7bd 2fb6 02bd e5bf 093d
00000180: e55c c53d 888d acbd 2748 083e 63ca de3d
00000190: 7ffb ac3d 08e6 e03d 620b 123d 56a6 f03b
000001a0: 954a 56bd a0e0 2a3d 0b02 b73d eceb b43b
000001b0: 8133 fa3c f978 523d 1d2e 37bd 6c8c 82bc
000001c0: 1e6d 5a3c cfbf 9cbd b6a8 8ebd f7ab bd3d
000001d0: 27dc 17bd f9ef f4bd c3cc 0d3d 9bac 653d
000001e0: 8cdd 8bbc a9cd aabd 12e7 22bd d6cb 863d
000001f0: c9de 91bd c5ea 37bd a2eb 7b3d 55c6 e3bd
00000200: 48f2 29bd 7962 363d 3405 8c3c 4e15 16bd
00000210: e586 e1bc 8564 d6bd c42c fa3c ef93 0a3b
00000220: d50d 90bd 92cf 013e 22cc babd 7476 94bc
00000230: 3a46 d13d 046f babd 34b9 e1bd 77bf e33b
00000240: b048 8bbd c949 bebc b61d 333b 4250 d33d
00000250: 8316 eebd f153 e53d 5c2f c1bd 3b3c a63c
00000260: 6e1b 9c3d 874e bdbd adac c4bd 30f8 c5bd
00000270: 7581 02be 57ce 84bd 23c3 8cbc 4ad6 0f3d
00000280: aa99 033e c873 5dbd d643 e4bd b654 1a3d
00000290: e043 f33d 4434 9abc 30ef 78bd 2af5 39bd
000002a0: ee4e ca3d 30b9 7f3c 5801 113d a2bb e4bc
000002b0: b270 b0bd facc c6bd 9d7d 41bd 5219 e53d
000002c0: 66ee 743d 64a5 fbbc d7f2 edbd 059d 803d
000002d0: eba5 5bbd b870 ac3c 5a22 a0bd c2b7 88bb
000002e0: e4d6 883c eaf0 d63c 0c35 abbd 2fec d03d
000002f0: e950 333d 6b5f 2d3d 2942 1e3d 4a1a 9dbd
00000300: 2c37 d73d 4a0f 0abe e33a 083e cf65 893c
00000310: 98d4 87bd 6d52 c4bd 7135 83bd 355d c4bd
00000320: 1fba 89bd d0b7 553d b87a a33c 7848 98bd
00000330: 9557 263c 225c fd3d d74e a43d e8dc 45bd
00000340: 51ef 813d 683d 373d 3e55 20bd 9187 943d
00000350: 8fa4 db3d 46cc 023e 87f8 adbb ac87 7b3d
00000360: 6204 9fbc c104 0b3d 45fe c2bb 9b18 343c
00000370: 708e cebd 5d79 103d 38d4 cf3d 7b05 47bd
00000380: bd51 0c3e 808c 313d b38c e83d 4882 0e3e
00000390: 2f11 6cbd 70c6 e43d 6053 e3bd 5ce4 f5bd
000003a0: dc62 55bc 3b75 ffbd a65c e63c 5445 0bbd
000003b0: 2765 e23d bebf 003c 4174 29bd dfd7 b83d
000003c0: 8811 18bd f8cd 93bd b951 b6bc b296 2d3d
000003d0: 2aa9 f7bc fbf9 9abd 1b35 6e3b 86bd 653d
000003e0: 6853 d0bd 7744 813d dbe7 9dbb 5ae3 353d
000003f0: 0af5 de3d f8bd a93d e74f a73d 52e5 b1bd
