crypto_models/AVAX_USD_lstm.pth (torch, 206117 bytes, 9 tensors)

lstm.weight_ih_l0 f4 [256, 1]
0	0x3d95ec88	0.073205054
1	0x3c8f3123	0.017479485
2	0x3e204a21	0.15653278
3	0x3d3c6b6f	0.046000894
4	0xbd60e2dc	-0.05490385
5	0xbcb3f476	-0.021967154
6	0x3ca0731f	0.019586144
7	0x3abc4f4b	0.0014366893
8	0x3db05e0b	0.08611687
9	0xbc2e1e08	-0.010627277
10	0xbcc06193	-0.023484027
11	0x3e2e51a0	0.17023325
12	0x3de3a169	0.11114771
13	0x3d88db73	0.066824816
14	0x3db72ab4	0.08943692
15	0xbc2502aa	-0.010071436
16	0xbd1c71a2	-0.038194306
17	0x3e32a642	0.17446235
18	0x3d6dac23	0.05802549
19	0xbd9cf609	-0.07664115
20	0xbce81a5b	-0.02833288
21	0xbcf45961	-0.029827775
22	0x3e18f53e	0.14937302
23	0x3dad75b7	0.08469718
24	0xbd98d135	-0.07461778
25	0x3daba6d6	0.08381431
26	0xbce75f09	-0.028243558
27	0xbc62520d	-0.013813508
28	0xbd6f3cc1	-0.05840755
29	0x3de80447	0.11328941
30	0xbb89230b	-0.0041850857
31	0xbd267744	-0.040641084
32	0x3e1424b7	0.1446713
33	0xbdbdf2f9	-0.09274859
34	0x3c952309	0.018205183
35	0xbdd4965c	-0.10380241
36	0x3d233128	0.0398418
37	0xbca4a467	-0.020097924
38	0xbd28cdc6	-0.041211866
39	0x3e2c416c	0.16821831
40	0x3d9d7002	0.076873794
41	0xbd276632	-0.040868945
42	0x3dfeef8a	0.12448032
43	0x3c7098fd	0.014684913
44	0xbd9849c5	-0.074359454
45	0xbd878def	-0.066188686
46	0xbd517972	-0.05114121
47	0x3d10e546	0.035374902
48	0x3d22ea5b	0.03977428
49	0xbd1dcea2	-0.03852714
50	0xbcc1828f	-0.023621826
51	0xbc82efc3	-0.015983468
52	0x3e056e19	0.1303028
53	0xbafa7026	-0.0019106909
54	0xbd7f9081	-0.06239367
55	0xbd619e42	-0.055082567
56	0x3d88070c	0.06641969
57	0xbd8ea7df	-0.069656126
58	0xbd8f6698	-0.0700199
59	0x3df8501a	0.12124653
60	0x3db65ea5	0.08904771
61	0xbda75065	-0.08169631
62	0x3d7b8932	0.061410137
63	0xbcb86fc9	-0.02251424
64	0xbc4ee534	-0.0126278885
65	0x3e172b5f	0.14762639
66	0xbd1d9cb4	-0.038479522
67	0x3d488410	0.04895407
68	0x3d150444	0.03638102
69	0xbd871168	-0.06595117
70	0xbca66980	-0.020313978
71	0x3b0790b3	0.0020685613
72	0xbd9474b5	-0.072488226
73	0x3bd688e5	0.006547081
74	0x3c6af6ba	0.014341051
75	0x3e3af40b	0.18257158
76	0x3d04f261	0.032457713
77	0x3ad44d32	0.0016197322
78	0xbb0c18e0	-0.0021377131
79	0x3e0f338b	0.13984506
80	0x3d330a14	0.043710783
81	0xbd948f01	-0.07253838
82	0x3deb4e6e	0.11489569
83	0x3d870a11	0.06593717
84	0x3ca3f1f4	0.020012833
85	0xbd843e09	-0.06457145
86	0xbd75b079	-0.05998275
87	0xbc9f220b	-0.019425413
88	0xbd279683	-0.040915024
89	0x3e0ad871	0.13559128
90	0x3d92b0de	0.07162641
91	0xbde6a3c0	-0.112617016
92	0x3d60bceb	0.054867666
93	0xbd3cfca0	-0.04613936
94	0xbdb5445b	-0.088509284
95	0x3e156316	0.1458858
96	0x3e00e922	0.12588933
97	0xbd3a6b23	-0.04551233
98	0x3c7d8a88	0.015474923
99	0x3d121f66	0.035674475
100	0x3d850b46	0.06496291
101	0x3e10a297	0.14124523
102	0xbdeb45e7	-0.11487942
103	0x3d17e704	0.037085548
104	0xbcbe997a	-0.023266543
105	0x3d6076a4	0.054800645
106	0xbd95acca	-0.073083475
107	0xbd9a46b3	-0.07533016
108	0x3c519470	0.012791738
109	0x3d6bd01b	0.05757151
110	0xbb53913f	-0.0032282618
111	0xbd01f784	-0.03173019
112	0x3dc45e8b	0.09588345
113	0x3d6405a1	0.05566943
114	0xbd3faa6f	-0.046793398
115	0x3e0c20a6	0.1368433
116	0xbd2f0920	-0.04273331
117	0xbd1fcc45	-0.039013166
118	0x3ddd2789	0.10798556
119	0x3d0e5704	0.034750953
120	0x3e151eb5	0.14562495
121	0x3d9fb301	0.07797814
122	0xba45a825	-0.0007540009
123	0xbd0ed478	-0.034870595
124	0xbc2ac546	-0.01042301
125	0x3d80e68c	0.06293973
126	0xbd07494b	-0.033028882
127	0x3c61e2aa	0.013786951
128	0xbe2f0973	-0.17093448
129	0xbc3a459b	-0.011369134
130	0x3e261dce	0.16222307
131	0xbd9d98df	-0.076951735
132	0xbe201c83	-0.15635876
133	0x3de40e6a	0.11135562
134	0x3e2087ff	0.15676878
135	0xbdf2d68e	-0.11857329
136	0x3c2169b0	0.009851858
137	0xbe103c47	-0.14085494
138	0xbc64cc9f	-0.013964801
139	0x3e2dd0cb	0.1697418
140	0x3c089a5d	0.008337584
141	0xbd243395	-0.040088255
142	0x3e039a43	0.12851815
143	0xbdf2b53d	-0.11850975
144	0x3cd23fcd	0.025665188
145	0xbe1b2d44	-0.15153986
146	0x3d2dcd08	0.04243186
147	0x3de7ad58	0.113123596
148	0x3b880f37	0.0041522044
149	0x3d96217a	0.07330604
150	0x3e071eb2	0.13195303
151	0xbd7e1f0a	-0.06204132
152	0xbe05003c	-0.1298837
153	0xbe2e6f95	-0.17034753
154	0xbd5c4b79	-0.053782914
155	0x3d858f79	0.06521506
156	0xbdf3f5ca	-0.11912115
157	0xbe004f86	-0.12530336
158	0x3dec31ba	0.11532922
159	0xbd888ecf	-0.066678636
160	0xbe240cda	-0.16020527
161	0xbdb22cd7	-0.08699959
162	0x3e057751	0.13033797
163	0xbce2fdd2	-0.027708922
164	0xbdadc606	-0.084850356
165	0x3e2491a6	0.16071185
166	0xbdc292f5	-0.09500686
167	0x3e04dbce	0.12974474
168	0x3dea6c97	0.11446493
169	0xbd979346	-0.07401137
170	0x3bfdf552	0.0077501917
171	0xbe1064b4	-0.14100915
172	0xbd41447b	-0.04718445
173	0x3c12473b	0.0089281155
174	0x3e012db6	0.12615094
175	0x3e057a91	0.13035037
176	0xbd935828	-0.07194549
177	0xbe27325f	-0.16327809
178	0x3d97fec1	0.07421637
179	0xbe0d0a60	-0.13773489
180	0xbe1d52e5	-0.15363653
181	0x3d518c27	0.05115905
182	0x3dbf64c5	0.09345392
183	0x3d97153c	0.07377097
184	0x3dd95455	0.10611788
185	0xbc7112cb	-0.014713953
186	0xbd9b94d7	-0.07596748
187	0x3b4d738a	0.0031349384
188	0x3df30832	0.118667975
189	0xbdb37f3f	-0.08764505
190	0x3d0a5d3f	0.033780333
191	0xbcde7dd3	-0.027159607
192	0x3b4c5c64	0.0031182999
193	0x3dc56c26	0.09639768
194	0x3e06d18c	0.13165873
195	0xbdb44a3e	-0.08803223
196	0x3dcbac77	0.099450044
197	0xbe392aed	-0.18082781
198	0x3c980591	0.018557342
199	0x3d960d92	0.07326807
200	0xbc2ef403	-0.010678294
201	0x3e0ae4ce	0.13563845
202	0x3d7ac22f	0.061220344
203	0x3de190b9	0.11013932
204	0x3cddd530	0.027079195
205	0xbe0c3939	-0.13693704
206	0xbd1165d6	-0.03549751
207	0x3e1289b4	0.14310342
208	0x3ddfe757	0.109327964
209	0x3db00800	0.08595276
210	0x3dc4cd3c	0.09609458
211	0x3de6da1f	0.11272072
212	0x3e2bab7d	0.16764636
213	0xbc5981e7	-0.0132756
214	0x3e2878c0	0.16452312
215	0x3dd40a46	0.10353522
216	0xbd87c4b5	-0.06629316
217	0x3dabc6db	0.08387538
218	0xbd7f202e	-0.06228655
219	0x3d24f9c1	0.040277246
220	0x3d169965	0.036767382
221	0x3cc362c7	0.023850812
222	0x3cc729d4	0.024311937
223	0xbbb72118	-0.005588662
224	0xbd819616	-0.06327455
225	0xbd389b9b	-0.045070272
226	0x3d918133	0.07104721
227	0xba22432b	-0.00061898184
228	0x3d0d6e2c	0.034528896
229	0x3d9e20b8	0.07721084
230	0xbe53a7bf	-0.20669459
231	0x3bb83387	0.005621377
232	0x3dbe2eb8	0.09286255
233	0xbd93ed7b	-0.0722303
234	0x3d9bc2a9	0.07605488
235	0xbe2efe6e	-0.17089245
236	0x3c48dcec	0.012259703
237	0x3d14f629	0.03636757
238	0xbd8b7d43	-0.06811001
239	0x3df8fdd6	0.1215779
240	0xbce6f582	-0.02819324
241	0x3d34d762	0.044150718
242	0x3dd68781	0.10475064
243	0x3e02e576	0.12782845
244	0x3e1f2d0f	0.15544532
245	0xbcaac58e	-0.020846155
246	0x3d6e386e	0.058159284
247	0x3da6232d	0.08112178
248	0xbd453ef3	-0.048155736
249	0x39b508e3	0.0003452963
250	0x3dc81f23	0.09771564
251	0xbd727622	-0.05919469
252	0x3d1980c0	0.0374763
253	0x3cdfee8c	0.027335428
254	0x3cf8e3c1	0.030382039
255	0x3d31f099	0.043442342

lstm.weight_hh_l0 f4 [256, 64]
0	0x3dbc7f21	0.092039354
1	0xbdd0d9dd	-0.10197804
2	0x3d64df3d	0.05587696
3	0x3c96da0b	0.018414518
4	0x3db33367	0.087500386
5	0xbd966f5e	-0.0734546
6	0xbd1e6d29	-0.038678322
7	0xbd75f6f4	-0.060049966
8	0x3d8dc027	0.06921416
9	0xbdd8c639	-0.10584683
10	0x3d1c4a0e	0.03815656
11	0x3de898c3	0.11357262
12	0x3daab985	0.08336166
13	0x3dc9357e	0.09824656
14	0xbcbc0c1d	-0.022954995
15	0x3d720cfa	0.059094407
16	0xbe1b8631	-0.15187909
17	0xbc1cdd8a	-0.009574303
18	0x3cf60a35	0.030034164
19	0xbd499dca	-0.049222745
20	0x3d36eb58	0.044658035
21	0x3dca7f04	0.098875076
22	0xbd1535a5	-0.036428113
23	0xbcfef05f	-0.031120477
24	0x3cb4e4fe	0.022081848
25	0x3d836faa	0.064177826
26	0x3e26553f	0.16243456
27	0xbdd46178	-0.10370153
28	0xbcb418bc	-0.02198445
29	0xbd1879b1	-0.03722543
30	0x3d45231d	0.04812919
31	0xbe073775	-0.13204749
32	0x3c79630a	0.015221367
33	0x3e076621	0.13222553
34	0x3dca7803	0.09886172
35	0xbb99c045	-0.00469211
36	0x3d7e6f76	0.062118016
37	0x3d5e22aa	0.054232277
38	0x3e86252c	0.26200235
39	0x3d7e39f4	0.062066987
40	0xbdaf845b	-0.08570167
41	0x3d9abd90	0.075556874
42	0x3d9879de	0.07445119
43	0x3db2b0e5	0.08725146
44	0x3cb9dcb1	0.022688242
45	0x3dde92ed	0.108678676
46	0x3db492aa	0.088170364
47	0x3e13f48c	0.14448756
48	0xbe26e810	-0.16299462
49	0xbc79b3ea	-0.015240649
50	0xb9870f21	-0.00025760478
51	0xbcbd752a	-0.023127157
52	0xbd74f7cd	-0.059806634
53	0xbdbd8c4e	-0.092552766
54	0xbdca4e9e	-0.09878276
55	0x3dafc6b8	0.085828245
56	0x3d6b38c5	0.057427187
57	0xbd21ed47	-0.039532926
58	0xbdfac553	-0.12244668
59	0x3db08bb4	0.08620396
60	0x3daf5041	0.08560229
61	0xbdb86386	-0.090033576
62	0xbd7753b1	-0.06038255
63	0xbc26845f	-0.010163396
64	0xbde43f3b	-0.11144873
65	0x3d078600	0.033086777
66	0xbcaa26ab	-0.020770391
67	0xbd30dd79	-0.043179963
68	0x3b26f03c	0.002547278
69	0x3e01185f	0.12606953
70	0x3d96aca9	0.07357151
71	0x3b3043b7	0.002689583
72	0x3cc83f47	0.024444235
73	0xbdcebf2d	-0.10095058
74	0xbde27d64	-0.110590726
75	0x3c80e7d9	0.015735554
76	0x3de4f8fb	0.11180302
77	0xbc8882bf	-0.016663907
78	0x3dd0e77c	0.10200402
79	0xbe002ca0	-0.12517023
80	0xbddd863a	-0.10816617
81	0xbc9b0c7f	-0.018926857
82	0x3db2abc1	0.08724166
83	0x3d7ae028	0.06124893
84	0x3da6114e	0.08108769
85	0x3cc4e8ed	0.024036849
86	0xbd312a0b	-0.043252986
87	0xbde6ba8b	-0.11266049
88	0x3cd05f97	0.025436206
89	0x3c7ca7b3	0.015420842
90	0x3d4c3835	0.04985829
91	0x3b232224	0.0024892176
92	0x3d72069b	0.05908833
93	0xbd14c6fe	-0.036322586
94	0xbdd249b0	-0.10267961
95	0xbdaedd25	-0.08538274
96	0xbe0546ff	-0.13015364
97	0x3dba3e85	0.09093956
98	0x3df28b0d	0.11842928
99	0xbde2b0b7	-0.11068862
100	0x3dce0a78	0.100605905
101	0xbd6ef5ed	-0.05834
102	0xbcd991bf	-0.026558755
103	0x3dd92e00	0.10604477
104	0x3db21c75	0.08696834
105	0xbdba6bff	-0.0910263
106	0xbd0c30db	-0.03422628
107	0xbdd2afac	-0.10287413
108	0xbd689aa2	-0.056788094
109	0xbddd3f36	-0.10803072
110	0x3d81d9c0	0.06340361
111	0xbbc5ea91	-0.0060399254
112	0xbd9c4f07	-0.07632261
113	0xbc9c5e94	-0.019088067
114	0x3c8c9492	0.017160688
115	0x3cf3de38	0.029769048
116	0xbe112003	-0.14172368
117	0x3ce8b23a	0.028405298
118	0x3df28e76	0.118435785
119	0xbd7573ae	-0.059924774
120	0x3dbfcb5c	0.093649596
121	0xbd8cef7e	-0.06881617
122	0xbd986814	-0.07441726
123	0x3de801d6	0.11328475
124	0x3e110dbc	0.14165395
125	0x3ca315a4	0.01990778
126	0xbe044d8f	-0.12920211
127	0xbcea8be3	-0.028631156
128	0xbdd654cf	-0.10465395
129	0x3dca76d0	0.09885943
130	0x3dbedaab	0.09319051
131	0x3d3bbaea	0.045832552
132	0xbc3df534	-0.0115941055
133	0x3dd62e62	0.104580656
134	0xbd1daf6b	-0.03849737
135	0x3c9d0cc2	0.019171122
136	0x3d0f8a89	0.035044227
137	0xbd94ecb7	-0.07271712
138	0xbdc87228	-0.097873986
139	0x3df738dd	0.12071393
140	0xbcb4b051	-0.02205673
141	0x3d50feff	0.051024433
142	0xbc857ab4	-0.016293861
143	0xbd8fc701	-0.07020379
144	0xbdfeed0b	-0.12447556
145	0xbe16f90d	-0.14743443
146	0xbcd61a74	-0.02613566
147	0xbdbcefa0	-0.09225392
148	0x3e0180ef	0.1264684
149	0xbb57961c	-0.0032895869
150	0x3d9d7d1a	0.07689877
151	0x3c88ab9f	0.016683398
152	0x3c83a48d	0.016069675
153	0x3d0e05aa	0.03467337
154	0xbceb3287	-0.028710617
155	0x3daa8275	0.08325664
156	0xbd0f3364	-0.03496112
157	0x3b6aeee6	0.003584796
158	0xbd0b72b6	-0.034044944
159	0xbda1c162	-0.07898213
160	0xbd7ec13f	-0.062196013
161	0xbe14efbe	-0.1454458
162	0xbd2989bd	-0.041391123
163	0xbd870616	-0.06592958
164	0xbe01f67b	-0.12691681
165	0x3cd6d116	0.026222747
166	0xbd2b50c8	-0.041825086
167	0x3d2bffba	0.041991927
168	0xbc165d17	-0.009177468
169	0x3da15243	0.07877018
170	0xbdcf76e7	-0.10130101
171	0xbb7a93b1	-0.0038235004
172	0x3dfbd24b	0.122959696
173	0xbd3b30ec	-0.045700952
174	0x3dfbf63d	0.123028256
175	0x3e10b40d	0.14131184
176	0x3d78ef95	0.06077536
177	0xbd64b4ae	-0.055836372
178	0xba503c2c	-0.00079435366
179	0xbdc196aa	-0.09452565
180	0x3ca6f079	0.020378338
181	0x3c8e877b	0.017398586
182	0x3ddaf0e7	0.1069048
183	0x3cc38342	0.0238663
184	0xbd80f0d5	-0.06295935
185	0x3cbd9fb1	0.023147436
186	0xbd9e75d2	-0.07737316
187	0x3d41600b	0.047210734
188	0x3d188128	0.037232548
189	0x3cf89843	0.030346042
190	0xbcb97ed2	-0.02264348
191	0xbd506d47	-0.050885465
192	0x3d56e475	0.052463967
193	0xbda34aab	-0.07973226
194	0x3ca62b6e	0.02028438
195	0x3dafd99a	0.08586426
196	0xbc356eee	-0.011073811
197	0xbd8be263	-0.06830289
198	0xbd27def4	-0.04098411
199	0x3d0f7627	0.03502479
200	0x3bb8da78	0.005641278
201	0xbdacf430	-0.084450126
202	0xbde52582	-0.11188795
203	0xbd85d0be	-0.06533955
204	0xbd28f45c	-0.041248664
205	0xbdc4a186	-0.09601121
206	0x3d0e144b	0.03468732
207	0xbd4b306c	-0.049606726
208	0x3ca48229	0.020081596
209	0x3dc08b27	0.09401541
210	0xbdfaa0e7	-0.12237721
211	0xbd2d8b62	-0.042369254
212	0xbdba74b9	-0.09104294
213	0x3bbe7d8c	0.005813306
214	0xbd5bcf7b	-0.053664666
215	0xbd7c61b0	-0.0616166
216	0xbba36492	-0.004986354
217	0xbdf153b8	-0.11783546
218	0xbdd2515b	-0.102694236
219	0x3e0f0249	0.13965715
220	0x3dd71ac3	0.10503151
221	0xbda79296	-0.08182256
222	0x3c93faee	0.018063989
223	0x3dda21da	0.10650988
224	0x3ccb4112	0.024811301
225	0x3dd5c571	0.104380496
226	0xbdf5bbc6	-0.119987056
227	0x3d130e0d	0.03590207
228	0xbdb7b3ad	-0.08969817
229	0xbd7de403	-0.061985027
230	0xbcbf9188	-0.023384824
231	0xbd3cabaa	-0.04606215
232	0x3d5ceac8	0.053934842
233	0xbca3d627	-0.019999577
234	0xbdf07261	-0.11740566
235	0x3de4f063	0.11178663
236	0x3cfdc44c	0.03097739
237	0xbd6d1d25	-0.057889123
238	0x3dd3578d	0.10319433
239	0x3cefdd39	0.029280292
240	0x3ccd8e40	0.025092244
241	0x3dff245b	0.12458106
242	0xbcb2c87d	-0.021824116
243	0x3ccd1e2e	0.025038805
244	0x3dea2f86	0.114348456
245	0x3e0039de	0.12522075
246	0xbd70f006	-0.058822654
247	0x3c88c5d3	0.016695892
248	0x3d4d85d1	0.050176445
249	0xbd90d46b	-0.070717655
250	0xbdd3c3a6	-0.10340051
251	0x3d3b8258	0.045778602
252	0x3cb20994	0.021733083
253	0x3d52b084	0.05143787
254	0xbc2f7fcd	-0.010711622
255	0x3d14a657	0.036291447

lstm.bias_ih_l0 f4 [256]
0	0xbd3ccfa5	-0.046096463
1	0xbc2042e1	-0.00978157
2	0xbce530b4	-0.027977325
3	0xbdf0ff2e	-0.11767422
4	0x3e54b3e8	0.20771754
5	0x3c3b2446	0.0114222225
6	0xbd7bd340	-0.06148076
7	0xbd076055	-0.033050854
8	0xbd189ef9	-0.037260983
9	0x3e13354c	0.143758
10	0xbde66eea	-0.11251624
11	0x3d9237fc	0.071395844
12	0xbd8ce315	-0.0687925
13	0x3d9272fb	0.07150837
14	0x3e009c21	0.12559558
15	0x3c646ce0	0.013941973
16	0xbdb05a9b	-0.086110316
17	0xbd9fc575	-0.07801334
18	0x3d767316	0.06016835
19	0x3d3fb300	0.046801567
20	0xbd3d3945	-0.046197195
21	0x3cb57d43	0.022154456
22	0xbc8a3905	-0.016872892
23	0x3dd11bb2	0.102103606
24	0x3de8f58e	0.11374961
25	0xbd4d9520	-0.050191045
26	0xbd4df6f5	-0.050284345
27	0x3d285495	0.04109629
28	0xbc779a48	-0.015112467
29	0x3c4e5fb3	0.012596059
30	0xbda391ae	-0.079867706
31	0x3d74466c	0.059637472
32	0xbda762e9	-0.081731625
33	0xbda330d2	-0.07968296
34	0xbd57a973	-0.052651834
35	0xbd659b69	-0.056056414
36	0x3d9ed96e	0.07756315
37	0xbd50b83d	-0.050956953
38	0x3d352917	0.04422864
39	0xbd8ec12c	-0.06970438
40	0xbdda1ea8	-0.106503785
41	0xbcd671ae	-0.026177254
42	0x3d06def1	0.032927457
43	0x3c8d6715	0.017261067
44	0x3d699bdf	0.057033416
45	0xbd75a3c8	-0.059970647
46	0x3d887eb3	0.06664791
47	0x3dde8c01	0.108665474
48	0xbd7c9ba1	-0.061671857
49	0x3e185314	0.14875442
50	0x3d78140c	0.060565993
51	0x3e05cb3e	0.13065812
52	0x3dd91a47	0.10600715
53	0x3d24e406	0.040256523
54	0x3c28b4bb	0.010296996
55	0x3d83aabe	0.06429051
56	0xbb24e45b	-0.0025160525
57	0xbd9f7587	-0.077860884
58	0xbde0f90b	-0.10985001
59	0xbcbbec6a	-0.02293988
60	0x3dbe02fc	0.09277913
61	0xbd4d9de1	-0.050199393
62	0x3d543cd4	0.051815823
63	0x3c7730cb	0.015087317
64	0xbd964b5a	-0.07338591
65	0xbc43b604	-0.011945251
66	0x3d193088	0.0373998
67	0xbcdd7547	-0.027033461
68	0x3e06c6fa	0.13161841
69	0x3d8d5e77	0.06902783
70	0x3d72e912	0.059304304
71	0xbd6ab9d5	-0.05730613
72	0x3c520f8d	0.01282109
73	0x3dd4b6d8	0.10386437
74	0xbd7baec5	-0.06144597
75	0x3d78556d	0.060628343
76	0xbd306ad8	-0.043070644
77	0xbe05bdfc	-0.13060755
78	0xbd91a05f	-0.071106665
79	0xbd31f78a	-0.043448962
80	0xbd55038c	-0.052005336
81	0x3dbb19df	0.09135794
82	0xbb52475f	-0.0032085998
83	0x3d5bb7e3	0.053642165
84	0x3d9a6bea	0.07540114
85	0x3d082370	0.03323692
86	0x3dec6ed0	0.11544573
87	0xbd9d37b6	-0.07676642
88	0x3c98dfef	0.018661467
89	0x3d5755a8	0.052571923
90	0x3d1a6b1a	0.037699796
91	0xbcc6014a	-0.024170537
92	0xbc860fdd	-0.016364986
93	0x3cd4ecf9	0.025991904
94	0x3d3e1871	0.046410028
95	0x3dc3efe8	0.09567243
96	0x3e08f40e	0.1337435
97	0x3db1f2a7	0.086888604
98	0x3d44b8e2	0.04802788
99	0x3da62cb0	0.08113992
100	0x3d126b1a	0.03574667
101	0x3cbb49af	0.022862284
102	0xbd6e969d	-0.058249105
103	0x3dc1f1c2	0.0946994
104	0xbc77d606	-0.015126711
105	0xbdc89426	-0.09793882
106	0x3d3354b1	0.04378194
107	0xbd523562	-0.05132044
108	0xbde86a78	-0.11348432
109	0x3d7d9795	0.061912138
110	0xbdcffa75	-0.10155193
111	0x3d9ce71a	0.076612666
112	0x3e03c6ea	0.12868848
113	0x3dd93804	0.10606387
114	0x3dd18ade	0.10231565
115	0x3b318779	0.0027088805
116	0x3e0ea824	0.13931328
117	0x3d2eba78	0.0426583
118	0x3d7d3c7a	0.061825253
119	0x3de788ff	0.11305427
120	0x3d7d65f7	0.06186482
121	0x3c24531c	0.01002958
122	0xbdbd162d	-0.09232745
123	0x3d5d8751	0.054084126
124	0xbd15d9a1	-0.0365845
125	0xbd83118c	-0.06399831
126	0x3ddced6f	0.10787474
127	0xbd56f2f3	-0.05247779
128	0x3c688747	0.014192409
129	0xbe090573	-0.13380985
130	0x3b84d781	0.0040540104
131	0xbd8196e8	-0.06327611
132	0x3d102eea	0.03520099
133	0x3c24bc1c	0.010054614
134	0x3de2ceb7	0.11074584
135	0xbbb4a26b	-0.005512526
136	0x3dc5a0ed	0.09649835
137	0x3d939a7b	0.07207199
138	0x3dccaa5a	0.099934295
139	0xbda151c5	-0.078769244
140	0x3cf29b42	0.029615048
141	0x3d6c2a51	0.057657544
142	0x3dee70ad	0.11642585
143	0x3d7f2e72	0.062300153
144	0xbdd43a5b	-0.10362693
145	0xbd642868	-0.055702597
146	0x3c0ffe4e	0.008788658
147	0xbd94220a	-0.07233055
148	0x3e06ae9d	0.13152547
149	0x3d160556	0.036626182
150	0x3da30133	0.07959213
151	0x3dd142d3	0.10217824
152	0xbdf0e8f9	-0.11763186
153	0xbd040854	-0.032234505
154	0x3d92633f	0.07147836
155	0xbd96e6a6	-0.073682114
156	0xbdefc25b	-0.11706992
157	0xbd9d54fb	-0.07682224
158	0x3dbc5ef2	0.09197797
159	0x3c31bfb9	0.010848933
160	0x3de05418	0.109535396
161	0x3dafe62b	0.08588823
162	0x3d6a2499	0.05716381
163	0x3d94626f	0.07245337
164	0xbc83b8e2	-0.01607937
165	0x3d82e515	0.0639135
166	0x3da704bd	0.08155201
167	0x3d96fa53	0.07371964
168	0xb9874740	-0.00025802292
169	0xbe037755	-0.1283849
170	0xbae9a054	-0.0017824271
171	0x3e0004b4	0.12501794
172	0x3d39989e	0.045311563
173	0x3db4d4ee	0.088296756
174	0x3d845b8f	0.06462776
175	0x3c109811	0.008825318
176	0xbd55e324	-0.05221857
177	0x3dac0361	0.08399082
178	0x3d0e6251	0.03476173
179	0xbdeb16ba	-0.11478944
180	0xbd6e671c	-0.0582038
181	0xbde57521	-0.11203981
182	0x3ca19911	0.019726308
183	0xbdebf71d	-0.115217425
184	0x3d6c06f9	0.057623837
185	0x3e007e62	0.12548211
186	0xbd9e9654	-0.077435166
187	0xbd9f33b3	-0.07773533
188	0x3db91f65	0.09039191
189	0xbc02ca0a	-0.00798274
190	0xbdcffacb	-0.10155257
191	0xbda81be7	-0.08208447
192	0x3e2246dd	0.15847345
193	0x3c505050	0.0127144605
194	0xbd93470b	-0.07191285
195	0x3dd5c1da	0.10437365
196	0x3d3ec019	0.046569917
197	0x3d118d68	0.035535246
198	0xbda99a5f	-0.08281397
199	0xbced64ca	-0.028978724
200	0xbbc0a181	-0.0058786278
201	0x3ca4998e	0.020092752
202	0x3df9b46b	0.12192615
203	0x3c0086ab	0.007844607
204	0x3dca03a7	0.09863978
205	0xbc92eb05	-0.017934332
206	0x3d843d49	0.06457002
207	0xbda26238	-0.0792889
208	0xbc9436d8	-0.018092558
209	0xbda4742d	-0.08029971
210	0xbd9fd1ed	-0.07803712
211	0x3d70aea8	0.058760315
212	0x3c9a3933	0.018826103
213	0xbda5fe4c	-0.08105144
214	0xbd65327a	-0.05595634
215	0xbdb4e387	-0.0883246
216	0xbd311850	-0.043236077
217	0x3df832ca	0.12119062
218	0xbdc21cb8	-0.09478134
219	0x3d9e3274	0.07724467
220	0x3d14535f	0.03621232
221	0x3dd6a672	0.10480966
222	0x3d52d430	0.05147189
223	0xbc9227c8	-0.017841235
224	0x3d6f7284	0.05845882
225	0xbc8c6efe	-0.017142769
226	0xbcd0beca	-0.0254816
227	0xbd40183d	-0.046898115
228	0xbdab43ca	-0.08362539
229	0xbdcea2ce	-0.10089646
230	0x3ca3329d	0.019921595
231	0x3cfdb1c6	0.030968558
232	0x3dbd460a	0.092418745
233	0xbd6ed862	-0.058311827
234	0xbdc56941	-0.09639216
235	0x3e00f36c	0.12592858
236	0x3d787d36	0.060666285
237	0x3b923526	0.004461902
238	0x3df47ec9	0.11938245
239	0x3cb34703	0.021884447
240	0xbbd5cefa	-0.0065249177
241	0x3d8badef	0.068202846
242	0x3d80235a	0.06256743
243	0x3dcb615d	0.0993068
244	0x3e1376a1	0.14400722
245	0x3cf45c3b	0.029829135
246	0x3dedd22c	0.11612353
247	0x3de8006b	0.11328205
248	0x3bfae897	0.0076571214
249	0xbd9f1aa9	-0.07768757
250	0x3dc8d8bf	0.09806966
251	0xbb9e00ae	-0.0048218584
252	0xbd1b8b0e	-0.03797441
253	0xbcc94181	-0.024567368
254	0xbe058e08	-0.13042462
255	0xbddfedf7	-0.1093406

lstm.bias_hh_l0 f4 [256]
0	0x3e22565d	0.15853257
1	0x3b49edd2	0.0030811918
2	0x3d70252b	0.058629196
3	0xbdd921ca	-0.10602148
4	0x3da643df	0.08118414
5	0xbd00a0cc	-0.031403348
6	0xbc3f1825	-0.011663471
7	0x3cf2d076	0.029640418
8	0xbdeadf7e	-0.11468409
9	0x3cf1c474	0.029512621
10	0x3d726075	0.05917402
11	0x3c9158d8	0.01774256
12	0x3e0c2c60	0.13688803
13	0x3db6917f	0.0891447
14	0xbcb7202e	-0.022354212
15	0x3deb6a28	0.11494857
16	0x3d8dd959	0.069262214
17	0xbcfbe24a	-0.030747551
18	0xbde4a8c3	-0.11165001
19	0xbdc0fd6a	-0.09423335
20	0xbd728b83	-0.05921508
21	0xbdb29637	-0.087200575
22	0x3d8daf75	0.069182314
23	0xbd1f1d22	-0.038846143
24	0x3ac0fa19	0.0014722972
25	0x3d80bf30	0.06286466
26	0x3d57b11f	0.05265915
27	0x3d031993	0.03200681
28	0xbd688035	-0.056762893
29	0xbd76e483	-0.06027652
30	0x3d9540f8	0.072877824
31	0x3d8e1514	0.06937614
32	0x3d896a47	0.06709724
33	0xbca98290	-0.02069214
34	0x3dff2854	0.12458864
35	0xbd84eb8b	-0.06490239
36	0x3dd0e06c	0.10199055
37	0x3dcc1e20	0.099666834
38	0x3daab151	0.08334602
39	0xbc811006	-0.01575471
40	0x3d8f1726	0.06986837
41	0x3d5eb8e9	0.054375563
42	0xbcd63952	-0.02615038
43	0x3e28fa1b	0.16501658
44	0xbc477854	-0.012174685
45	0xbdf520be	-0.11969136
46	0xbd4f1d8a	-0.05056528
47	0x3da162d3	0.07880177
48	0x3dd05fa5	0.10174493
49	0x3e1749a3	0.14774184
50	0x3db94dfd	0.09048078
51	0x3d6e81f5	0.058229405
52	0xbce94350	-0.02847448
53	0x3dd5df47	0.104429774
54	0x3e065a9c	0.13120502
55	0x3d9334c6	0.071878
56	0x3d36a3ee	0.04458993
57	0x3c79d89b	0.015249397
58	0xbded1d99	-0.11577911
59	0x3da45d57	0.08025616
60	0x3e0d8639	0.13820733
61	0x3d2d5e47	0.042326238
62	0x3cf05323	0.029336518
63	0xbe02584f	-0.12729
64	0xbdc0bb78	-0.09410757
65	0x3d9a7d49	0.075434275
66	0x3c96a8b6	0.018390995
67	0x3cc52a77	0.0240681
68	0xbd722888	-0.059120685
69	0x3bc4bf4e	0.0060042506
70	0xbc9fb30e	-0.01949456
71	0x3da5ca8c	0.080952734
72	0xbd4e364f	-0.05034476
73	0x3c3f14ce	0.011662675
74	0xbdbd1123	-0.09231784
75	0x3c6569d3	0.014002281
76	0x3d690580	0.05689001
77	0x3d10626c	0.035250112
78	0x3ca14e0a	0.019690532
79	0xbcb5325e	-0.022118744
80	0x3d873872	0.06602563
81	0x3c9043d2	0.017610464
82	0xbd53f956	-0.051751457
83	0xbd1309b7	-0.035897937
84	0xbde1e192	-0.11029352
85	0x3aaa78c8	0.0013005966
86	0xbd25c9f9	-0.04047582
87	0x3d11ff0d	0.035643626
88	0x3db71d02	0.0894108
89	0x3c29111e	0.010319022
90	0xbda30629	-0.07960159
91	0xbd3c978e	-0.04604297
92	0xbd99ab9e	-0.075034365
93	0xbd6d13f5	-0.05788036
94	0xbd7ae999	-0.061257932
95	0xbcc85ed0	-0.024459273
96	0x3d82673e	0.06367348
97	0xbe06b98a	-0.13156715
98	0xbd287222	-0.04112447
99	0xbd844f63	-0.06460454
100	0x3dccd7d3	0.10002103
101	0xbda288e1	-0.07936264
102	0x3e083f80	0.13305473
103	0xbda22626	-0.079174325
104	0xbdde9754	-0.10868707
105	0xbd918072	-0.07104577
106	0x3d0a7d2d	0.033810783
107	0x3d2789dc	0.040902957
108	0x3da53472	0.08066644
109	0x3d8b3528	0.06797248
110	0x3da556e5	0.080732144
111	0xbcb138fb	-0.021633616
112	0x3d8076c6	0.06272654
113	0x3d6e722b	0.058214348
114	0x3bd7466a	0.0065696733
115	0xbd9e9fd8	-0.077453315
116	0x3dce4ea0	0.1007359
117	0x3cd0755f	0.025446592
118	0xbd106ef7	-0.035262074
119	0x3dbbd87f	0.09172153
120	0xbd15f65f	-0.03661191
121	0x3b234bb2	0.0024916944
122	0xbd8b90db	-0.06814738
123	0xbd68f957	-0.056878414
124	0x3d28b67b	0.041189652
125	0x3c9cf9b7	0.019162042
126	0xbdf511a3	-0.119662546
127	0x3ddd915e	0.10818742
128	0x3d943d85	0.072382964
129	0x3c86bcf9	0.016447531
130	0x3dfcf9e1	0.12352348
131	0xbd933d02	-0.07189371
132	0x3d7d54fe	0.061848633
133	0xbdfb253f	-0.122629635
134	0x3c6594fe	0.014012573
135	0x3de4e9ae	0.11177383
136	0xbd992d83	-0.07479384
137	0x3a842a0c	0.0010083332
138	0x3d141c7b	0.036159974
139	0x3d9c6cd3	0.07637944
140	0x3d910a3f	0.070820324
141	0xbd029bac	-0.03188674
142	0x3db31137	0.08743518
143	0xbd01f54b	-0.03172807
144	0xbd44899d	-0.0479828
145	0x3dc8e964	0.09810141
146	0x3de86aa7	0.11348467
147	0x3d856b60	0.06514621
148	0x3d983c6e	0.07433401
149	0x3d4ddace	0.050257497
150	0x3d11581d	0.035484422
151	0x3df9941a	0.12186451
152	0x3debb281	0.11508656
153	0x3d488b24	0.04896082
154	0x3dd1aba9	0.1023782
155	0xbdcbc6ac	-0.09950003
156	0x3d18a9e5	0.0372714
157	0x3d5d2a77	0.053995576
158	0x3cb0c9ed	0.02158066
159	0xbd2117bf	-0.039329287
160	0xbc360fc0	-0.0111121535
161	0xbdab786f	-0.0837258
162	0xbd9eaefb	-0.077482186
163	0xbc995afc	-0.018720143
164	0x3d6a7e23	0.0572492
165	0x3e008352	0.12550095
166	0x3d3df8ea	0.04637996
167	0xbdd5ce2f	-0.10439717
168	0x3c50d44f	0.012745931
169	0xbce9629d	-0.028489405
170	0x3c9498fe	0.018139359
171	0x3c86f9fe	0.016476627
172	0xbd2affd2	-0.041747876
173	0xbd550f90	-0.052016795
174	0xbdb1a181	-0.086733826
175	0xbc030b2f	-0.007998272
176	0xbd0f1b80	-0.034938335
177	0x3cb3198b	0.021862766
178	0xbd622db7	-0.05521938
179	0x3da72abe	0.08162449
180	0x3d1feebc	0.039046034
181	0xbaf86e42	-0.0018953758
182	0xbe0eb900	-0.1393776
183	0xbbbbfd36	-0.005736972
184	0x3c38df88	0.011283763
185	0x3d1abd38	0.03777811
186	0x3d3837e5	0.04497518
187	0xbb36f387	-0.002791615
188	0xbb9e130e	-0.004824049
189	0xbdc85ad5	-0.0978295
190	0x3d1ebd00	0.038754463
191	0xbd9a1bf1	-0.07524861
192	0x3db9e636	0.090771124
193	0xbd2dc14e	-0.042420678
194	0xbd50abcc	-0.05094509
195	0xbda751b4	-0.081698805
196	0x3e37495a	0.17899075
197	0x3db072f1	0.08615673
198	0xbd872be3	-0.066001676
199	0xbcf77ef8	-0.03021191
200	0x3cb0e6d6	0.021594446
201	0x3e12c174	0.14331609
202	0xbdfc665b	-0.1232421
203	0xbd9086d1	-0.07056964
204	0x3dbd8e97	0.092557125
205	0x3ca6e475	0.020372609
206	0x3e0414d5	0.12898572
207	0x3e0a9a53	0.13535433
208	0xbdd90568	-0.10596734
209	0xbd1c44b8	-0.038151473
210	0xbac740ff	-0.0015201865
211	0x3df9f1e5	0.12204341
212	0x3d61d115	0.055131037
213	0xbd076e54	-0.0330642
214	0xbdac9672	-0.08427133
215	0xbdb8d269	-0.090245076
216	0xbcc25473	-0.02372191
217	0xbc5b6664	-0.013391111
218	0xbda79ebc	-0.08184573
219	0xbcbbd341	-0.022927882
220	0x3d43883b	0.04773734
221	0xbdf0b49a	-0.11753197
222	0x3df0b21f	0.11752724
223	0x3d62b7fe	0.05535125
224	0x3c7af8a2	0.015318068
225	0xbd83026c	-0.06396946
226	0xbd1bc6d8	-0.03803143
227	0x3c30b556	0.010785421
228	0x3da220b2	0.079163924
229	0x3d86a77e	0.06574915
230	0xbd0d28c2	-0.034462698
231	0x3d714d79	0.058911774
232	0x39f8f2d7	0.00047483176
233	0xbda96c12	-0.08272566
234	0x3da5c691	0.08094514
235	0xbd5210b1	-0.05128545
236	0x3d5072ee	0.050890855
237	0xbd0f65e6	-0.035009287
238	0x3d6c9766	0.057761572
239	0xbda3bdfb	-0.0799522
240	0x3dc0a465	0.09406356
241	0xbd1b6cb6	-0.03794547
242	0xbe051f8b	-0.13000314
243	0x3e16630b	0.1468622
244	0x3d8072b3	0.06271877
245	0x3ca55978	0.020184264
246	0xbc1bd9f5	-0.009512414
247	0xbdedd3db	-0.11612674
248	0x3dfe0f7c	0.12405297
249	0x3da575e1	0.08079124
250	0x3d926045	0.07147268
251	0xbd747c84	-0.05968906
252	0xbd7c8bbc	-0.0616567
253	0x3d284bbe	0.04108786
254	0x3dd09ae3	0.10185792
255	0xbdf1eead	-0.11813102

lstm.weight_ih_l1 f4 [256, 64]
0	0xbe153ab2	-0.14573172
1	0xbd75be61	-0.059996013
2	0xbdb5b8f1	-0.088731654
3	0xbdfbb72a	-0.12290795
4	0xbca3f796	-0.02001552
5	0x39e8e575	0.00044421447
6	0x3da8ed72	0.08248414
7	0x3d2f1f07	0.0427542
8	0xbdbc8cd2	-0.09206547
9	0x3d0312fc	0.032000527
10	0xbd25edc9	-0.040509973
11	0x3e1dfcfc	0.15428537
12	0x3d6debbe	0.05808615
13	0xbd997fbf	-0.07495069
14	0x3d06a7b1	0.032874767
15	0x3c885610	0.0166426
16	0x3c313f38	0.010818295
17	0xbe08fa40	-0.13376713
18	0x3cdb4a91	0.026768954
19	0xbd83456b	-0.06409725
20	0x3df08684	0.11744407
21	0x3dfee613	0.12446227
22	0xbd14396b	-0.03618757
23	0x3d9a3250	0.075291276
24	0xbb89eb6a	-0.0042089717
25	0x3c4f3d66	0.012648916
26	0x3d3df08a	0.046371974
27	0x3d90b3eb	0.07065567
28	0xbded97d2	-0.11601223
29	0xbc857021	-0.016288819
30	0x3d11d3e0	0.03560245
31	0x3c5bf388	0.013424762
32	0xbd318843	-0.04334284
33	0xbdab4ed5	-0.083646454
34	0x3d66c12e	0.056336574
35	0xbdc3d61e	-0.09562324
36	0x3da27e76	0.07934277
37	0xbd114913	-0.03547008
38	0x3d6dbdc9	0.05804232
39	0x3cc511f4	0.024056412
40	0x3df94047	0.12170463
41	0xbccd82d4	-0.025086798
42	0x3e050556	0.12990317
43	0xbdb677c4	-0.08909562
44	0xbdd78129	-0.10522682
45	0x3dd8cf6c	0.105864376
46	0x3d940b90	0.07228768
47	0xbd3c67f7	-0.045997586
48	0xbb0f7820	-0.0021891668
49	0x3d43493e	0.04767727
50	0x3cc83e12	0.02444366
51	0xbdf7832c	-0.12085566
52	0xbdc96d2f	-0.09835278
53	0x3d83eefd	0.06442068
54	0x3c9a2aad	0.018819178
55	0xbdd1c634	-0.10242882
56	0x3dbc66ab	0.0919927
57	0xbdd098a2	-0.101853624
58	0xbd77746e	-0.06041377
59	0xbd9da940	-0.076982975
60	0x3dc0cb4a	0.09413774
61	0x3dc38371	0.09546555
62	0x3ddf42d7	0.109014206
63	0xbce78650	-0.028262287
64	0x3cf72b44	0.030171998
65	0x3cde2bf5	0.02712057
66	0x3d3a2735	0.045447547
67	0x3d5fdbb3	0.05465288
68	0xbdd795d0	-0.10526621
69	0x3e0ae7f9	0.13565053
70	0xbdcf9aa3	-0.101369165
71	0x3da78f9f	0.081816904
72	0x3bb436c5	0.005499693
73	0x3c83d18c	0.01609113
74	0xbd8d66a4	-0.06904343
75	0x3dfd2fe5	0.12362651
76	0x3dd4d0a3	0.10391357
77	0x3d50b382	0.050952442
78	0xbd6e0935	-0.05811425
79	0xbddab7b9	-0.106795736
80	0xbd5f5bc4	-0.054530874
81	0xbd884f05	-0.06655697
82	0x3d8380b7	0.06421035
83	0x3da86da1	0.08224035
84	0x3df0a77e	0.117506966
85	0x3d000e6a	0.031263746
86	0x3df794d7	0.12088936
87	0x3deef39a	0.11667557
88	0xbd876970	-0.066119075
89	0x3d6b613e	0.057465784
90	0xbde1c42e	-0.110237464
91	0x3d2bee06	0.041975044
92	0xbdfa4375	-0.12219898
93	0xbcb3a148	-0.02192749
94	0x3cd27550	0.025690705
95	0x3d8e51e3	0.069492124
96	0xbdd18474	-0.102303416
97	0xbd9b6646	-0.075878665
98	0x3db24a72	0.087056056
99	0xbd73b312	-0.059496947
100	0xbdc7d698	-0.097577274
101	0xbc92c57d	-0.017916435
102	0xbe3037e9	-0.17208828
103	0x3db576d4	0.08860555
104	0xbae28a60	-0.0017283671
105	0xbd4d94f7	-0.050190892
106	0x3c8793ec	0.016550027
107	0xbb569eee	-0.0032748538
108	0x3b29ff75	0.0025939618
109	0x3c8eaf7e	0.017417666
110	0x3e06f855	0.13180669
111	0x3c972ede	0.018454965
112	0xbc8bdf91	-0.017074378
113	0x3d8ceca2	0.068810716
114	0x3d35f281	0.044420723
115	0x3b4a37b4	0.0030855956
116	0xbd1ca47a	-0.038242795
117	0xbdc1b5de	-0.094585165
118	0x3da0c7aa	0.07850583
119	0x3d88de18	0.06682986
120	0x3db9c2fe	0.09070395
121	0x3d37427a	0.04474113
122	0xbdee0c76	-0.116234705
123	0x3dcd13f2	0.1001357
124	0xbcc4390f	-0.023952989
125	0x3d50aec3	0.050947916
126	0xbcd7d508	-0.026346698
127	0x3dada931	0.08479536
128	0x3de11b2d	0.109915115
129	0xbd43f366	-0.047839545
130	0x3d39b7b3	0.045341205
131	0xbd1acd37	-0.037793364
132	0x3d544fff	0.051834103
133	0x3d9ac19f	0.075564615
134	0x3c17af6b	0.0092581315
135	0xbd1c171b	-0.038107973
136	0xbdba9d90	-0.09112084
137	0x3c0116ba	0.007878954
138	0x3d8327cc	0.06404075
139	0xbc1d5b95	-0.009604354
140	0x3db25082	0.08706762
141	0x3e050acb	0.12992398
142	0xbe014cde	-0.12626979
143	0x3d83a84b	0.06428584
144	0xbdd5c1fd	-0.10437391
145	0x3d91c5e3	0.07117822
146	0x3acaf0ca	0.0015483138
147	0xbe16f42f	-0.14741586
148	0x3b5443ea	0.0032389113
149	0xbd801f6d	-0.06255994
150	0x3db75f91	0.08953775
151	0x3dc534a5	0.09629182
152	0x3cf86327	0.030320717
153	0x3c9ee304	0.019395359
154	0xbdac1f34	-0.08404389
155	0x3dca4bb6	0.09877722
156	0x3cbc5a15	0.022992173
157	0x3d5bcba8	0.05366102
158	0x3d864d80	0.06557751
159	0x3c24e240	0.010063708
160	0xbd843d96	-0.06457059
161	0x3d9bb08d	0.07602034
162	0xbb89ac1a	-0.0042014243
163	0xbd4a70ef	-0.049424108
164	0xbd6367a5	-0.055518765
165	0xbda25c71	-0.07927788
166	0x3dc2c415	0.09510056
167	0x3ca739a0	0.02041322
168	0xbd2cecec	-0.042218134
169	0xbd0fec3b	-0.035137396
170	0x3d3b6cab	0.04575793
171	0x3c048341	0.008087934
172	0x3d882c04	0.0664902
173	0x3dca80d1	0.09887851
174	0xbe149474	-0.14509755
175	0xbdc9015d	-0.09814713
176	0xbd1e1cb5	-0.038601596
177	0x3e247a44	0.16062266
178	0xbe14aa1e	-0.1451802
179	0x3c66c100	0.014084101
180	0x3d73280a	0.059364356
181	0xbd833260	-0.06406093
182	0xbc56b8fc	-0.013105627
183	0x3d18a986	0.037271045
184	0xbe146bb9	-0.14494218
185	0x3bfa9897	0.0076475847
186	0x3d10feed	0.035399366
187	0x3da15e96	0.07879369
188	0x3d4f1b2b	0.05056302
189	0x3d9a0e58	0.07522267
190	0xbde8b4aa	-0.11362584
191	0xbd462187	-0.048371818
192	0xbd93d275	-0.07217876
193	0xbd09c075	-0.033630807
194	0x3dea5128	0.114412606
195	0x3d182997	0.03714904
196	0xbcca6f98	-0.024711415
197	0xbdef6cee	-0.116906986
198	0xbd5dd01b	-0.054153543
199	0xbac302ff	-0.0014878212
200	0x3d79ca96	0.060984217
201	0x3d5f3b55	0.054499943
202	0xbd2347f7	-0.039863553
203	0xbb83def9	-0.004024383
204	0xbc2b5ea1	-0.010459573
205	0x3da15b1e	0.07878707
206	0x3c893791	0.016750129
207	0x3d5a9af3	0.053370427
208	0x3d96b8b7	0.0735945
209	0x3c63a22e	0.013893647
210	0xbddce2c4	-0.107854396
211	0x3d00f22b	0.03148095
212	0x3c85ad73	0.016318059
213	0x3d79772c	0.060904667
214	0xbd8af629	-0.067852326
215	0xbdebf090	-0.11520493
216	0xbd5d317f	-0.05400228
217	0x3c54e7de	0.012994735
218	0x3bd625f0	0.006535284
219	0xbd856ce7	-0.06514912
220	0x3d3ba484	0.04581119
221	0x3cc58811	0.024112733
222	0xbde65490	-0.11246598
223	0xbdd708d8	-0.10499734
224	0xbd6d4a62	-0.057932265
225	0x3d9c6869	0.07637102
226	0xbd474a6a	-0.04865495
227	0x3cee285d	0.029071981
228	0x3d950fca	0.07278402
229	0xbdc0356d	-0.0938519
230	0xbdde6487	-0.10859018
231	0xbd11846c	-0.035526678
232	0x3d0f0cb7	0.034924235
233	0x3dfce77b	0.12348839
234	0xbced4664	-0.028964229
235	0xbdd09ae2	-0.101857916
236	0x3d60964b	0.05483083
237	0xbe00ce6f	-0.12578748
238	0xbddf1964	-0.10893515
239	0x3d850906	0.06495862
240	0xbde7ae34	-0.113125235
241	0x3d9ed736	0.07755892
242	0x3db55409	0.08853919
243	0xbdd04d24	-0.101709634
244	0xbdc0bcc9	-0.09411008
245	0xbc74fea3	-0.014953288
246	0xbcec5f77	-0.028854115
247	0x3b134336	0.002247048
248	0x3d463588	0.048390895
249	0x3d1bc902	0.038033493
250	0x3d9d8eec	0.07693276
251	0x3d9ea2a0	0.07745862
252	0xbda1bed3	-0.07897725
253	0xbd9846d4	-0.074353844
254	0xbd875ce1	-0.06609512
255	0xbcd29ba1	-0.025708975

lstm.weight_hh_l1 f4 [256, 64]
0	0xbc8ca65b	-0.017169168
1	0x3dcdb853	0.10044923
2	0xbd309f3f	-0.04312062
3	0xbdffa200	-0.12482071
4	0x3dbcc13b	0.09216543
5	0xbda6b5c5	-0.081401385
6	0xbd602db8	-0.0547311
7	0xbde482a0	-0.11157727
8	0xbdeb614c	-0.11493167
9	0x3dcd0e38	0.10012478
10	0x39d83c1a	0.0004124351
11	0x3e04c404	0.12965399
12	0x3c854ec2	0.016272906
13	0x3dd525b8	0.10407585
14	0x3d9836e3	0.07432344
15	0x3afbfaba	0.0019224503
16	0xbdc85d37	-0.09783404
17	0x3da62d5e	0.08114122
18	0x3b2aac2c	0.0026042564
19	0xbd6a90a1	-0.057266835
20	0xbcaa0cd0	-0.020758063
21	0x3ad86f10	0.0016512591
22	0x3dce92ee	0.10086618
23	0x3d3c1c74	0.045925573
24	0xbdd5136c	-0.10404095
25	0x3d9c40fa	0.07629581
26	0x3ce7a36c	0.028276168
27	0xbd115b17	-0.03548726
28	0x3bee8b90	0.0072798207
29	0xbd61a3ab	-0.055087727
30	0x3d8ac4a4	0.067757875
31	0x3d72049a	0.05908642
32	0x3d581c36	0.05276128
33	0xbe033a7a	-0.12815276
34	0xbc27fa38	-0.010252528
35	0x3dc4b870	0.09605491
36	0xbdf4dd82	-0.11956312
37	0x3b20b1b1	0.0024519975
38	0xbb4a3825	-0.0030856219
39	0x3ccb54ca	0.024820704
40	0xbcc4ed6d	-0.024038995
41	0x3db2cea3	0.08730819
42	0x3d421c67	0.047390368
43	0xbaad1def	-0.0013207773
44	0x3d9e397a	0.077258065
45	0xbdad5d47	-0.08465057
46	0x3dde20e9	0.10846121
47	0x3dd9afd7	0.10629242
48	0x3dd1275c	0.10212585
49	0x3cd39533	0.02582798
50	0x3df01cdb	0.11724254
51	0xbd1e1cc6	-0.03860166
52	0xbde0a29d	-0.10968516
53	0xbd9fad66	-0.07796745
54	0x3d7d3a2a	0.061823048
55	0xbdb3b28e	-0.08774291
56	0xbd99b2d1	-0.0750481
57	0xbce6f4f5	-0.028192976
58	0xbdcaba05	-0.09898762
59	0xbd2e9e86	-0.04263165
60	0xbc85353b	-0.016260734
61	0xbde067c3	-0.10957291
62	0xbd702f35	-0.05863877
63	0x3d809006	0.0627747
64	0x3df38db7	0.11892264
65	0xbe028d8d	-0.1274931
66	0xbdf0f6f7	-0.11765855
67	0xbd87c9ec	-0.066303104
68	0xbd86e448	-0.0658651
69	0xbd9f2259	-0.07770223
70	0x3c93b814	0.018032111
71	0xbd217a5a	-0.039423324
72	0x3df84d1d	0.12124083
73	0x3d454479	0.048161004
74	0x3d8146d7	0.0631234
75	0x3d1f1ab7	0.038843837
76	0x3e037d1d	0.12840696
77	0xbe071647	-0.13192092
78	0xbc64204c	-0.013923716
79	0x3d857b35	0.065176405
80	0xbd30a4ba	-0.043125845
81	0xbd15a762	-0.03653658
82	0x3c0884f7	0.008332483
83	0x3d4f2a46	0.050577424
84	0x3d3e454b	0.0464528
85	0x3d38a8c3	0.04508282
86	0xbd79c788	-0.060981303
87	0xbd8ea26f	-0.069645755
88	0x3cdaa235	0.026688674
89	0x3d8d4bd6	0.0689923
90	0xbd9f6cd4	-0.07784429
91	0xbdcb1795	-0.09916607
92	0xbc8bf233	-0.017083263
93	0x3d97df10	0.07415593
94	0x3ce4ffb7	0.027953966
95	0x3d880dcb	0.06643256
96	0xbceffdb4	-0.02929578
97	0xbd7a3a63	-0.06109084
98	0x3dfc4ba1	0.123191126
99	0xbd562736	-0.05228349
100	0xbd815b93	-0.063162945
101	0x3d8e4e01	0.06948472
102	0x3cc578b8	0.024105415
103	0x3d9deb09	0.07710845
104	0x3c3e48a4	0.011613999
105	0x3d114218	0.035463423
106	0xbd7a685b	-0.061134677
107	0xbd8468dd	-0.064653136
108	0x3da6cd2e	0.08144604
109	0xbd06c49d	-0.03290235
110	0x3d801372	0.06253709
111	0xbbc43df5	-0.005988831
112	0xbe07b329	-0.13251938
113	0xbcdd3b62	-0.027005855
114	0x3d24835d	0.04016434
115	0xbcc9106b	-0.024543962
116	0x3dc57b73	0.09642687
117	0x3cc586a5	0.024112055
118	0x3d74a6c1	0.05972934
119	0xbd69c5ae	-0.057073288
120	0x3da6f593	0.08152308
121	0x3da5aaab	0.08089193
122	0x3e02fc29	0.12791504
123	0x3df81593	0.1211349
124	0xbb0546d8	-0.0020336416
125	0x3cc4cf8d	0.02402475
126	0xbd1e3bf3	-0.03863139
127	0xbd91feb8	-0.07128662
128	0xbdaa490a	-0.08314712
129	0xbdd641ed	-0.10461793
130	0xbdf5dce7	-0.120050244
131	0x3d674420	0.056461453
132	0x3d8b5054	0.06802431
133	0xbdc41b5f	-0.09575533
134	0xbd60c64c	-0.05487661
135	0xbd94875d	-0.07252381
136	0x3ce01e0a	0.027358074
137	0x3d4ba6cc	0.049719617
138	0x3d394fbd	0.04524206
139	0x3d64f697	0.05589923
140	0x3d3e48e1	0.04645622
141	0xbe0cdc88	-0.13756001
142	0xbc9d7b0e	-0.019223716
143	0xbdcc7913	-0.099840306
144	0x3da78316	0.081792995
145	0xbd0ef590	-0.034902155
146	0x3b2acd98	0.0026062485
147	0xbd9609e1	-0.07326103
148	0x3e121ba5	0.14268358
149	0xbd81dfdf	-0.06341528
150	0xbd95ddaf	-0.073176734
151	0xbd8aa5ce	-0.06769906
152	0xbdec710b	-0.11544999
153	0x3c90c79e	0.01767331
154	0xbd77de2f	-0.060514625
155	0xbd0d1aae	-0.03444927
156	0x3daeb0d7	0.08529823
157	0xbc740bdf	-0.014895408
158	0x3dc35162	0.09537007
159	0x3ca1bcae	0.01974329
160	0x3da62ca7	0.081139855
161	0x3e02391e	0.12717101
162	0xbda50769	-0.08058054
163	0xbcc47cfb	-0.023985377
164	0x3c09e822	0.008417161
165	0xbd7ec0ee	-0.06219571
166	0x3e1ae591	0.15126635
167	0xbc022fce	-0.007945968
168	0x3ae4033c	0.0017395983
169	0x3e14bf7f	0.14526175
170	0x3cafd79d	0.021465117
171	0x3d84a906	0.06477551
172	0xbc1f34ee	-0.009717209
173	0x3cdf51b0	0.027260631
174	0xbcfba187	-0.03071667
175	0x3de7a7a6	0.11311273
176	0xbd7dbdbd	-0.061948527
177	0xbe199c5c	-0.15001053
178	0xbda816fe	-0.082075104
179	0xbcbb5ebf	-0.022872327
180	0xbd256654	-0.04038079
181	0xbddad83c	-0.10685775
182	0xbc4062f1	-0.0117423395
183	0xbd85716f	-0.06515776
184	0x3d9b437f	0.07581233
185	0xbcb72d64	-0.022360511
186	0x3d96e663	0.073681615
187	0xbda724ed	-0.0816134
188	0x3d1b4863	0.03791083
189	0x3d919936	0.07109301
190	0xbdb8d35f	-0.09024691
191	0x3de7430c	0.11292085
192	0xbcfc7da8	-0.030821636
193	0x3dde030c	0.10840425
194	0xbd365c32	-0.044521518
195	0x3dc941be	0.098269925
196	0xbbf6bd3e	-0.0075298836
197	0xbdcfe9c6	-0.101520106
198	0xbde393b0	-0.111121535
199	0x3d995aba	0.07488008
200	0x3c55763f	0.01302868
201	0x3c9a41bb	0.01883017
202	0x3da5ec0e	0.081016645
203	0x3d81ec5b	0.06343909
204	0xbde36410	-0.1110307
205	0xbde61bd7	-0.11235779
206	0x3b496700	0.0030731559
207	0x3c4bc9d6	0.012438258
208	0xbbdf1760	-0.0068082064
209	0xbddde70e	-0.10835086
210	0x3ddb13e2	0.10697152
211	0xbdca233b	-0.09870001
212	0xbccc3cc8	-0.024931327
213	0xbd88ff7b	-0.06689354
214	0xbd6b4393	-0.05743749
215	0x3d91caf1	0.07118786
216	0x3d2b6391	0.041843
217	0xbcd25dff	-0.025679586
218	0xbd95207f	-0.07281589
219	0x3d8792fd	0.06619833
220	0xbd9877ea	-0.07444747
221	0xbd584147	-0.05279663
222	0xbd1f2c0f	-0.038860377
223	0xbc6bc89b	-0.01439109
224	0xbbf83237	-0.0075743455
225	0xbd810d29	-0.06301338
226	0x3d8a8e5c	0.06765434
227	0x3c2080e2	0.009796353
228	0x3c9bbb21	0.019010128
229	0x3db1a8d5	0.0867478
230	0xbd2d9927	-0.042382386
231	0xbd7aac5c	-0.06119953
232	0xbd91818a	-0.07104786
233	0x3ca732ca	0.02040996
234	0x3de8beaa	0.11364491
235	0xbd07ccfb	-0.03315447
236	0x3d783103	0.060593616
237	0x3dbf9598	0.093547046
238	0x3dc55bf3	0.096366785
239	0xbde6cbe9	-0.112693615
240	0x3db17f13	0.086668156
241	0x3d4ff599	0.05077133
242	0xbd5237cb	-0.05132274
243	0xbcf63a4a	-0.030057091
244	0xbcb2a8de	-0.021809038
245	0x3d51533a	0.05110476
246	0xbdf7ff7e	-0.12109278
247	0x3dc5e1b3	0.09662189
248	0xbd8d12b1	-0.06888331
249	0xbd994bd7	-0.074851684
250	0x3de03c19	0.10948963
251	0x3e05dc3a	0.13072291
252	0x3df1fe16	0.11816041
253	0xbdf8b761	-0.12144352
254	0xbd9dcd0d	-0.07705126
255	0xbd45e7f2	-0.048316903

lstm.bias_ih_l1 f4 [256]
0	0xbd7f2df9	-0.062299702
1	0xbd5d7f5c	-0.054076537
2	0x3d643acf	0.055720147
3	0xbd74769b	-0.059683423
4	0x3d890eb0	0.066922545
5	0xbb1085e9	-0.0022052473
6	0xbd29975b	-0.04140411
7	0xbe05d48a	-0.13069358
8	0x3c3f0318	0.011658452
9	0x3dccb6a6	0.09995775
10	0xbdca0ba7	-0.09865504
11	0x3dd41972	0.10356416
12	0x3dd22c22	0.10262324
13	0x3cb2c6ad	0.021823252
14	0xbda6f17d	-0.08151529
15	0xbdb926d4	-0.09040609
16	0xbd1e052f	-0.038579162
17	0x3d849ad3	0.06474843
18	0xbdc60200	-0.0966835
19	0xbc9d2b08	-0.019185558
20	0xbb579619	-0.0032895862
21	0x3e261d43	0.162221
22	0x3d1b8f4f	0.037978467
23	0xbdede8fe	-0.11616705
24	0xbd88fe91	-0.0668918
25	0x3daaaa7e	0.083333
26	0xbcabf5ab	-0.020991167
27	0x3d3e431c	0.04645072
28	0x3d8984c4	0.06714776
29	0xbd676fde	-0.05650317
30	0xbda1d163	-0.079012655
31	0xbd833f1a	-0.0640852
32	0xbd8f7cf4	-0.07006255
33	0xbd4cc1c5	-0.04998948
34	0x3cd18e29	0.025580483
35	0xbbda5082	-0.0066624293
36	0xbd1061b8	-0.03524944
37	0x3d513f17	0.051085558
38	0xbbaa10dd	-0.0051899985
39	0x3d578674	0.05261846
40	0x3cdf0fc8	0.027229205
41	0xbd091ca8	-0.033474594
42	0x3d75ed78	0.06004092
43	0x3e025f30	0.12731624
44	0xbc194c52	-0.009356575
45	0x3decb609	0.11558158
46	0x3e04f1a3	0.12982802
47	0x3c36d630	0.011159465
48	0x3d89ff24	0.06738117
49	0xbde70fd2	-0.11282314
50	0x3dd8195e	0.105517134
51	0xbdee47e0	-0.11634803
52	0xbca7f1b1	-0.02050099
53	0xbd3f0f42	-0.04664541
54	0x3de71eec	0.11285195
55	0x3db988ec	0.09059319
56	0xbdb750e2	-0.08950974
57	0x3dad82fc	0.08472249
58	0xbd72ee43	-0.059309255
59	0xbc0b5331	-0.008503721
60	0xbc9202a6	-0.017823528
61	0x3da6db9d	0.08147357
62	0x3e09f303	0.13471608
63	0x3d46579b	0.04842339
64	0xbd0df6dc	-0.03465925
65	0xbdff36c5	-0.12461618
66	0x3c0a5263	0.008442494
67	0xbad5370b	-0.0016267014
68	0xbd88e0e2	-0.06683518
69	0xbccc3277	-0.024926407
70	0xbccad45f	-0.02475947
71	0x3b8172a8	0.0039504357
72	0xbdc7eadf	-0.09761595
73	0x3dec4560	0.1153667
74	0x3d771f94	0.06033285
75	0x3d3b4fa1	0.045730237
76	0xbcfb94f8	-0.030710682
77	0xbd626372	-0.05527062
78	0xbdbbb7ae	-0.091658935
79	0xbd9b51dc	-0.07583973
80	0xbd72520e	-0.059160285
81	0xbe02e423	-0.1278234
82	0x3ddf82e1	0.10913635
83	0xbca5d88f	-0.020244865
84	0xbd062633	-0.032751273
85	0xbceecbd1	-0.029149922
86	0xbc5601fa	-0.013061995
87	0x3da1bd5a	0.07897444
88	0x3d4ee54e	0.05051165
89	0xbdb635d2	-0.08896984
90	0x3bab6a70	0.005231194
91	0xbdc74a7e	-0.09731005
92	0xbd616ba4	-0.055034295
93	0xbd957146	-0.07296996
94	0x3c57cba2	0.013171108
95	0xbca074b0	-0.019586891
96	0xbd085a49	-0.033289228
97	0xbd2bd70f	-0.041953143
98	0x3e020c72	0.1270006
99	0x3c9105ef	0.017703025
100	0xbd652a11	-0.05594832
101	0xbdc1b93d	-0.094591595
102	0xbd81f78c	-0.06346044
103	0xbdafb48c	-0.085793585
104	0xbc053700	-0.008130789
105	0xbde0335b	-0.10947295
106	0x3d946153	0.072451256
107	0x3db5bdee	0.08874117
108	0x3d192213	0.03738601
109	0x3c9639ae	0.01833805
110	0xbd240873	-0.04004712
111	0x3d1235f6	0.035695992
112	0x3d2851b1	0.041093532
113	0xbd28b1ad	-0.04118507
114	0xbd65207b	-0.05593918
115	0xbc87d476	-0.016580801
116	0x3d6744ed	0.056462217
117	0xbe0e7713	-0.1391261
118	0x3d81d02b	0.06338533
119	0x3dfea650	0.12434065
120	0xbdbd1323	-0.09232166
121	0x3be781f4	0.007065052
122	0x3dd1c503	0.10242655
123	0x3c5de1b3	0.01354258
124	0x3dd845b3	0.10560169
125	0x3deaca6d	0.11464391
126	0xbcc3d39d	-0.023904616
127	0x3dd3732b	0.10324701
128	0x3dfed409	0.12442786
129	0xbca94e23	-0.020667141
130	0x3d676afa	0.056498505
131	0x3d68d92c	0.056847736
132	0xbdb30c36	-0.087425634
133	0xbd9b629c	-0.075871676
134	0x3ca72e32	0.02040777
135	0x3db3227e	0.08746813
136	0xbd221a01	-0.03957558
137	0xbe0ee61f	-0.13954972
138	0xbd94206a	-0.07232745
139	0xbdf10fc0	-0.11770582
140	0x3dc0c97a	0.094134286
141	0xbd4e3cb1	-0.05035085
142	0xbd88402e	-0.06652866
143	0xbdc11e0f	-0.09429561
144	0xbd555823	-0.052086007
145	0x3d3c7245	0.046007413
146	0xbd9876ea	-0.07444556
147	0x3df3fb58	0.119131744
148	0x3dfd1cc1	0.12359
149	0x3cd1bf6c	0.025603972
150	0xbd1f90bb	-0.038956385
151	0xbd2c87b0	-0.04212159
152	0xbcd20874	-0.025638796
153	0xba9aeeef	-0.0011820475
154	0x3df0781b	0.11741658
155	0xbbbdace3	-0.005788432
156	0xbd880588	-0.0664168
157	0xbc2d880d	-0.010591519
158	0x3d7d6998	0.06186828
159	0x3dbce8ad	0.09224067
160	0xbc7eb55a	-0.015546167
161	0x3de009c7	0.10939365
162	0xbd49f6b4	-0.04930754
163	0xbd0f851a	-0.035039045
164	0xbdd6f4d0	-0.10495913
165	0xbdcea2c7	-0.10089641
166	0xbd31ae31	-0.043379012
167	0x3c805360	0.015664756
168	0xbb911d2c	-0.0044285264
169	0x3ce9b6b0	0.028529495
170	0xbd18dc76	-0.037319623
171	0xbca4c359	-0.02011268
172	0xbca6a7a7	-0.020343615
173	0xbe0a7696	-0.135218
174	0x3da82355	0.08209864
175	0xbc9b8890	-0.018986017
176	0x3dd9f96c	0.106432766
177	0x3dc52e55	0.09627978
178	0x3d91f824	0.07127407
179	0x3d811c38	0.063042104
180	0xbbbf1d83	-0.0058323755
181	0x3db6d240	0.08926821
182	0xbda26d98	-0.079310596
183	0x3dd1cb39	0.1024384
184	0xbc8d8776	-0.017276507
185	0x3bec52db	0.0072120256
186	0xbd637a7d	-0.055536736
187	0xbdb7d415	-0.08975998
188	0xbd60edbb	-0.054914217
189	0x3b372256	0.002794405
190	0x3ddcfcd9	0.10790414
191	0x3ac52393	0.0015040509
192	0x3db17cc6	0.08666377
193	0x3d71e9fa	0.059061028
194	0x3d22066e	0.039556913
195	0xbda99fc9	-0.0828243
196	0x3cb4a98a	0.022053499
197	0xbd99231f	-0.07477402
198	0xbcb29c87	-0.021803154
199	0x3be45df4	0.006969208
200	0xbd39a81b	-0.045326333
201	0xbce52b36	-0.027974706
202	0xbdb0f7b1	-0.086409934
203	0x3dbb2a5d	0.091389395
204	0x3d90b4f6	0.070657656
205	0xbcb2f287	-0.021844162
206	0x3cba74d6	0.02276079
207	0xbde1699b	-0.11006471
208	0xbc47c376	-0.012192598
209	0xbd028cd2	-0.031872578
210	0x3dddf2bf	0.10837316
211	0x3dcfa247	0.10138374
212	0x3d1944dc	0.037419185
213	0x3dee4c28	0.116356194
214	0xbd186680	-0.037207127
215	0x3db7d5d8	0.08976334
216	0xbd087cce	-0.033322148
217	0xbdcda998	-0.10042113
218	0x3d105af1	0.03524298
219	0x3dd4755c	0.10373947
220	0xbd845514	-0.0646154
221	0x3d9b1eb1	0.07574213
222	0xbddae3b7	-0.106879644
223	0xbd8f81f1	-0.07007206
224	0xbd81c966	-0.06337242
225	0xbc06115b	-0.008182849
226	0xbd9dee1a	-0.0771143
227	0xbd0699c3	-0.032861482
228	0xbdaf0cb5	-0.085473455
229	0x3d2255e8	0.039632708
230	0xbce65d8c	-0.028120779
231	0x3d7187bd	0.05896734
232	0x3d16fc6d	0.036861826
233	0x3cf44b4b	0.029821059
234	0xbdd22e7a	-0.10262771
235	0xbd72c7e4	-0.05927266
236	0x3df59fdf	0.119933836
237	0x3db386c2	0.087659374
238	0x3d351ba5	0.044215817
239	0x3c762af0	0.015024886
240	0xbdd0aa95	-0.10188786
241	0x3bfd140f	0.0077233384
242	0x3dd34bd3	0.10317197
243	0xbd7c5bfe	-0.061611168
244	0x3c806abf	0.0156759
245	0x3c228c4f	0.0099211475
246	0xbdceec7e	-0.10103701
247	0x3b45ca83	0.003018052
248	0xbd2bb7d4	-0.04192336
249	0x3dda7867	0.10667496
250	0xbdbee159	-0.093203254
251	0xbd957507	-0.07297712
252	0x3c5d7dc3	0.013518753
253	0x3dbc07e6	0.09181194
254	0xbd52825c	-0.05139385
255	0x3da968de	0.08271955
