crypto_models/BNB_USD_lstm.pth (torch, 206101 bytes, 9 tensors)

lstm.weight_ih_l0 f4 [256, 1]
000000 43 36 14 bd b1 38 1d bd 18 ad 7f 3d 92 af c2 3d
       -0.03618456 -0.038384143 0.062420934 0.09506144
000010 1f 81 f5 3c 62 d2 9b bc a1 34 df 3d 18 bf ce 3d
       0.029968796 -0.019021217 0.1089871 0.10095042
000020 ee da 8f bd a2 5f 91 3d 98 56 37 bd e1 7c 6c be
       -0.070241794 0.07098319 -0.044760317 -0.23094513
000030 83 2d b9 3d e0 9e 8d bd 39 e7 53 3d cd 86 be 3d
       0.09041884 -0.069150686 0.051734183 0.09303055
000040 e2 dd 9f bd 7f 5b 2d 3e 88 ea 15 3e 6a 20 f1 bd
       -0.07805993 0.16929434 0.14640248 -0.117737606
000050 04 56 9d bc 67 b6 80 bd ee 77 47 3d b7 86 1e 3e
       -0.019206055 -0.062847905 0.04869836 0.15481077
000060 8d 5d 35 3e 5c b1 db 3d 8d 03 9b 3d 92 cd 55 3d
       0.17711468 0.10727188 0.07569037 0.052198
000070 35 1b 2a bd bd 4a 8f 3d 16 c0 ca 3d 7a 19 aa 3b
       -0.041529853 0.06996677 0.09899919 0.0051910253
000080 f8 2f 2b 3e 56 41 3e 3e 49 43 19 3d 4a 30 04 3e
       0.16717517 0.18579611 0.037417684 0.12909046
000090 b0 3a 77 3c 88 39 20 bd 80 78 f2 bb b4 f1 0e 3d
       0.015089676 -0.039117366 -0.0073996186 0.034898475
0000a0 51 f8 3c bd cb 83 2a bd a7 1f ab bd 67 eb ff 3d
       -0.04613525 -0.041629594 -0.083556466 0.12496071
0000b0 93 9b ad 3d bc df db 3d ea 67 02 3e e3 3c 89 3d
       0.08476939 0.10736033 0.12734953 0.06701066
0000c0 8e 47 79 bd 51 f3 52 bd d6 b1 1d 3e d6 ab 4e 3d
       -0.060859255 -0.051501576 0.1539987 0.050456844
0000d0 ef 3c 9f bd f5 c3 89 3a 82 e5 ca bc 76 a1 50 3e
       -0.07775294 0.001051067 -0.024767641 0.20374092
0000e0 21 83 f2 ba 32 98 7a 3c e1 60 5e bc 0e d2 5e bd
       -0.0018502214 0.015295075 -0.013572902 -0.054399543
0000f0 13 d4 5a bd af 2a 44 3e e2 26 13 3d 0b 2e 82 3d
       -0.053424906 0.19156907 0.035925753 0.06356438
000100 22 38 2d 3e 4d 04 9f 3d a6 6f 1b 3e ba 51 af bd
       0.16915944 0.07764492 0.15179309 -0.0856051
000110 28 dd 32 bd eb e1 79 be eb 38 e9 3d 38 68 e7 bc
       -0.043667942 -0.24402587 0.11387809 -0.028247938
000120 ae 08 a9 3d 71 0b 9e 3d aa 0c bc bd 1b 01 69 be
       0.08253609 0.07717026 -0.09182103 -0.22754328
000130 ef 5f c6 3d a8 d4 50 3d 55 3c 1d 3d 3f 83 27 3d
       0.09686267 0.050984055 0.038387615 0.04089665
000140 32 d5 85 bd 65 67 35 3e 39 18 90 bc 25 a9 d9 bd
       -0.065348044 0.17715223 -0.017589675 -0.10627965
000150 b9 e6 b3 3b 51 b0 2b bd 05 2a c7 3d 62 1e 10 bd
       0.005490151 -0.041916195 0.097248115 -0.035185225
000160 15 71 7e 3d e1 11 2f 3e 21 8f 43 3e fc 90 04 3d
       0.062119562 0.17096664 0.19097568 0.03236483
000170 ca 6d ac 3d 18 48 c6 3d bc f2 1d 3d f5 29 e5 3d
       0.08419378 0.096817195 0.038561568 0.11189643
000180 d4 bd c7 3d 04 2a 21 bc e4 f5 8f 3d df 26 93 bd
       0.09753004 -0.009836677 0.07029322 -0.071851484
000190 df 46 de 3d 56 f7 45 3d 36 c1 2a be 54 f3 d5 bd
       0.10853361 0.04833158 -0.16675267 -0.10446802
0001a0 41 f4 ff 3d af cf 84 bd 31 d5 98 be db fa c9 bc
       0.124977596 -0.06484925 -0.29850152 -0.02465575
0001b0 63 3d 9a 3d 2c 4d 32 3e a5 a0 3f 3d 1d 1d 35 bc
       0.0753124 0.17412251 0.046784062 -0.011054304
0001c0 3b a6 67 3b 04 c2 c8 3b fb c3 cb 3d a4 14 d9 3d
       0.0035346884 0.006126644 0.0994949 0.1059964
0001d0 f2 50 a0 3d c3 cd 1f be 13 30 2f 3e ff ae 7f 3d
       0.07827939 -0.15605836 0.17108183 0.06242275
0001e0 4d 07 e2 3d 38 9d 3e be af 10 e5 3d 99 7f 21 bd
       0.11036549 -0.18614662 0.11184823 -0.039428327
0001f0 da 05 ae bd 3b 43 33 bc 8d b0 e9 3d 6e 6b a8 3d
       -0.0849721 -0.010941322 0.114106275 0.082236156
000200 c4 3e 27 be 29 1c 3a 3e cf b2 9a bd 65 bb ff bd
       -0.16332537 0.18174805 -0.07553636 -0.124869145
000210 6b db 26 3e c4 16 8d 3d 87 12 e7 bd 5e 11 15 be
       0.16294639 0.06889108 -0.11282831 -0.14557406
000220 66 82 6b bd 25 90 1e 3e d4 e6 c6 3d e4 d2 23 3e
       -0.057497405 0.15484674 0.09711996 0.15998417
000230 6c ee a0 3c 95 51 8b bd 96 b4 47 be ea 34 08 bd
       0.019644938 -0.0680267 -0.19502482 -0.033253588
000240 e1 4b 0d 3e b4 6d 30 3e 97 c0 d9 3c 67 3c 31 3e
       0.13798477 0.17229348 0.026581092 0.17308198
000250 17 74 1a bd 87 a6 81 bc 82 4c 8f bd 14 15 0f 3e
       -0.03770837 -0.015826477 -0.069970146 0.13972884
000260 23 fe 1f be 61 3f 3c bc e8 f9 8d 3d 01 6c 31 be
       -0.15624289 -0.01148972 0.069324315 -0.17326356
000270 37 48 1e bc a1 6b 92 3d bd 3a 4e bd ce f9 d5 bd
       -0.009660772 0.07149435 -0.050348986 -0.10448037
000280 36 d9 f9 bd 10 ee 2e 3e e7 0c 31 be 35 d1 fb 3d
       -0.12199633 0.17083001 -0.17290078 0.122957624
000290 f1 c8 26 be 46 16 dd bd fb 4c ed 3d de 35 b4 bd
       -0.1628759 -0.10795264 0.115869485 -0.08799337
0002a0 c6 76 90 3c b9 34 e8 3d 7d d3 08 be e9 36 9c 3d
       0.01763476 0.11338181 -0.13361926 0.07627661
0002b0 04 d1 ed 3d ce 55 3a 3d 12 94 38 3e f3 a2 a4 bd
       0.11612132 0.045491986 0.18025234 -0.080388926
0002c0 b4 4c 1c be f3 7e 55 3e 87 fd 3c be 20 dd d8 bd
       -0.15263635 0.20849209 -0.18456088 -0.10589051
0002d0 13 77 0e be 7c 26 19 be 7c 68 4a 3e d8 b9 f3 bd
       -0.1391261 -0.14956087 0.1976642 -0.11900681
0002e0 01 57 f2 bd 81 8d fe 3d 3a 5d a1 3d 19 13 48 3e
       -0.11833001 0.124293335 0.0787911 0.19538535
0002f0 3f c4 b4 3d 56 f2 42 be 9b 66 3d 3e 30 b2 02 3e
       0.088264935 -0.19037756 0.18496172 0.12763286
000300 ed 0f a9 3d ad fb 23 3d 48 b0 d8 3d 31 85 29 3e
       0.08254991 0.04003494 0.10580498 0.16554715
000310 6d 2f eb bc f5 ed 07 be d0 47 20 3e f6 87 ab 3d
       -0.028709138 -0.13274367 0.15652394 0.08375542
000320 dc 92 0b 3e 97 9a 09 bd d4 f5 b6 3b bc 1e 7c be
       0.13630241 -0.033594694 0.005583504 -0.24621099
000330 d3 cd dd 3d 98 3e 39 3d 60 80 18 bd 93 70 91 3d
       0.108302735 0.04522571 -0.037231803 0.0710155
000340 7c e4 08 3b 91 31 03 3c 26 47 da 3d b4 4a a6 bc
       0.002088814 0.008007423 0.10658102 -0.020299293
000350 c8 ed 28 bc df 23 07 bd 3f 08 31 3d d0 c1 5c bc
       -0.010310598 -0.032993194 0.043220755 -0.013473943
000360 ab 57 8e 3d d1 9c d6 3d 7a ab 12 3d f7 77 0a 3e
       0.06950315 0.10479129 0.035808064 0.13522325
000370 2a 67 08 3e 35 c9 5b 3d 01 98 36 3c 0a 65 58 3d
       0.13320604 0.053658683 0.011144639 0.052830733
000380 ca cb a5 3d d3 c1 50 3e 4c b5 2b 3e 20 b1 2c 3d
       0.0809551 0.20386438 0.16768378 0.042161107
000390 90 a6 82 3d 07 ab 8f 3c f3 68 79 3c 8b af cc bd
       0.063794255 0.017537607 0.015222776 -0.0999442
0003a0 9c 76 fa bb e6 92 df 3d 04 95 6e bd 22 b9 14 3e
       -0.007643534 0.109166905 -0.05824758 0.14523748
0003b0 22 6a 2e 3c 8a f6 91 3d fc d9 3c 3e 46 9f 91 3d
       0.010645421 0.07127102 0.1844253 0.07110457
0003c0 45 7e 6d bd 16 29 2b 3e 65 2f d3 3d 30 39 c5 3d
       -0.057981748 0.16714892 0.10311774 0.09630048
0003d0 91 e9 f7 bd 98 5a ff 3b b7 02 bf 3d 07 f6 4f 3e
       -0.12105096 0.007792782 0.0932669 0.20308696
0003e0 12 42 0f 3e 75 0d a1 3d ff 9b bd 3d 59 13 4e bb
       0.13990048 0.07863895 0.092582695 -0.0031444638
0003f0 d8 8e c4 3c b8 06 2e 3d 8e 54 1f 3e 81 73 89 bd
       0.023993894 0.042486876 0.15559599 -0.06711484

lstm.weight_hh_l0 f4 [256, 64]
000000 d4 d1 ba 3d ff e1 46 3d ce 19 94 bd c5 dd e3 bd
       0.09122053 0.04855537 -0.07231484 -0.111262836
000010 a4 32 9f 3a b3 89 4b be b7 04 9b bc b5 2b 11 3d
       0.0012145829 -0.19876747 -0.018923147 0.035442073
000020 92 2e 3b bd 01 32 8e 3d 74 be 87 3c 51 10 81 3c
       -0.04569871 0.06943131 0.016570307 0.01575485
000030 41 58 cb bd 00 6b 86 3d d9 82 e8 3d 7c 04 87 bd
       -0.099289425 0.065633774 0.11353082 -0.06592652
000040 c1 8a da bd be c3 5b bd 1f 67 55 bd 1a dc 67 3d
       -0.106709965 -0.05365347 -0.052100297 0.05660639
000050 fc 18 94 3d c5 02 8e bd 4a df 02 3e 6b dd 03 3e
       0.07231328 -0.06934122 0.1278049 0.12877433
000060 43 c8 d1 3d cb 77 36 bd d9 8f df bd 60 8a 87 3d
       0.10243275 -0.044547837 -0.10916109 0.0661819
000070 49 f2 4c bd af 4d b5 bd 2b 5d 4a 3d 01 d4 0a 3d
       -0.05003575 -0.088527076 0.04940526 0.03389359
000080 01 26 5e bc d9 49 93 3c bd 5d 8a 3d c1 1f 5a bc
       -0.0135588655 0.01797955 0.067561604 -0.013313235
000090 be 8d b5 bc 53 3c c1 3d c4 a2 a6 3d cd 33 48 bc
       -0.022162315 0.09435334 0.08136514 -0.0122193815
0000a0 30 00 a4 3d 21 af af 3d 91 91 05 3d a1 41 f1 bd
       0.08007848 0.08578325 0.032609526 -0.11780096
0000b0 23 e2 d5 3d 34 e3 d7 3d c9 60 c0 3d c0 b0 c8 bd
       0.10443523 0.105413824 0.0939346 -0.097993374
0000c0 f8 68 a8 3c 00 35 60 bd 5f 0c a0 bd c9 a8 22 3d
       0.020557866 -0.054738045 -0.078148596 0.039711747
0000d0 63 e4 51 3d 88 fa df 3d f2 8e da 3d 92 7e 3f 3c
       0.051243197 0.10936457 0.10671796 0.011687892
0000e0 1e f3 5e bd 55 d8 38 be 76 d3 eb 3d 3e cc c4 bd
       -0.054431073 -0.18051274 0.11514942 -0.096092686
0000f0 5f 1d bd 3b fd e1 fa bd 9d 13 84 3c 98 25 4c 3d
       0.0057713236 -0.12250135 0.016122634 0.04984054
000100 e2 d7 1a bd 58 a1 ba 3d ed 0b a1 bd 4d 57 1a 3d
       -0.03780354 0.09112805 -0.07863603 0.037680913
000110 79 2f 92 3d 36 cd 27 be be 02 1a bd 48 e1 51 bd
       0.07137961 -0.16386876 -0.03760027 -0.051240236
000120 55 64 00 3e c1 3a 8c bd 13 8a 25 bd d2 84 09 be
       0.12538274 -0.06847144 -0.04041488 -0.13429573
000130 95 a1 50 3d 69 f0 f1 bd 53 6a 91 3d 1c 84 2e 3c
       0.050935347 -0.11813433 0.07100358 0.0106516145
000140 f3 67 f2 bd a1 9b e7 3c e6 68 89 ba 70 5b 38 3d
       -0.11836233 0.028272452 -0.0010483533 0.045009077
000150 60 b6 77 3c a3 38 11 3e 54 66 81 3d 67 be 38 3d
       0.015119165 0.14181761 0.06318346 0.045103457
000160 10 2a 8f 3c 3c 91 a6 3a 2f b9 fa 3c f4 9d 85 bc
       0.017476112 0.0012708078 0.03060588 -0.01631067
000170 72 83 17 bd f7 12 7e bd 8b 43 71 3d af 4b 05 3d
       -0.03699059 -0.062029805 0.058902305 0.03254288
000180 64 30 b2 bc b2 bc f7 3d af 2b 4f 3d 64 43 c1 bd
       -0.02175159 0.12096538 0.05057877 -0.09436682
000190 0e 6d b1 ba 66 35 c4 3c 80 b9 3e 3d 7a ca fc 3d
       -0.0013536529 0.023951244 0.046563625 0.12343307
0001a0 55 28 14 bd 34 2c 07 3e 6b e7 df 3d 0b 91 82 3a
       -0.036171276 0.13200456 0.10932811 0.0009961439
0001b0 15 34 b5 bd 65 ee c7 3d a1 7e 68 3b cd 88 85 3d
       -0.088478245 0.09762267 0.0035475867 0.06520233
0001c0 8e 7a c8 bd 68 b7 30 bd 03 31 1c bd 98 5f b7 39
       -0.097890005 -0.04314366 -0.03813268 0.00034975703
0001d0 cd 73 9c bd b4 98 45 bd 6e d8 bd 3b ec 17 88 bc
       -0.07639275 -0.048241332 0.0057936227 -0.01661297
0001e0 5c 99 a1 3d d1 bd f4 3c a5 de 48 3d b0 95 8d bd
       0.07890579 0.029875668 0.049040455 -0.06913316
0001f0 99 a5 94 3d d3 7b d4 bc 56 4d a6 3d f5 1e 64 3d
       0.07258148 -0.02593795 0.081202194 0.055693585
000200 07 cb 16 bd 23 0d 46 3e f9 d0 6d bd 61 71 b2 bd
       -0.036814716 0.19340949 -0.05806062 -0.087130316
000210 08 1d 45 3d e3 eb dd bd 56 53 46 3d cf 12 ed 3b
       0.04812339 -0.108360074 0.04841932 0.007234908
000220 73 86 97 bc 93 e2 b0 3d 6a 08 16 3d 9f 09 ff 3d
       -0.018496728 0.086369656 0.036629118 0.12453007
000230 d2 87 87 3d f7 b0 7f 3d 0f e2 95 bd 51 f8 dd bd
       0.066177025 0.062424626 -0.07318508 -0.10838378
000240 ad ee 79 3d e0 5e fc 3c f0 fe 4f bd b4 ef 94 3d
       0.061018635 0.030806959 -0.050780237 0.07272282
000250 28 c0 b2 bc 1b 82 f8 3d 73 6a ae bd 05 d6 31 bd
       -0.021820143 0.12134191 -0.08516397 -0.043416996
000260 f7 08 3f bc cc 25 72 bd a5 49 a2 3d 67 b3 13 be
       -0.011659852 -0.059118077 0.07924203 -0.14423905
000270 2a 6d ba 3c 97 8e f5 3d 2e 9c c9 bc 3e a2 2e be
       0.022757132 0.119900875 -0.024610605 -0.17054078
000280 0d 21 ed bd 52 a8 04 3d d2 21 29 be a4 93 05 3e
       -0.115785696 0.032387085 -0.16516808 0.13044602
000290 42 bd 19 be a2 fc 04 bc 88 a3 72 3d 72 a8 b3 bd
       -0.15013602 -0.008116873 0.059237987 -0.08772363
0002a0 45 85 8c 3c 7d b9 81 3c 02 95 33 be 3a 09 e4 3c
       0.017153392 0.015835518 -0.1753731 0.02783643
0002b0 64 06 9c 3d ef 76 ab 3d a7 80 5d 3d f5 7f 1b 3d
       0.076184064 0.08372294 0.05407777 0.037963826
0002c0 38 1b c6 bc f8 98 2c 3e 33 15 c3 bd 7b 6d 25 bd
       -0.0241829 0.16855228 -0.09525528 -0.04038761
0002d0 67 0e 72 3c d2 b6 0f be 37 47 0d 3d 8c 3f 88 bc
       0.014773942 -0.14034584 0.034491744 -0.016631864
0002e0 ee 79 8f bd b7 51 90 ba e1 17 02 3e f9 af 1c 3d
       -0.07005678 -0.0011010681 0.12704422 0.038253758
0002f0 6b 71 a9 3d cb ea de bc 8c d5 c0 3d cf 7a 1b 3e
       0.08273586 -0.027211567 0.09415731 0.15183567
000300 31 80 0b be 0f 6c 0b 3d de 99 b8 bd 14 0b 08 bd
       -0.1362312 0.0340386 -0.09013723 -0.03321369
000310 a9 12 57 bd a8 b9 09 be 88 b5 54 bd c4 c4 4b bd
       -0.05250803 -0.13449728 -0.051930934 -0.049748197
000320 83 33 5b bc 2a 3d b3 3d 86 72 bf bd b0 6d 71 bd
       -0.013378981 0.087519005 -0.093480155 -0.058942497
000330 30 28 1b bd 95 ae bb bd e8 6d f1 bd 92 60 82 3d
       -0.037880123 -0.09164158 -0.11788541 0.063660756
000340 93 34 4e 3d 0d 49 03 3d 95 be 1a bc a1 5c a4 3d
       0.050343107 0.03205209 -0.009444852 0.0802548
000350 a5 0f a2 3d 05 6f 38 bc 29 56 9f 3d 0a 38 68 3d
       0.0791314 -0.011256938 0.077801056 0.056694068
000360 ef 98 af bd 3b a4 0a 3d 93 14 80 bd 4a 53 f0 bd
       -0.08574092 0.03384803 -0.06253924 -0.11734636
000370 cf 3a ff bd 37 d0 9e 3d 17 60 15 bd 39 a2 6b bd
       -0.12462389 0.077545576 -0.03646859 -0.057527754
000380 f3 62 c6 bb a4 44 bd 3c 20 22 d7 3d 8b e0 96 3c
       -0.006054276 0.02310402 0.10504556 0.018417617
000390 94 c2 d4 bd 9b 28 00 3d 38 08 b4 3d 9b 71 06 bd
       -0.10388675 0.031288724 0.0879063 -0.032823186
0003a0 a0 f4 ba bc 08 53 f5 3c 33 6d 59 3d 26 da c4 3c
       -0.022821724 0.029946819 0.053082656 0.024029803
0003b0 cc 86 cc bd 54 fe 92 bd 29 01 5a bd 0d 94 82 bd
       -0.09986648 -0.071774155 -0.053223763 -0.06375895
0003c0 d9 9c 05 be 0f f7 a7 bd cc a4 7d bd d2 3e ae 3b
       -0.13048114 -0.082014196 -0.06192474 0.0053175474
0003d0 69 86 7e bd b0 54 08 bb 7e 79 97 bd 7d f3 96 3d
       -0.062139902 -0.002080243 -0.0739622 0.073706605
0003e0 5c 89 eb 3d 17 72 2d be 9d d0 a9 3d 40 8a 4b bd
       0.115008086 -0.16938053 0.08291743 -0.049692392
0003f0 2e 6a 49 3d 91 eb b5 bd 4a 3f b2 bd 62 ce 93 3d
       0.049173526 -0.08882821 -0.08703478 0.07217099

lstm.bias_ih_l0 f4 [256]
000000 3f c1 22 3d cd 98 92 bb 42 52 0f bc 18 c5 dd 3b
       0.039735075 -0.0044737817 -0.008747639 0.00676788
000010 b3 66 e4 ba 7a 1c 90 bd a6 0c 13 3e d4 0a 02 3e
       -0.0017425626 -0.070366815 0.14360294 0.12699443
000020 f9 a7 cc 3b ee 9f c6 3c b8 56 26 3e 84 74 8a bd
       0.00624561 0.024246182 0.16244018 -0.06760505
000030 46 5b a8 3d 72 fb ab 3c 93 26 22 3e ee 1d cc bd
       0.08220534 0.020993922 0.15835027 -0.09966646
000040 61 68 fd bc 05 c5 32 3e a6 04 30 3d 03 1d 2d bd
       -0.03093356 0.1745797 0.042973183 -0.042263996
000050 85 c0 8c 3d b1 fe e3 3d 09 d2 fc 3d 72 3b 2f bd
       0.06872658 0.11132563 0.123447485 -0.0427813
000060 c1 e9 9a 3a e5 15 f3 bd d1 5a 80 3d 26 50 28 3c
       0.0011818932 -0.118694104 0.06267322 0.010273015
000070 cf 0a ec bd fa 39 e2 3d 7e aa 2b 3d 40 80 c2 bd
       -0.11525499 0.110462144 0.04191064 -0.09497118
000080 f2 97 c2 3d 64 e4 1a 3c 30 93 79 bd 95 d0 c1 3d
       0.095016375 0.009453867 -0.060931385 0.09463612
000090 7b 78 c2 bd 27 90 ec 3c fb 9b 49 bd 28 9b d3 bc
       -0.09495636 0.028877331 -0.04922102 -0.02583082
0000a0 62 7b f2 bd b5 0d 85 bd ee 7f e7 3c a4 31 31 bd
       -0.1183994 -0.06496755 0.028259244 -0.04326023
0000b0 b8 dd cb 3d ff e5 a9 3d 7b 15 44 bd 16 40 a8 bd
       0.09954399 0.082958214 -0.047872048 -0.082153484
0000c0 ee fe 9d 3d ea 25 14 3e 20 ec af 3d 09 be 4a 3b
       0.077146396 0.14467588 0.08589959 0.0030936024
0000d0 f2 de 2a 3e fb 96 64 3d ed 70 25 bd 0e 6e bf 3d
       0.1668661 0.05580805 -0.040390898 0.09347163
0000e0 0b 66 bc bd 30 d7 cb 3d c7 92 3c bb 91 ae d6 3d
       -0.09199151 0.09953153 -0.002877401 0.10482515
0000f0 84 04 34 bd b0 3f d0 3d c0 a3 28 3d b7 5d b7 bc
       -0.04394962 0.101683974 0.04117179 -0.022383554
000100 42 13 79 3d 53 42 ab 3c b7 41 80 3d f5 97 66 3d
       0.06080938 0.02090565 0.06262534 0.05629726
000110 1b f8 63 bd d6 27 3a 3d 9c dd d3 bb 89 65 87 bc
       -0.055656534 0.045448147 -0.006465627 -0.016527908
000120 de ee fa bd c4 83 c5 bd 10 f6 23 3d a8 ef f0 3d
       -0.122525916 -0.09644273 0.040029585 0.11764461
000130 ad 1c 35 3c ae ce b1 3d 92 ba ac bd 27 6d 2e 3d
       0.0110542 0.08681999 -0.08434023 0.042584565
000140 c7 e1 82 bd 3c d5 87 bd 43 8d 86 3d 4a 36 a5 bd
       -0.0639072 -0.06632468 0.06569912 -0.080669954
000150 93 73 a9 bd 69 d3 1c 3d cf ba 1a 3d 3b e6 cd bd
       -0.08273997 0.038287554 0.03777581 -0.100536786
000160 35 cb a4 bd d0 9f 65 bb 74 2c c6 bd b1 6f 1b 3d
       -0.08046571 -0.0035037883 -0.096764475 0.037948314
000170 6a c9 30 bb 1f 7c ca 3d f1 53 6c bd c8 a8 cd bc
       -0.002697552 0.098869555 -0.05769724 -0.025104895
000180 3d 03 f6 3d 9c d1 13 3c 75 84 24 3d 75 24 09 3d
       0.120123364 0.009022143 0.040165383 0.033482034
000190 60 8e b6 bd d7 4e c6 3b 03 d8 d7 bd 71 c8 bd bd
       -0.089138746 0.006051879 -0.10539248 -0.09266747
0001a0 60 34 af 3d 18 30 c1 bc 88 eb e4 3d c2 47 fa bc
       0.085549116 -0.023582503 0.111777365 -0.030551795
0001b0 6d 06 d7 bc 98 df 2b bd 6b a9 24 bd 8b 1a f0 bd
       -0.026248181 -0.041961282 -0.040200632 -0.11723813
0001c0 a1 14 37 3d 4b 5a 51 bd 98 df f2 3d f9 d5 0b 3d
       0.044697408 -0.0511115 0.118590534 0.034139607
0001d0 d8 f3 02 be 78 6e 4c 3b 50 6d c4 3d a8 4c d3 3c
       -0.12788332 0.0031193774 0.09591162 0.025793388
0001e0 a1 5f 9f bd f6 d8 c3 bc e2 9c dc bc f2 14 c1 3a
       -0.07781912 -0.023907166 -0.026930276 0.0014730974
0001f0 98 c9 90 bd d3 6b 50 bc 3b 9d f4 3c 4a 00 33 3b
       -0.07069701 -0.01272102 0.02986013 0.0027313405
000200 a1 f0 60 3c 6f 4d d6 ba d7 d3 40 3c e2 68 36 3c
       0.013729245 -0.0016349981 0.011769257 0.011133404
000210 05 b1 0e be 9a 29 2e bd fc 45 99 3d cd e5 13 bb
       -0.13934715 -0.042520143 0.074840516 -0.0022567392
000220 05 c6 a5 3d 9c 9d 9e 3d ca 15 b4 3d eb 60 71 bb
       0.0809441 0.07744905 0.087932184 -0.003683145
000230 ac c5 75 bd 76 bd ab bd 5e f9 62 3d 1d 48 a3 bc
       -0.060002968 -0.08385746 0.055413596 -0.019931847
000240 b4 15 f1 bd d8 24 78 bd 6d 5d 41 bc b8 40 53 3c
       -0.11771718 -0.060582012 -0.01180206 0.012893848
000250 9c 76 24 3d 2b a2 93 3d e5 02 3c 3b f2 a4 71 3d
       0.040152177 0.072086655 0.0028688249 0.058995195
000260 93 fe 4c bd 77 b6 bd bd dd 6b f8 bd 04 af c5 3d
       -0.05004747 -0.09263318 -0.12129948 0.09652522
000270 ef fd 33 3c 29 ee 76 bd 29 fe 1d 3c 4b a7 91 bd
       0.010985835 -0.06028572 0.009643116 -0.07111987
000280 e3 b3 84 3d 74 80 06 bd d5 93 85 bd 22 57 68 3d
       0.06479623 -0.032837346 -0.06522337 0.05672372
000290 fa e7 66 bc 3f 4e ad bd 69 8f e9 bd 81 f2 4a 3d
       -0.014093393 -0.0846219 -0.114043064 0.049547676
0002a0 b4 3d 3c bd 77 3c 3e 3d d7 89 16 3c c5 43 92 3d
       -0.045957282 0.046444383 0.009188137 0.07141832
0002b0 84 f0 fd 3a 81 bc 50 3d 6b 49 91 3d 50 c2 53 3d
       0.0019374047 0.05096102 0.070940815 0.051698983
0002c0 8e 58 bb 3c 5c 23 9a bd fd 77 80 3d 67 a3 e1 3c
       0.022869375 -0.075262755 0.06272886 0.027543737
0002d0 3d 17 18 3d ab 64 ca 3d ec 81 c8 3c 06 6f 97 bd
       0.037131537 0.09882482 0.024476014 -0.07394223
0002e0 33 6f 8c 3d 68 cf 53 3d 48 d3 ce 3d 22 ce ab 3c
       0.06857147 0.05171147 0.100988925 0.020972315
0002f0 7f ee bf 3c 4d 3d 3e bd fc bd 61 3d 4c 0f 6b bd
       0.023429153 -0.04644518 0.055112824 -0.057387635
000300 29 d6 1b bd 89 0d a1 bb f4 6e 05 3e 6b 19 cc 3d
       -0.038046036 -0.0049149436 0.13030607 0.099657856
000310 a1 50 d3 3d 7b 6f 4f 3d 74 e8 1a 3e 3d 80 2e 3e
       0.10318113 0.050643425 0.15127736 0.17041107
000320 fd b4 12 bc e6 bb 50 3d 92 5b 8a 3d 1d ba e6 3d
       -0.008954284 0.050960444 0.06755747 0.11265967
000330 43 89 a7 3d 2e 0a af 3d 7a fd ed bb 16 f7 5f bd
       0.081804775 0.085468635 -0.007262883 -0.054679
000340 53 c3 39 bb 96 5c 13 3e e6 14 ae bc fe 4d 8a 3d
       -0.0028345182 0.14390787 -0.0212502 0.06753157
000350 f3 89 b5 bc f2 a2 08 3d bf db 04 3e 54 73 00 3e
       -0.022160506 0.03335852 0.12974451 0.12543994
000360 e4 29 97 bd e7 1f 63 3d 77 33 62 bd 31 88 de bc
       -0.07381037 0.055450346 -0.055224862 -0.02716455
000370 66 c0 ef 3b 2c b3 cd 3c 33 9d 07 be 59 ed ef 3d
       0.007316637 0.02510985 -0.1324356 0.11715192
000380 3e 28 56 3d 37 8b 07 3e 79 14 ee 3d 25 d7 ba 3d
       0.05228447 0.132367 0.116249986 0.09123067
000390 90 6c b1 bc 23 36 3b 3d 3c 03 f5 bd 92 ce 16 bd
       -0.021658212 0.045705926 -0.119635075 -0.036818095
0003a0 21 0b 6c 3d 0d 43 ba bd 43 78 16 bd 45 e9 ac 3d
       0.0576278 -0.0909482 -0.036735784 0.0844293
0003b0 05 8e e0 3d fa 5b 6f bd 00 40 ee 3d ba 5f e5 bd
       0.10964588 -0.058437325 0.11633301 -0.11199899
0003c0 a2 27 a5 bd 79 e1 99 3d b5 13 b8 bc 2a 99 03 be
       -0.080642 0.075137086 -0.022470335 -0.12851396
0003d0 9c a8 bb bc 23 af 49 3d 99 51 af 3d 49 d1 10 bb
       -0.022907548 0.04923929 0.085604854 -0.00220974
0003e0 0c 33 b2 3c 9e 05 95 bb 7b 71 9a bc bc 72 ff 3d
       0.021752857 -0.0045477888 -0.01885294 0.12473056
0003f0 29 9b e1 3b 43 53 c8 3d 04 d8 35 3d 0d 9a 92 3d
       0.0068849516 0.09781506 0.04439546 0.07158289

lstm.bias_hh_l0 f4 [256]
000000 a9 b9 c4 bd ed 64 47 3d 9f bc 91 3d 0a 63 a3 3d
       -0.09605724 0.048680235 0.07116055 0.079778746
000010 66 bc 0d 3b 69 e7 ed bc 6d e6 1f 3e 97 df 17 3e
       0.0021627187 -0.029041009 0.15615244 0.14831387
000020 d9 cb 95 bd de 18 80 3d 84 b8 a6 3c 60 75 97 3d
       -0.073142715 0.06254743 0.020351656 0.073954344
000030 6f 86 75 bd 41 0b f4 bd 1d e1 24 3d 2e 86 db 3c
       -0.05994266 -0.11916209 0.040253747 0.02679738
000040 3e c7 81 bc 69 26 20 3e a4 b9 c3 3c fb 11 84 3d
       -0.015842076 0.15639652 0.023892231 0.06448742
000050 45 69 a8 3d 56 e1 07 be 71 ea 63 3d b8 6d 81 3c
       0.082232036 -0.13269553 0.055643503 0.015799388
000060 87 ef 9a bd ff 97 5d 3d a7 00 e3 bd 3e d6 3a bc
       -0.075652175 0.054100033 -0.11084109 -0.011403618
000070 ef 59 73 3d c8 17 b1 bd 11 ee d2 3d cc ec 34 3d
       0.05941194 -0.08647114 0.10299314 0.04417114
000080 be 0b ae bc dd ee 06 3e b4 ed 97 bc 17 b6 96 bc
       -0.021245833 0.13177057 -0.018545963 -0.018397374
000090 a7 2a 98 3c cf 0c 09 3d 33 36 58 bd a2 f3 b0 3d
       0.018575026 0.03345948 -0.052786063 0.08640219
0000a0 f7 05 be 3c 73 f6 86 3d d9 fb 8b 3d 14 01 92 bd
       0.023196204 0.06589975 0.068351455 -0.07129112
0000b0 39 40 7a bd 32 a5 94 bc 91 56 bd bd d0 c5 9e bd
       -0.061096404 -0.018145178 -0.09245027 -0.077525735
0000c0 12 59 e5 3d e0 4a a3 3d ee 9d 96 bd c5 8a 1c 3d
       0.111986294 0.07973266 -0.073543414 0.03821828
0000d0 07 3a 7f 3d 25 e9 e2 3c 2e 39 8e bd 84 ee bf 3d
       0.0623112 0.027699063 -0.069445 0.09371665
0000e0 4b 9c f7 3d 9a e8 7b 3d 20 7f 8f 3d c0 17 0b 3e
       0.120903574 0.061501123 0.07006669 0.13583279
0000f0 c2 30 16 3d 4c aa e8 bd dd 7c 0c 3c 7b 28 d1 bc
       0.036667593 -0.113606066 0.008574692 -0.025531998
000100 8a 00 94 3d 93 9c ba bd 7b 97 f6 3c 73 fd c5 3d
       0.07226665 -0.091118954 0.030101528 0.09667482
000110 89 30 49 3d bd 7d 81 bd 0f bd 16 3d b9 a8 fe 3d
       0.049118552 -0.06322811 0.036801394 0.12434525
000120 b2 32 14 bd d2 f5 c5 bb c8 ad 17 bd 78 46 a9 bd
       -0.03618116 -0.006041267 -0.037030965 -0.08265394
000130 b0 56 cf bd 0f 2a b8 3b 5e d4 da 3d cb 65 85 3d
       -0.10123956 0.005620248 0.10685037 0.06513556
000140 6a 7f 12 bd ba dc 72 bd c9 38 14 be dc 40 9e bd
       -0.035766043 -0.059292533 -0.14474787 -0.07727215
000150 cc 7d 8b 3a a1 5e 31 3d 6b 74 13 bd 0d 56 86 3d
       0.0010642349 0.043303136 -0.035999697 0.06559382
000160 63 08 b0 3d 79 ae 10 be 42 eb c5 bd 48 06 0b 3e
       0.0859535 -0.14129056 -0.096640125 0.13576615
000170 5c 7f 8e 3c ce 5e 1c 3d 5c ee b9 3c 0b f5 9a bd
       0.017394714 0.03817635 0.022696666 -0.075662695
000180 75 cd f1 3d c5 50 23 bd 25 88 d5 3d 5c 17 8b bd
       0.11806766 -0.03987195 0.10426358 -0.06791565
000190 f2 4d ca bd 4b db 1a bb 4b 90 a5 3d d1 48 c2 bd
       -0.09878148 -0.0023629244 0.08084162 -0.09486545
0001a0 97 3a 80 bd ac 1c 10 bc ca 3f 32 3d 5e 6d 71 bc
       -0.06261175 -0.008795898 0.043517865 -0.014735548
0001b0 6c 6e 27 3d 22 33 32 bd a1 75 1f bb 01 77 a8 3d
       0.04087679 -0.043505795 -0.0024331587 0.08225823
0001c0 57 14 d6 bd 61 a1 1d bd be 85 bf 3d 55 18 78 3d
       -0.10453098 -0.03848398 0.09351681 0.06057008
0001d0 cf 42 81 3d f4 48 2a bd 8e 3a b7 3d 66 f3 92 3d
       0.06311571 -0.04157348 0.08946715 0.07175331
0001e0 57 6b 8d 3d 1f 7c 12 3d 73 ab 0f bd 5a a3 ae 3c
       0.06905239 0.035762902 -0.035075616 0.021318126
0001f0 3a 70 8b bd 4e 5c 62 3d 56 d2 8a bd 57 82 d9 bd
       -0.06808515 0.05526381 -0.067784 -0.106205635
000200 a9 cc 8b bd 5f ba 6e 3c 13 02 be bd 1b db 0a bd
       -0.06826145 0.0145708015 -0.092777394 -0.03390036
000210 8c 20 9f 3d 56 78 e3 bd 70 2f b8 bb 2f 4f cf 3c
       0.0776988 -0.11106937 -0.0056208894 0.025306312
000220 d7 ad 93 3d c7 b1 9d bb da b0 d6 bd a6 5e 71 bd
       0.07210892 -0.0048124525 -0.104829505 -0.058928154
000230 86 96 ba bc f1 33 03 bd 3d b1 e2 3c ec 1e 61 bd
       -0.022776853 -0.032031957 0.027672404 -0.05496113
000240 ae d7 c4 3d ad 87 b5 3d e4 e5 b5 bd 3f bd d9 bd
       0.0961145 0.08863769 -0.08881739 -0.10631799
000250 8f c6 af 3c 4f ef 31 3c e4 8e 7b bc b6 3c 00 bb
       0.021456985 0.010860278 -0.015353892 -0.0019567437
000260 aa 25 d8 bd 9d 30 9b bd 5f 8e cc 3d 5c 17 8d bd
       -0.10554059 -0.075776316 0.09988093 -0.06889221
000270 eb 61 80 bd ac 6e 8c 3d 07 0b 03 3d c4 a6 78 3d
       -0.06268676 0.068570465 0.03199294 0.060705915
000280 18 27 c8 bd c0 d5 3f 3d 5e b8 e6 3c a4 75 ca bd
       -0.097730815 0.046834707 0.028164085 -0.098857194
000290 ea 77 9b bc 2b 97 ea 3c 65 40 32 3d 06 49 d8 3b
       -0.018978078 0.028636536 0.043518443 0.006600502
0002a0 16 87 f9 bc b2 58 eb 3c 27 dc 88 3d 0c 0b 48 bc
       -0.030459922 0.028728817 0.06682616 -0.012209665
0002b0 cb 74 1c bd 57 2a b3 3b 8c bd 4c bc 4f 34 8c 3d
       -0.03819732 0.005467694 -0.012496363 0.068459146
0002c0 e5 aa 8d 3d 71 42 3c bc 42 10 6c bc d3 b0 9b 3d
       0.06917361 -0.01149045 -0.014408173 0.07602086
0002d0 ab f8 8b bd 22 bd 1b bb b6 8b 44 bd 50 cf 9a 3b
       -0.06834539 -0.0023763855 -0.0479848 0.0047244206
0002e0 c5 0d d2 bd 38 96 cf bd d2 65 d1 3d bf 6f d5 3d
       -0.102565326 -0.10136074 0.10224499 0.104217045
0002f0 3f 0e b2 bd 76 39 99 bd f9 46 d7 3b 68 42 35 bd
       -0.086941235 -0.07481663 0.00656974 -0.044252783
000300 87 6f d0 bd 0a 1f 1e 3e 98 ef dc bc a7 64 3d bd
       -0.10177522 0.15441528 -0.026969716 -0.046238568
000310 09 43 ba 3d 79 f7 df bd ab ca c4 bc a8 13 8c 3d
       0.09094817 -0.109358735 -0.02402242 0.06839687
000320 26 76 64 3d a2 51 26 bd b9 59 00 bd 18 d4 9b bc
       0.055776738 -0.040605195 -0.031335566 -0.019022033
000330 3d 4b 39 3c 81 5d 11 bd b4 ad 6d bd 25 2b 1b be
       0.011309442 -0.035489563 -0.058026984 -0.15153177
000340 b1 6b 2a 3d 12 9c 0d 3e 10 18 a7 3c d8 d2 38 bc
       0.04160661 0.13829067 0.020397216 -0.011280738
000350 c5 28 00 be 70 b8 4f 3d 8b 08 a9 bd 7d 84 e0 3d
       -0.12515552 0.050713003 -0.082535826 0.1096277
000360 b4 dc 8b bd 1d 4a ca bc d9 49 b2 bd 05 5e 0b 3e
       -0.06829205 -0.024693543 -0.087054916 0.13610084
000370 95 78 9b 3c 1c ae 44 bd eb 8f 2a 3d 03 14 a6 3d
       0.018978396 -0.048017606 0.041641157 0.08109286
000380 ea 0c 53 3d 3b 43 c1 3d f5 09 78 3d c7 be a3 bd
       0.051525988 0.09436651 0.06055637 -0.07995372
000390 27 67 aa 3d 9b 49 2e 3c 74 61 7c bd fe 70 0c bd
       0.08320456 0.010637666 -0.061616376 -0.034287445
0003a0 87 78 c0 3d 1b 6b 01 be d8 cb a6 3d b9 0b b9 3d
       0.09397989 -0.12638514 0.08144349 0.09035439
0003b0 09 71 f2 bc c5 04 d2 bb 27 d9 a6 3c f9 7b bd bc
       -0.029594915 -0.00640926 0.020367218 -0.023130404
0003c0 e6 4c fc 3d d8 35 75 3d ed 72 8c bc e0 c6 2f 3b
       0.12319355 0.059865803 -0.017144645 0.002682142
0003d0 6a 1f 84 bd 71 2d 52 3d 69 bf d9 3d 9c b6 1e bd
       -0.06451304 0.051312868 0.10632212 -0.03874837
0003e0 eb 86 3c bd 56 e5 1b 3d f0 90 62 3d 16 e7 8b bd
       -0.046027105 0.03806051 0.055314004 -0.068311855
0003f0 ae 3a 01 be b1 3b f0 3d ae 42 05 bd 8c 2d 0a 3e
       -0.12620041 0.11730135 -0.032534294 0.13493937

lstm.weight_ih_l1 f4 [256, 64]
000000 ee 39 0f bd c3 e2 fb 3d d8 b8 aa 3d 5b 39 e6 bd
       -0.034967355 0.12299111 0.083360374 -0.112414084
000010 ca 40 95 bd a0 76 c0 bc 43 f6 ea bb 74 5f a4 3d
       -0.07287748 -0.023494065 -0.00717047 0.08026019
000020 d8 10 14 bc a3 1a 21 3e e9 91 7d 3d 5b 6e 12 be
       -0.009037219 0.15732817 0.06190673 -0.1429991
000030 d5 82 24 bd ae 6b e2 bc e4 ca 98 3d f1 aa ea bd
       -0.040163834 -0.027639236 0.07460573 -0.11458386
000040 f6 cb ca 3d f2 1b d1 3b 16 5f e3 bd 00 90 c5 bc
       0.09902184 0.006381505 -0.111021206 -0.024116516
000050 af 40 65 3d 59 ba 0b 3e 6d ad e1 bb 17 8e 4f 3c
       0.05596989 0.13645305 -0.006887129 0.012668154
000060 99 2e f6 3c ed a4 05 bd c9 3c 1d 3e 0a 3a 9a 3d
       0.030051516 -0.03262799 0.15355219 0.07530601
000070 02 8d b9 bd 74 fd 47 bc 54 f0 c4 bd 39 3b ae bd
       -0.09060098 -0.012206424 -0.096161515 -0.085073896
000080 ae f1 ae bd ee 28 e6 bc cb b9 28 be f4 b9 12 3e
       -0.085421905 -0.028095689 -0.16477124 0.14328748
000090 77 28 08 be 37 31 08 be 2f 86 93 3d 7b 50 8a bd
       -0.13296686 -0.13300024 0.07203328 -0.06753632
0000a0 b3 7e a3 bb 8a 75 4b 3b 45 34 89 bd 68 7d 89 3d
       -0.004989469 0.00310454 -0.06699423 0.067133725
0000b0 d0 b8 21 3e a5 d6 39 3d 6f 8f d8 3c 72 f5 ac bd
       0.15793157 0.045370717 0.026435582 -0.084452525
0000c0 8b 80 2a be b8 cd 14 3e ea f8 c6 3c d4 0f b8 bd
       -0.16650598 0.145316 0.024288613 -0.08987394
0000d0 bd 0c 66 bd 36 08 d6 3d 7a 09 7b 3d 7d 68 30 3d
       -0.056164492 0.10450785 0.061288334 0.043068398
0000e0 6d 61 88 3d 3d 67 ff 3c be fc 9a bd 8b 49 b9 3d
       0.066592075 0.031177158 -0.07567738 0.0904723
0000f0 15 d3 8f 3d 03 8c 82 bd 59 9e 00 3e 97 00 ad 3d
       0.070226826 -0.06374361 0.12560405 0.08447378
000100 3b af cc 3d 90 39 2a 3d f0 ee ac bc f3 4e 8f 3d
       0.0999436 0.041558802 -0.021110028 0.0699748
000110 2d e9 bb 3c fd 54 c3 bc 10 15 18 3c b0 27 ab bd
       0.022938335 -0.023844237 0.009282365 -0.08357179
000120 39 65 47 3c 51 bb db bd 24 88 b1 3d 27 5a 87 3d
       0.012170129 -0.10729087 0.08668545 0.06608992
000130 d9 dd ee 3d 12 69 f3 bd d8 e3 f3 bd 55 7d 80 bd
       0.11663408 -0.11885275 -0.11908692 -0.06273905
000140 07 f2 74 bc a6 e9 d2 3c b6 a3 9c bd 75 af 5f 3d
       -0.014950282 0.025746178 -0.07648413 0.05461069
000150 fd 46 a6 3d 6e b0 c0 bd e1 af a3 3d 9b 27 81 bc
       0.08119009 -0.09408651 0.079925306 -0.015765956
000160 d8 7e e5 bd c0 e5 a4 3d 09 c4 3e 3d 5e c8 21 bd
       -0.11205834 0.08051634 0.046573672 -0.039497726
000170 83 ea 66 bd 83 b7 bb 3d a4 f3 83 3b 57 3e 8d bd
       -0.05637599 0.091658615 0.004026847 -0.06896656
000180 8d c1 bd 3c fe d5 cf 3d 56 aa 63 bd f4 a7 bf bd
       0.023163581 0.10148238 -0.055582367 -0.093582064
000190 02 81 38 bd 85 44 38 3d 7c 88 56 3d 68 06 e9 3d
       -0.045044906 0.04498722 0.052376255 0.11378175
0001a0 e8 1c ec 3d 76 29 e1 bc c9 6b ca 3b 1c 2d c0 3d
       0.11528951 -0.02748559 0.0061774 0.09383604
0001b0 9b 41 8e 3d b1 ac d7 3d a7 af 13 3d 10 56 70 bd
       0.06946107 0.10530985 0.036056187 -0.058675826
0001c0 4a 7f 90 3c 70 16 24 3e bc 5d a4 3d 49 7f 01 bd
       0.017638821 0.16024184 0.08025691 -0.03161553
0001d0 85 2a a7 3c 98 11 77 bc 17 e7 1b 3d cb c7 91 3c
       0.020406017 -0.015079878 0.03806218 0.017795464
0001e0 45 b6 e8 3c 67 1d 30 3d aa ac 5a 3c 56 c4 0f 3d
       0.028407225 0.04299679 0.01334683 0.03509935
0001f0 bc a1 45 3d 5e 89 da 3b 73 b5 98 3d 0e 00 16 bd
       0.048249945 0.0066692075 0.07456484 -0.036621146
000200 ee af 02 3e f0 98 79 bd 63 b4 6d 3b 9e e0 5b bd
       0.12762424 -0.06093687 0.003627085 -0.05368101
000210 d5 08 94 3b be 5b e0 3d a7 b2 4d bd b9 35 5d bd
       0.0045176544 0.109549984 -0.050219204 -0.054006312
000220 7a cf 04 be 9b 28 74 3c af bf 13 be 97 5b 78 3d
       -0.12969771 0.014902259 -0.1442859 0.060634222
000230 8f 45 eb 3d 88 92 54 bd d0 43 e6 bc 01 cd d2 bd
       0.114878766 -0.051897556 -0.028108507 -0.10293008
000240 f9 c2 bb bd 45 79 8e 3d 03 08 0b bd 08 11 0c be
       -0.091680475 0.06956724 -0.033943187 -0.13678372
000250 d4 a3 88 bd ee 9a bb 3d c6 74 46 bc 85 b8 57 3d
       -0.06671873 0.0916041 -0.012112802 0.052666206
000260 2d 94 a4 3c d5 7b c5 bd 12 af 74 3d 04 0c 26 bb
       0.020090187 -0.0964276 0.059737273 -0.0025336752
000270 0c 4d e6 3d ea 55 7b 3d fe 03 25 bd 7c 84 10 3e
       0.11245164 0.06136123 -0.04028701 0.14113039
000280 89 9b 7a 3d 55 58 af bd 6d a3 a4 bc 9a f8 d8 bd
       0.061183486 -0.0856177 -0.020097459 -0.10594292
000290 9a 45 82 3d 11 99 6c bc 9e cd f8 bd 0b 2e e8 bd
       0.06360932 -0.014440791 -0.12148593 -0.11336907
0002a0 41 89 b3 bd ba 70 3a bd 6b 23 41 3d 92 e5 8c 3c
       -0.087664135 -0.04551766 0.047152918 0.017199311
0002b0 b8 75 1a be aa 98 1c 3d 0b ed 49 3d 88 01 05 be
       -0.15083969 0.03823153 0.049298327 -0.12988865
0002c0 36 f0 93 3d 07 08 0c bd 8c 9b 17 3e 77 00 49 bb
       0.07223551 -0.034187343 0.1480543 -0.0030670443
0002d0 bb f9 c8 bd a7 e8 24 3d 3c b5 9c 3c 55 b0 03 3d
       -0.09813257 0.040260937 0.019129388 0.032150585
0002e0 c6 28 f3 3d 07 87 34 3d 71 e7 7f 3d 62 d7 c3 bc
       0.11873011 0.044074085 0.06247658 -0.023906413
0002f0 88 f5 b9 3d 83 4f ed bc c3 fe 37 3d 4f e5 7b bd
       0.090800345 -0.028968578 0.044920694 -0.061497983
000300 f9 49 d7 bd 65 12 4a bc c8 23 cb 3d cb 4b 70 3d
       -0.10512156 -0.012333487 0.09918934 0.05866603
000310 18 c2 2e be 9e 36 20 3d ae e9 47 bd 21 b0 85 3d
       -0.17066228 0.039114587 -0.04880684 0.065277345
000320 41 1f 10 3e 75 75 ce 3d 20 28 36 bc 07 28 95 be
       0.14074422 0.10080997 -0.011117965 -0.291321
000330 c3 78 bf 3d 34 98 90 bd eb eb f5 3d 4f 84 f8 bd
       0.09349205 -0.070602804 0.120078884 -0.12134611
000340 fc d0 c2 bd 86 ad be 3d 8e 95 0c 3d 7e a5 88 be
       -0.09512517 0.09310441 0.034322314 -0.2668876
000350 50 ef 0f 3e ae 83 89 bb c0 55 96 3d 61 52 d6 bd
       0.14056134 -0.0041966056 0.07340574 -0.10464931
000360 3a 09 c7 bd f6 53 bf bb 41 b1 f9 3c b0 d7 86 3d
       -0.09718557 -0.0058388663 0.030480029 0.06584108
000370 cf e6 e6 3d 84 d5 34 bc 22 92 76 bd 94 d9 1a bc
       0.11274492 -0.011037234 -0.060197957 -0.009451289
000380 bd 7b b5 bd 7d da b2 3d 58 cd 5a bd aa 33 3f bd
       -0.08861492 0.087330796 -0.053418487 -0.04668013
000390 fc db 0d 3e 5e 2c 83 3d 59 48 c8 bd 2e 53 2c 3e
       0.13853449 0.06404947 -0.09779424 0.16828606
0003a0 35 99 90 bc b1 a9 1d 3c f2 4f dd 3d c7 d4 0a 3d
       -0.01765118 0.009622977 0.10806264 0.033894327
0003b0 ce 08 ac 3c d3 bc 3f 3d f7 f1 9b 3c 40 32 07 3d
       0.021000292 0.046810936 0.019036276 0.033006907
0003c0 be 17 88 bd d2 93 ea 3c 36 e0 a5 bc 9f a3 e9 3d
       -0.066451535 0.02863494 -0.020248514 0.11408161
0003d0 7b b9 c3 3c 6a df 7d 3b f5 94 1d be f1 2b 0f bd
       0.023892155 0.0038737901 -0.15388854 -0.034954015
0003e0 e6 26 d4 bd 0a 24 79 be 89 de 14 3e 6d d9 7b bd
       -0.10358982 -0.24330154 0.14538015 -0.06148665
0003f0 88 4e c0 bd d2 a2 b9 3d 8f 83 18 3d 00 06 a9 bd
       -0.09389979 0.09064259 0.03723484 -0.082530975

lstm.weight_hh_l1 f4 [256, 64]
000000 17 51 d9 3d 60 76 21 3c 53 64 ba bc a6 be b9 bd
       0.1061117 0.009854883 -0.022752916 -0.090695664
000010 a1 13 17 bd bd 29 89 3c 42 e2 2c 3d c9 33 b8 bc
       -0.036883954 0.016743535 0.042207964 -0.02248563
000020 bf 45 de 3d 47 5a c0 bd 6b ca cd 3d 9d 72 80 3c
       0.10853147 -0.09392219 0.10048374 0.015679652
000030 f7 75 53 3d dd 43 dc ba e8 5f 5a bd 31 2c b2 bd
       0.051626172 -0.0016804893 -0.05331412 -0.08699835
000040 be d3 c6 bd 8d 1d 83 3d 51 9e 1b bd 30 bc 01 3d
       -0.09708355 0.06402121 -0.03799278 0.03167361
000050 cf e4 df 3c 5b ff 0a be 72 bf c0 3d 67 61 2f bd
       0.027330784 -0.13573973 0.09411515 -0.0428175
000060 d9 bd 25 3b 89 97 06 bc d5 43 6d 3d 3d 9f 1c 3d
       0.002529016 -0.00821484 0.057926018 0.0382378
000070 a2 b7 a8 bc ba 70 a5 3c 6b 21 4c bd f4 c6 94 3d
       -0.020595375 0.020195354 -0.049836557 0.0726451
000080 b0 ec e3 3d 79 f8 11 bd 0a 42 2b bd ce e9 cf 3b
       0.11129129 -0.035637353 -0.041811027 0.0063450104
000090 ad 24 16 bb 8e c1 9b bd d7 72 09 3e 91 9b 10 3e
       -0.0022910044 -0.07605277 0.13422714 0.14121844
0000a0 c4 25 87 3d 61 5d 02 3d f1 1f a2 bb 16 02 d7 bd
       0.06599 0.031827334 -0.0049476554 -0.10498445
0000b0 69 31 e6 3c 37 d2 13 3e 0f f6 68 3d 58 9d b0 bc
       0.028099732 0.1443566 0.056875285 -0.021559402
0000c0 29 18 e7 bd e3 2c a9 3d 97 c6 7c bb 85 bd 0b be
       -0.11283905 0.082605146 -0.0038570517 -0.13646515
0000d0 7d 0a 02 ba 73 5d 9e 3d a4 9d cf bc b6 b4 a0 bd
       -0.00049606693 0.07732668 -0.025343724 -0.07846968
0000e0 f3 6d 7b 3d 70 80 e6 3d 18 de 57 3d 3a 15 19 bd
       0.061384153 0.11254966 0.05270204 -0.03737376
0000f0 4f 2b b3 3d e4 9b be 3d cc a3 c3 bd da 0e 83 bd
       0.08748495 0.093070775 -0.09552726 -0.06399317
000100 bf 6d af bd f7 02 f1 bd 32 98 00 bb 3c 91 8b bd
       -0.08565854 -0.117681436 -0.0019621965 -0.06814811
000110 b2 dc 90 3d de a8 90 bd 2a 89 cd bd 51 3e 1b bd
       0.07073344 -0.07063459 -0.100359276 -0.037901226
000120 53 d2 cd 3d 33 de 49 bc 41 b2 fa 3c c9 34 28 3d
       0.10049882 -0.012321043 0.030602576 0.041065965
000130 72 d9 4d 3d 8a ba 01 be 33 3f c2 3c 79 eb b4 bd
       0.0502562 -0.12668815 0.023711776 -0.08833975
000140 d2 f0 42 bd a5 0b 15 bd 96 c0 13 3d bf 55 fa bd
       -0.047592945 -0.03638806 0.036072336 -0.12223386
000150 a5 ae 4c 3d fa b6 d5 3d 55 f2 ce bc 88 fa 40 bd
       0.04997124 0.10435291 -0.025262037 -0.047113925
000160 4f d4 15 3d bf bc d5 bd 96 c0 35 bd 1c fa 3d bd
       0.036579426 -0.10436391 -0.044373117 -0.0463811
000170 07 67 dc 3c 2b fd a1 3d 19 34 ad 3d e0 5d 00 3e
       0.026904596 0.07909616 0.084572025 0.1253581
000180 52 40 e0 3c e5 38 0f bd 89 f1 d2 bc 35 9d e0 bd
       0.02737442 -0.03496637 -0.025749939 -0.10967485
000190 65 31 96 3d 2d 1e 60 bd b0 51 ed 3c 6c d4 a1 3c
       0.0733364 -0.054716278 0.028969616 0.019754611
0001a0 39 28 c6 3d 21 c3 aa 3d 96 7e e7 3c a5 aa f2 3c
       0.096756406 0.08337999 0.028258603 0.029622385
0001b0 06 21 f2 3d b6 02 0c be 4f 98 9d 3c e8 92 bc 3d
       0.11822705 -0.13672909 0.019237665 0.09207708
0001c0 34 16 c4 bd 67 98 8d bd 4a 4c cf 3d 21 1e ac bc
       -0.095745474 -0.06913834 0.10121973 -0.02101046
0001d0 8d b6 e9 bd fc 48 d8 bc ae cd 71 bd d6 a2 63 3d
       -0.11411772 -0.02640199 -0.059034042 0.055575214
0001e0 76 a1 50 3d 88 1f f9 3c fa b3 0a be b9 a9 89 bd
       0.05093523 0.030410543 -0.13545218 -0.06721825
0001f0 7a 44 af bd a9 49 fc b9 7f cb f0 3d 4f 36 8e bd
       -0.08557983 -0.00048120067 0.11757564 -0.06943952
000200 9e 66 05 be 60 0c 01 bd b8 12 e5 bd 8d c1 5f 3d
       -0.13027427 -0.031505942 -0.11185211 0.054627944
000210 c2 2b 3d 3d 34 eb a3 bd cf 76 df 3d d2 fd 1c 3c
       0.04618431 -0.08003846 0.10911333 0.009582
000220 d0 29 44 bd f5 35 2a be 20 2e 77 3d ee ab a7 3d
       -0.047891438 -0.16622145 0.060346723 0.0818709
000230 c3 1c ff bc 48 d3 15 be 64 34 ef 3d f8 cb b4 bc
       -0.031141644 -0.14631379 0.116799146 -0.022069916
000240 1e 2f 1e bd 19 7b 33 3d 36 90 60 3d 25 1a a9 bd
       -0.038619153 0.043818567 0.05482503 -0.0825694
000250 b1 f6 6a bd 76 1d 00 be 64 06 9a bd 92 cb 38 bd
       -0.05736417 -0.12511238 -0.0752075 -0.045116015
000260 3f 87 3b 3c fd 5a 0d 3d f8 05 69 3d 98 65 25 be
       0.011445819 0.0345106 0.056890458 -0.16152036
000270 6d 37 27 3d 0c 70 cb bd ee 54 7a 3b 07 e4 da 3c
       0.040824343 -0.099334806 0.0038197595 0.02672006
000280 71 44 82 bc d2 35 12 bc 28 c2 b1 3d 3c 87 9a 3c
       -0.015901776 -0.008923965 0.086796105 0.018863313
000290 86 6d f1 bd 58 c3 a0 bd 73 f7 c5 bc a3 0e 73 3d
       -0.11788468 -0.07849759 -0.024165845 0.05934013
0002a0 37 00 72 bd 19 55 a0 bd 28 3b ad 3d 89 57 af bc
       -0.059082236 -0.07828731 0.08458549 -0.021404045
0002b0 bf 70 80 bc 8a 1e 25 be 20 20 1b bd bd 87 ce 3d
       -0.015678762 -0.16124931 -0.037872434 0.10084484
0002c0 3a f0 91 3c d4 e8 fe 3c 73 e6 c0 3c d0 9b c1 3c
       0.017814744 0.03111688 0.023547387 0.023633868
0002d0 8e be 18 3d da 30 a7 3d 49 9e c7 bd da d3 bd 3c
       0.037291102 0.081636146 -0.097469874 0.023172308
0002e0 c1 f7 ed 3d ae f9 e4 bc 52 5a b3 3c d3 9d a3 3d
       0.11619521 -0.027951088 0.021893654 0.07989087
0002f0 92 88 c7 bc 4d f1 0c bd d7 68 f2 3c 4f f8 f4 bd
       -0.024357114 -0.03440981 0.029591007 -0.119614236
000300 65 56 0b bd c0 37 c5 3d 71 d5 b9 bd e3 0f 25 bd
       -0.03401794 0.09629774 -0.09073914 -0.040298354
000310 80 58 97 ba 22 f9 a4 3d 92 e8 86 3d d2 0b 9d bc
       -0.0011546761 0.08055331 0.06587328 -0.019170675
000320 f4 b2 1b 3c ae db ec bb 1c f7 c9 3d 91 61 a8 3d
       0.009503115 -0.0072283363 0.098615855 0.08221734
000330 b6 b7 81 3d a9 57 d5 bd 08 6d e9 3c 8e 1d b8 bd
       0.06333868 -0.104171105 0.028494373 -0.08990012
000340 f9 b7 34 bd dd 16 4a 3d 2c e0 00 3e a5 2d e1 bd
       -0.044120762 0.04933821 0.12585515 -0.10995034
000350 5b 2e 25 be e2 c6 7a 3b ec 04 83 3d 36 75 57 bd
       -0.16130964 0.0038265516 0.06397423 -0.052602015
000360 46 4e 8a bd 13 2d 70 3c c0 e6 ba 3d 2b d0 51 bd
       -0.06753211 0.014659184 0.09126043 -0.051223915
000370 1b 87 03 bc 3c 5b d5 bc 50 7a 9e 3d 06 b5 93 bd
       -0.008027817 -0.02604448 0.07738173 -0.07212262
000380 02 ab 1c 3d 93 5f ed 3d 40 93 da bd c5 6b c9 bc
       0.038249023 0.11590495 -0.10672617 -0.024587521
000390 ce c8 e9 3d f3 9e fb bd 8d de 9e 3d d5 df cf bb
       0.114152536 -0.122861765 0.07757292 -0.0063438215
0003a0 c3 e8 1f bd a4 0e 96 bd 62 b6 d8 3c b6 42 f8 3d
       -0.03904034 -0.07327011 0.026454154 0.12122099
0003b0 cc 91 21 3e aa 03 c8 3b ce c9 c5 3c 36 33 4b bd
       0.15778273 0.0061039524 0.02414408 -0.049609385
0003c0 a0 c9 50 bd 86 6d eb 3c 37 4b 9b 3d d4 04 08 be
       -0.050973535 0.028738748 0.075827055 -0.13283092
0003d0 45 80 75 3c a6 1c 2d 3d 1a e8 91 bd 2c 87 0b bc
       0.014984195 0.04226365 -0.07124348 -0.008516114
0003e0 fa a4 03 3c aa 1a c4 bd c7 57 4e 3d be 2a a0 bd
       0.008034939 -0.09575398 0.05037668 -0.078206524
0003f0 b8 e1 07 3e 05 38 84 bd 6b c3 b5 3d 52 0c 15 be
       0.13269699 -0.064559974 0.08875164 -0.14555481

lstm.bias_ih_l1 f4 [256]
000000 4d 7d bd bc 94 ff fd 3d 32 5c 81 bc 35 61 cb 3c
       -0.023131037 0.12402263 -0.015791032 0.024826625
000010 08 1f 13 3d 28 55 18 3e 6b 3b 91 3d c3 19 ce 3b
       0.035918266 0.14876235 0.07091411 0.006289692
000020 19 b6 57 bd bb d0 b8 bd 27 a9 1a 3d 05 46 5e 3d
       -0.052663896 -0.09024187 0.037758972 0.054265995
000030 d5 3e 8a bd bc 4b 93 3c 79 05 60 bd 0f 0d c8 3d
       -0.067502655 0.017980449 -0.05469272 0.09768116
000040 81 a2 1a 3e de 9e 7f 3c eb 10 81 bd d2 26 d6 3d
       0.15101053 0.015601842 -0.06302055 0.10456623
000050 1a 0c 74 bc a1 b6 18 bc 3b a1 86 3c cf 7f 8f 3d
       -0.014895463 -0.009320886 0.016434303 0.070067994
000060 b2 40 91 3d 10 0d 96 bb a8 26 81 3d bb 7d 8a bc
       0.07092418 -0.004579194 0.06306201 -0.016905656
000070 b1 46 e5 3c 06 d0 3f 3d ba 91 c3 bd 56 61 83 3d
       0.02798781 0.046829246 -0.095492795 0.0641505
000080 84 f6 08 3d 75 bc e6 bd ed d1 be 3d 4b 09 b8 bd
       0.03343822 -0.11266414 0.09317384 -0.089861475
000090 50 4f 3a bd 96 1a a2 3d b3 64 e7 3c 86 58 9d 3d
       -0.045485795 0.07915227 0.02824626 0.076829
0000a0 bd 82 4a 3c 6e 6f e4 bd 2a bc 66 bd 5f 32 0e 3d
       0.012360272 -0.11154066 -0.05633179 0.034716006
0000b0 90 86 a5 3d 6e 76 bb 3a 08 16 e4 3d 06 f6 f6 3c
       0.080823064 0.0014302263 0.111370146 0.03014661
0000c0 24 20 ab bb c9 9f a4 bb cd 69 b3 3d c6 dd 0a 3d
       -0.0052223373 -0.0050239307 0.08760414 0.033902906
0000d0 5c 1b f5 3d 1a 59 54 3d 20 db 17 bd 25 6b 7e 3d
       0.11968109 0.051842786 -0.03707421 0.0621139
0000e0 e9 a9 bf bd cf b6 a8 3d 36 22 2f 3e f8 38 47 bc
       -0.0935858 0.08237993 0.17102894 -0.0121595785
0000f0 13 c5 f8 3d 7b b9 5b bd 89 3e 85 3d 92 af ed 3b
       0.12146964 -0.053643685 0.06506068 0.0072535956
000100 35 ea e9 3d ae 94 9b bd 1d 59 89 3c bf af c1 3d
       0.114216246 -0.07596718 0.016766125 0.09457349
000110 d8 d5 a9 bd fb 8c 7c bd d9 0f 68 bd b6 86 39 bd
       -0.082927406 -0.061657887 -0.05665574 -0.045294486
000120 43 da bd bd f5 5b ee bd 6a 94 bd bd d2 0b df bd
       -0.09270146 -0.11638633 -0.09256823 -0.108909264
000130 5a 43 b3 bd d5 39 14 bd f5 48 c3 bd 16 0b d5 bd
       -0.08753081 -0.036187965 -0.095354 -0.10402505
000140 fe 04 d2 bd 0e 2a 62 3c 92 38 53 bd b2 84 c0 bd
       -0.102548584 0.013803972 -0.05156762 -0.094003096
000150 89 c0 ea 3d 38 f0 d8 3c 86 b6 6c 3d 73 c3 82 bb
       0.114625044 0.026481733 0.057791255 -0.0039905845
000160 b9 b0 85 3b 50 35 b0 bd ee 33 8f 3c 30 5d f7 bd
       0.004079905 -0.086039186 0.017480817 -0.12078321
000170 d5 20 c1 3c 9d ad 8e bd 5b 60 a9 3d ae c3 1c 3d
       0.023575226 -0.06966708 0.082703315 0.038272552
000180 52 62 9d 3c 8f 28 b0 bd c4 8f 07 3e d6 c7 f1 3c
       0.019211922 -0.08601486 0.13238436 0.029514235
000190 ec b1 b7 bc 78 48 69 3c ba c2 9d 3d 67 42 8d 3d
       -0.022423707 0.014238469 0.07703157 0.06897431
0001a0 0d 1f 85 3d a4 c1 0e be 6d e5 c2 bd c6 8b 00 be
       0.06500063 -0.13941056 -0.09516416 -0.1255332
0001b0 ec 50 b3 3d 1a 38 9b 3c c4 d8 e5 3d 87 5b 59 3d
       0.08755669 0.01894765 0.112229854 0.053065803
0001c0 0b 02 8f bd 36 53 10 bd 2c 92 1d bd 81 93 db 3d
       -0.069828115 -0.035235606 -0.03846948 0.107214935
0001d0 63 55 38 3c 03 50 b9 3d 7f 04 3e 3d 0e 93 30 bd
       0.0112508265 0.09048464 0.046391007 -0.043108992
0001e0 f9 7b 39 bd 0e 59 79 bd ac 01 9e bd f0 e1 95 3d
       -0.045284245 -0.060875945 -0.07715163 0.07318485
0001f0 2f 7c 86 bd df 34 b1 ba fc 9e fe 3c 0b 2e 90 bd
       -0.06566655 -0.0013519785 0.031081669 -0.07040032
000200 f5 5b eb 3c 30 10 df 3d 36 68 4a 3c 09 c9 42 bd
       0.028730372 0.108917594 0.012353947 -0.047555003
000210 d5 f6 6f bd 60 4b 4a bb 4e 2b 9e bc 36 70 97 3d
       -0.058585007 -0.003086768 -0.019307759 0.073944494
000220 61 64 88 bc b9 c6 75 3d 04 db b2 3c a4 bc d2 3d
       -0.016649427 0.06000397 0.02183295 0.102898866
000230 1d 22 35 3d a8 0c 6d bc b5 28 9c bd b5 45 0a 3d
       0.044221986 -0.0144683495 -0.07624952 0.033757884
000240 64 03 01 3d ed ed 0a 3d 6a 67 a5 3d 9c 90 b0 bd
       0.031497374 0.03391831 0.08076365 -0.08621332
000250 b7 e7 c3 bd a8 db 86 bc 54 31 05 3e 4c f8 f0 bd
       -0.095656805 -0.016462162 0.13007098 -0.11766109
000260 3c 0b 76 3d 76 f9 cb bd fd de 10 3d 16 2f 32 bd
       0.060069308 -0.0995969 0.03536891 -0.043501936
000270 43 34 a9 bd 72 28 06 3d 29 bb aa 3c 4f 9b d0 3d
       -0.08261921 0.032753415 0.020841198 0.10185873
000280 a9 ce e9 3d 1a 6d c0 3d aa b1 cd bd d7 c8 f5 3d
       0.114163704 0.093958095 -0.10043652 0.12001198
000290 fc 12 b7 3d cb bb 34 bd 1b 9d 24 bd 58 c2 b0 3c
       0.08939168 -0.044124406 -0.04018889 0.021577045
0002a0 70 92 f8 3d 06 14 0c 3d c2 b3 8c 3d f1 ac ca 3d
       0.12137306 0.034198783 0.068702236 0.09896267
0002b0 a5 fb b7 3d 15 fd 69 3c 1b 48 b7 bd 1b 22 6f 3d
       0.08983544 0.014281531 -0.089493 0.058382135
0002c0 32 82 a8 bd 1d 3e bf 3d 5b e5 f2 bd 67 c6 ea bc
       -0.08227958 0.09338019 -0.11860152 -0.028659059
0002d0 ab e8 80 3d f9 ec cf 3d c4 61 9b bd 87 ba b6 bc
       0.06294378 0.10152621 -0.07587007 -0.02230574
0002e0 42 09 dc 3c cd 09 14 bd d5 e4 28 3d b2 1b c5 bd
       0.026859883 -0.03614216 0.041233856 -0.09624423
0002f0 f3 ed c8 3d 0f 45 60 3d 0b 2f e5 3c 23 94 a2 bb
       0.0981101 0.05475336 0.027976533 -0.004961507
000300 6b aa cb 3d 2e 1c dd bd 97 6b 03 bc b5 85 31 bd
       0.09944614 -0.107963905 -0.008021257 -0.043340404
000310 5d 72 8e 3c 98 f8 aa bc 29 b6 5e 3c 8f b8 07 3e
       0.017388517 -0.020870492 0.013593235 0.13253997
000320 8b a6 bf 3d a8 1a 43 3c 48 6e e4 3c e5 3e 43 3d
       0.093579374 0.011908211 0.027884617 0.047667403
000330 9d 2c 7c bd 82 96 a1 bc c2 37 9e bc 70 a3 f5 bd
       -0.061565984 -0.019725088 -0.019313697 -0.11994064
000340 ac b7 e6 3d 1c 2e a5 3c f3 de b5 bd 2f ef 4c bd
       0.112655014 0.020163588 -0.08880415 -0.05003279
000350 2d fd fa 3d aa 19 65 3b 34 66 de 3d 71 d9 6e bd
       0.12255321 0.0034957924 0.108593374 -0.058312837
000360 3d e2 18 3e c6 ac 29 3d a6 22 b0 bd f7 3a 33 bd
       0.14930053 0.041424535 -0.08600359 -0.043757405
000370 af dc 08 3e 38 4e 1c be 0c 78 c2 3d 60 03 99 bd
       0.13365434 -0.15264213 0.094955534 -0.07471347
000380 1d 84 d3 3d 01 e4 d3 bd 42 e1 b0 3d 98 8d 17 bd
       0.10327933 -0.10346223 0.086367145 -0.03700027
000390 10 ae ae bd 56 ce 66 3d 26 03 4c b9 25 c0 92 3d
       -0.085292935 0.05634912 -0.00019456129 0.07165555
0003a0 bc d8 8c bd b2 f8 1e bd b9 ab 9d bd 7e f7 ac 3d
       -0.06877276 -0.038811393 -0.07698769 0.08445643
0003b0 a6 55 59 bd 3f e9 d8 3d 3c 23 5f 3c ed 09 8b 3d
       -0.053060196 0.10591363 0.01361924 0.067890026
0003c0 10 c0 d0 bd 6c 82 9f 3d 09 af 5f 3d 99 dd 8a 3d
       -0.10192883 0.07788548 0.054610286 0.06780548
0003d0 b7 05 4c bc 95 ea 2c 3d 51 12 0b 3d c5 85 fe 3d
       -0.012452534 0.042215902 0.033953015 0.12427858
0003e0 3b 06 ec 3d 54 3c a3 3d 69 7a ca 3d f4 97 ea 3d
       0.11524626 0.07970491 0.09886629 0.11454764
0003f0 f1 db eb 3d 53 97 ed bd 2a 4b 15 bd 8b 63 b1 3c
       0.1151656 -0.116011284 -0.036448635 0.021653911
