crypto_models/BTC_USD_lstm.pth (torch, 206101 bytes, 9 tensors)

lstm.weight_ih_l0 f4 [256, 1]
000000 4f 59 b3 3c fa 99 4c 3e f1 65 8c bd e2 3e ab 3d
       0.021893172 0.19980612 -0.06855381 0.08361603
000010 37 da 00 bd 9a b4 7a 3d 2c 8f 8a 3d 51 b6 13 3e
       -0.031458106 0.06120739 0.06765589 0.14425017
000020 2b d5 3e 3a 26 a9 94 ba e4 ef d2 3d 65 59 06 be
       0.00072796893 -0.0011341914 0.10299662 -0.13120039
000030 55 11 0b bd 51 a4 a6 bd 39 c9 2e 3d 11 1f 0f 3e
       -0.033952076 -0.081368096 0.04267237 0.13976695
000040 17 1e a8 3d 79 19 1b bd a0 c6 76 3c 90 4d 09 3d
       0.08208864 -0.03786609 0.015062004 0.033521235
000050 a5 45 91 bc 2b 61 d0 3b 6c ef ff 3d 6c 99 ff 3d
       -0.017733404 0.0063592396 0.12496838 0.12480435
000060 46 c8 26 be 06 54 9c 3d 94 f2 02 3e b7 74 23 3e
       -0.16287336 0.07633214 0.12787849 0.15962492
000070 d9 25 03 bd 11 73 42 3e c8 cf 5c 39 de 44 02 3e
       -0.032018516 0.18989207 0.0002105824 0.12721583
000080 ec 44 c4 3e be a1 97 3b dc 68 b5 bc 5b 30 d5 bd
       0.38333833 0.0046274355 -0.022144727 -0.10409614
000090 bc bb be bd fb eb e3 bd 28 55 2b 3e 06 27 1e 3e
       -0.09313151 -0.11128994 0.16731703 0.15444574
0000a0 3c 5c b3 3c 4d 36 64 bb 37 58 c1 3c b1 23 f4 3d
       0.021894567 -0.0034822405 0.023601634 0.1192087
0000b0 fb 8b 2c 3c 4a e0 2c be 98 54 f2 3d 65 b3 11 3e
       0.010531421 -0.16882434 0.11832541 0.1422859
0000c0 50 e5 9b bd 50 8a 31 3e 52 e4 3a 3e ff a8 12 3e
       -0.07612097 0.17337918 0.1825116 0.1432228
0000d0 be 9f 93 bb 58 0e 0a 3e 74 6d 58 3e 88 c9 82 bc
       -0.0045051267 0.13482034 0.21135503 -0.015965238
0000e0 ec 76 8d 3d f6 b6 b4 3d 6b e8 07 3e be 43 6b bd
       0.06907448 0.088239595 0.13272254 -0.05743765
0000f0 25 6b 9d bd 5f 66 30 3f 30 f6 3a 3d bc bd 94 bc
       -0.07686452 0.68906206 0.04564494 -0.018156879
000100 ec 65 57 bd 32 aa 35 3e 68 c3 50 3d 80 9a 08 3d
       -0.052587435 0.17740706 0.050967604 0.033350468
000110 e0 78 26 3e 27 b7 f5 3d 83 5f f1 bc bb 6e 14 3e
       0.16257048 0.11997824 -0.029464489 0.14495365
000120 f2 e1 cb bd 7b bc be 3d 33 be 3b bc e1 64 43 bd
       -0.09955205 0.093132935 -0.011458921 -0.047703627
000130 04 eb e6 bc e1 fe 1c bd 92 6a c5 bd a9 4f 24 3e
       -0.028188236 -0.03832901 -0.09639467 0.16046013
000140 51 f7 6e 3c d4 ee ce 3d da 19 e5 bd 5f 3d a7 3d
       0.014585332 0.101041466 -0.111865714 0.081660025
000150 36 cc cb 3c 8f ed 89 3b 6d 9e cf 3d f9 e0 b3 3d
       0.024877649 0.0042092274 0.10137639 0.087831445
000160 fb c5 b1 be 29 6c 13 bd b0 ea c9 3d c4 ca 56 be
       -0.3472136 -0.03599182 0.09859216 -0.20975786
000170 b6 8c 81 be 26 08 89 bc 40 c1 21 3d a0 06 28 3e
       -0.25302666 -0.016727518 0.03949094 0.16408777
000180 ed d6 78 3e 6e 86 f5 bc a1 41 62 bc d6 1d 23 bc
       0.24300738 -0.029971328 -0.013809592 -0.009955844
000190 f6 03 80 3c ad c4 ce bd 2a 8e 42 3e c0 ba 02 be
       0.015626889 -0.10096107 0.18999544 -0.12766552
0001a0 19 9f 00 3e 43 89 c2 3c d5 c5 d3 bd b4 de cf bd
       0.12560691 0.023747092 -0.10340468 -0.10149899
0001b0 2e 50 6b bc 71 b2 61 be aa 83 54 3d f0 05 9c bc
       -0.014362378 -0.22040726 0.051883377 -0.0190458
0001c0 a5 20 cb 3c 17 65 44 bd 5e 15 6b 3d e3 47 e0 3d
       0.02479584 -0.04794797 0.057393424 0.10951211
0001d0 1e 06 9d 3d 27 af 1d 3e 4b 6a 1e 3e 79 07 d6 bc
       0.076671824 0.15398847 0.15470235 -0.02612661
0001e0 4f 19 c9 bd fc 88 dd 3d 84 6f 20 bd 60 2f 4f bd
       -0.0981928 0.10817143 -0.03916885 -0.05058229
0001f0 26 b8 98 bd 70 de 52 bd db c9 88 3c af 5b 82 bd
       -0.074569985 -0.051481664 0.016697815 -0.063651435
000200 e8 b5 b2 3d ed 16 1e 3e 3a 26 26 be 2c b3 df ba
       0.08726102 0.15438433 -0.1622552 -0.0017066947
000210 0c 22 c6 3d 6f 04 c4 bc e5 72 3c 3e 37 8e 97 bd
       0.09674463 -0.023927895 0.18403204 -0.07400172
000220 41 e0 3a be 88 b6 09 be c8 d1 02 be da b0 f3 bc
       -0.18249609 -0.13448536 -0.12775338 -0.029747415
000230 4e 4d 2f 3e b9 22 08 be 53 32 83 bd 84 54 51 3d
       0.17119333 -0.13294496 -0.06406083 0.05110599
000240 7a cf 36 3e 24 23 1a 3e 26 e3 4a 3e cd 13 d5 3c
       0.17852584 0.15052468 0.19813213 0.026010418
000250 49 ad f4 3d bc e1 28 3e 8a d3 66 3e 5b d8 b9 3d
       0.11947114 0.16492361 0.22541633 0.0907447
000260 e4 db 4e be 3a aa f9 3d 45 c1 47 3e 53 36 42 be
       -0.20201069 0.12190671 0.1950732 -0.18966036
000270 82 e6 40 3e a5 91 28 3e 8a 83 cb 3d 09 af 75 bd
       0.18837932 0.16461809 0.099371985 -0.05998138
000280 36 95 9b 3e 19 25 81 3d df 62 c2 3d 37 db da 3d
       0.30387276 0.06305904 0.094915144 0.10686343
000290 e0 c6 b3 3d 86 d1 d5 bd 17 07 4a be 3a 87 18 3e
       0.08778167 -0.10440354 -0.19729267 0.14895335
0002a0 15 df c2 bd 24 e7 12 be fc a7 59 3c 5c 7d ea bd
       -0.09515206 -0.14345986 0.0132846795 -0.11449692
0002b0 3d 28 a0 3d ae 0a 16 be 84 22 ed 3d 99 b7 53 be
       0.07820175 -0.14652511 0.11578849 -0.20675506
0002c0 4f 3e 9f 3c 35 74 65 3e 8a 1c 63 3e 58 1a 5b 3e
       0.01943889 0.2240761 0.22178856 0.21396768
0002d0 1f 4d 00 3e 2f 1c 77 be 62 ca 5a 3e 34 69 16 be
       0.1252942 -0.24131845 0.21366265 -0.1468857
0002e0 4d 49 8b 3c b8 27 16 be ba af 01 be 32 31 05 3e
       0.017002726 -0.14663589 -0.1266469 0.13007048
0002f0 ef 48 9d bd 31 71 a6 3e 2d 26 d7 bd ee 7f 7c 3d
       -0.076799266 0.32508233 -0.10505328 0.06164544
000300 4f 39 7b 3e 3e 48 e9 3d 8c 7b f9 3d d9 9e 0b bd
       0.2453358 0.11390732 0.12181768 -0.034087036
000310 e6 10 1c 3e dd 04 80 3d 40 d1 c6 bb 00 f0 10 3e
       0.15240821 0.062509276 -0.006067425 0.14154053
000320 ce 2e fb 3d 0c 63 c2 3d 28 23 d8 3c 9d eb 18 bd
       0.12264787 0.09491548 0.026383951 -0.037334073
000330 24 f1 57 be 25 7f 4b be da 96 01 be 3d 65 01 3e
       -0.21088082 -0.1987272 -0.12655202 0.12636276
000340 26 fe 91 3d 0f 5f c8 3d 51 aa 76 3d 2e a0 91 bd
       0.07128553 0.09783756 0.06022102 -0.0711063
000350 fa de cd 3d 0c 00 0d 3e 3d 2f 9c 3d 3e bd 1f 3d
       0.10052295 0.13769549 0.076261975 0.038998835
000360 e6 b4 98 be 04 68 29 3d 4a 74 cb 3d 96 46 f3 3d
       -0.29825515 0.041358963 0.0993429 0.118786976
000370 2e cf 79 bd 73 3d 10 3d 18 a8 f5 bc 85 0b 1e 3e
       -0.060988598 0.035214853 -0.02998738 0.15434082
000380 dc 6a ce 3e 28 20 42 3d 11 68 ed 3d df 55 1f bd
       0.40315902 0.047393948 0.11592115 -0.038900252
000390 0c 20 05 be 5e 41 d9 bd e3 1c 47 3e 3c c0 71 bd
       -0.13000506 -0.10608171 0.19444613 -0.05902122
0003a0 b8 7f df 3c d9 36 d1 3d ac 61 89 bd b3 21 4a bd
       0.02728258 0.102155395 -0.067080826 -0.049348544
0003b0 e4 24 06 be f2 86 f0 bd 8b 79 6d 3e 92 ae 66 3e
       -0.1310001 -0.11744489 0.23190896 0.22527531
0003c0 89 c6 1a be af 48 2a 3e 74 ec 54 3d 38 29 8b 3d
       -0.15114798 0.16629289 0.05198331 0.06794971
0003d0 5e 6f 0b 3e e1 90 33 3e 76 46 37 3d c5 83 f3 3d
       0.13616702 0.17535736 0.04474493 0.118903674
0003e0 d9 a6 13 bd c7 84 22 3e ca f4 85 3d fa 12 65 bc
       -0.03604779 0.15870963 0.065408304 -0.013981575
0003f0 84 66 2e bc 50 6a 33 3f 2f 20 24 3e 66 c6 bb bc
       -0.010644559 0.70084095 0.16027902 -0.022921752

lstm.weight_hh_l0 f4 [256, 64]
000000 18 f6 2f 3d 0f 9c d5 3d 53 99 91 3d f0 e1 34 bc
       0.042959303 0.104301564 0.071093224 -0.011040196
000010 af 55 b5 bc ae 71 ea 3c ef 2f c2 bd d3 21 be bd
       -0.022135584 0.02861866 -0.09481799 -0.09283795
000020 81 80 61 bd 62 e9 ce bc cf 81 9f bd 8f 2c a5 3c
       -0.05505419 -0.02525777 -0.07788431 0.020162849
000030 f7 12 ea 3c 70 44 c4 bb 1d dc 89 bd 87 a3 b7 bd
       0.028573496 -0.0059896037 -0.067314364 -0.08966737
000040 39 33 03 bd 80 32 86 bd 9f 3f fd 3d 3a 12 74 bd
       -0.03203127 -0.06552601 0.123656504 -0.059587695
000050 f6 93 e8 3d 94 1e 5f bc f0 e3 59 bd 38 74 cc 3c
       0.11356346 -0.01361813 -0.053195894 0.024957761
000060 e5 99 99 3d 7f 7d a7 3b 81 67 99 bd 21 36 01 3e
       0.07500056 0.005111396 -0.07490445 0.12618305
000070 7c 7c 8b 3d 50 11 e3 3d 63 6f d7 3b b9 56 a8 bd
       0.06810853 0.110872865 0.0065745576 -0.08219666
000080 a9 a2 ba 3d b6 80 7d 3d ae 16 47 3d 21 6f 05 bb
       0.09113056 0.061890326 0.048605613 -0.0020360427
000090 51 88 07 3e f3 b9 9c bd 45 9c 97 3d 89 50 8e 3b
       0.13235594 -0.076526545 0.07402853 0.0043430966
0000a0 1d ef 06 be 74 1e 6b 3d da 9f 32 bd b1 06 50 3d
       -0.13177152 0.05740209 -0.043609478 0.05078763
0000b0 b4 90 5b bd dd 80 51 3a 0d 6f 26 3d fd a9 49 bd
       -0.053604797 0.00079919194 0.04063325 -0.04923438
0000c0 a1 d7 d2 bd 6d d7 94 3d 4e c3 10 bc 53 3a 8b 3c
       -0.10295034 0.07267652 -0.008835627 0.016995585
0000d0 dc fe 67 bc b9 99 d8 bd a2 a4 8e 3d 17 08 42 bd
       -0.014159884 -0.10576195 0.06964995 -0.047370996
0000e0 48 87 cd 3d 51 ba 9a bc d7 ae 82 3c b0 2b 9f bd
       0.100355685 -0.01888767 0.01595251 -0.077720046
0000f0 eb 3c d5 bd 33 b7 97 3c 41 04 59 bd 2b f6 05 3d
       -0.1041201 0.018519973 -0.052982572 0.032705467
000100 1e cd f2 bd 5c 7d 9b bd b4 36 02 3c e4 1b 65 3d
       -0.11855529 -0.0759227 0.007947613 0.0559348
000110 09 5c fe 3b 16 e4 c1 3d d2 0c ea bd 71 65 88 3d
       0.0077624363 0.09467332 -0.114282265 0.066599734
000120 01 9b e7 bd 84 4f f6 3d 6f e2 48 3c 66 c7 33 bd
       -0.113088615 0.12026885 0.012261017 -0.043891333
000130 03 2c b3 3c 02 b7 85 3d 9d 1b 2b 3d 73 41 8e 3c
       0.021871572 0.065290466 0.04177438 0.017365193
000140 72 d1 2b bd 99 72 f7 bd 9e 12 d8 bc 76 4c ec 3d
       -0.04194779 -0.12082405 -0.026376065 0.11538021
000150 14 b3 f1 bc 24 cc 78 3d dd f1 2e bd e9 b4 88 3d
       -0.029504336 0.06074156 -0.042711128 0.06675131
000160 9f 57 34 bd cf 3e 80 3d 5d 82 a8 3d fc 23 dd 3d
       -0.044028874 0.0626198 0.0822799 0.10797879
000170 99 a5 4a bd 92 45 f4 3d fe 7a 06 bd f4 96 71 bd
       -0.049474332 0.11927332 -0.03283214 -0.05898185
000180 4e c4 3c 3d 33 59 0f bd ec 20 c8 bd b7 a3 60 bd
       0.04608565 -0.034997176 -0.09771904 -0.05484363
000190 9f cd d3 bd 6d 9a 81 3d 1d e1 cd 3d 6b e8 fc 3c
       -0.103419535 0.063282825 0.100527026 0.030872544
0001a0 4f 49 03 be 49 a3 33 bd b7 67 9b bd 43 60 e4 3d
       -0.12820934 -0.043856893 -0.075881414 0.11151173
0001b0 8a 16 97 bd e3 b4 19 3e b1 70 87 bd 64 f4 cb bd
       -0.07377346 0.15010409 -0.06613291 -0.09958723
0001c0 ef bc 75 3c e5 15 06 3e 35 1a ec 3d 05 b9 ef 3d
       0.014998659 0.1309429 0.11528436 0.117052115
0001d0 56 89 64 bd 03 02 09 3d d8 5d 98 bd ed 1c 37 bd
       -0.055795036 0.033449184 -0.07439774 -0.04470532
0001e0 c2 b8 c1 3d 69 1b 57 3d 33 58 2c 3e 95 83 c1 3b
       0.09459068 0.052516375 0.1683052 0.0059055784
0001f0 55 a3 35 bd 1e a5 65 bd 70 f7 54 bd df a3 85 3d
       -0.04434522 -0.05606567 -0.051993787 0.065253966
000200 8c 57 e7 3c bd ef 80 3d a5 72 cc 3d f9 80 1f 3e
       0.028239988 0.062957264 0.09982804 0.15576543
000210 a2 d2 34 3d d4 d6 2c 3e be 55 40 bd c5 08 a3 bc
       0.044146188 0.16878825 -0.04695677 -0.019901643
000220 bd 71 a7 3c 63 c1 be 3d b8 d7 cd 3d 5c 5a 03 bc
       0.020439977 0.09314229 0.10050911 -0.008017149
000230 6a db 36 bd 5d c3 78 3d 04 b5 14 3d ec 4e ad 3b
       -0.044642843 0.060733188 0.036305442 0.0052889492
000240 b9 ca 84 bd ca 1a 0b bd bd 95 78 3d a4 c4 a0 bd
       -0.06483979 -0.033961095 0.060689677 -0.07850006
000250 3d ab 77 3d 7c c3 cd bc 40 98 b6 3d 8b 36 dc 3d
       0.06046604 -0.025117628 0.08915758 0.10752591
000260 4d 5c 9f 3d 7e 5b 91 3d 54 b0 f9 3c 3d 07 2e bd
       0.07781277 0.07097529 0.030479588 -0.04248737
000270 c4 e3 49 be 15 ac 8e bd 5f db 86 3d 74 04 07 3e
       -0.19715792 -0.06966416 0.065848105 0.13185292
000280 01 0e e5 3d cc fe 49 bd a9 fe ac bd 20 7c 83 3d
       0.11184312 -0.04931526 -0.0844701 0.06420159
000290 7b f9 a2 3d b9 fc 95 3c 58 2c 99 3d 5d ba 20 be
       0.07957741 0.018308984 0.07479161 -0.15696092
0002a0 80 a2 13 bc ea 7d c7 3d 1f e3 b9 3d e7 73 24 3e
       -0.009010911 0.09740813 0.09076523 0.16059838
0002b0 0e e1 b3 bd ae fe ae 3d f4 a8 ac bb 86 b3 ec bd
       -0.0878316 0.0854467 -0.005269164 -0.11557679
0002c0 a7 bc 38 3d 5c 19 08 3e d9 b4 de 3c e4 42 bf bd
       0.045101788 0.13290924 0.027185844 -0.0933893
0002d0 d7 55 f4 bd 70 55 cc 3d cb cd aa 3d 99 d3 48 3c
       -0.11930435 0.099772334 0.08340033 0.01225748
0002e0 d7 d5 b5 bd 31 6e 36 3c 0e 84 9d 3d 43 5d 8e 3d
       -0.08878677 0.01113467 0.07691203 0.06951382
0002f0 e1 ce 12 be 03 fd 53 bd 36 5c 17 be d4 49 82 3c
       -0.1433673 -0.051754963 -0.1478127 0.015904345
000300 36 85 a2 3d 39 b3 b2 bc 9d f0 d9 bd 5d 77 5a bc
       0.07935564 -0.021813976 -0.106415965 -0.0133341225
000310 a3 bb 4c 3d 1a fb ab bd 96 3d 8b bd ba 86 b4 bd
       0.04998363 -0.08397503 -0.06798856 -0.088147596
000320 73 a7 1e be e3 3b 1d 3d 31 53 92 3d 6e ca 3d 3d
       -0.15493564 0.03838719 0.07144774 0.04633563
000330 ac 38 2f 3d 52 f7 1f 3d 40 23 c8 bc c3 9b 06 bb
       0.042778656 0.039054222 -0.024430871 -0.0020539619
000340 46 18 61 3d 7e 3d e0 bd 67 00 99 3d e1 09 be 3d
       0.05495479 -0.10949229 0.0747078 0.09279228
000350 4e 32 99 bd 8a dc bc 3d a2 a4 df 3d 8b 8a d3 bd
       -0.07480298 0.09221752 0.10920073 -0.10329159
000360 e0 23 f8 bd 1c b1 3b bd 6c ec 56 3d 85 69 96 3d
       -0.121162176 -0.0458232 0.052471563 0.07344345
000370 cd ef 06 3e 0d 9b c7 3d 58 76 8b bd eb 47 6a 3d
       0.13177414 0.097463705 -0.06809682 0.057197493
000380 d8 d5 01 be 3b 32 fe bd d8 c3 a9 3c 0b 59 79 bc
       -0.12679231 -0.124119245 0.020723268 -0.015218983
000390 59 fd fd bd ff ac 72 bd 2f 3e 3b 3d e6 ff 16 bd
       -0.12401838 -0.059247013 0.0457136 -0.036865138
0003a0 04 5e fc 3c 73 b7 76 3d 0f 4b ef 3d 7c 45 04 bd
       0.030806549 0.060233545 0.11684238 -0.032292828
0003b0 1b 9a e0 3d 6b 59 b6 bc 00 b9 d8 3d e8 93 ec bc
       0.10966893 -0.022259435 0.10582161 -0.028879121
0003c0 89 c2 3d 3d bf a6 86 bd b1 e5 a5 bd 45 52 be bd
       0.0463281 -0.06574773 -0.08100451 -0.092930354
0003d0 a6 ed 1a 3d 80 87 8b bd eb e4 55 bd 91 3c 72 3d
       0.037824295 -0.06812954 -0.052220266 0.059139792
0003e0 08 1b 0b 3d 8c 91 9a 3d 95 8f c8 bd 97 d2 9d 3d
       0.033961326 0.07547292 -0.09793011 0.077061825
0003f0 05 c6 ba bd fe c6 b6 bd 65 71 9c 3d b9 2b a5 bd
       -0.091198005 -0.089246735 0.07638816 -0.0806498

lstm.bias_ih_l0 f4 [256]
000000 ac 94 fb 3c 20 66 e7 3d 6d be ab bc 6c 64 ee bc
       0.03071054 0.11298776 -0.020964826 -0.02910062
000010 c1 59 c3 bd c0 71 8c bd 4f 2a a3 bc d3 5f 1e 3d
       -0.095386036 -0.068576336 -0.019917635 0.038665604
000020 97 f2 eb 3c 5c 90 08 3c e0 c9 ed 3d c0 de 93 3d
       0.0288022 0.008335199 0.1161077 0.072202206
000030 dd 5f 08 3e ca b8 ca bc 73 39 51 3d ca ce 1c bd
       0.13317819 -0.024746317 0.05108018 -0.038283147
000040 3c 86 bb bd 3a 2f 07 3d 71 47 66 3d 8b 14 14 be
       -0.091564626 0.033004023 0.056220476 -0.14460962
000050 6e 6e 83 bd 7f ce b5 3d f8 9b d2 3d 0d 0b bb bc
       -0.06417547 0.08877277 0.10283655 -0.022832418
000060 2a 32 c0 3d be 95 aa bd 7c 65 7d 3d 23 b7 e0 3d
       0.09384568 -0.08329342 0.06186436 0.109724306
000070 d9 5d 80 3e 6e 0b 30 3d 4f 7b c3 bd 16 54 0b 3d
       0.250716 0.04297965 -0.095450036 0.034015737
000080 d5 1a f6 3d 53 cb ad bd e8 d8 76 3d 31 69 b3 3d
       0.120168366 -0.08486047 0.06026545 0.08760298
000090 d3 d0 97 3c 15 42 47 3c d1 28 9c bd 24 03 3a 3b
       0.018532192 0.012161751 -0.076249726 0.002838322
0000a0 7b e3 d4 bd 4c 8a a1 bc 33 6a ac bd 3b 20 93 3d
       -0.10394951 -0.019719265 -0.084186934 0.07183882
0000b0 ad b6 d2 3d e3 68 00 3e bb 88 e9 3d c3 3f 12 3e
       0.10288749 0.12540011 0.114030324 0.14282136
0000c0 78 57 15 be ff 17 87 3e 83 4a a7 3d 81 bc e9 3d
       -0.14584148 0.26385495 0.08168509 0.114129074
0000d0 8e 92 dd 3d 62 67 04 3c 30 7a ce 3d 7e cb 10 3e
       0.10818969 0.008081289 0.10081899 0.14140126
0000e0 47 a6 5b 3d f3 d8 7b bb 31 47 c1 3d c5 f4 b0 bc
       0.05362537 -0.0038428872 0.09437407 -0.02160109
0000f0 25 bc cd bd 16 5b 3c 3f e7 f1 1d 3d 9d 03 c8 bd
       -0.10045651 0.73576486 0.038560774 -0.09766314
000100 e9 ff a1 3d 43 b8 dd bd 9e b8 c3 bd 4d 4f f4 3c
       0.07910139 -0.10826161 -0.09556697 0.02982297
000110 09 d6 48 bc 3e fc 19 bd f9 cd b7 3d 40 8c 2e bd
       -0.012258061 -0.037594073 0.08974833 -0.04261422
000120 e9 74 9e 3d 3a 23 b5 bd d4 99 e5 3d e1 c9 bf bd
       0.077371426 -0.088446096 0.11210981 -0.09364677
000130 1d f7 03 bd e7 62 b3 3d 77 cf bb 3d 3d 63 a2 3d
       -0.032218087 0.087590985 0.0917043 0.079290845
000140 59 94 92 3b 25 17 63 bd 90 18 2d bb 65 db fb 3b
       0.004473251 -0.055441994 -0.0026412345 0.007686066
000150 eb cb 9f bd c1 f7 fb bd 36 a5 1d bc 29 af c9 3c
       -0.07802566 -0.12303115 -0.009621909 0.024619656
000160 d7 33 06 3e c3 1a 6b 3d 04 94 3f bc 65 c2 e3 bd
       0.13105713 0.05739857 -0.0116930045 -0.11121062
000170 91 0d eb bc 56 1f a3 ba e6 8b 6e bd 82 f4 08 be
       -0.028692992 -0.0012445252 -0.058238886 -0.13374522
000180 af 5d fe bd c5 d0 3b bd f2 95 c9 bb 70 b5 79 bc
       -0.124202125 -0.045853395 -0.006151908 -0.015241012
000190 a1 08 cb bb fc 3f 92 3d 55 40 bb bd f3 9d f5 bd
       -0.006196097 0.0714111 -0.0914313 -0.11993017
0001a0 d7 14 39 3b 43 8d d7 bc 17 c6 ab bc b2 e1 34 3d
       0.0028241181 -0.026312476 -0.02096848 0.044160552
0001b0 13 8b 5c 3d 08 6b 82 b9 0f e4 d2 bd fe a1 80 bd
       0.05384357 -0.00024875277 -0.10297405 -0.062808976
0001c0 6a 85 64 bd 88 73 11 bc f6 83 5d bd e6 f2 66 bd
       -0.055791296 -0.008877642 -0.054080926 -0.05638399
0001d0 a3 f8 42 bb b9 1f 2e 3e 12 84 e1 3d e5 1b d6 bd
       -0.002975025 0.17004289 0.110115185 -0.10454539
0001e0 ee aa 0f bd 02 0e dd 3d 91 73 63 3d e1 a2 c9 3d
       -0.03507512 0.107936874 0.055530135 0.0984552
0001f0 e8 d1 af bd cb 9f 3c be 5e 25 92 bc 1b 63 90 3d
       -0.08584958 -0.18420331 -0.017840084 0.07050153
000200 30 1f 49 3d e3 50 ad bd c6 68 a8 3d a9 24 e7 3d
       0.04910201 -0.084626935 0.08223109 0.11286289
000210 e1 60 cf 3d 89 50 04 3e a3 d4 94 3c e4 bc f2 bd
       0.101259 0.12921347 0.0181678 -0.11852434
000220 56 5b 8d bd e4 50 8c bd a2 21 be bd ec 90 97 3d
       -0.069021866 -0.06851366 -0.09283759 0.074006885
000230 26 26 40 bd 4c ee b7 3d 3b 6f 89 3d 30 b9 f9 3d
       -0.04691138 0.089809984 0.06710669 0.12193525
000240 f5 ec 5d 3d 48 4b 31 bd 8a 44 72 bc e6 f2 87 bd
       0.054181058 -0.043284684 -0.014786849 -0.06638126
000250 e4 0c 57 bd bc 54 ad 3a 26 35 14 bd ec 54 fc bc
       -0.052502528 0.0013224105 -0.0361835 -0.030802213
000260 5e 5d e7 bc 2e a7 33 3d 36 95 49 bd b3 7a 43 bd
       -0.028242763 0.043860607 -0.049214564 -0.047724437
000270 27 4c e9 bd b4 35 40 bc 16 8a a6 bb 9c 98 89 3b
       -0.11391478 -0.011731554 -0.005082379 0.0041991007
000280 b5 67 62 3d a8 54 cc 3d 0d 10 78 3d 9f 12 c9 3c
       0.055274684 0.099770844 0.060562182 0.024545012
000290 3a b3 cf bd a8 4f d0 3d 5b 4c fe 3c bd d5 9a 3b
       -0.10141607 0.10171443 0.031042268 0.0047251866
0002a0 b7 56 a3 3d da 61 d1 3c 0f 94 04 3b fa ff 84 3d
       0.07975524 0.025559355 0.0020229851 0.06494136
0002b0 58 1b e1 bd 73 e5 50 3d 6a fa 82 3d 94 a7 11 3c
       -0.109915435 0.05100007 0.06395419 0.008890051
0002c0 fb 73 9f 3d b6 40 eb bd 80 32 a8 bd 5e d6 b4 3d
       0.077857934 -0.11486952 -0.08212757 0.0882995
0002d0 ad 96 51 3d 58 ab 84 3d 23 45 3a 3d 25 7c 4a 3c
       0.051169086 0.06477994 0.04547609 0.0123587
0002e0 5c 65 0b bd 41 0b 45 bd 14 24 9e 3d 2e 5f cd 3d
       -0.03403221 -0.048106436 0.07721725 0.1002792
0002f0 05 7d 83 bd 11 a0 e8 bc 73 76 54 bc 36 75 9f 3d
       -0.0642033 -0.028396638 -0.012967694 0.07786028
000300 f5 7e 6d 3d af bf 35 3d 5d 0d ba 3b 80 b1 10 bd
       0.057982404 0.044372257 0.0056778626 -0.035325527
000310 25 e2 79 bc b4 f2 72 3d 1a 52 86 bc 38 df d8 3d
       -0.015251671 0.05931349 -0.016396571 0.105894506
000320 c7 f1 64 3e 70 e3 b5 bd 7f 9a b1 3d f4 02 6a 3d
       0.22357856 -0.08881271 0.08672046 0.057131723
000330 7b 7a aa 3d bb 73 56 bd ef 54 dd 3c 61 9a 86 3d
       0.083241425 -0.052356463 0.027018039 0.06572414
000340 24 e8 2e 3d 7c 46 2e 3e c6 b5 87 3e 6b af ca 3d
       0.042701855 0.17019075 0.2650587 0.098967396
000350 05 42 54 bd 8f 73 26 3c 41 05 2c 3e 27 99 51 bd
       -0.051820774 0.010159387 0.16798879 -0.051171448
000360 7c 51 a2 3d c9 70 36 bd a1 b2 a5 3d 64 0f 26 3e
       0.07925698 -0.044541154 0.080907114 0.16216809
000370 c3 9e 19 3e 0b f6 a6 bb be f9 28 3d e4 8f 0e be
       0.15001969 -0.0050952486 0.041253798 -0.13922077
000380 f8 3e d8 3d 01 60 a2 bd e2 0a 04 bd 89 e2 bd bd
       0.10558885 -0.079284675 -0.03223694 -0.09271724
000390 10 4a 4c bd 44 2d 7e bd 7a 39 07 3e 81 8b 62 bc
       -0.04987532 -0.062054887 0.1320552 -0.013827206
0003a0 fa 6d e5 3c 4b 7a 99 bd f2 57 3a bd b6 d5 9c 3d
       0.028006542 -0.07494029 -0.045494027 0.076579496
0003b0 9f 63 e3 3d 11 6c 86 3d 11 44 6f 3b 6f ea a4 3e
       0.111029856 0.06563581 0.0036509077 0.3221011
0003c0 63 9a 71 bd 79 31 a3 3e af fc d5 3d 68 fd 42 3d
       -0.058985125 0.31873682 0.10448586 0.04760495
0003d0 f1 d9 27 3e 8d 42 23 3d aa b3 b5 bc 6d d7 bc 3d
       0.16391732 0.03985839 -0.022180397 0.09220777
0003e0 05 4b 58 3d 70 61 b6 bc dd 93 d3 3d e6 a5 73 3d
       0.05280592 -0.022263259 0.10330937 0.059484385
0003f0 b5 7d dc bd 6f 2f 46 3f cc 0e 8f bd de 9e 00 3e
       -0.10766164 0.7741613 -0.06985244 0.12560603

lstm.bias_hh_l0 f4 [256]
000000 e1 43 a7 bd 14 0f ca 3c 1f 0e 6b 3a 85 37 e9 3d
       -0.08167244 0.024665393 0.0008966643 0.11387543
000010 12 e9 5f bc dc 1e 6f bd 96 c3 96 3d 68 f0 c5 3b
       -0.013666408 -0.05837904 0.07361524 0.0060406215
000020 6c 74 22 3e c4 41 51 bc c7 21 22 bd 52 13 a4 3d
       0.15864724 -0.012772027 -0.039582994 0.080114976
000030 6b e5 44 bc 38 ac 6c bd 52 3f d3 bc c8 0f b9 3d
       -0.012017588 -0.057781428 -0.02578703 0.09036213
000040 06 26 9c bd bc a1 45 bd 0c 7d 75 3e d8 2c 0d 3d
       -0.0762444 -0.048249945 0.23973483 0.034466594
000050 24 b4 ff bc f0 27 53 3d bd 24 b3 3c 1b 78 1f 3c
       -0.031213827 0.05155176 0.021868104 0.009733225
000060 de 8a 0c 3e 64 6d 65 3d 0a 1d 65 bd 7e 57 68 3e
       0.13724849 0.056012526 -0.055935897 0.22689626
000070 1a ab 73 3e 70 29 6e bd 7b 00 57 3d cc ba b8 bd
       0.23795739 -0.058144987 0.052490693 -0.09020004
000080 4e a2 90 3e c7 a1 94 bd cb b1 b7 3d 35 63 8f 3d
       0.2824883 -0.07257419 0.08969458 0.07001344
000090 c2 dd a3 3d b8 36 0e 3d e2 2f 0f 3e 9e 97 4d 3e
       0.08001281 0.034720153 0.1398311 0.20077369
0000a0 0f c2 9b 3d 9a d4 a1 bd 2d 0d ef bc 83 b3 d6 3d
       0.07605373 -0.07901879 -0.029181087 0.10483458
0000b0 b7 6b 15 3d ab a1 8e bd 13 91 e5 3d c1 6b 9c 3e
       0.036479678 -0.069644295 0.11209311 0.3055096
0000c0 99 b9 e0 bd 91 3d 6d 3e d0 23 82 bc 75 50 cc 3d
       -0.109729 0.23168017 -0.015886217 0.099762835
0000d0 82 76 f9 3d c8 32 f1 3d dd d2 0d 3e 6b 5f ba 3d
       0.12180807 0.11777264 0.13849969 0.09100231
0000e0 05 ce 1e bc 24 56 87 bd 0f 94 73 3e a2 00 4a 3d
       -0.009692674 -0.06608227 0.23786949 0.04931701
0000f0 37 5f fd bd 21 30 21 3f 54 75 8a bc 77 1e 85 bd
       -0.123716764 0.62964064 -0.01690165 -0.06499951
000100 9b b0 b2 bd 11 d0 c9 3d 66 64 a8 bd 1c 0d 79 3c
       -0.08725091 0.09854139 -0.082222745 0.015200879
000110 a6 de b1 3d 6a ac c1 3c 0b 6d ce 3d dc 22 5f 3d
       0.08685045 0.023641784 0.10079392 0.054476604
000120 f9 29 ad 3d d8 1e b0 bd 91 94 93 bc 2d 70 b0 3d
       0.08455271 -0.08599633 -0.018015178 0.08615146
000130 99 09 01 3d e9 33 f5 bd 35 8b d9 bd 2d bd 9c 3d
       0.031503294 -0.11972792 -0.10622255 0.0765327
000140 ea d2 e5 3c df f9 d7 bd 96 a2 1b 3d 8b f2 04 be
       0.028054673 -0.10545706 0.03799685 -0.12983148
000150 ff 06 bd 3d c0 fa 17 bc 62 83 d7 3d 81 b5 2c 3d
       0.0922985 -0.009276092 0.10523106 0.042165283
000160 15 a5 09 3d d9 bc 9f bd be 00 d6 3d 80 3e 8c bd
       0.0336047 -0.07799692 0.1044936 -0.068478584
000170 98 4e 0c bd 10 7b c1 bd 86 19 67 3d 34 1d c8 3d
       -0.03425464 -0.094473004 0.056420825 0.09771195
000180 31 a1 b2 3d 3b 42 29 bc 85 d3 1e be 9d 25 fe bd
       0.08722151 -0.010330732 -0.15510376 -0.12409518
000190 b0 1a c3 3c ad 1c 83 bb 2e 49 9f 3c a0 2a 03 bd
       0.023816437 -0.004001221 0.019444074 -0.032023072
0001a0 fa e2 cf bc d0 68 2f 3d d6 ed 9d bd a0 0e 52 bd
       -0.025376786 0.042824566 -0.07711379 -0.05128348
0001b0 31 14 85 3d 8b 07 b8 bc c5 e3 cb bd 7a 2d fb 3d
       0.06497992 -0.022464534 -0.09955553 0.12264533
0001c0 93 c8 e7 bd c7 ad c5 bc 17 58 73 bc 02 4e 2c 3d
       -0.11317553 -0.024130715 -0.014852545 0.04206658
0001d0 03 1c e9 bd 60 f7 5c 3d f2 24 05 3d 12 eb 1e 3c
       -0.11382296 0.053946853 0.032505937 0.0096996
0001e0 f2 37 0e 3d ed b8 8e bb c5 86 c3 bd 29 d9 e8 bd
       0.034721322 -0.004355541 -0.095471896 -0.11369545
0001f0 ee c6 d5 bd d7 af 4c be 5b b5 38 bd e7 31 f6 bc
       -0.104383335 -0.19988953 -0.04509483 -0.030053092
000200 fc e6 b7 bc 19 53 ce 3d 7f 91 9d bc 66 20 87 bb
       -0.02244901 0.10074443 -0.019234417 -0.0041237352
000210 83 a7 d0 3d 95 e9 db 3d 13 cb 2e bc a2 ea 73 3d
       0.101882 0.107379116 -0.010668534 0.059549935
000220 06 e1 5e 3d 84 e9 7a 3d fc b8 b3 3d fa d1 b6 3d
       0.054413818 0.061257854 0.08775517 0.089267686
000230 48 5c b5 ba 26 43 b4 3d 87 67 20 bd 2e 9e 6d bd
       -0.0013836706 0.0880187 -0.03916123 -0.05801218
000240 a4 c4 33 3c 01 45 08 3c c2 fd 64 bd d9 38 c8 3c
       0.010972176 0.008317233 -0.055906065 0.02444117
000250 4e c6 b3 3d 4c 5c 36 3d 8a 98 62 bd 20 9f 10 3d
       0.08778058 0.044521615 -0.055321254 0.035308003
000260 a7 91 97 3d 4a 4e cf 3d f2 bc b3 3d e1 f9 3a 3d
       0.07400828 0.10122354 0.08776273 0.04564846
000270 87 43 84 3d 65 68 88 3d 67 b5 47 bd 12 62 bf 3d
       0.06458192 0.06660537 -0.048756983 0.09344877
000280 aa f9 12 bc 9c 74 9b bd 6c 8e 61 3d 14 6d 64 bd
       -0.008970657 -0.07590601 0.055067465 -0.055768088
000290 55 d0 11 3d 8e bc 77 3b 21 45 62 bc bd 88 bd bb
       0.03559907 0.0037801596 -0.013810427 -0.0057841227
0002a0 0d cb 90 bd 63 f2 1d 3b 23 c3 13 bd 0e 7d 69 bd
       -0.07069979 0.0024100773 -0.03607477 -0.057004027
0002b0 b4 45 e3 ba ef e2 c5 3c 2a 87 44 3d 53 bf ba 3c
       -0.0017339499 0.024156062 0.047980465 0.022796309
0002c0 23 fa a1 3d b2 ef fe 3d c7 f1 c0 3c 6e 4b fe bd
       0.07909038 0.12448062 0.023552788 -0.12416731
0002d0 b2 c0 80 bd 0d ef f1 3c 7f 9a 37 3d dc af a8 b9
       -0.06286754 0.029532934 0.044825073 -0.00032174482
0002e0 8c 76 b4 3b b3 35 5a 3d 68 48 b3 bd f0 95 8d 3d
       0.005507296 0.053273868 -0.08754045 0.06913364
0002f0 7b 59 b5 bd a3 4f ca bc 8b fe 95 bd d3 6d 69 bc
       -0.08854958 -0.024696177 -0.07323941 -0.014247376
000300 46 e5 91 3c 84 ef 09 3e 6b 00 66 3e 2e 2a c7 3b
       0.017809521 0.13470274 0.22461097 0.0060780263
000310 c5 38 f5 bd 9a ef 2c 3d ed b0 9d 3d 61 61 04 bb
       -0.119737186 0.04222069 0.076997615 -0.0020199644
000320 28 e6 a2 3d bb 33 61 bd 6a ec 50 3a 4f d2 0c be
       0.07954055 -0.054980975 0.0007969799 -0.13752101
000330 f7 d9 83 bd 95 fc f4 bd 71 e3 b9 3d 29 39 00 3d
       -0.06438058 -0.11962239 0.09076584 0.031304512
000340 8b 86 c1 bd a8 af 07 3e 45 10 f8 3d 95 8c e8 bd
       -0.0944949 0.13250601 0.12112478 -0.11354939
000350 21 9a 89 bd d6 22 3e 3d b7 7d 00 3e 0a 86 72 bd
       -0.06718851 0.04641994 0.12547956 -0.05920986
000360 4f c0 07 3d c6 0a 89 bd 54 58 ee 3a c7 1d 3a 3e
       0.033142384 -0.06691508 0.0018184283 0.18175422
000370 2f 5d 60 3e 49 c0 4f bd 29 84 2e bb c7 e0 c0 bc
       0.21910547 -0.050720487 -0.0026629067 -0.023544682
000380 37 ce 91 3e e7 64 bb 3d 5b 94 33 3b 2e a9 3d 3d
       0.28477642 0.09150105 0.002740166 0.04630392
000390 7c 95 f8 bd 7f 67 d8 3c ef d9 2f bd a4 5f f1 bc
       -0.12137887 0.026416538 -0.042932447 -0.02946455
0003a0 1c c9 ef 3c 62 e1 c9 3b 87 0b 3a ba fc de 89 3d
       0.029270701 0.006160901 -0.00070970546 0.06731984
0003b0 dd 06 37 bd de 92 23 3c ae 35 eb bc bf 63 a4 3e
       -0.04468428 0.009983746 -0.02871212 0.3210735
0003c0 85 8c 34 bd c4 d4 a3 3e 76 4c 75 3d 58 48 6f 3d
       -0.044079322 0.31998265 0.059887372 0.0584186
0003d0 16 9e d7 3c cb 7e 47 3e c1 1f 1a 3e 55 69 a0 bd
       0.026320498 0.19481961 0.15051176 -0.078325905
0003e0 af 31 51 bd 6a 94 8d 3d 34 45 13 3e 55 2b 91 3b
       -0.051072773 0.06913073 0.14381868 0.0044302144
0003f0 cd 03 ba 3d 67 aa 0f 3f 12 98 ee bd 81 9e 32 3d
       0.09082756 0.5611939 -0.11650099 0.043608192

lstm.weight_ih_l1 f4 [256, 64]
000000 1d 68 de bd e6 da e5 3c 48 0b 54 bd a8 c6 fe bd
       -0.10859702 0.02805848 -0.05176857 -0.124402344
000010 f4 9e 06 be 02 5f 7f bd 47 c0 6d 3c 18 6c 06 3d
       -0.13146573 -0.062346466 0.0145111745 0.03281793
000020 fc 1c 9b bd d1 aa 1a bc f8 43 07 3e 7a 6e 09 be
       -0.07573888 -0.00944014 0.13209522 -0.1342105
000030 44 b4 0d bd f8 58 fe bd 83 c2 18 bd c7 05 ca 3c
       -0.034595743 -0.12419313 -0.037294876 0.024660958
000040 c2 85 cc bd f4 8d 20 3c 59 3a b2 3d d6 8c 4f bd
       -0.0998645 0.009799469 0.08702535 -0.05067142
000050 97 2d 84 bc 1f 3a ce bd 5c 01 fb bd 7f d2 0d 3d
       -0.01613502 -0.100696795 -0.12256119 0.034624573
000060 c2 fd 8f 3d d8 48 36 3d ab 26 d9 bd 73 a7 b8 bd
       0.07030822 0.044503063 -0.106030785 -0.090163134
000070 b4 3f 41 3d 6b 73 b3 bd ee 7f 84 3d e0 cc 92 bd
       0.047179893 -0.087622486 0.06469713 -0.07167983
000080 ff 74 c7 bb 08 36 69 3d 47 29 99 3d 2c 1f cf bc
       -0.006086945 0.056936294 0.07478576 -0.025283419
000090 7d 9b ef 3d 0f b5 da 3d 83 79 b1 bd b4 28 89 bb
       0.11699579 0.106790654 -0.08665755 -0.0041857604
0000a0 48 77 aa bd 77 a6 11 bd 0b e7 00 3e 03 c6 a1 3d
       -0.08323532 -0.035559144 0.12588136 0.07899096
0000b0 cf 1e 0b 3e 25 2a 88 3d cc 7b 8d bd 32 52 b3 3d
       0.13585971 0.066486634 -0.06908378 0.08755912
0000c0 6a 5e de bc c1 92 02 3d 86 15 c1 3d c7 84 18 be
       -0.02714463 0.031878237 0.094279334 -0.148944
0000d0 54 09 2c be 38 66 8e bd e9 97 80 bd b4 7a a7 3d
       -0.16800433 -0.069530904 -0.062789746 0.08177701
0000e0 eb 37 c8 bc eb 6e 38 bc 7b 82 bc bd f0 3a 72 3d
       -0.024440726 -0.011256914 -0.09204575 0.05913824
0000f0 82 ae 06 3e 51 2b d5 bd 54 9e cd 3d d1 96 66 3d
       0.13152507 -0.104086526 0.10039964 0.056296173
000100 d5 9f a1 3d 7c 49 a3 3d 4c 24 8c 3c 57 50 5e 3e
       0.07891814 0.079730004 0.017107151 0.21710335
000110 bf 62 4c 3d f9 90 42 3e 33 51 80 3d 9e 65 8e be
       0.04989886 0.19000615 0.062654875 -0.27811903
000120 b2 62 47 3c 8c 90 4d be 7c 97 8e bb d7 f6 04 3d
       0.012169527 -0.20074672 -0.0043515544 0.032461967
000130 59 16 c4 3d b7 ec e6 3d e0 a7 bc bc 03 bd b7 3c
       0.09574575 0.112756185 -0.023029268 0.022428995
000140 d2 71 4c 3e 85 46 eb 3d 8e fa 3e 3e f4 f1 99 bd
       0.19965294 0.1148806 0.18650267 -0.07516852
000150 99 6b bb bd 16 20 8d bb 03 a0 49 3e d5 d6 8c 3e
       -0.09151382 -0.0043068035 0.19689946 0.27507654
000160 81 54 dd 3d 1f 4c 0f 3e a2 18 0e 3d 99 f0 27 3d
       0.108071335 0.13993882 0.03469146 0.041000936
000170 a1 98 a0 3d d3 d1 3c 3e 2f 49 2f bd 50 35 3f 3e
       0.07841612 0.18439417 -0.042794403 0.18672681
000180 85 b3 33 3e e4 f9 14 bd db ab 78 3d 0a 6c 08 be
       0.1754895 -0.036371127 0.06071077 -0.13322464
000190 41 97 1b 3d 01 34 16 3e d0 64 56 bd 9d cb 8a 3d
       0.037986044 0.14668275 -0.052342236 0.067771174
0001a0 26 cd 88 3c 50 4e f8 3c a9 4f ea bd 8b d7 af 3d
       0.016699385 0.03031078 -0.11440975 0.085860334
0001b0 4f f1 37 be 0a f4 4a 3d 5a 33 83 3d 64 89 cb be
       -0.17963146 0.04954914 0.06406279 -0.39753258
0001c0 a4 d8 d4 3c 6a c6 1e 3f 5a 6f 71 3d 31 12 f7 3b
       0.025982209 0.62021506 0.058944084 0.0075400104
0001d0 cc e8 2e 3e 0f 01 f0 bd fe 8d 33 3e b0 97 99 bc
       0.17080992 -0.11718952 0.17534634 -0.018749088
0001e0 83 2c 1f bd 6b 3c 48 be 14 e3 32 bc 1a 9d a2 3d
       -0.03886081 -0.19554298 -0.010918397 0.07940121
0001f0 2e e8 f3 bd 95 fe 01 3e 76 42 47 bd 07 5e 1d 3e
       -0.11909519 0.12694772 -0.048647366 0.153679
000200 ec 84 8a 3c 84 51 fd bc bd ea 18 be 99 7a 0b bd
       0.016909085 -0.030922659 -0.14933296 -0.034052465
000210 84 b2 de 3d e7 1d 43 3d 26 69 6a bd a2 e3 d5 bd
       0.10873893 0.04763594 -0.057229184 -0.10443808
000220 39 f1 07 bd 6e 43 5d bd 95 5f 4d 3d db 3f 97 bd
       -0.033189032 -0.054019384 0.050139982 -0.07385226
000230 c9 92 05 3e 07 66 c6 3d 0a e8 fc bc f6 39 4d bd
       0.13044275 0.09687429 -0.030872364 -0.050104104
000240 d4 bf f7 3c 54 8b e6 bc 74 81 c6 3d 1c 22 a7 bd
       0.030242838 -0.028142609 0.0969266 -0.08160803
000250 6d d7 61 3d bd 06 92 bc 84 51 9b 3d c8 1c a4 bd
       0.055137087 -0.017825479 0.07583907 -0.08013302
000260 ec d2 04 bd e4 82 fa 3d 39 7b 44 3d 9d 48 a7 bd
       -0.032427713 0.12231997 0.047969077 -0.08168147
000270 bf 4f bf 3a 36 d8 1b bd 95 36 97 3b 2b 44 1a 3d
       0.001459591 -0.03804799 0.004614661 0.037662666
000280 40 32 0b 3e 1f aa 0d 3c 9b 7c 51 3d 9b 5d a8 3d
       0.13593388 0.008646517 0.051144224 0.08220979
000290 24 2a 6f bd 15 28 4e bd da 1c 38 be b9 89 9b bc
       -0.058389798 -0.050331194 -0.17979756 -0.01898657
0002a0 36 15 21 be a7 b7 06 bd 28 69 b5 3d 62 3c ce bd
       -0.15730748 -0.03288999 0.088579476 -0.10070111
0002b0 7e cb 77 3d f6 47 8b bc 8e 8f 01 3d cd 36 5b be
       0.0604968 -0.017002087 0.031631045 -0.21407624
0002c0 5e c9 32 3d f8 ed e2 3d 87 43 c8 3d 75 7b 79 3d
       0.04364907 0.11080545 0.09778505 0.060908753
0002d0 89 11 88 bc 80 f6 50 be 4c a6 05 3e 7e b5 0a be
       -0.016609924 -0.20406532 0.13051718 -0.13545796
0002e0 65 8b 9d 3d ec cc d6 bd 89 16 01 3d 1d 29 94 bd
       0.07692603 -0.104883045 0.03151563 -0.07234404
0002f0 88 ab 47 3d dd e1 ef 3c 7d 65 8d bd fd bc 66 bd
       0.04874757 0.029282505 -0.06904123 -0.056332577
000300 8d 05 80 bd 36 01 7a 3d 4c 87 ad 3d 19 0e 48 3b
       -0.06251059 0.06103631 0.084730715 0.003052598
000310 87 d3 0a 3e 5b ca 56 3e 51 99 fc 3d 81 91 87 3c
       0.13557254 0.2097563 0.1233393 0.016548874
000320 4a 41 40 be dd c0 6a 3d 4e 43 1f be 6a ba 01 3e
       -0.18774906 0.057312835 -0.15553018 0.12668768
000330 d9 22 e3 bd 5e ce 5b 3e 3e fa 46 bd 16 f7 de 3d
       -0.11090631 0.21465442 -0.048578493 0.10886972
000340 3f 39 07 3d 03 cd aa bc 4f 26 69 3c 8f d6 01 3c
       0.03301358 -0.02084971 0.014230325 0.00792469
000350 72 49 5b 3d 7a 93 0b 3e 1e 24 a7 3d 41 9a f5 3d
       0.05353684 0.13630477 0.08161186 0.11992312
000360 39 28 75 3e a7 fd b0 3d a4 e4 fd 3d 3d e8 e3 3c
       0.23941125 0.0864213 0.12397125 0.0278207
000370 f5 19 5e bd 01 98 e6 3d 97 51 83 bd 55 c1 24 3e
       -0.054223973 0.11259461 -0.064120464 0.16089375
000380 00 b1 43 3e 4d 0c b8 3d 4d d2 bc 3d 0e 37 25 bd
       0.19110489 0.08986721 0.09219799 -0.040335707
000390 a4 a5 0d 3e 66 37 a1 3d ab c8 c7 bd ff da 77 3d
       0.13832718 0.078718945 -0.09755071 0.060511585
0003a0 0e 12 72 bc 3b 4f b9 3d 43 74 8a 3d e4 58 84 3d
       -0.014774812 0.09048315 0.067604564 0.06462267
0003b0 21 8b 81 bd 07 86 e4 3d dd a7 e3 bb 2a 67 a1 3c
       -0.06325365 0.11158376 -0.006947501 0.019702513
0003c0 9b ef 59 3e f4 4c a7 3e d1 2c 57 3d e9 17 aa 3c
       0.21282808 0.32675898 0.052532975 0.020763354
0003d0 30 6d f8 b8 64 44 46 be a4 45 ec bc ff a2 6f 3d
       -0.00011845899 -0.19362026 -0.028841801 0.058505055
0003e0 88 33 42 be 52 04 c2 bd ff c7 ff bc 2a 5c 24 3e
       -0.1896497 -0.0947348 -0.031223295 0.16050783
0003f0 0e 9f 13 be 14 55 44 3e 9f ae 16 be f9 02 83 bd
       -0.14416143 0.1917308 -0.1471505 -0.06397051

lstm.weight_hh_l1 f4 [256, 64]
000000 67 71 87 3d 37 5b 99 bd cb 0a 10 be d2 50 cb bd
       0.06613427 -0.07488101 -0.14066617 -0.099275246
000010 18 f1 90 bd 8e ed c7 3c 65 99 b3 3d 80 8d a6 bd
       -0.07077235 0.024405267 0.08769492 -0.08132458
000020 92 ed 0f bc e7 34 63 bd 3f 74 df bd 0f f3 93 bc
       -0.0087846685 -0.055470373 -0.10910844 -0.018060235
000030 cd 6c c7 bd d3 07 8e 3d 3d fc 0b 3d b8 2d d4 bd
       -0.09737549 0.06935086 0.0341761 -0.10360283
000040 3c 96 06 bc fa 28 63 3d 8d 06 7b 3c b9 7b c3 3c
       -0.00821453 0.055459 0.015321386 0.023862706
000050 06 1b 8d 3c dd 2a cd bd 08 9d 28 3c 17 92 0e 3e
       0.0172248 -0.10017941 0.010291345 0.13922916
000060 11 51 df 3c ed ba 15 3e b3 ce 7e 3d dc 1c 66 3b
       0.027260335 0.14622088 0.062208842 0.0035112416
000070 31 ac f7 bd b4 db ac bc aa 6c a3 bd 64 b0 55 bd
       -0.1209339 -0.021100856 -0.079797104 -0.052170172
000080 42 4d e6 ba 1c 7a d0 bd ce 23 0c bc 6b 7d aa 3d
       -0.0017570632 -0.101795405 -0.008553458 0.08324703
000090 fa 15 b2 3d 79 47 f5 3d 2a 0b 9f bd 42 0f cc bd
       0.08695598 0.11976523 -0.07765801 -0.09963848
0000a0 ca 97 3a 3c db e7 95 bd 8c a9 05 bd 2e cf fe bc
       0.011388728 -0.073196135 -0.032632396 -0.03110465
0000b0 39 57 e7 bc a6 8b f6 3d 21 48 a8 3d ac 9e 38 3d
       -0.028239833 0.120383546 0.082168825 0.045073196
0000c0 02 31 01 bc cf e2 fb bc e0 1b 3c bc 91 c3 b3 3d
       -0.0078852195 -0.0307478 -0.011481255 0.08777536
0000d0 23 e0 03 bd 6f 45 80 bd 4e c0 0a be 29 31 ca bc
       -0.032196175 -0.062632434 -0.13549921 -0.024681645
0000e0 11 f5 bd 3d c1 a9 e1 3c ae 99 c5 3c 87 d7 98 3d
       0.09275258 0.027546765 0.024121132 0.074629836
0000f0 63 8f 88 bd 65 0a 97 bd 63 00 ae bd 86 be a2 3d
       -0.06667974 -0.073750295 -0.084961675 0.07946496
000100 c9 8a 85 3c 4f 61 19 3e de 01 5d 3e 2a 05 55 bc
       0.01630153 0.14978527 0.21582744 -0.0130017195
000110 b7 2f b9 bd 6e b3 80 3d 28 c5 2b 3d d7 60 24 bd
       -0.09042304 0.062842235 0.04193607 -0.040131416
000120 b6 7e 87 be 5a 9f 8f be a9 ae 82 bc 18 19 fb bd
       -0.2646386 -0.28051263 -0.015952425 -0.12260646
000130 bf a5 10 be d7 bd 2c 3d 18 55 e0 3b 74 bf 35 3e
       -0.14125727 0.042173233 0.0068460815 0.17748815
000140 df b2 08 3d f1 55 0a bd b2 a9 5b 3e 58 d8 9e bc
       0.03337371 -0.033773366 0.21451452 -0.01939027
000150 75 c6 41 3e e0 ec 6c bc d0 ea a5 3d b3 db 6c bd
       0.18923362 -0.014460772 0.081014276 -0.05782671
000160 18 34 37 3e 12 a3 2d be 0f 14 33 bc 30 ab 86 bd
       0.17890966 -0.16956738 -0.010930075 -0.0657562
000170 c2 bb 49 3e e3 52 5d 3e 95 31 d4 ba 4e ed af bd
       0.1970053 0.2161365 -0.0016189093 -0.08590184
000180 38 ed 84 be 9c 84 ca 3d 9a 3a 87 3d ff ca e4 3d
       -0.25962234 0.098885745 0.06602974 0.11171531
000190 7d 7d 0d be de 6b 90 bd 71 b2 7d bd da 11 46 be
       -0.13817401 -0.07051824 -0.061937753 -0.19342747
0001a0 9f 1d f2 bd ce 5a 9d bd b0 25 94 3d c0 67 1c 3d
       -0.11822056 -0.07683335 0.07233751 0.03818488
0001b0 8b 8a 48 3e a9 91 45 bd 0a 3e 45 3e 8b 1a a3 bd
       0.195841 -0.048234615 0.19261947 -0.07964047
0001c0 94 db 00 be c5 0b dd 3d 1f 51 5a 3e 73 24 9c 3d
       -0.12583762 0.107932605 0.21320008 0.0762414
0001d0 d2 4c 70 be 62 2c 5f be 32 44 ce bc 27 9c 1b 3e
       -0.23466805 -0.21794274 -0.025179002 0.15196286
0001e0 20 13 f6 3d 98 94 87 be da db 22 3d 1d 5c 3a 3c
       0.120153666 -0.26480556 0.039760448 0.011374501
0001f0 9b 22 d4 3d ef 99 01 be 3b 96 22 be 48 e0 7c 3c
       0.10358163 -0.12656377 -0.15877621 0.015434332
000200 4b 41 d1 3d 16 0c 31 bd e1 04 26 3d 05 42 d9 bc
       0.10217532 -0.043224417 0.040531997 -0.026520738
000210 33 99 0a 3d ca c0 9e bd c1 f3 0f 3d 9f 0b a0 bd
       0.03383751 -0.07751615 0.03514457 -0.078147165
000220 2c 75 12 3d 2b 57 98 bd b7 ee 91 bb 2c bf cb 3b
       0.035756275 -0.07438501 -0.004453506 0.006217858
000230 fd 20 5d bd 6b 38 78 bc ed b8 60 bd bd 90 61 bd
       -0.05398654 -0.01515017 -0.05486386 -0.055069674
000240 26 ad fc bd 7b dc 6e bc 4c 68 df bc db fa 58 3d
       -0.12337713 -0.014578934 -0.027271412 0.05297361
000250 3c 04 de bd ca b8 64 3d e4 5e 0e bd 4b 4a a2 bd
       -0.108406514 0.05584029 -0.034758464 -0.079243265
000260 d2 7b 3f 3d c6 5f f0 3b ff 41 06 bd 64 5b 36 bd
       0.046748944 0.007335636 -0.032777783 -0.04452075
000270 d6 c5 e3 3d 29 fd a3 3d 46 02 08 3d ec c9 4e bd
       0.111217186 0.08007271 0.033205293 -0.050485536
000280 0e 2c a0 3c f5 e6 88 bd 6f e2 42 3c 54 ac d4 3c
       0.019552257 -0.066846766 0.011894806 0.025961079
000290 12 bd b4 3d 4d 9a 8f 3d d1 a3 cd 3d 03 1f 92 3d
       0.08825125 0.070118524 0.10041011 0.07134821
0002a0 31 87 a1 bd 9d 9b cd bc f2 95 88 3d 5a 10 e7 3c
       -0.07887114 -0.025098616 0.06669225 0.02820604
0002b0 24 44 8d 3d de 9d 4d 3d 80 45 c6 bc 99 e0 c8 3d
       0.068977624 0.050199382 -0.024203062 0.098084636
0002c0 d6 b8 56 bd f5 e5 e5 3d 62 10 63 bd 44 87 0b bd
       -0.052422367 0.112255014 -0.055435546 -0.034064546
0002d0 45 5e d9 3d 19 4d 7d bd d0 c8 f2 3c 92 8f 9d bd
       0.106136836 -0.061841104 0.02963677 -0.076933995
0002e0 5b c4 e7 bd 7a 4f 4e 3d e7 bb 15 bc 5f de e4 3c
       -0.11316749 0.050368764 -0.009139038 0.027938066
0002f0 74 8f a0 3d 9c fc b0 bd 11 ad f1 bd 7b 54 de 3c
       0.078398615 -0.086419314 -0.11800588 0.027139893
000300 e9 30 10 3d 4e 68 2b bc 71 04 84 3d 61 af ab bd
       0.035202894 -0.01046188 0.0644616 -0.0838306
000310 9e 8a 1b be 77 29 5a 3d dc 77 d4 3b 78 8e 98 bd
       -0.15189597 0.0532622 0.006484015 -0.07449049
000320 7c c4 ed bd 29 b9 6b bd c7 0b c7 3c bf 33 1e be
       -0.11609742 -0.05754963 0.024297608 -0.15449427
000330 db 77 13 be 23 ec 92 ba b5 dc 08 3e 08 24 65 3c
       -0.1440119 -0.001120929 0.13365443 0.013985641
000340 41 ac f1 3d 44 5a 2f be c0 a2 e9 3c ab 19 1f bd
       0.11800433 -0.17124277 0.028519988 -0.03884284
000350 62 2b 57 3d 6a 83 15 3e 80 a4 b9 3d 50 1c d8 bd
       0.052531607 0.14600912 0.09064579 -0.10552275
000360 c5 43 26 3e d6 b4 a0 3d 4d f1 55 bd 30 2e e2 bd
       0.1623679 0.07846992 -0.052232075 -0.11043966
000370 a5 38 96 3d d0 36 99 bc 17 ab 3b 3a f9 0d ef 3d
       0.07335023 -0.018702894 0.0007158978 0.11672587
000380 82 b1 84 3d 68 d5 41 3d a2 8b 3a bd 00 ca 5a bc
       0.064791694 0.04732266 -0.04554332 -0.013353825
000390 72 52 0d be 67 4f 7f bd 77 47 bd 3d 60 7c 78 3d
       -0.13800982 -0.062331583 0.092421465 0.06066549
0003a0 b0 7c 2a be a1 1d 08 3d a0 f6 48 3e af d1 96 3d
       -0.16649127 0.03323138 0.1962533 0.07364213
0003b0 27 22 ae 3c 9e 94 b5 bd fa 40 26 bb 44 43 d9 bd
       0.02125652 -0.08866237 -0.002536832 -0.10608533
0003c0 f3 08 47 3d 6c a7 45 bc 8e a2 18 3e f7 46 24 bd
       0.04859252 -0.012063842 0.1490576 -0.04010674
0003d0 3d 05 29 be 91 06 91 3c df e6 b3 3d 2b 56 05 3e
       -0.16505904 0.017703326 0.087842695 0.13021152
0003e0 17 df 58 3d c4 b4 8a bd 9b 1e 2c 3d 7c 5e 90 bc
       0.05294713 -0.067727596 0.042021375 -0.017623179
0003f0 38 83 0c 3e 3a a7 2f be bc 48 5d bd d1 ea 21 3e
       0.13721931 -0.17153636 -0.054024443 0.15812232

lstm.bias_ih_l1 f4 [256]
000000 17 7a 55 3d ba 75 41 3b 81 91 1d 3d e6 dd e9 3c
       0.052118387 0.0029519633 0.03846884 0.028548192
000010 74 c9 eb 3d 37 d0 b2 3d 7b ad af 3d 77 32 e1 3c
       0.115130335 0.0873112 0.08578011 0.027489884
000020 c1 1c 15 3e 67 22 c5 3d 3b d9 72 3b c0 43 ad 3d
       0.1456175 0.09625702 0.003705575 0.08460188
000030 af 14 1f 3e 06 2a 3d bd 1e 1d 21 bd fd 42 f0 3d
       0.15535234 -0.046182655 -0.03933441 0.11731527
000040 7c d9 63 bb 36 35 ac bd 88 11 f2 bb a0 48 a4 3d
       -0.0034767082 -0.08408587 -0.007387344 0.080216646
000050 0c 60 18 3d af eb bb 3d a5 53 d6 3c 32 e5 83 bd
       0.037200972 0.091758125 0.026162932 -0.064402
000060 3e bb c7 3d 09 cd f4 bc b0 eb 08 3e 2d c2 b7 3c
       0.097525105 -0.029882925 0.13371158 0.022431457
000070 ef 80 42 bd a4 fe ea 3c 99 46 13 3d 98 d1 a3 bc
       -0.047486242 0.028685875 0.035956 -0.019997403
000080 9e 84 43 3e 0d 0d fb 3d 9d 6c 5b 3d 2c 36 09 be
       0.19093558 0.122583486 0.05357038 -0.13399571
000090 64 b1 22 3e 16 8c b5 bc 03 42 be 3d 16 88 99 bc
       0.15887982 -0.022161525 0.092899345 -0.018741649
0000a0 38 fd 14 3e 65 e4 6d 3b 66 fa 64 bd 05 58 ad 3d
       0.1454972 0.0036299464 -0.05590286 0.08464054
0000b0 0f ad b0 bd bd 92 64 3e 5e 06 ef 3c 7d 1b fb bd
       -0.08626758 0.22321601 0.02917784 -0.12261102
0000c0 43 cd c3 3d c4 b3 94 3c 1e af 0e bd 94 a7 a7 3d
       0.09560635 0.018152125 -0.034834974 0.0818626
0000d0 85 7a 3e 3c b6 b1 4e 3d dd 19 d8 bd 7a 9e c2 3d
       0.011625891 0.050462447 -0.10551808 0.09502883
0000e0 25 49 81 3d 1d 15 d9 bd 50 3e 4b 3d 36 89 40 bd
       0.06312779 -0.1059973 0.049619973 -0.047005855
0000f0 b4 92 12 3d 58 18 40 bc 47 38 9e bd 63 78 48 bc
       0.03578444 -0.011724554 -0.07725578 -0.012235734
000100 db e9 bf 3a 15 11 08 be dd 18 6a 3d 40 77 12 be
       0.0014641838 -0.13287766 0.057152618 -0.14303303
000110 cb dd 4b bd b1 47 02 3d 98 ab ae bd f6 1e cf bd
       -0.049772065 0.03180665 -0.08528823 -0.10113327
000120 22 f6 e3 3d 5e 91 f6 bd 6c b0 cb bd 91 14 87 3d
       0.111309305 -0.12039445 -0.09945759 0.065957196
000130 7a 3d c7 bd c5 cc 88 3d f3 f7 20 3d 07 d3 be bd
       -0.097285226 0.06679682 0.039298963 -0.09317594
000140 e3 b8 0b be a5 a3 ab bd 47 b4 50 3d 57 88 45 bc
       -0.13644747 -0.08380822 0.050953176 -0.012056432
000150 ef e0 a6 bd b1 0c 80 3d 32 40 18 bd 12 03 c3 3c
       -0.081483714 0.06252421 -0.037170596 0.023805175
000160 6d 5c 01 3e ea a3 8f bc 66 b7 e0 bd b8 57 fe bd
       0.12632914 -0.017534215 -0.109724805 -0.12419075
000170 62 d4 c8 bd 0a 8e 83 3d 2a e5 4b bd 31 c3 f5 bc
       -0.09806134 0.06423576 -0.049779095 -0.030000301
000180 69 02 36 3d 60 5f b4 bd 5c b5 64 bd f7 dc 1b 3d
       0.044435892 -0.08807254 -0.05583702 0.038052525
000190 c6 67 b7 3c b4 00 66 3d 5c 38 65 bd 36 75 f0 3d
       0.02238835 0.056153014 -0.05596195 0.11741106
0001a0 4e ac 06 3e db 67 a1 bd d4 4b ed bd a1 91 00 3e
       0.13151667 -0.07881137 -0.11586729 0.12555553
0001b0 b3 93 88 bd 31 9f 38 bd 33 db 31 3d d3 4f 1e bd
       -0.066687964 -0.04507369 0.043421935 -0.038650345
0001c0 60 e7 bd bd e6 6f 74 3d 8d 88 e0 bd f1 8c 8a bd
       -0.09272647 0.059677027 -0.10963545 -0.06765164
0001d0 09 ea 5a bd 83 f0 67 3d 2c 2a 31 bd a4 af 48 bd
       -0.05344585 0.056625854 -0.04325311 -0.04899563
0001e0 bc 39 bd bd 76 75 94 3c 18 0c 5e 3c 7e b2 f9 bd
       -0.092395276 0.018122416 0.013552688 -0.12192248
0001f0 b2 a2 99 3d 45 a7 37 bd 6f a4 de bd 96 0b 81 bd
       0.07501735 -0.044837255 -0.10871207 -0.06301038
000200 d8 50 09 3d d3 ed 7b bd b4 ee c6 3d 5c d0 b1 3d
       0.033524364 -0.061506104 0.09713498 0.086823195
000210 fe 68 39 bd 7a 93 6f 3d b2 68 ad bd cd 1e 3d bc
       -0.045266144 0.058490254 -0.08467235 -0.011542988
000220 bf c0 f0 3c 7b 13 d3 3d 35 17 98 3d f3 1f e9 bd
       0.029388783 0.1030645 0.074263014 -0.11383047
000230 f8 2a 4e 3d 16 14 fe 3d 1d ec 5f bd 68 34 aa bc
       0.050333947 0.12406175 -0.054668535 -0.020776942
000240 c4 02 05 bd e3 1a 5e 3d 9d bb 0b 3e 52 d1 36 3d
       -0.03247334 0.05422486 0.13645788 0.044633217
000250 1d 1d 4e 3d 20 bf 37 3d 67 22 e3 3c 8a 50 8e bd
       0.050320733 0.044860005 0.027726365 -0.06948955
000260 80 d4 de bc 9a d6 cd bd 99 33 b5 bd 0f 3a e4 3c
       -0.027200937 -0.100506976 -0.08847732 0.027859716
000270 30 2d 8d 3d 76 7b bc 3d 57 51 a7 3d 08 9f 5b 3d
       0.068933845 0.09203236 0.08169811 0.05361846
000280 a8 16 1f bd 0d a7 02 3e 26 f7 ae ba cf a1 89 bd
       -0.038839966 0.12759037 -0.0013348802 -0.06720316
000290 d4 aa 75 3d 8d 3f da 3c d2 d6 89 3d ef 77 e3 bd
       0.059977368 0.026641631 0.06730427 -0.1110686
0002a0 04 34 57 bd aa 1e e4 bc be 8c 03 3e 2c df 9c 3c
       -0.05253984 -0.027846653 0.12846658 0.019149385
0002b0 81 9e cd bb d2 a9 d2 bb 1c 2c 04 3e b5 7c 08 bd
       -0.0062749987 -0.0064289356 0.12907451 -0.033322055
0002c0 4f 3e e3 bb 65 87 01 3e a2 84 46 bc 55 ee 00 3e
       -0.006934918 0.12649305 -0.012116583 0.12590916
0002d0 5e 5a 3c bd 40 dc 82 3d 56 d3 8c ba 42 e3 a4 3c
       -0.04598462 0.063896656 -0.0010744135 0.020127896
0002e0 3f 56 54 3d a0 c9 55 3d e0 74 85 3c 64 4b a0 3d
       0.051840063 0.052194238 0.016291082 0.078268796
0002f0 af ad d8 3d 11 df fc bd c9 b5 a5 bc 9a 7c 93 3d
       0.105800025 -0.12347234 -0.020228283 0.072015
000300 d9 b3 26 bd 28 e7 39 3e 57 8a 00 3e 9d 0e d0 bc
       -0.04069886 0.18154585 0.12552772 -0.025397593
000310 1c 15 10 bc 57 22 c1 3d 23 9a b5 3d cf 4f d3 3b
       -0.008794095 0.09430378 0.0886729 0.006448723
000320 73 57 89 3d 41 27 6b bd 48 7f 0d 3e 0e 0a b4 bd
       0.06706133 -0.057410482 0.13818085 -0.0879098
000330 fa 13 cd 3d 99 0d 89 bd 3a 6d e1 3d b7 ff 4d bd
       0.10013576 -0.06692047 0.110071614 -0.050292697
000340 2e 1b 75 3d 4f 29 5d 3d 36 c7 d3 bb 14 ec 98 bc
       0.059840374 0.053994473 -0.006462957 -0.018667258
000350 45 2b b3 3d c2 08 3b bd 40 c7 ab bc ba 5a 06 be
       0.087484874 -0.04566265 -0.020969033 -0.13120547
000360 d6 ad 80 3d 31 62 8d 3a 48 cf 8c 3d c1 6e 82 3d
       0.062831566 0.001078671 0.06875473 0.06368781
000370 e1 bc 4c 3d dc e2 57 bd ed b9 de 3b f1 bc 04 3d
       0.049984816 -0.052706584 0.0067970664 0.03240675
000380 8a 1e 32 3e 23 bc a6 bd 4c be bc bc 72 2f 10 3d
       0.17394462 -0.08141353 -0.02303996 0.035201497
000390 67 44 c6 bc 79 94 bb bd fa ce fd 3d c5 d5 e8 3c
       -0.024202539 -0.09159178 0.12392993 0.028422246
0003a0 8a 47 fc bc 6e 23 5c 3d ce a9 e4 bc 1c 9f 8d 3d
       -0.030795831 0.053744726 -0.027913 0.06915113
0003b0 91 fc 8f bb 96 8b ef 3d ae c6 86 bc 2d 01 f8 bd
       -0.004394122 0.11696546 -0.01645216 -0.12109599
0003c0 e6 01 85 3b b0 9e 1a bb a5 fd f4 3c e1 51 b9 bd
       0.004059064 -0.002359312 0.029906103 -0.0904882
0003d0 21 17 a5 bd 71 6e 85 bd bc 35 34 bd 91 ed 14 bd
       -0.08061052 -0.06515206 -0.043996558 -0.036359373
0003e0 5a 07 85 bb 06 4e 9a 3d 3e 5b f4 3d de 4e 2a bd
       -0.0040597143 0.07534413 0.119314656 -0.04157912
0003f0 99 70 c4 bc ec 21 15 3e 78 64 6d 3d c4 12 2a bd
       -0.023979472 0.14563721 0.057957143 -0.041521803
