crypto_models/DOGE_USD_lstm.pth (torch, 206117 bytes, 9 tensors)

lstm.weight_ih_l0 f4 [256, 1]
0	0x3d77e44c	0.060520455
1	0x3c24d107	0.010059602
2	0x3d1c70a4	0.03819336
3	0xbcdd0921	-0.026981892
4	0x3cdee061	0.027206602
5	0x3daba373	0.08380785
6	0x3cf70b46	0.030156743
7	0x3dabcca8	0.083886445
8	0xbd932297	-0.07184332
9	0xbbf5a45f	-0.007496401
10	0x3dd11c7e	0.102105126
11	0x3daf4c65	0.08559493
12	0x3de5e729	0.11225731
13	0xbe083c86	-0.13304338
14	0x3e174315	0.14771684
15	0xbdfeca5d	-0.124409415
16	0x3d620d2f	0.055188354
17	0x3e332cf8	0.17497623
18	0x3d9cc60b	0.07654961
19	0xbdc52491	-0.09626115
20	0x3e40b5a5	0.18819292
21	0xbd730fa2	-0.05934108
22	0x3e36b367	0.17841874
23	0xbdd9c0f4	-0.10632506
24	0x3db59c24	0.08867672
25	0xbd6a1195	-0.057145674
26	0xbd96a866	-0.07356338
27	0xbdd97339	-0.1061768
28	0x3d25e6fc	0.040503487
29	0x3c8cb786	0.017177355
30	0x3e37d0f2	0.179508
31	0x3e26d726	0.1629301
32	0xbe33df42	-0.17565635
33	0x3d46529c	0.048418626
34	0x3cbce6b3	0.023059225
35	0x3dfa75d8	0.12229508
36	0x3d53dd18	0.051724523
37	0xbb54c636	-0.0032466776
38	0x3c850003	0.016235357
39	0xbe036fdb	-0.12835638
40	0xbcb34bf1	-0.021886798
41	0x3dd9820d	0.10620508
42	0xbd8f9569	-0.070109196
43	0xbd85e4a3	-0.065377496
44	0x3d4eca19	0.050485704
45	0x3dad93b4	0.08475438
46	0x3e21c5bc	0.15798086
47	0x3d5fa7f1	0.05460352
48	0x3dafe613	0.08588805
49	0x3db1daed	0.08684335
50	0x3e0e312f	0.1388595
51	0xbdf3f450	-0.11911833
52	0xbd50beea	-0.05096332
53	0x3d6bbf71	0.05755562
54	0x3d4db436	0.05022069
55	0x3d8d76f3	0.069074534
56	0xbcb1b4ea	-0.021692712
57	0x3c24cb42	0.010058226
58	0x3cda52d7	0.02665083
59	0x3d3f0995	0.046639998
60	0xb935be0c	-0.00017332303
61	0x3cfbb5fd	0.030726427
62	0x3d9eae12	0.07748045
63	0x3e10b366	0.14130935
64	0x3e117348	0.14204133
65	0x3e24efb7	0.16107069
66	0xbdd16fb6	-0.10226385
67	0x3d53ae9c	0.051680192
68	0xbd707281	-0.05870295
69	0x3cdb04ac	0.026735626
70	0xbd8b225b	-0.06793662
71	0xbda9148e	-0.082558736
72	0x3dbaac53	0.091148995
73	0xbe1a776e	-0.15084621
74	0x3e2b2757	0.16714226
75	0x3dd932ae	0.106053695
76	0x3cbad5f2	0.022807095
77	0xbdd8ce54	-0.10586229
78	0x3dbfa040	0.09356737
79	0x3c0e2d08	0.0086777285
80	0xbd84c9c6	-0.06483798
81	0x3d7b00a7	0.06127992
82	0x3de724a6	0.11286287
83	0x3d66c566	0.056340598
84	0x3cad2435	0.021135429
85	0x3c8e07c9	0.017337697
86	0x3db07e35	0.08617822
87	0xbd96d935	-0.07365648
88	0xbda512c6	-0.080602214
89	0x3df9e238	0.12201351
90	0xbdc169e6	-0.09444027
91	0x3d6fd554	0.058553055
92	0x3e28c3c0	0.16480923
93	0xbe129b22	-0.14316991
94	0x3c349d41	0.01102382
95	0x3d992262	0.07477261
96	0xbe08e8ba	-0.13370028
97	0x3d4db421	0.050220612
98	0x3e2327d6	0.15933165
99	0x3da79784	0.08183196
100	0x3db7d3d6	0.089759514
101	0xbdb81a4f	-0.08989393
102	0x398cff63	0.0002689316
103	0xbe4033c4	-0.18769747
104	0xbe03170e	-0.12801763
105	0x3dfeff35	0.12451021
106	0x3d00b47f	0.031422134
107	0x3d6f15a0	0.058370233
108	0xbd2c4b1d	-0.04206382
109	0x3d9174b3	0.07102337
110	0x3d5adf08	0.053435355
111	0x3d31fdea	0.043455042
112	0x3d12ced6	0.035841785
113	0x3d895a2b	0.06706651
114	0xbbe89ab2	-0.0070985192
115	0x3d748b3a	0.05970309
116	0x3d36188f	0.044457015
117	0x3e050fce	0.1299431
118	0xbc9cb770	-0.019130439
119	0xbd4172fc	-0.0472288
120	0xbd60c352	-0.054873772
121	0xbb4d3694	-0.0031313049
122	0x3dc53fd3	0.09631314
123	0x3d0f4024	0.03497328
124	0x3de589d0	0.11207926
125	0xbdd2a634	-0.10285607
126	0xbc597b3a	-0.013274008
127	0x3de548de	0.11195539
128	0xbdafb1c4	-0.08578828
129	0x3d7327c7	0.059364107
130	0x3e11bea0	0.14232874
131	0xbd786a1a	-0.06064806
132	0x3dd396fb	0.103315316
133	0xbdb549c5	-0.08851961
134	0xbdc0bdea	-0.09411223
135	0xbcb23af9	-0.021756636
136	0x3d4d76c7	0.050162103
137	0xbd89d871	-0.06730736
138	0xbde448b9	-0.11146683
139	0xbe09f2ed	-0.13471575
140	0xbdce2a7e	-0.100666985
141	0x3d445d09	0.047940288
142	0xbd835dc2	-0.06414367
143	0x3d70c8e7	0.058785345
144	0x3dd54b70	0.10414779
145	0x3e3c9d7c	0.1841945
146	0xbc3ccbaa	-0.011523167
147	0x3d548134	0.05188103
148	0x3e82eaff	0.25569913
149	0xbd144a9a	-0.036203958
150	0xbe23acee	-0.15983936
151	0x3aa004ef	0.0012208502
152	0x3e02c09b	0.12768786
153	0xbe26f194	-0.16303092
154	0xbde91520	-0.113809824
155	0xbbf82b28	-0.007573504
156	0x3de6b850	0.112656236
157	0x3c0c1bc3	0.008551541
158	0xbe3fa349	-0.18714632
159	0x3e05a603	0.1305161
160	0xbdf40e06	-0.11916737
161	0xbdab0e92	-0.083523884
162	0x3e0da72d	0.13833304
163	0xbd7c7ed3	-0.061644387
164	0xbd819a3c	-0.06328246
165	0xbbdce2ab	-0.006740888
166	0xbcc950fb	-0.024574747
167	0xbde2916b	-0.110628925
168	0x3e0ab632	0.13546064
169	0xbdcec9ef	-0.100971095
170	0x3d8357df	0.064132445
171	0x3d7b4c70	0.061352193
172	0xbd390fff	-0.04518127
173	0x3e508e68	0.20366824
174	0xbe2caebd	-0.16863532
175	0x3d3c6846	0.04599788
176	0x3d81c412	0.063362256
177	0xbe2a0fb1	-0.16607548
178	0xbe28542d	-0.1643836
179	0xbc9e685f	-0.019336877
180	0x3ab348f3	0.0013678357
181	0x3d939af1	0.07207287
182	0x3df36f04	0.11886409
183	0x3e6355fc	0.22200769
184	0xbde07417	-0.109596424
185	0x3d837f9c	0.06420824
186	0xbc521167	-0.012821532
187	0x3bbb7c9e	0.0057216426
188	0xbe3bbcc5	-0.18333729
189	0xbd8b9621	-0.06815744
190	0xbdce6b1c	-0.10079023
191	0x3e233dd5	0.15941556
192	0xbbb17c05	-0.0054163956
193	0x3dfca1b0	0.12335527
194	0xbd9ccfe1	-0.07656837
195	0x3da4676c	0.08027539
196	0x3c8cbbb7	0.017179353
197	0x3d1786e6	0.036993884
198	0xbdc2f7bd	-0.095199086
199	0x3e21c53e	0.15797898
200	0xbcf3c552	-0.029757176
201	0xbd2a941b	-0.04164515
202	0x3c80f18a	0.015740175
203	0x3c115503	0.008870366
204	0x3e34aa30	0.17643046
205	0xbdcdcb12	-0.10048498
206	0x3b78d1b8	0.00379668
207	0x3bec9747	0.007220182
208	0x3c89fb24	0.016843386
209	0x3de0734c	0.10959491
210	0x3e078b9f	0.13236855
211	0xbd448fc6	-0.047988676
212	0x3e82ca5f	0.25545022
213	0xbd34ebed	-0.04417031
214	0x3e2a6e91	0.1664374
215	0xbdd754e3	-0.10514238
216	0xbd6f23c5	-0.05838372
217	0x3d52fab8	0.051508635
218	0x3daeae75	0.08529369
219	0x3dc1ac0b	0.09456643
220	0xbd1aa0fe	-0.03775119
221	0x3da24f89	0.079253264
222	0x3ba49fd4	0.005023936
223	0x3d5451c3	0.051835787
224	0xbdbb9ca9	-0.0916074
225	0xbdbc978c	-0.09208593
226	0x3e15adc5	0.14617069
227	0x3cf527ab	0.029926142
228	0x3c84d36e	0.016214099
229	0xbda214dc	-0.07914135
230	0xbd67f28d	-0.0566278
231	0x3cc757c8	0.02433385
232	0xbe47884b	-0.19485585
233	0x3d4ef818	0.05052957
234	0x3c52a773	0.012857306
235	0x3d22c112	0.039734907
236	0x3e06704a	0.13128772
237	0x3d43525c	0.047685966
238	0x3da9866b	0.08277591
239	0x3d01acc4	0.031658903
240	0xbdaa9efc	-0.08331105
241	0x3db2a55b	0.08722945
242	0x3da72495	0.08161274
243	0xbc2ab36a	-0.010418752
244	0x3ceab16c	0.028649054
245	0x3c994900	0.018711567
246	0xbe002b32	-0.12516478
247	0x3db31c89	0.08745677
248	0x3e1e65b8	0.1546849
249	0xbe1b0981	-0.15140344
250	0x3e112c7e	0.14177129
251	0xbc4be4d5	-0.0124446945
252	0x3e24f97c	0.16110796
253	0x3d3f2b14	0.046671942
254	0xbd182997	-0.03714904
255	0x3e405c6c	0.18785256

lstm.weight_hh_l0 f4 [256, 64]
0	0xbd68ad56	-0.05680593
1	0x3dc6039d	0.09668658
2	0xbd892b14	-0.066976696
3	0x3ccf00d0	0.025268942
4	0x3c3b6c29	0.011439362
5	0x3dbc7abf	0.092030995
6	0xbbd6698c	-0.006543344
7	0xbbdabbbe	-0.0066752126
8	0x3d44f022	0.04808057
9	0x3e04ded3	0.12975626
10	0x3d366a05	0.0445347
11	0x3c1dbdb3	0.009627747
12	0xbdc862ab	-0.097844444
13	0xbd6776a1	-0.056509618
14	0xbdb0a4fc	-0.08625218
15	0x3de12731	0.10993803
16	0x3db52370	0.0884465
17	0x3d6994cd	0.057026673
18	0x3d6e6822	0.058204778
19	0xbdd93574	-0.106058985
20	0xbdd3eb74	-0.103476435
21	0x3da33ae6	0.07970218
22	0x3da1a60e	0.078930005
23	0xbdc76fdc	-0.09738132
24	0xbc9dcbe8	-0.01926227
25	0xbd5a5376	-0.05330225
26	0x3da29f7b	0.07940575
27	0xbdc414bd	-0.09574268
28	0x3dab4f28	0.08364707
29	0x3d78d58c	0.06075053
30	0xbdaedd1b	-0.08538266
31	0xbd4a8b7a	-0.04944942
32	0x3dc65e6e	0.0968598
33	0x3da02690	0.07819855
34	0xbd155a9a	-0.036463358
35	0x3d81ef1b	0.06344434
36	0x3b0c6eb1	0.0021428282
37	0x3d7db07b	0.061935883
38	0xbb88f6dc	-0.0041798186
39	0x3d261c34	0.04055424
40	0xbbe24092	-0.00690467
41	0xbd98c2cb	-0.07459029
42	0x3d9cff6b	0.076659046
43	0x3de9faf0	0.11424816
44	0x3d5e7888	0.054314166
45	0x3e12c0da	0.1433138
46	0xbdb10cd1	-0.08645023
47	0xbdeb5413	-0.11490645
48	0x3df66f98	0.120330036
49	0x3de677b0	0.11253297
50	0xbdba3557	-0.09092205
51	0xbdb5b41d	-0.088722445
52	0xbdf37f18	-0.118894756
53	0xbd3bde68	-0.0458664
54	0xbd39c572	-0.045354314
55	0x3e039ce1	0.12852813
56	0xbdb7ec4a	-0.089806154
57	0x3c7a67c2	0.015283527
58	0x3ceb3a90	0.028714448
59	0xbd0d5a32	-0.034509845
60	0x3d63b272	0.0555901
61	0x3dd58258	0.10425252
62	0xbdba0fe6	-0.09085064
63	0x3d91af18	0.071134746
64	0xbc136cbf	-0.008998095
65	0xbca9b2e6	-0.020715188
66	0x3d23ba2a	0.03997246
67	0x3de25d6a	0.110529736
68	0x3d78b906	0.060723327
69	0xbdb424de	-0.08796094
70	0x3d20be14	0.039243773
71	0x3c99e243	0.018784648
72	0xbded0f7c	-0.11575219
73	0xbdd99ec9	-0.10625989
74	0xbd45bc51	-0.048275296
75	0x3d3542ea	0.044253267
76	0xbdc20fa6	-0.09475641
77	0x3c6f63d7	0.014611206
78	0x3d672361	0.056430224
79	0xbd504b56	-0.050853096
80	0x3dab928d	0.08377562
81	0x3db1c1e2	0.08679558
82	0xbc66d0f5	-0.014087905
83	0xbad7338a	-0.0016418558
84	0x3dc7face	0.09764634
85	0xbda20dee	-0.07912813
86	0xbd941ac4	-0.07231668
87	0x3d8b8cc4	0.06813958
88	0xbdde6fdf	-0.108611815
89	0xbde24e2a	-0.11050065
90	0xbe0adf64	-0.1356178
91	0xbc6b30c4	-0.014354888
92	0x3d419c4c	0.047268197
93	0xbc7ff031	-0.015621231
94	0x3d482a1d	0.048868287
95	0xbd044a23	-0.032297265
96	0x3d179e9b	0.037016492
97	0xbd78c811	-0.060737673
98	0xbd1791aa	-0.03700415
99	0xbc8c0bc4	-0.017095454
100	0x3d33625a	0.043794967
101	0x3d224946	0.03962066
102	0xbd77b8f6	-0.060479127
103	0x3e1deda9	0.15422691
104	0xbdcae45b	-0.099068366
105	0xbcfe77e9	-0.031063037
106	0x3bea9e4a	0.007159983
107	0x3d6ed699	0.058310125
108	0x3dab926e	0.083775386
109	0x3d71ae08	0.05900386
110	0x3d071454	0.03297837
111	0x3e01558a	0.12630287
112	0x3e037005	0.12835701
113	0xbd6f1fca	-0.058379926
114	0xbd5ca99a	-0.053872682
115	0x3dd906be	0.10596989
116	0x3ddb3673	0.10703745
117	0xbc2c9a70	-0.010534868
118	0xbdd7cb87	-0.10536867
119	0x3e179922	0.1480451
120	0xbd32cd94	-0.043653086
121	0x3db59ead	0.08868156
122	0x3d642f6d	0.05570929
123	0xbdf8fd9e	-0.12157749
124	0x3ca851d8	0.020546839
125	0x3d3acba3	0.04560436
126	0x3d6b48ad	0.057442356
127	0x3b3fdb5a	0.002927503
128	0xbd4c0522	-0.049809583
129	0x3c8de7c4	0.017322429
130	0x3dc387cd	0.09547386
131	0xbda9e93b	-0.08296438
132	0x3be8f661	0.007109449
133	0x3cecb281	0.028893711
134	0x3d9a5e96	0.07537572
135	0xbd1c0489	-0.038090263
136	0x3df6b3df	0.120460264
137	0x3d1ddbe7	0.038539793
138	0x3c90a142	0.017655019
139	0x3dd461d3	0.10370221
140	0x3cfda0f8	0.030960545
141	0xbdf9071c	-0.12159559
142	0xbdd83c6b	-0.10558399
143	0xbd768795	-0.060187895
144	0xbdee96f7	-0.11649888
145	0x3d2e78a2	0.042595513
146	0xbd5b5926	-0.053551815
147	0xbd1185aa	-0.035527863
148	0x3d473099	0.04863033
149	0xbdef5111	-0.11685384
150	0xbbda3820	-0.0066595227
151	0x3ac1248d	0.0014735624
152	0xbca38712	-0.019961867
153	0x3dc19faf	0.09454285
154	0xbdcfa5ff	-0.10139083
155	0xbc8df278	-0.017327532
156	0x3defcca2	0.117089525
157	0x3d9508e7	0.072770886
158	0x3d57230e	0.052523665
159	0xbd80ce09	-0.06289298
160	0x3bfc9d66	0.007709193
161	0x3dcd1ac4	0.10014871
162	0x3d8c2e04	0.06844714
163	0x3cae4f68	0.021278098
164	0xbccb1de5	-0.024794528
165	0xbd61a7cd	-0.055091668
166	0x3d3455e0	0.04402721
167	0xbd26412a	-0.04058949
168	0xbde583df	-0.11206793
169	0x3d0f862c	0.035040066
170	0xbd6420e9	-0.055695448
171	0x3df383b0	0.11890352
172	0x3d6030e1	0.054734115
173	0xbdbfa633	-0.09357872
174	0x3c868b95	0.01642398
175	0x3d9898b8	0.07451004
176	0x3de68030	0.112549186
177	0x3d9d3a81	0.07677174
178	0xbdf5398b	-0.11973866
179	0xbd30d806	-0.043174766
180	0xbd85dd27	-0.06536322
181	0x3dbb18f0	0.09135616
182	0x3d086e19	0.033308122
183	0xbc8940d7	-0.01675455
184	0xbdf6aef5	-0.12045089
185	0xbc9a97db	-0.018871238
186	0x3d4dd851	0.050255124
187	0x3d9b1bfd	0.07573698
188	0x3d4737f5	0.04863735
189	0x3d9abcc3	0.07555535
190	0xbd53dad3	-0.05172236
191	0x3d0ef5cc	0.03490238
192	0xbd9dc3e6	-0.0770338
193	0xbcc77057	-0.02434556
194	0x3ddc06a5	0.10743455
195	0x3d21baef	0.039484914
196	0xbc4c31cd	-0.012463045
197	0xbd39658e	-0.045262866
198	0x3ca5b16a	0.0202262
199	0xbdfab4d8	-0.122415245
200	0xbdd7e64f	-0.10541975
201	0x3d00d24e	0.031450562
202	0xbd7b7d64	-0.06139888
203	0xbd6dbeba	-0.05804322
204	0xbcd16de3	-0.025565093
205	0x3d7c452d	0.06158941
206	0x3df8c001	0.12145997
207	0xbdba456b	-0.09095272
208	0x3d8ba2f3	0.068181895
209	0x3d1028d7	0.035195198
210	0x3c9ae683	0.018908745
211	0x3d9f6ff5	0.07785026
212	0x3b8640fa	0.0040971013
213	0xbde171ee	-0.110080585
214	0xbda18e4c	-0.07888469
215	0xbabaf2d3	-0.0014263041
216	0xbcab7ddb	-0.020934036
217	0x3d154bde	0.036449306
218	0xbdaea137	-0.08526843
219	0x3c64ab27	0.0139568215
220	0xbdaa1a5f	-0.08305811
221	0xbd80fdb8	-0.06298393
222	0xbd519fa5	-0.05117764
223	0x3daef7d1	0.08543361
224	0x3d6445a7	0.05573049
225	0xbd9447b0	-0.07240236
226	0xbdc816b6	-0.09769957
227	0xbcf608c2	-0.030033473
228	0x3ca8cb06	0.020604622
229	0x3de74d3e	0.1129403
230	0x3d34453e	0.044011347
231	0xbd0aa3a3	-0.033847462
232	0x3c743286	0.014904624
233	0xbdcdbc80	-0.10045719
234	0x3d5d9824	0.05410017
235	0xbdd5278b	-0.10407933
236	0x3dad0ffd	0.08450315
237	0x3e0801c0	0.13281918
238	0x3dca1cb0	0.09868753
239	0xbc4d8bc2	-0.012545528
240	0xbcf60f7e	-0.030036684
241	0xbe0c6d66	-0.13713607
242	0xbd3d0c9b	-0.0461546
243	0x3da288a2	0.07936217
244	0x3d6d65da	0.05795846
245	0xbd5d0dbd	-0.05396818
246	0x3e04784d	0.12936516
247	0xbd5c5b4a	-0.053797998
248	0xbda41c9a	-0.08013268
249	0x3dba621b	0.091007434
250	0xbdd5020a	-0.104007795
251	0x3d8ede5b	0.06976005
252	0x3d5e8b83	0.054332267
253	0x3d868004	0.06567386
254	0x3d6835c2	0.056691892
255	0x3ca63d6f	0.020292966

lstm.bias_ih_l0 f4 [256]
0	0xbcae5124	-0.021278925
1	0xbddf1a76	-0.10893719
2	0xbca88434	-0.020570852
3	0x3dd7a7b8	0.10530037
4	0x3dc8e2c4	0.09808877
5	0xbb43ce54	-0.002987762
6	0xbc640ead	-0.013919515
7	0x3bab8111	0.005233892
8	0x3cb2ec14	0.021841086
9	0x3cf19e73	0.0294945
10	0x3df251bb	0.11831995
11	0xbba1f601	-0.004942656
12	0xbd98c65b	-0.07459708
13	0xbd837a1d	-0.06419776
14	0x3db4221b	0.087955676
15	0xbe0ac0e8	-0.1355015
16	0xbd332f57	-0.04374632
17	0x3e1782f0	0.14796042
18	0xbda1f3f5	-0.07907859
19	0xbda93a2b	-0.08263048
20	0x3e6c3151	0.23065688
21	0xbdc41c83	-0.09575751
22	0x3e00a533	0.12563019
23	0xbd3d6ced	-0.046246458
24	0x3dacdc0f	0.0844041
25	0xbca20fb9	-0.019782888
26	0xbd665451	-0.056232754
27	0x3d0f3148	0.034959108
28	0x3d363f1b	0.044493776
29	0x3d55f590	0.05223614
30	0x3e104235	0.14087756
31	0xbd1eab33	-0.038737487
32	0x3db2977b	0.08720299
33	0xbd270708	-0.04077819
34	0x3cb8284f	0.022480158
35	0xbe01698d	-0.1263792
36	0x3ca93925	0.020657131
37	0xbb8254ad	-0.0039773793
38	0x3c96cd1c	0.01840835
39	0x3e75cde6	0.24004325
40	0x3db00dd8	0.085963905
41	0xbd88eb48	-0.06685501
42	0x3de9dffe	0.11419676
43	0xbd749b7c	-0.059718594
44	0x3dc72ef1	0.0972575
45	0x3dae382b	0.08506807
46	0x3d9b0954	0.075701386
47	0xbdc789e4	-0.097430974
48	0xbcd33a38	-0.025784597
49	0x3d98d580	0.07462597
50	0xbd75b1aa	-0.059983887
51	0xbcf3f122	-0.029778067
52	0x3deb198b	0.11479481
53	0xbc229ad3	-0.009924608
54	0x3d883695	0.06651036
55	0x3e456aa9	0.19278969
56	0xbdd19a88	-0.102345526
57	0x3ca4637e	0.020066973
58	0x3cdf7597	0.02727775
59	0x3cd85d6a	0.02641173
60	0x3e13cfa7	0.14434682
61	0xbd059519	-0.032612894
62	0xbc5a6232	-0.013329076
63	0xbd68086b	-0.056648653
64	0xbd36d8f0	-0.04464048
65	0x3c1b5613	0.009480971
66	0x3d9ace55	0.07558886
67	0x3da4cecb	0.08047255
68	0xbddb7380	-0.10715389
69	0xbcb31719	-0.0218616
70	0xb9cc5c00	-0.00038978457
71	0x3dd72767	0.10505562
72	0x3dec0966	0.1152523
73	0x3d68575f	0.05672395
74	0xbd9cd740	-0.07658243
75	0x3d84ea70	0.06490028
76	0x3cc6da85	0.02427412
77	0xbc62eb1d	-0.013850001
78	0xbd3081f3	-0.04309268
79	0x3db337df	0.08750891
80	0x3dc628fb	0.09675785
81	0x3d2127f5	0.039344747
82	0x3c2c7fa2	0.010528477
83	0xbdd8b8ea	-0.105821446
84	0x3e2ce123	0.16882758
85	0xbdeb9dd1	-0.115047105
86	0x3dd2d8b6	0.102952406
87	0x3c97576d	0.018474305
88	0xbde8473b	-0.11341711
89	0x3de6afa8	0.112639725
90	0xbdfce9e1	-0.12349296
91	0xbda6572f	-0.08122098
92	0x3d981826	0.07426481
93	0xbdfaf9c3	-0.122546695
94	0x3be06640	0.0068481266
95	0xbb975eaf	-0.0046194415
96	0x3d5df993	0.05419309
97	0xbddb4449	-0.10706384
98	0x3dd89539	0.10575337
99	0xbd304471	-0.04303402
100	0xbe01c12b	-0.12671344
101	0x3d28e7b1	0.041236583
102	0xbd8ac1f4	-0.06775275
103	0x3daecd02	0.08535196
104	0xbddd8869	-0.10817034
105	0xbd311f76	-0.043242894
106	0xbc9cffdb	-0.01916497
107	0x3d84993d	0.064745404
108	0x3d5d9e17	0.054105844
109	0x3d7fe52e	0.062474422
110	0xbd55006c	-0.052002355
111	0xbdde6f98	-0.108611286
112	0x3d342f5c	0.043990478
113	0xbd0cec71	-0.034405176
114	0x3d67ea2f	0.05661982
115	0xbdd85590	-0.10563195
116	0xbd31d6b0	-0.043417633
117	0xbd449ec0	-0.04800296
118	0x3d96bbce	0.0736004
119	0x3d6af27c	0.057360157
120	0xbdf21e22	-0.11822154
121	0x3d9ed208	0.07754904
122	0x3df6200e	0.12017833
123	0x3cc21a74	0.023694254
124	0x3e1381e1	0.14405014
125	0xbc96f4ed	-0.018427337
126	0x3db6a5a3	0.089183114
127	0x3dcdbe0d	0.10046015
128	0xbcedc6dd	-0.02902549
129	0x3d7854db	0.0606278
130	0x3c55e623	0.013055357
131	0xbd813e47	-0.063107066
132	0x3d9b762a	0.075908974
133	0xbdc12b6a	-0.09432109
134	0xbb189d05	-0.002328695
135	0x3d31d952	0.043420143
136	0x3db98f86	0.09060578
137	0xbcaf0ddf	-0.021368919
138	0xbd024935	-0.031808097
139	0x3ce32d7e	0.027731653
140	0x3ccb59bf	0.024823068
141	0xbd284f69	-0.041091356
142	0x3b7c28a3	0.003847637
143	0x3cb6b902	0.022305015
144	0x3da3e219	0.08002109
145	0x3d47e718	0.048804373
146	0xbd15ca02	-0.036569603
147	0x3bdf25cf	0.006809927
148	0xbda48196	-0.08032529
149	0xbd5f704d	-0.054550458
150	0x3c497369	0.012295582
151	0xbdbbcb96	-0.0916969
152	0x3d9a47f7	0.075332575
153	0xbc4d3059	-0.012523734
154	0x3d03e5f0	0.032201707
155	0x3cb23edc	0.02175849
156	0x3dc10f3c	0.09426734
157	0x3d104c5f	0.035229083
158	0x3b0016a1	0.0019544738
159	0x3d47b060	0.04875219
160	0x3d44b5ec	0.048025057
161	0x3da3c26b	0.07996067
162	0xbbf241d2	-0.0073931003
163	0xbda5bca8	-0.08092624
164	0x3b9c1e0e	0.004764325
165	0xbd94ff8c	-0.07275304
166	0xbdb805fd	-0.08985517
167	0xbcd0f3ab	-0.025506815
168	0xbdec5c4c	-0.11541042
169	0xbbace648	-0.005276475
170	0x3c8e83bb	0.017396798
171	0x3ca0c48a	0.019624967
172	0x3a2ec3f0	0.000666677
173	0xbd82452c	-0.0636085
174	0xbc48f7ed	-0.012266141
175	0x3c8bc4ed	0.017061675
176	0x3c8ed02a	0.017433245
177	0xbca94375	-0.020662049
178	0x3dcbe22e	0.0995525
179	0xbbbee872	-0.0058260495
180	0xbd887948	-0.066637576
181	0x3c8986c4	0.016787894
182	0xbd2e361f	-0.042532083
183	0xbc97a542	-0.018511418
184	0xbd99ddbe	-0.07512997
185	0x3beea1c1	0.007282466
186	0x3d7076d2	0.058707066
187	0xbdb3dc56	-0.0878226
188	0x3e02379d	0.12716527
189	0x3ddaa38f	0.106757276
190	0xbd048ac7	-0.03235891
191	0x3d216cc4	0.039410368
192	0xbdf8a33a	-0.12140508
193	0xbda7a546	-0.0818582
194	0xbd970315	-0.07373635
195	0xbd82bbe1	-0.06383491
196	0xbd246a14	-0.040140226
197	0xbcc6795a	-0.024227787
198	0xbe027b36	-0.12742314
199	0xbd00db4d	-0.03145914
200	0xbd52d071	-0.051468316
201	0xbd8203d4	-0.063483864
202	0xbdd30e9a	-0.103055194
203	0x3de278e6	0.11058216
204	0x3da29c61	0.07939983
205	0x3daeec51	0.085411675
206	0xbd87953e	-0.066202626
207	0xbe0fca40	-0.14041996
208	0x3d03a0e2	0.03213585
209	0x3eadf94c	0.3397926
210	0x3da2af5c	0.079436034
211	0xbda7559e	-0.08170627
212	0x3ecab867	0.39593813
213	0xbc8d7ee1	-0.017272415
214	0xbdc0ef94	-0.09420696
215	0xbdbb8248	-0.091557086
216	0xbd8dee7d	-0.06930254
217	0x3e12790a	0.14303985
218	0xbdc9a44e	-0.09845792
219	0xbe12edca	-0.14348522
220	0x3dcbecae	0.099572524
221	0xbe269ba8	-0.16270316
222	0xbd1c6c36	-0.038189135
223	0x3d494264	0.04913558
224	0xbcf2ea4a	-0.029652733
225	0x3d1deb6d	0.038554598
226	0x3d35cef1	0.044386808
227	0xbdb4afec	-0.08822617
228	0xbde3f46d	-0.11130605
229	0xbd5d5d37	-0.054043975
230	0xbde97f48	-0.1140123
231	0x3e9a5b5f	0.30147836
232	0xbd765f38	-0.0601494
233	0xbdc122fa	-0.094304994
234	0xbde0fa9d	-0.10985301
235	0xbd05cf0b	-0.032668155
236	0x3da2231d	0.079168536
237	0x3d8a1da2	0.06743933
238	0x3de00df5	0.10940162
239	0x3dad03d9	0.084479995
240	0xbdd3160b	-0.10306939
241	0xbd1ad349	-0.037799153
242	0x3d870674	0.06593028
243	0x3dd1509b	0.102204524
244	0x3d557615	0.052114565
245	0x3d1ad956	0.037804924
246	0x3d9fc795	0.07801739
247	0x3e1c37dc	0.15255684
248	0x3df18b62	0.11794163
249	0xbc8b1e07	-0.016982092
250	0xbc1c6765	-0.009546136
251	0xbd81fef7	-0.06347459
252	0x3e3438b8	0.17599761
253	0xbd945dac	-0.07244429
254	0xbdf2c362	-0.118536726
255	0xbdcc369d	-0.09971354

lstm.bias_hh_l0 f4 [256]
0	0xbd1f6113	-0.038910937
1	0xbdba45f8	-0.09095377
2	0xbb02115c	-0.0019846773
3	0x3da4d18e	0.08047782
4	0xbd8807b2	-0.06642093
5	0xbcebd243	-0.028786784
6	0xbdc7920f	-0.09744655
7	0xbda3794e	-0.079821214
8	0x3df43f7e	0.11926173
9	0x3d077503	0.033070575
10	0x3da26dcf	0.079311006
11	0x3e05c0a4	0.13061768
12	0x3dad342f	0.08457219
13	0xbdf42177	-0.119204454
14	0x3de02a39	0.10945553
15	0xbd8e3da6	-0.06945352
16	0x3d12b9c9	0.03582171
17	0x3e725aea	0.23667493
18	0x3d674ffc	0.056472763
19	0x3d34b6ec	0.04411976
20	0x3e922439	0.2854326
21	0x3d61dc7f	0.055141922
22	0x3dab8caf	0.08376443
23	0x3cde8b5c	0.027166061
24	0x3da2adbb	0.07943293
25	0x3c157d97	0.009124181
26	0x3d56f1ab	0.052476566
27	0x3d52da14	0.051477507
28	0xbda23420	-0.07920098
29	0xbda56bf0	-0.08077228
30	0xbd9a8996	-0.07545774
31	0x3d3d8313	0.04626758
32	0x3d7a46c6	0.06110265
33	0xbd95b454	-0.073097855
34	0x3df0948c	0.11747083
35	0xbd430768	-0.047614485
36	0x3d507a22	0.050897725
37	0xbb989fa2	-0.0046577016
38	0x3e004f3b	0.12530224
39	0x3e6c3ed6	0.23070845
40	0x3dc78174	0.09741488
41	0xbd740f09	-0.05958465
42	0xbdf04f02	-0.117338195
43	0xbd2c1a4e	-0.042017274
44	0x3df5304f	0.11972105
45	0x3d9598fb	0.07304569
46	0xbd2e5acb	-0.042567056
47	0x3de75c32	0.11296882
48	0xbd980ad3	-0.074239396
49	0xbd3ac502	-0.045598038
50	0x3d02419a	0.031800844
51	0x3db87112	0.090059415
52	0x3d4307fd	0.04761504
53	0xbc4cb9b9	-0.012495452
54	0x3de14bcd	0.11000786
55	0x3e8b609e	0.2722215
56	0xbdf09182	-0.117465034
57	0x3dc1de94	0.094662815
58	0xbb6342b9	-0.003467722
59	0x3d847313	0.06467261
60	0x3e36d0b3	0.1785305
61	0x3a20f2bc	0.0006139686
62	0x3de3d472	0.11124505
63	0x3dfd7bf9	0.123771615
64	0xbd9123ad	-0.07086883
65	0xbd896ce6	-0.06710224
66	0x3dcc5919	0.099779315
67	0xbc806dfd	-0.015677446
68	0x3b052677	0.0020317116
69	0x3d266454	0.040623024
70	0x3b145ca1	0.002263822
71	0xbde64955	-0.11244456
72	0xbcd98cf4	-0.02655647
73	0xbde543ab	-0.11194547
74	0x3d3ca5a8	0.04605642
75	0xbd2af03f	-0.041733023
76	0xbd473758	-0.048636764
77	0xbde016f5	-0.10941879
78	0xbdbf0fb9	-0.09329171
79	0x3c765dce	0.015037013
80	0x3b8aec07	0.0042395624
81	0x3da26577	0.07929509
82	0xbc6ed5a6	-0.014577305
83	0xbd7b468c	-0.061346576
84	0x3da63de5	0.08117274
85	0xbd37db4f	-0.044886883
86	0xbd4a5aba	-0.04940293
87	0x3d0ba00a	0.034088172
88	0x3d4282e5	0.047488112
89	0xbd960f6a	-0.07327159
90	0xbcdb10e0	-0.026741445
91	0xbe1228a2	-0.14273313
92	0xbbb10ffd	-0.0054035173
93	0x3d00c3d1	0.031436745
94	0x3dd1507f	0.102204315
95	0x3cd0a43d	0.02546894
96	0xbc2eb3a5	-0.010662948
97	0xbd485142	-0.04890562
98	0x3a2805a1	0.000640953
99	0xbdc3dda6	-0.095637605
100	0x3d9fee8a	0.078091696
101	0x3c754edb	0.014972414
102	0x3dba140c	0.09085855
103	0x3de41c9c	0.11138269
104	0x3daec68b	0.08533963
105	0xbd796a5e	-0.060892455
106	0x3d9a6be9	0.075401135
107	0x3d49e7ed	0.049293447
108	0xbd89c343	-0.06726696
109	0x3c39f02f	0.011348768
110	0x3dc5b3c5	0.09653429
111	0xbd4241b7	-0.04742595
112	0x3de94cf5	0.113916315
113	0x3d91ffda	0.07128878
114	0xbbc621f5	-0.0060465285
115	0x3dd07ede	0.10180448
116	0xbd44dbfe	-0.048061363
117	0xbb998dd3	-0.004686096
118	0x3d92ed5c	0.07174179
119	0x3dfff1a1	0.12497259
120	0x3a8c6795	0.0010712022
121	0x3d816f1f	0.06320023
122	0xbc3cd358	-0.011524998
123	0xbc0d9217	-0.008640788
124	0xbd430ef8	-0.047621697
125	0xbcc61c7e	-0.024183508
126	0x3c95d75e	0.018291172
127	0xbce403f6	-0.02783392
128	0xbdb6935c	-0.08914825
129	0x3d8a4453	0.06751313
130	0xbe07365e	-0.13204333
131	0xbdb91c01	-0.090385444
132	0xbd97191a	-0.073778346
133	0xbdc219d2	-0.09477581
134	0x3dd4d34c	0.10391864
135	0xbdf49782	-0.1194296
136	0x3c7d59d1	0.015463308
137	0x3d69d4e8	0.05708781
138	0x3caefbfe	0.021360394
139	0x3d6d7b1a	0.057978727
140	0xbd3659b3	-0.044519138
141	0xbd9b6572	-0.075877085
142	0x3d1601bc	0.036622748
143	0x3cd9c010	0.02658084
144	0x3bfa41b4	0.007637227
145	0xbde0353e	-0.10947655
146	0xbdc220cc	-0.09478912
147	0xbde3f5ec	-0.1113089
148	0x3d8f7ae2	0.0700586
149	0x3d3b0da3	0.045667302
150	0xbda24315	-0.07922951
151	0x3d5e8111	0.054322306
152	0xbd907ab3	-0.07054653
153	0x3c8713ca	0.016488928
154	0xbd8594a2	-0.0652249
155	0x3d59c96d	0.05317061
156	0x3ce89d95	0.028395453
157	0xbd5edca1	-0.054409627
158	0x3d505046	0.050857805
159	0x3decdbee	0.11565386
160	0x3da00f35	0.078154005
161	0x3d924425	0.07141904
162	0xbc0279fe	-0.0079636555
163	0x3c8a3014	0.016868629
164	0x3d25daf3	0.04049201
165	0xbbd54ac1	-0.0065091555
166	0xbda46f31	-0.080290206
167	0x3de19773	0.11015215
168	0xbcf341ec	-0.02969452
169	0xbc7a49bb	-0.015276368
170	0xbdd61826	-0.10453825
171	0x3df75ff5	0.12078849
172	0x3d41e2aa	0.047335304
173	0x3c954326	0.018220495
174	0xbdea98de	-0.11454938
175	0xbd5dc7c5	-0.054145593
176	0x3bd5b9c2	0.006522388
177	0xbb011e84	-0.0019702027
178	0xbdc7250a	-0.097238615
179	0xbd037df8	-0.032102555
180	0xbdec9fb0	-0.115538955
181	0x3d8b4509	0.06800277
182	0xbd8923c9	-0.066962786
183	0xbda61c1f	-0.081108324
184	0x3d23b09d	0.039963353
185	0xbccdabed	-0.025106395
186	0x3d12e60a	0.035863914
187	0x3c5eabdd	0.01359078
188	0xbdbde53a	-0.09272237
189	0x3d82ff4d	0.06396351
190	0xbd74c66f	-0.059759554
191	0x3dac61f0	0.084171176
192	0x3d13fb08	0.036128074
193	0x3c92d405	0.017923364
194	0xbd282edb	-0.04106031
195	0x3dc616fd	0.096723534
196	0xbd8052de	-0.06265806
197	0xbcd1fe88	-0.025634065
198	0xbde66271	-0.11249245
199	0x3cbefca9	0.023313837
200	0x3de26566	0.110544965
201	0xbcb932ca	-0.022607226
202	0x3e033cb2	0.12816122
203	0x3d5c4ba0	0.05378306
204	0x3d2e85c6	0.042608045
205	0xbdbc23c5	-0.0918651
206	0xbcd7aa18	-0.026326224
207	0xbd814cf8	-0.06313509
208	0xbd03437c	-0.03204678
209	0x3e278b40	0.16361713
210	0x3c933e77	0.017974121
211	0x3db5c14a	0.088747576
212	0x3ee2b732	0.44280392
213	0x3e05737f	0.1303234
214	0x3dc1ce56	0.094631836
215	0xbca6e6d5	-0.020373741
216	0x3e0a5862	0.13510278
217	0x3e01ffd8	0.12695253
218	0xbe01a555	-0.12660725
219	0xbb90b9ed	-0.0044166953
220	0xbd7a146d	-0.061054636
221	0xbe065c4a	-0.13121143
222	0x3da72482	0.0816126
223	0xbc341b5d	-0.010992852
224	0x3d170171	0.03686661
225	0xbd887dad	-0.06664596
226	0x3d031ec5	0.032011766
227	0x3d85d24c	0.065342516
228	0x3da68b05	0.081319846
229	0xbdea66c8	-0.11445385
230	0xbce698bf	-0.028149007
231	0x3e55c5d8	0.20876253
232	0x3d9aa403	0.07550814
233	0x3d0c1f26	0.034209393
234	0x3d8ab977	0.06773656
235	0xbd2683cb	-0.04065303
236	0xbdeb8ea3	-0.11501815
237	0x3e3c4c27	0.18388425
238	0x3d15e295	0.03659304
239	0x3da4b797	0.080428295
240	0x3c8255db	0.01591008
241	0x3dc324ad	0.0952848
242	0x3dc744fe	0.09729956
243	0x3d3e627c	0.04648064
244	0xbd9ba1ef	-0.07599246
245	0x3ce3faa0	0.027829468
246	0xbd0c685a	-0.034279205
247	0x3e6c864d	0.23098107
248	0x3d92e8a8	0.07173282
249	0xbdb049bc	-0.08607814
250	0x3da7eb25	0.08199147
251	0x3dd8e36b	0.105902515
252	0x3e0c24ae	0.13685867
253	0x3dcca40a	0.099922255
254	0xbd9701ac	-0.07373366
255	0x3d023c1e	0.031795613

lstm.weight_ih_l1 f4 [256, 64]
0	0xbdb21e09	-0.08697135
1	0x3d2fa73b	0.042884093
2	0xbda295a3	-0.07938697
3	0x3d94e307	0.072698645
4	0x3c9e64cc	0.019335173
5	0xbe0e966d	-0.1392457
6	0xbd604a9c	-0.054758653
7	0xbdc32d86	-0.09530167
8	0x3ddf657b	0.10908028
9	0xbd9333b9	-0.071876
10	0xbd987741	-0.07444621
11	0x3bc14424	0.0058980156
12	0xbd7566f2	-0.05991263
13	0xbd9fe91f	-0.07808136
14	0x3d2ec15d	0.042664874
15	0x3b911745	0.004427823
16	0x3ce86d1a	0.028372336
17	0x3e2c8bcb	0.16850202
18	0x3d0efe1c	0.034910306
19	0x3da4d887	0.08049112
20	0x3da84afc	0.08217427
21	0xbe0b0092	-0.13574436
22	0x3d316f83	0.043319236
23	0xbcc90ab5	-0.024541238
24	0xbce5cea1	-0.02805263
25	0x3d0027d8	0.031287998
26	0xbc11fa49	-0.00890977
27	0x3d044e59	0.03230128
28	0xbd213ee5	-0.03936662
29	0xbdb7f5cd	-0.0898243
30	0xbdb4d05d	-0.08828805
31	0x3d80facd	0.062978365
32	0x3d8f37f5	0.06993095
33	0xbd8e1d0f	-0.06939136
34	0x3c804110	0.015656024
35	0xbb6ac02e	-0.0035820114
36	0x3cbaa9a1	0.022785963
37	0x3d506d0b	0.05088524
38	0x3d59e249	0.053194318
39	0xbe30dafb	-0.17271034
40	0x3d9ddf4e	0.077086076
41	0x3cdfad0a	0.027304191
42	0xbd8f6a57	-0.070027046
43	0xbd3c83fd	-0.04602431
44	0x3dd130f0	0.10214412
45	0x3cb93669	0.022608953
46	0xbdb9221b	-0.09039708
47	0x3dc20775	0.094740786
48	0xbd81d590	-0.06339562
49	0xbe106326	-0.14100322
50	0xbdfff3d1	-0.12497676
51	0x3d4aa388	0.04947236
52	0xbd99fd40	-0.07519007
53	0x3c0429ce	0.008066608
54	0x3e02dfa9	0.12780632
55	0x3e62ef33	0.2216156
56	0x3d9e241e	0.077217326
57	0x3d9d18c7	0.076707415
58	0xbd1274e6	-0.035756014
59	0xbda88ed8	-0.0823037
60	0xbe09b01a	-0.13446084
61	0x3dbc2afe	0.091878876
62	0x3c1a31e9	0.009411314
63	0x3d8d9f77	0.06915181
64	0x3de50432	0.11182441
65	0xbd8e9517	-0.069620304
66	0x3dda9acc	0.106740564
67	0xbd807648	-0.0627256
68	0x3d2b8d66	0.041882895
69	0xbdb11f2c	-0.08648524
70	0x3de618b1	0.11235178
71	0x3da46be2	0.080283895
72	0x3dadd367	0.084875874
73	0xbc9090b6	-0.017647129
74	0xbd9e6f52	-0.077360764
75	0x3cca75dd	0.024714405
76	0x3d216f35	0.039412696
77	0x3e0a06ef	0.13479207
78	0x3cef4f16	0.029212516
79	0xbe01b151	-0.12665297
80	0xbddbcf27	-0.107328705
81	0x3d571ac4	0.05251576
82	0xbda237f3	-0.07920828
83	0x3ddafd22	0.106928125
84	0x3d42590b	0.0474482
85	0x3db8445c	0.089974135
86	0x3dbde6a5	0.092725076
87	0x3d580fb7	0.05274936
88	0x3d166fd5	0.036727745
89	0xbcc25585	-0.02372242
90	0xbd396df2	-0.045270868
91	0x3da11167	0.07864647
92	0x3dac9cca	0.08428343
93	0x3d9222dd	0.07135556
94	0x3d099f1a	0.033598997
95	0xbd0d79d8	-0.034540027
96	0x3d4ac773	0.049506616
97	0xbdbb01c8	-0.09131199
98	0xbd28d327	-0.041216996
99	0xbcbf6fae	-0.023368683
100	0x3dee1355	0.11624781
101	0x3dbe7ee2	0.09301545
102	0x3cb4c519	0.02206664
103	0x3e0315da	0.12801304
104	0x3dd6c2f8	0.10486406
105	0x3d827c09	0.06371314
106	0xbcb05581	-0.021525146
107	0x3d819b22	0.06328417
108	0xbdae8577	-0.0852155
109	0xbdf94b03	-0.121725105
110	0xbc40e12c	-0.011772435
111	0xbdbfae5f	-0.093594305
112	0x3d36d8b7	0.04464027
113	0x3e10d506	0.14143762
114	0x3d0e1b8d	0.034694243
115	0xbcc708db	-0.024296215
116	0xbd0f191e	-0.034936063
117	0xbb6be0cd	-0.0035992146
118	0xbd4c72a8	-0.049914032
119	0xbe350a18	-0.17679632
120	0x3dd8c7d4	0.10584989
121	0xbdc2ef74	-0.09518328
122	0xbdcbc448	-0.09949547
123	0xbd3178d0	-0.043328106
124	0x3dfbd678	0.12296766
125	0x3c1e9fd8	0.009681664
126	0xbb4d1207	-0.0031291263
127	0x3d1e83d4	0.03869994
128	0x3d46b649	0.048513684
129	0xbdb07758	-0.08616513
130	0xbc78bd9c	-0.015181925
131	0xbe031ee6	-0.12804756
132	0xbc122871	-0.008920775
133	0xbda741eb	-0.0816687
134	0x3dc1dcbc	0.0946593
135	0xbda6dec2	-0.081479564
136	0xbd2fb251	-0.042894665
137	0xbe0f813e	-0.14014146
138	0xbdac1a1b	-0.08403417
139	0xbdcff286	-0.101536795
140	0xbdffc673	-0.12489023
141	0xbcd4a9f6	-0.02595995
142	0xbd54be82	-0.051939495
143	0xbd7bdd78	-0.061490506
144	0x3e007ce9	0.1254765
145	0x3d8a425a	0.06750937
146	0x3d071b32	0.03298492
147	0xbdd82073	-0.10553064
148	0x3e2a406d	0.16626139
149	0xbd9d2022	-0.076721445
150	0x3c4d612b	0.012535374
151	0xbe0e6ccd	-0.13908692
152	0xbcc7f97d	-0.024410957
153	0xbd9a4589	-0.07532794
154	0xbdc13974	-0.094347864
155	0x3d19ecda	0.037579395
156	0x3d05ac4f	0.03263503
157	0x3d1bed60	0.038068175
158	0xbd9eef67	-0.07760506
159	0x3d1890a9	0.037247334
160	0xbd457e94	-0.048216417
161	0xbbef4a43	-0.007302554
162	0x3e0103c2	0.1259909
163	0x3dbe023e	0.092777714
164	0xbced8113	-0.028992211
165	0xbd14f120	-0.036362767
166	0xbd904bf4	-0.07045737
167	0xbe2203aa	-0.1582171
168	0x3ddbff4b	0.10742053
169	0xbe00f847	-0.1259471
170	0x3be7c2af	0.0070727686
171	0xbc9667a1	-0.018359961
172	0xbdd250ed	-0.102693416
173	0x3d8b8a4a	0.06813486
174	0xbe0a6ee6	-0.13518867
175	0xbd384952	-0.0449918
176	0xbdb03c8b	-0.08605298
177	0xbe26f301	-0.16303636
178	0x3bc9c9b9	0.0061580804
179	0x3d504d30	0.05085486
180	0xbb4a7dfa	-0.0030897842
181	0x3dd843a7	0.10559779
182	0x3e01ea77	0.12687097
183	0x3e256d48	0.16154969
184	0xbdbbd875	-0.09172145
185	0x3dc3756d	0.095438816
186	0x3d90b253	0.07065263
187	0xbc973ce3	-0.01846165
188	0xbe4ace05	-0.19805153
189	0x3d8a3655	0.06748644
190	0x3968b7ce	0.00022193717
191	0x3d194698	0.03742084
192	0x3d040295	0.032229025
193	0x3b6fedef	0.0036610325
194	0xbda73951	-0.08165229
195	0x3dec91b9	0.11551232
196	0xbdb5fb7d	-0.08885858
197	0x3d975d7d	0.07390878
198	0x3d0aedcf	0.0339182
199	0x3ddd3d4a	0.108027056
200	0xbb51f004	-0.003203393
201	0xbdd9a827	-0.10627776
202	0xbd269361	-0.040667895
203	0xbb0ff81b	-0.002196795
204	0x3c9f71c6	0.019463431
205	0x3e09c65e	0.13454577
206	0xbde9fbdb	-0.11424991
207	0xbde3c99a	-0.11122437
208	0x3d809e5a	0.06280203
209	0x3e2574a5	0.16157778
210	0xbdb56ef9	-0.08859057
211	0xbde34399	-0.110968776
212	0xbd5e34a3	-0.054249417
213	0x3dc3ab99	0.09554214
214	0xbad485f1	-0.0016214234
215	0xbcad5632	-0.021159265
216	0x3dce5d0d	0.10076342
217	0xbe041ce3	-0.12901644
218	0x3c1fc8c3	0.009752455
219	0xbdc0fdf3	-0.09423437
220	0x3da2f43f	0.079567425
221	0x3d5da201	0.054109577
222	0xbd833fc2	-0.06408645
223	0xbdae67a1	-0.085158594
224	0xbd866c85	-0.06563667
225	0x3ddc6452	0.10761322
226	0xbc602d03	-0.013682607
227	0xbdbab15c	-0.0911586
228	0xbd274f9a	-0.0408474
229	0x3d202a46	0.039102815
230	0xbd4af10a	-0.04954628
231	0x3d8e9d67	0.06963616
232	0x3d628d31	0.055310432
233	0xbd54ee07	-0.051984813
234	0x3b11faee	0.002227481
235	0xbd82baed	-0.063833095
236	0xbdb64306	-0.088995025
237	0x3cce40b2	0.025177334
238	0x3cf7b37a	0.030236948
239	0x3c3d600f	0.011558547
240	0x3df02d3d	0.117273785
241	0xbd76e77a	-0.060279347
242	0x3dce8ece	0.100858316
243	0x3c37d28f	0.011219635
244	0xbcf9ee67	-0.030509187
245	0x3db5f729	0.08885033
246	0xbbfbdb24	-0.0076860357
247	0x3e561796	0.20907435
248	0x3d87d6e3	0.06632783
249	0xbc0cb4d6	-0.0085880365
250	0xbccdea4e	-0.02513614
251	0xbda6315d	-0.08114884
252	0x3d0dc3d9	0.034610603
253	0xbd88cdab	-0.06679853
254	0x3ddf65f7	0.1090812
255	0x3d79770a	0.06090454

lstm.weight_hh_l1 f4 [256, 64]
0	0x3dcbee5b	0.09957572
1	0x3d5f0f55	0.05445798
2	0xbdcb9f2b	-0.09942468
3	0x3db43cf2	0.08800687
4	0xbd041081	-0.0322423
5	0x3c24a85e	0.0100499075
6	0xbde0388d	-0.10948286
7	0x3deae6ce	0.11469804
8	0xbd4154b6	-0.047199927
9	0x3d7597e8	0.059959322
10	0x3d8de66d	0.06928716
11	0xbd8d0671	-0.06885994
12	0x3da9e0c8	0.08294827
13	0xbd9afe52	-0.07568039
14	0xbd9824ba	-0.0742888
15	0x3d24836c	0.040164396
16	0xbd81c6b6	-0.06336729
17	0x3cac22be	0.02101266
18	0x3c989a70	0.018628329
19	0xbc8af6dd	-0.016963417
20	0x3ca7ba7e	0.020474669
21	0x3bb0d619	0.005396616
22	0xbd9cf25d	-0.076634146
23	0x3d820699	0.06348915
24	0x3c95249d	0.018205935
25	0x3df72636	0.12067835
26	0x3dccd3db	0.10001346
27	0x3dcad834	0.09904519
28	0x3de0af29	0.10970909
29	0xbd376d97	-0.044782247
30	0x3d73dad1	0.05953485
31	0xbdbc184e	-0.09184323
32	0x3ddbf156	0.107393906
33	0xbda5a182	-0.08087446
34	0x3c1f2127	0.009712494
35	0xbae8e8d3	-0.0017769582
36	0xbd7cf02c	-0.061752483
37	0x3dce424c	0.10071239
38	0xbd041ff2	-0.032257028
39	0x3e082807	0.13296519
40	0x3c21cec9	0.009875962
41	0xbcc6c9af	-0.024266092
42	0xbd17e604	-0.037084594
43	0x3d95d14d	0.073153116
44	0xbd133646	-0.03594043
45	0xbd5c7b77	-0.053828683
46	0xbd27556c	-0.04085295
47	0xbcc5a988	-0.02412869
48	0x3dd0076d	0.10157666
49	0x3dd174ba	0.10227342
50	0x3d9c4b23	0.07631519
51	0x3d310b10	0.04322344
52	0xbd62f9f6	-0.055414163
53	0xbcf84056	-0.030304115
54	0x3d53c063	0.051697146
55	0xbd995fb4	-0.07488957
56	0x3c98b9ff	0.018643377
57	0x3d91cd96	0.071192905
58	0xbc9eec5f	-0.01939982
59	0x3da4f17b	0.08053871
60	0x3cc63c7a	0.02419876
61	0xbdad77bf	-0.084701054
62	0x3c23f343	0.010006729
63	0x3c26b4b6	0.010174921
64	0xbd987558	-0.074442565
65	0xbdde3146	-0.10849242
66	0x3d31d6a1	0.043417577
67	0xbd64160b	-0.055685084
68	0x3cd7e98e	0.026356485
69	0x3dd0fce6	0.102044865
70	0x3e046b49	0.12931551
71	0xbc8c7f1c	-0.017150454
72	0x3debd178	0.11514562
73	0x3c25c955	0.010118802
74	0x3d5a4d80	0.053296566
75	0x3da40c91	0.08010209
76	0xbd49c021	-0.049255494
77	0xbb3ee4a0	-0.002912797
78	0xbcb8c853	-0.02255646
79	0xbd662511	-0.056187693
80	0xbd3152e0	-0.043291926
81	0x3d90075c	0.07032654
82	0xbdbd00cb	-0.09228667
83	0x3d8bbec6	0.068234965
84	0x3a40bb4c	0.0007352128
85	0xbdcce4bc	-0.10004565
86	0xbd10f917	-0.0353938
87	0xbd6d8deb	-0.05799667
88	0x3d0459fc	0.03231238
89	0x3dfe903c	0.12429854
90	0xbc95bf36	-0.018279653
91	0x3d94d385	0.07266907
92	0xbda83231	-0.08212698
93	0x3c01931e	0.007908611
94	0xbc5d4ac7	-0.013506598
95	0x3dffb3c6	0.12485461
96	0xbdd8d925	-0.10588292
97	0xbde1cfc0	-0.11025953
98	0x3c1addf1	0.009452329
99	0xbd2d2a39	-0.042276595
100	0xbdbf6cd0	-0.09346926
101	0x3cb3d9d8	0.021954462
102	0x3bafc089	0.005363528
103	0x3db63cf8	0.088983476
104	0xbb39865d	-0.0028308847
105	0xbca5d2da	-0.020242143
106	0xbd836e1d	-0.06417487
107	0x3d33b3b7	0.04387256
108	0x3da44476	0.080208704
109	0x3d8ef7ed	0.06980882
110	0x3d4eee23	0.050520074
111	0x3c1b1c18	0.009467147
112	0x3d67a6b6	0.056555472
113	0xbd36641a	-0.044529058
114	0xbdc053ba	-0.093909696
115	0x3cfaa7a7	0.030597521
116	0x3db794b4	0.0896391
117	0xbc468d58	-0.01211866
118	0x3c80fe3e	0.015746232
119	0x3dc33a01	0.09532548
120	0x3d125782	0.035727985
121	0xbdc9fc88	-0.0986262
122	0xbd7dfb15	-0.06200703
123	0x3d4a54a3	0.049397122
124	0xbcb3603b	-0.021896472
125	0xbdba26e4	-0.09089449
126	0xbd3c7737	-0.04601213
127	0x3def0c88	0.11672312
128	0x3dee3b31	0.116323836
129	0x3db9e1c4	0.090762645
130	0x3a2ff514	0.00067122397
131	0x3def2f65	0.11678962
132	0xbda4e3c7	-0.080512576
133	0x3d9feea5	0.0780919
134	0xbd2e572b	-0.0425636
135	0x3d905861	0.07048107
136	0xbe0fd7fa	-0.14047232
137	0xbd356ec4	-0.044295087
138	0xbda11a07	-0.078662924
139	0xbd3973c2	-0.04527641
140	0x3db44035	0.08801309
141	0x3d2ea1f1	0.042634908
142	0x3daf653c	0.08564231
143	0xbd506248	-0.05087498
144	0x3dbb7bba	0.09154458
145	0x3b4a71a8	0.0030890498
146	0x3cfe38e8	0.031032994
147	0x3d1f439e	0.038882844
148	0x3d292380	0.04129362
149	0xbde81611	-0.11332334
150	0x3d37bb83	0.04485656
151	0xbd1e1c73	-0.03860135
152	0x3dfb4ece	0.1227089
153	0x3cf368a7	0.029712988
154	0xbd508c23	-0.050914895
155	0x3e105fe6	0.14099082
156	0x3dcb4fe3	0.099273466
157	0x3ce9968f	0.028514175
158	0x3dcacf6c	0.09902844
159	0xbc5355d1	-0.012898878
160	0x3d42829e	0.047487848
161	0x3cfc0cf5	0.030767897
162	0x3ddcd0e8	0.10782033
163	0x3de2a42b	0.11066469
164	0x3dccbe79	0.09997267
165	0x3e13463e	0.14382264
166	0x3d556a8a	0.052103557
167	0x3d90817f	0.070559494
168	0xbd8be54a	-0.06830843
169	0x3cf8578d	0.030315185
170	0xbd8afb54	-0.06786218
171	0x3cfe7d63	0.031065648
172	0x3d02912a	0.03187672
173	0x3de11ada	0.1099145
174	0xbda00abd	-0.07814548
175	0x3dce1abe	0.100636944
176	0xbc96a863	-0.01839084
177	0xbda9de6b	-0.08294376
178	0xbc8a88da	-0.016910959
179	0xbd953167	-0.072848134
180	0x3c5cd6b3	0.013478923
181	0xbdc11fa5	-0.09429864
182	0xbda1eeeb	-0.07906898
183	0xbdba7771	-0.09104813
184	0xbd57bd2d	-0.052670646
185	0xbddb3a2c	-0.10704455
186	0x3e02cd3d	0.12773605
187	0x3d4b7685	0.049673576
188	0xbd9ee153	-0.07757821
189	0xbd053020	-0.0325166
190	0xbd393884	-0.045219913
191	0xbdc7d319	-0.097570606
192	0x3dc9d7a0	0.0985558
193	0x3d332b28	0.04374233
194	0x3dc95461	0.09830547
195	0x3d4ec04e	0.050476365
196	0xbcc5177e	-0.024059054
197	0x3d3004a6	0.042973183
198	0x3e01acd3	0.12663583
199	0x3cb08e81	0.021552326
200	0xbd4f706a	-0.050644316
201	0xbdd9f3a9	-0.106421776
202	0x3d2d8dbc	0.042371497
203	0x3d8065b9	0.06269402
204	0xbe15a9f9	-0.1461562
205	0x3dcfeefb	0.10153004
206	0xbd6d11aa	-0.057878174
207	0xbcf9f49b	-0.030512145
208	0x3cf04809	0.029331224
209	0xbd1b4b3b	-0.037913542
210	0xbdff78c8	-0.12474209
211	0xbda82c74	-0.08211604
212	0x3dc402ef	0.09570872
213	0xbdcc8876	-0.09986965
214	0x3d4247ad	0.047431637
215	0x3d9e3ab6	0.07726042
216	0x3d5b7274	0.053575948
217	0xbdf1d314	-0.11807838
218	0xbd81bffd	-0.06335447
219	0x3d54f143	0.051987898
220	0xbd9440dd	-0.07238934
221	0x3d46369e	0.04839193
222	0x3d8db133	0.06918564
223	0xbd4ea094	-0.050446108
224	0xbdd9e4aa	-0.10639317
225	0xbca74cca	-0.020422358
226	0x3d8e1a5f	0.06938624
227	0xbdb3d2db	-0.08780452
228	0x3cc8c714	0.02450899
229	0x3cbaec4c	0.022817753
230	0xbda37ad6	-0.079824135
231	0xbd7258f2	-0.059166856
232	0xbcebf2a2	-0.02880222
233	0xbbbf203c	-0.0058327
234	0xbe04a4b4	-0.12953454
235	0xbd7792b9	-0.06044266
236	0xbda11ad4	-0.07866445
237	0xbde64adb	-0.11244746
238	0xbe130f62	-0.14361337
239	0xbd50e1f7	-0.050996747
240	0x3dbd8c2c	0.09255251
241	0x3d0e3012	0.034713812
242	0xbd83950b	-0.06424912
243	0xbcb89ae4	-0.022534795
244	0xbd9395ff	-0.07206344
245	0x3db5da71	0.08879555
246	0xbd97247e	-0.07380007
247	0x3de75952	0.112963334
248	0x3c3a68b5	0.011377503
249	0xbdf1e798	-0.11811751
250	0xbddaadf9	-0.10677714
251	0x3dba5ae2	0.09099366
252	0x3dbd0324	0.09229115
253	0xbba65e47	-0.0050771567
254	0xbbf447ed	-0.0074548633
255	0x3c19efe6	0.009395575

lstm.bias_ih_l1 f4 [256]
0	0xbddb7a61	-0.10716701
1	0xbcaa03c9	-0.020753758
2	0x3df9f206	0.122043654
3	0xbc916c9b	-0.017751982
4	0x3d200da0	0.039075494
5	0xbd9e0a5a	-0.07716818
6	0xbdf39dda	-0.11895342
7	0xbd30cb74	-0.043162778
8	0x3db7bd72	0.08971681
9	0xbd76901b	-0.060196023
10	0xbdd328ed	-0.1031054
11	0x3da8d1d0	0.082431436
12	0x3d032849	0.03202084
13	0x3df728f9	0.12068362
14	0x3d2c033a	0.041995265
15	0x3d9c9700	0.076459885
16	0x3d70565b	0.058676105
17	0xbd119948	-0.03554657
18	0x3de5f544	0.11228421
19	0xbd4a0ce5	-0.049328703
20	0x3d2ca0a7	0.042145398
21	0xbd65ee90	-0.056135714
22	0xbda8b5c0	-0.08237791
23	0xbdc93815	-0.0982515
24	0x3c5ae848	0.013361044
25	0x3dbc5d51	0.09197486
26	0x3d244f95	0.040114958
27	0x3cb7d685	0.022441158
28	0x3d8396f3	0.06425276
29	0xbda2d811	-0.07951368
30	0x3cd68508	0.026186481
31	0xbda0fec2	-0.07861091
32	0x3d9f1ee2	0.07769562
33	0xbd862e64	-0.06551817
34	0xbdb07e9d	-0.086178996
35	0xbb8b054d	-0.0042425753
36	0xbd7ef626	-0.062246464
37	0x3e0aa8dc	0.13540977
38	0xbcc8930b	-0.024484178
39	0x3d8f2eb5	0.069913305
40	0x3dcd8d3d	0.10036705
41	0x3c83804d	0.01605239
42	0x3d9a87bc	0.075454205
43	0x3d8c7b09	0.068594046
44	0x3d0f02d2	0.0349148
45	0xbddc3d53	-0.10753884
46	0xbd533698	-0.051565737
47	0xbb983e4b	-0.004646098
48	0x3d2c2ac8	0.042032987
49	0xbdaefb07	-0.085439734
50	0x3db499e6	0.08818416
51	0x3d8fd6a9	0.07023365
52	0xbdc6c43a	-0.09705396
53	0x3d6b7ecb	0.057493966
54	0x3d8e0924	0.06935337
55	0xbd0b0a78	-0.03394553
56	0xbda11dd8	-0.0786702
57	0x3cd417f8	0.025890335
58	0xbd312975	-0.043252427
59	0x3cd433a8	0.025903538
60	0xbd28bef7	-0.041197743
61	0xbd4b5f88	-0.049651653
62	0x3d58c623	0.052923333
63	0xbd096851	-0.03354675
64	0xbcbb1acd	-0.022839928
65	0xbdfd2729	-0.12360985
66	0x3c934d04	0.01798106
67	0x3caa98b1	0.020824762
68	0xbd2b8703	-0.041876804
69	0xbc618c7f	-0.013766407
70	0x3dafc743	0.08582928
71	0xbd6308e9	-0.05542842
72	0x3d4821fe	0.048860542
73	0x3d99578e	0.07487403
74	0x3dc15df1	0.09441746
75	0xbd4c761f	-0.049917337
76	0xbd8eb231	-0.06967581
77	0x3e03ee4a	0.12883869
78	0xbdefbddd	-0.117061354
79	0x3d4b4182	0.04962302
80	0xbbf63667	-0.0075138095
81	0x3d1834da	0.03715978
82	0x3cebd053	0.02878586
83	0xbde5a156	-0.11212413
84	0xbca3fdc7	-0.020018471
85	0x3d12266d	0.035681177
86	0x3ded4c57	0.11586826
87	0x3d57045b	0.052494388
88	0x3dbcb617	0.092144184
89	0x3e05e584	0.13075835
90	0xbbad4110	-0.005287297
91	0xbd7929bf	-0.060830828
92	0xbd4c9275	-0.04994436
93	0xbd814899	-0.06312675
94	0xbd1e2a46	-0.038614534
95	0x3ba2318d	0.0049497546
96	0x3d27995b	0.040917736
97	0xbcd72999	-0.026264952
98	0xbd8043a2	-0.062629
99	0x3de342e7	0.11096745
100	0xbd84a919	-0.06477565
101	0x3e0001a4	0.12500626
102	0x3e01756b	0.12642448
103	0x3d62da32	0.05538387
104	0xbd4aa269	-0.049471293
105	0x3dd3a196	0.103335544
106	0xbd9770af	-0.073945396
107	0x3d7eb6af	0.06218594
108	0xbd03a364	-0.032138243
109	0xbda58344	-0.080816776
110	0xbdd88a91	-0.105733044
111	0x3dae8c04	0.085227996
112	0x3d3d0216	0.046144567
113	0x3d08626e	0.033296995
114	0x3d164fcd	0.036697198
115	0x3db188f2	0.08668698
116	0x3d03ccce	0.03217774
117	0x3cc99837	0.024608715
118	0x3d1e603d	0.038666
119	0xbd486c0d	-0.04893117
120	0x3c33bd29	0.010970392
121	0x3cfb1ba1	0.030652823
122	0xbdd9dc12	-0.10637678
123	0xbd881a0f	-0.06645595
124	0x3dfc6cee	0.12325464
125	0xbe1dcf98	-0.15411222
126	0xbc62fb01	-0.013853789
127	0x3d9e744c	0.077370256
128	0x3cd6d5c6	0.026224982
129	0xbae9828e	-0.0017815398
130	0xbd852e77	-0.06503003
131	0x3c7a356b	0.015271525
132	0xbc1d7793	-0.009611028
133	0xbc89348c	-0.01674869
134	0xbd9b4e3c	-0.075832814
135	0x3d45af89	0.048263106
136	0xbd3628e4	-0.04447259
137	0xbdd3e30e	-0.103460416
138	0xbce6f5f4	-0.028193451
139	0xbd86dc2b	-0.065849625
140	0x3dbe10e7	0.092805676
141	0xbbe0d5a8	-0.0068614073
142	0x3be4de83	0.0069845333
143	0xbdf17e78	-0.117917
144	0xbde9f991	-0.11424554
145	0xbd6045ec	-0.054754183
146	0xbc9f61de	-0.019455846
147	0x3d85fbe7	0.06542187
148	0xbd8c3747	-0.06846481
149	0xbcdef34a	-0.027215619
150	0x3db1bc8a	0.08678539
151	0xbd8c217f	-0.068423264
152	0x3d76272a	0.060095944
153	0xbdfe807f	-0.124268524
154	0xbd9a0ff3	-0.07522573
155	0xb9fe966b	-0.00048558725
156	0xbdaabb68	-0.08336526
157	0x3d43d5c0	0.04781127
158	0xbbd4dc41	-0.006495983
159	0xbe0442a7	-0.12916051
160	0x3da38253	0.07983842
161	0x3dcbc722	0.09950091
162	0xbdae4482	-0.085091606
163	0x3ccf7053	0.025322115
164	0x3c639dc9	0.013892599
165	0xbc5327f9	-0.012887948
166	0x3dce15c0	0.10062742
167	0x3ddf67db	0.10908481
168	0x3e0c26c3	0.13686661
169	0x3c6afe92	0.014342921
170	0x3d6d7243	0.057970297
171	0x3e0914e9	0.13386883
172	0xbd00ee77	-0.031477418
173	0x3d6180ba	0.055054404
174	0xbaa0caf6	-0.0012267518
175	0x3e086b9c	0.133223
176	0x3d5ccdb3	0.053907108
177	0xbcc311ee	-0.02381226
178	0x3db1baad	0.08678184
179	0xbcdb22ab	-0.02674993
180	0x3d1cb805	0.038261432
181	0xbd657ae8	-0.056025416
182	0x3e0b4a8d	0.13602658
183	0x3c763573	0.015027392
184	0xbc5dcd97	-0.013537786
185	0xbde401cf	-0.111331575
186	0x3d574e02	0.05256463
187	0x3d22bfd0	0.039733708
188	0x3d9022a4	0.07037857
189	0x3c22247e	0.009896396
190	0xbcd1f8d6	-0.02563135
191	0x3d4903b2	0.04907579
192	0x3b2b9323	0.002618023
193	0xbdba266e	-0.09089361
194	0x3d68270d	0.056677867
195	0xbdabbf05	-0.083860435
196	0x3cef5ae1	0.02921814
197	0xbc9799a1	-0.018505873
198	0x3d894c0b	0.06703957
199	0xbd9ef0b1	-0.07760752
200	0x3cbddedc	0.023177557
201	0x3d7ca318	0.061678976
202	0x3df67802	0.120346084
203	0x3deda228	0.116031945
204	0xbd82f280	-0.063939095
205	0x3dd1c5fa	0.10242839
206	0x3da15e56	0.07879321
207	0x3c7e9348	0.015538044
208	0xbd6213b0	-0.055194557
209	0xbdbedf2a	-0.09319909
210	0xbc1f7b79	-0.009734028
211	0x3d4abaf9	0.049494717
212	0x3c913e9f	0.017730055
213	0xbc999bc4	-0.018751033
214	0x3daeb359	0.085303016
215	0x3d0ba45c	0.034092292
216	0xbd912b92	-0.070883885
217	0x3d634388	0.055484325
218	0xbd840061	-0.06445385
219	0x3e1fc13c	0.15601057
220	0x3d3ee77b	0.046607476
221	0xbd2efb42	-0.042720087
222	0x3d1bf2fc	0.038073525
223	0x3dddc788	0.10829073
224	0x3dd53c95	0.10411946
225	0x3d5211fa	0.051286675
226	0x3d662b8a	0.056193866
227	0x3da9aea5	0.08285264
228	0x3d847ad7	0.06468742
229	0x3e0623f1	0.13099648
230	0x3c46c072	0.0121308435
231	0xbd32703c	-0.043564066
232	0xbc6a523f	-0.014301836
233	0x3dc6ad04	0.09700969
234	0x3c472bb8	0.012156419
235	0x3d0fff48	0.035155565
236	0xbe061bcb	-0.1309654
237	0xbd50951d	-0.050923456
238	0x3d8f5d18	0.07000178
239	0x3d8917b5	0.06693975
240	0xbd581504	-0.052754417
241	0xbc8ba8f5	-0.017048338
242	0xbdf1b995	-0.11802975
243	0xbd66f629	-0.0563871
244	0x3d717dbf	0.05895781
245	0x3bb10ea9	0.005403359
246	0x3d759f48	0.059966356
247	0x3e01365c	0.12618393
248	0x3d609d30	0.054837406
249	0x3d45882c	0.048225567
250	0xbc337598	-0.0109533295
251	0xbd79f8cf	-0.061028298
252	0xbd9e4856	-0.07728641
253	0xbdb0e816	-0.08638017
254	0x3ca07f04	0.019591816
255	0xbc52f477	-0.012875668
