crypto_models/DOT_USD_lstm.pth (torch, 206101 bytes, 9 tensors)

lstm.weight_ih_l0 f4 [256, 1]
00000000: 7c1f 2c3e a699 4cbd 3bbf 443d f21d f53d
00000010: d2bf 39bd aa7c 3abd fd04 9b3d 1d8b e83d
00000020: c48d 323d e2cb 79bd 8200 42be 8431 6cbd
00000030: 0a9e 353e 7336 0a3e 8f5f 773d ac31 be3d
00000040: e530 4ebd f326 d43d 8b40 e03c 8d0b 13bd
00000050: f563 7c3d b590 033c dae4 fe3d 48b6 fb38
00000060: 6a1f 28bc 70d2 383d ccb6 403d 8bae 6fbd
00000070: bb3d 603d 4b1b b53d 6218 603d 55cf 673d
00000080: d88b 333d 6c64 2f3d 08a2 f73d c541 02bd
00000090: 7ce4 003e 8665 bdbd 032b 2a3e 9bd1 e63d
000000a0: afc3 bc3d 60a6 803e 536e b93d 4a99 643d
000000b0: 55f0 003d 5b9c dc3c 43f7 ad3d 6b9f 973d
000000c0: 5a56 c8bc 6fc1 133e bccf 153e 95d3 07bd
000000d0: 9720 d3bc 65d7 203e bb46 e2bb e6ae 6ebe
000000e0: a8e6 03be 0ede 9abb d981 073e b48b 1c3e
000000f0: 957b 443d 6753 b5bc f93a bd3c 63c3 303e
00000100: 0b9a c53d a0e2 3ebd 9f2a 03bd 4c1d ab3d
00000110: 8fbb e13d fcf4 c43d 5f36 47bd 45e1 303d
00000120: d1c8 073e 5f01 2e3c 5958 d0bc 1aa4 083e
00000130: ffbd 30bd d099 8ebd f1a1 023e bb63 8c3c
00000140: c452 2dbd 13d3 d5bc 4111 393d aa19 9cbc
00000150: 6905 dc3c f09d c2bd bf4c 853d 8b89 223a
00000160: 524b 1e3d 4265 3dbe 13c7 c43d 90ba c63c
00000170: e8f4 0abd 9122 4a3c bed4 a83d 5fac 053c
00000180: efd5 503e a9f7 97bd 6579 9a3d d854 d73d
00000190: f4b9 28bb 850a 9cbd ba93 2c3d 330f 50bd
000001a0: f41e 0e3d d494 e73d 0cd6 cdbd 3475 1f3e
000001b0: 5a96 053d 43bc 343d 9444 ae3b df3d 2c3d
000001c0: 6cc2 b1bd e5e0 403d 705d 60bd 0296 83bd
000001d0: f5f9 9b3d 7727 b23d b5d3 91bd 3952 a5be
000001e0: 5b28 8a3d ace1 ba3c 56ff 2ebc 3fd5 2a3e
000001f0: 9264 e43d e648 1d3e 7104 2a3c f487 ff3d
00000200: 23f5 25be 4aff 04be e7f3 2bbe 78b2 d63d
00000210: ea92 10bd baac 36be e51c 033e 65df 96bd
00000220: 0864 a9bd 7b2f 703d 7870 6f3c 1d80 35bd
00000230: 8390 5cbe a931 27be 5f24 1a3e 229e 933d
00000240: d92e 8f3d 97cb 0cbd 0d30 283e 5e78 32bc
00000250: a001 adbd 7c94 a93d 62df 143d 3f13 033e
00000260: 1e81 b43d 5604 37be 0fcc 193e 2e25 883d
00000270: abc4 463e 5aa5 79bd 5f4e 3cbb 8742 c9bd
00000280: afda 293e ca84 d43d d547 fcbd a036 a0bd
00000290: 0cbb 1a3e b9c7 eebd eae7 f43d 9456 13bb
000002a0: 0222 84bb 04cb 3d3e d837 f23c 9284 4b3e
000002b0: ed44 c4bd 6eaf b0bd 8589 393e e320 263e
000002c0: 99ea d2bd d7b8 a73d 382c 76bd 80f5 bdbd
000002d0: d233 e13d 2c00 193e a492 243e 91e8 fb3d
000002e0: a0d0 ecbd 01a5 c2bc 84a1 0f3e d1c3 30be
000002f0: 5ebd f83d fba4 693d 431d 1fbe b581 3f3e
00000300: eee5 2d3e 89ab e53d 60d1 40bd 9320 83bd
00000310: 2d98 8d3d a34a e83d e391 603d b4bb bf3d
00000320: 4e6e a63c a56f 45bc b757 44be 4fa9 813d
00000330: 2288 183d 15ca d8bd c4dd 083e 390e 813c
00000340: c9a7 143d 34a2 023e 6399 593c 3a27 1ebd
00000350: 4d19 cd3d 96a0 77bd a6b0 243e 28e0 2bb8
00000360: cb52 4bbd 80c2 77bd 9b85 f13c e2a2 123e
00000370: dd97 e63d 991d cc3c 9dd6 d1bd 5c5f a93d
00000380: 8807 2f3e 9296 173d 5d5c 50bd c2ba 743d
00000390: 9560 88bd e72c 4f3d 73b6 ba3d deee 89bd
000003a0: af5c 033e c7fc 0a3e 3f4d 9a3d 1e18 7a3e
000003b0: ada3 a7bc 7bfc 773d 8dec 403e 6b38 373e
000003c0: 4a3d a03d 1e1a bc3d a3f4 273e ce3d 47ba
000003d0: c753 91bd 79b2 09bd 5abd b83c 1b1d c5be
000003e0: 8fa3 c63d 857d b73c 36f9 7b3d e459 19bd
000003f0: 4278 4e3e 4839 b2bb ef2d 283c 3aa3 033e
0.16808885 -0.049951218 0.048033934 0.11968602 -0.04534895 -0.045529045 0.07569311 0.11354659
0.04359223 -0.060985453 -0.18945506 -0.05766441 0.17736068 0.13497333 0.060393866 0.09286818
-0.0503396 0.103589915 0.027374526 -0.035899688 0.061618764 0.008030106 0.12445994 0.00012002565
-0.010261396 0.045122564 0.04704933 -0.058516067 0.05474637 0.08843096 0.054710753 0.05659421
0.043834537 0.04282038 0.12091452 -0.031801004 0.1258716 -0.0924788 0.1661797 0.11270448
0.09217011 0.25126934 0.09054246 0.05581025 0.0314792 0.026930025 0.08494427 0.074034534
-0.024455238 0.14429258 0.14630026 -0.033160765 -0.025772376 0.15707166 -0.0069054044 -0.23308906
-0.12880957 -0.004726178 0.13233127 0.15287668 0.04796942 -0.022134496 0.02309941 0.17262034
0.09648522 -0.046602845 -0.03202307 0.08355197 0.11022102 0.096170396 -0.048635837 0.043183584
0.13260199 0.010620444 -0.025432752 0.1334385 -0.043149944 -0.06962931 0.12757088 0.017137399
-0.04231526 -0.026101625 0.04518247 -0.019055206 0.026858049 -0.095027804 0.06508779 0.0006200305
0.03864605 -0.18495658 0.09608283 0.024258882 -0.033924967 0.012337343 0.08243702 0.008158772
0.20394109 -0.07420284 0.075426854 0.105142295 -0.0025745602 -0.07619194 0.04213307 -0.050795745
0.034697488 0.113076836 -0.10050592 0.15572053 0.03261409 0.044124853 0.0053182337 0.042051192
-0.08679661 0.047089476 -0.05477661 -0.06425096 0.07616035 0.086989336 -0.07120458 -0.32289293
0.067459784 0.022812687 -0.010680994 0.1668291 0.11151995 0.1535984 0.0103770355 0.12477103
-0.16206793 -0.1298801 -0.1679226 0.10483259 -0.03529636 -0.17839327 0.12803991 -0.07366828
-0.082710326 0.05863903 0.014614217 -0.04431163 -0.21539502 -0.16327538 0.15052937 0.07207896
0.06991357 -0.034373846 0.1642458 -0.010892956 -0.084475756 0.08280274 0.036345847 0.1280031
0.0881369 -0.17872748 0.15019248 0.066477165 0.1941096 -0.060948707 -0.0028733236 -0.09827142
0.16587327 0.1037689 -0.123183884 -0.07822919 0.15110415 -0.11659188 0.119582966 -0.0022482025
-0.0040323744 0.18534476 0.029567644 0.1987479 -0.09583459 -0.086272106 0.18118866 0.16223483
-0.10298652 0.08189552 -0.060100764 -0.09275341 0.10996212 0.14941472 0.16071564 0.12300218
-0.115632296 -0.02376032 0.14026457 -0.17262198 0.12145494 0.057042103 -0.15538506 0.18701823
0.16982242 0.11214358 -0.047074676 -0.064026974 0.06913791 0.11342361 0.05482663 0.093619734
0.02031627 -0.012050544 -0.19174086 0.06331121 0.0372392 -0.10585419 0.13365847 0.015753852
0.036292825 0.12757188 0.013281199 -0.038611628 0.10014591 -0.06045588 0.16083011 -4.097834e-05
-0.049639504 -0.060488224 0.029482653 0.14319947 0.11259434 0.024916457 -0.10246012 0.082701415
0.17092717 0.03700883 -0.050869334 0.05974842 -0.066590466 0.05057993 0.09116831 -0.067350134
0.12828325 0.1357299 0.07534265 0.24423262 -0.020463789 0.06054352 0.18840237 0.17892615
0.0782419 0.09184669 0.16401915 -0.0007600457 -0.070960574 -0.03361747 0.022551227 -0.38498768
0.09699165 0.02239872 0.061516963 -0.037439242 0.20163062 -0.0054389574 0.010264858 0.12855235

lstm.weight_hh_l0 f4 [256, 64]
00000000: 030e 473d a04a 29bd 09e3 aabd e161 073e
00000010: 20f5 dcbd 95e2 58bd df99 a33d 20df e0bd
00000020: 7ee9 a13d 2e40 7dbc 30a6 a43d 3aaa 963d
00000030: 687a 99bd c254 913d 927b ccbd d3c2 4d3c
00000040: 92ee 873c 0089 71bd c4e5 2fbd 7b79 ebbd
00000050: cf95 163c f120 d53d f95c 9e3d 9c68 e23c
00000060: 8f04 52bd efce cdbc 2416 efbc d413 213d
00000070: 910f 3dbd 2da7 02be cd1d a43d f9ee 803d
00000080: 918f a6bd fd8a 6ebd f006 b23d cd01 dbbc
00000090: 85bd 033e 77fb 6abc a160 c93d 9568 d73d
000000a0: 554f 093d d3ef bebc 9ccb 653d b3f4 46bc
000000b0: 7d8c 97bd 32c1 4a3c 4d16 923d b82a b9bd
000000c0: e691 b7bd dd7d 45bd 9985 e53d 9c0e 21bd
000000d0: 26eb ff3d f320 e23d 3e1c f23d 62a9 833d
000000e0: d0eb f0bc d6af d33d f763 80bc 0770 b13d
000000f0: d9cb cd3d 6379 0fbd ef36 06be 966b 83bd
00000100: 0ea2 133c 221a 093d 91cd 99bd 3d04 97bb
00000110: 8b26 f0bc 822f c9bd d86d 1d3d 9d28 4f3d
00000120: 575b b13d c7a4 533d 695e 44bd 8ab1 7dbd
00000130: 49ef 3dbd 7089 193d 756e d6bd 048c d2bd
00000140: 2f5d 22bd ce82 a63c 3e71 3a3d 8506 d3bd
00000150: 629f 263d 507f 043e 48ba 023d eba2 a83d
00000160: af22 8cbd 0548 c2bd e708 e2bc 88af 683d
00000170: c278 ef3c 12c1 4a3c 6b43 e4bc bef1 eebc
00000180: 6adb ae3c d7ec 8d3b 74f4 cd3d 6c34 32bd
00000190: 0892 81bc 216f 513a 2aa5 7bbd 0bbf 6b3d
000001a0: b373 e13d 01e3 34bd e88b 0a3e 7418 f13d
000001b0: ff4a 063d c3d3 bfbd f243 ff3c ba06 783d
000001c0: e389 4abd b721 2b3d a38a f7bd d892 76bd
000001d0: b73b 03bb 8d56 7abd 9169 7ebd 537a 1b3b
000001e0: d3d9 1c3d e2e3 18bc bc18 f1bd 9eb3 cd3d
000001f0: b332 363c 25a3 f53d 7a68 993d 3283 9a3d
00000200: 790b 92bd 380f 07bd c7b8 7d3d 3a63 a63d
00000210: 4245 f7bd 1df5 11be 617f 033d 616c 603d
00000220: df76 293d ba23 09bd e32a 0dbe 1397 37bd
00000230: dbec e23d 67c4 0d3e 7812 acbd 3105 eabd
00000240: 29b8 adbd 9dc4 78bb 0f3e 8bbd 3671 f33c
00000250: 21d5 1a3e 2883 27bc aa43 3c3c 2037 733c
00000260: 4822 893c 492f 53bc fda7 013e bc17 bcbd
00000270: a481 99bd fb14 1fbe eb03 bf3d 1994 d3bc
00000280: 3c9a fb3d 8a2c 3cbd 9b1b d5bd 393b 7dbd
00000290: 5fbc d33d 3702 013e 036b 13bd 84c7 aa3d
000002a0: 6e64 cf3d 550d 1a3e fa34 1fbc 251c cd3d
000002b0: 1401 9f3c 373f 073d d8bb f83d 0452 a2bd
000002c0: d362 953d 00b3 233e 4f1b b5bd 0eaf ee3c
000002d0: 1ab9 83bd 43d0 e13d d698 0ebe cb04 dbbd
000002e0: b8f2 04bd c505 81bd 79e3 5dbd 12b8 5fbd
000002f0: 55b4 d23c 110a 9e3c 1831 4abd 9e0a 263e
00000300: dcfe 5d3b c5c4 81bd 59f4 9f3d 64be b03d
00000310: 3e22 e43d 326a 60bd 26bd 51bd 19bc d93d
00000320: c44f 00be dbca debd fc2d 5dbd eecd 8a3d
00000330: 2030 3d3e 181f 083d a5c9 dbbc df53 90bd
00000340: 4b48 4b3d a684 0e3d 481b 04bd c82a e93d
00000350: dea8 903c 246b 353d 3a1e e33d d507 87bc
00000360: 12db c93d 10fa 1e3e 80de d83c e86e 69bd
00000370: 2153 833d 5889 08bc 22ca 423d 1a43 56ba
00000380: 33ed 9a3c bb10 c93d eacd 083e b7ec 2d3d
00000390: 6b6d 983d 37c0 ef3d 125e 42bd d700 67bd
000003a0: 6125 0ebd 7c95 cdbd 3c2b a73d a3a9 183a
000003b0: 7ccb 8ebd 36df a3bd ef1a 143d 711b e1bc
000003c0: 1520 e3bc ed2a 0fbd 45d6 79bc 7aa4 d03d
000003d0: 0860 303d 5680 403b 1cdd 4c3d d490 da3c
000003e0: 796b 7e3d f5bf 323d b074 d23d 8200 acba
000003f0: 742e a7bd 8c24 9fbc 3e53 aa3c c82a de3d
0.048597347 -0.041330934 -0.08344085 0.13220932 -0.107889414 -0.05295046 0.07988333 -0.10980058
0.07905863 -0.015457196 0.0803951 0.07356687 -0.0749405 0.070962444 -0.09984507 0.012558657
0.016593251 -0.058968544 -0.04294373 -0.1149778 0.009190991 0.10406674 0.07732577 0.027637772
-0.05127388 -0.025123088 -0.029185362 0.03932555 -0.046157423 -0.12759085 0.080134965 0.062955804
-0.08132852 -0.05823802 0.086927295 -0.026734257 0.12865265 -0.01434218 0.098328836 0.10517994
0.033522923 -0.023307716 0.05610238 -0.012143302 -0.07399843 0.012375163 0.0713316 -0.09041351
-0.08963375 -0.048215736 0.11207122 -0.039320573 0.12496023 0.11041441 0.11821793 0.064287916
-0.02940932 0.103362724 -0.015672667 0.08663946 0.100486465 -0.035027873 -0.13106893 -0.06417005
0.009010805 0.033472188 -0.07509912 -0.0046086595 -0.029315254 -0.098235145 0.038434833 0.05057584
0.0866 0.051670816 -0.0479416 -0.061936893 -0.04637078 0.037484586 -0.10470287 -0.10280612
-0.039639648 0.020326044 0.045518152 -0.10303978 0.040679343 0.12939191 0.031915933 0.08234199
-0.06842553 -0.09486393 -0.027592136 0.056808025 0.029232386 0.012375133 -0.027864179 -0.029168006
0.02134486 0.004331212 0.10056391 -0.043507025 -0.015816703 0.0007989277 -0.06143681 0.05755524
0.11008396 -0.0441618 0.13529932 0.11772242 0.032786366 -0.09366562 0.031160329 0.06055329
-0.049447905 0.0417802 -0.1208699 -0.060198635 -0.0020024606 -0.061117698 -0.062112395 0.0023724034
0.03829367 -0.009331675 -0.11772296 0.10044025 0.011120486 0.11994008 0.074906304 0.07544555
-0.071310945 -0.032973498 0.061943796 0.08124395 -0.12073757 -0.1425366 0.0321039 0.05479086
0.04137313 -0.033481337 -0.13785891 -0.04482181 0.11080333 0.13844453 -0.0840196 -0.114267714
-0.084823914 -0.0037958988 -0.06798946 0.02971707 0.15120365 -0.010224141 0.011490742 0.014844686
0.01673998 -0.012889692 0.12661739 -0.091842145 -0.0749543 -0.15535347 0.09326919 -0.025827454
0.12285277 -0.045940913 -0.10405656 -0.061824057 0.10338663 0.12598501 -0.035990726 0.08338836
0.10126577 0.15044148 -0.00971722 0.10015134 0.019409694 0.03301927 0.12145203 -0.079257995
0.0729424 0.15986252 -0.08843099 0.029136207 -0.0643179 0.11026051 -0.1392549 -0.106942736
-0.032458037 -0.062999286 -0.054172013 -0.054618903 0.025720755 0.01929191 -0.049363226 0.16214988
0.0033873832 -0.06336359 0.078102775 0.08630064 0.11139344 -0.054788776 -0.051205777 0.1063158
-0.12530428 -0.10878535 -0.053998932 0.06777559 0.1847539 0.03323278 -0.02682955 -0.07047247
0.04962949 0.034794472 -0.03225258 0.11385113 0.017658647 0.04429163 0.1108975 -0.016483227
0.098562375 0.15525079 0.026473284 -0.056990534 0.0641234 -0.008333527 0.04755605 -0.0008173451
0.018911934 0.09817644 0.133598 0.042462077 0.07442745 0.11706584 -0.047452994 -0.056397285
-0.034703616 -0.100382775 0.08162543 0.00058236177 -0.06972405 -0.080015585 0.0361585 -0.027478905
-0.027725259 -0.034953047 -0.01524884 0.101876214 0.043060333 0.002937337 0.050015554 0.026680388
0.062114213 0.043640096 0.102761626 -0.001312271 -0.08163157 -0.019426607 0.020791646 0.108480036

lstm.bias_ih_l0 f4 [256]
00000000: cfd0 043e 4a0c c2bd a266 ff3d a79e c6bd
00000010: 0bc5 943d b519 883d 8073 94bd 110a b8ba
00000020: df57 9abd b5c7 de3d 1499 12be 9ab7 053e
00000030: b748 5a3e 2ed1 bd3e 3f12 533c 40e9 d2bd
00000040: 4be5 a7bb 3aa0 ea3d 3b6e 893d 0376 dabd
00000050: c73f 653d b23d 04be 1eca cd3d 0881 973c
00000060: 28f4 d4bd 5c64 233e a20a 2b3d 2519 87bd
00000070: 8634 873d ec2c 6bb9 ddbd b0bc a937 953c
00000080: a925 373e 8564 bf3d 71fa cabd b7b8 3cbd
00000090: d4b1 093e 4289 44bd e365 d53d 62f4 323d
000000a0: 414c 59bd 0f0a 2a3e f2b3 7ebc 37d1 1c3e
000000b0: 3973 3a3a 5e0a 1cbd 14e1 2bbd 7cc9 2f3c
000000c0: 14b1 463d f878 ebbd fcf6 cf3c 82d3 2e3d
000000d0: 2143 7c3d 9a34 f2bb 3f46 8a3e d897 dc3d
000000e0: 9383 5f3d f563 c83d 2e0a 2a3e 83bb a23d
000000f0: cd81 993d d00f f33d dc7e d2bd c30f 843d
00000100: 5258 113d e23f 963d 6ee0 153c 1262 8cbd
00000110: 3412 c13d 696a 953c 1d2e e73c efea 323c
00000120: 3d3c 023d b5f2 ccbd da74 c1bd 9d92 3bbd
00000130: d412 c5bb 3243 193e 4898 cfbd 9c13 a63d
00000140: f6af 4bbd 7c63 a6bd 67ce c0bc 82ae 0bbe
00000150: 9a65 7a3d 0cb8 c4bd 338d ab3d a21c 7b3d
00000160: ea66 923d 6b03 c4bd ac85 8c3d 47d6 8bbd
00000170: e19c 533c a084 923d ee75 e3bd bd5c da3d
00000180: 4565 3fbd e467 ec3b 6e91 563d f04b a6bc
00000190: 81ea 19bd f4cd afbd 7a60 c5bd f8dd 0d3d
000001a0: 7710 ca3d f2d6 1a3e aff2 01bd 88a1 bfbc
000001b0: d167 d8bd 03cd 93bc 7288 93bd ebb9 d8bd
000001c0: 4fea 573d eaec 483b d63e 903d c6df 403d
000001d0: 5a16 18be 0a73 013e 990b 6cbd f29a 2b3e
000001e0: a8a2 4e3d 4b4e 623d 9e7b 86bd 53e5 35bd
000001f0: 925d ff3d f639 983d 8272 fd3b d1dc a5bd
00000200: ad6a e2bd 37fe 0c3d 394c c5bc ec0a fcbb
00000210: 74f4 273d 5053 d43c ac9c 173c a9c7 d63d
00000220: 0703 c8bd 971e c3bd f1aa 9b3c 30e6 b9bd
00000230: b7fe b13d 50b6 08bd 728b 8b3d e799 44bd
00000240: e59e fbbd bcb6 85bd 3962 533b 7474 113d
00000250: ee3c 2b3d 069a d33d b253 063e 504e 07be
00000260: ad3a de3d 4f99 1c3d fb1a 5d3d 083d cdbd
00000270: 27bb 023d a901 743c 4460 d2bd dba3 e4bd
00000280: 2da3 673d 8253 c33d c027 193d ef92 d93b
00000290: 8f18 dfbd 5738 5ebd 3bb2 f23d 440f 6ebd
000002a0: 268b a83d 471d 0a3d d4e9 a63d f596 e3bd
000002b0: ecfa d93d 4d97 34bd 23e8 b6bd 5b3b fb3d
000002c0: 6268 2dbd e9ca db3d 9b99 d6bd a3b0 1fbd
000002d0: a70c 283d 94e5 563d 22ad 05be 28f3 eb3c
000002e0: fbe9 803d 3ea1 13bc 0a1e 0abe 485a c0bc
000002f0: 471b 00bd ca4f f83d 5839 b5bd 56fe 08bc
00000300: 9de8 633c 82fb c5bd 9a1d 073d fb62 a43d
00000310: e22e cc3d 0b09 de3c 3792 1e3d 45e2 093e
00000320: a5f0 0c3e e37e 55bc eedc 7f3d 30ae f23d
00000330: 46e7 863e 4e0e 103e 97e1 f7bc fe19 4cbd
00000340: 7117 9a3b c932 183d a927 6abd 968a 9ebd
00000350: 9655 db3d f9d9 bdbd 3b97 f73d cec2 943d
00000360: 10fe f53d db9f 2a3e 476a d63c 178d e43b
00000370: 9906 c93d 8d5f 6e3d 03e3 12be 1cf3 71bd
00000380: e3a8 193e a638 76bd f12d 00bc 11fe 9fbd
00000390: 2103 d23d 5422 803d 281f 80b8 8edd b43d
000003a0: 119f b0bc 7fcd 473e d7f4 debd 671d 353d
000003b0: 5edd b8bd 28a0 99bd 286e d53c ee76 8f3d
000003c0: 69a9 95bd 448e cebd 0418 c0bd bc03 c93d
000003d0: f25a d43d 7422 c03d 7445 753e 84b1 233e
000003e0: 2d01 bfbc 4472 d73c 7316 2dbd 94d3 1cbd
000003f0: 3022 9a3d 1d5d fcbd e210 36bd aba0 dabc
0.12970279 -0.09475 0.124707475 -0.09698229 0.072641455 0.06645528 -0.072485924 -0.0014041086
-0.07536291 0.10877935 -0.14316207 0.1305832 0.21316801 0.37073654 0.012882768 -0.10298395
-0.0051237694 0.11456342 0.06710478 -0.1066704 0.055969026 -0.1291416 0.100483164 0.018494144
-0.103981316 0.15956253 0.041758187 -0.06596593 0.06601815 -0.00022428081 -0.021574909 0.018215017
0.1788546 0.093453445 -0.09911049 -0.046074595 0.13446742 -0.04798246 0.10419824 0.043690093
-0.053051237 0.166054 -0.015545832 0.15314184 0.00071125064 -0.038095824 -0.041962698 0.01072919
0.04850872 -0.11497682 0.025386326 0.04268218 0.061587457 -0.0073915245 0.2700672 0.107711494
0.05456884 0.0978469 0.16605446 0.07945921 0.07495461 0.1186825 -0.10278103 0.06448319
0.03548462 0.073364034 0.0091477465 -0.06854643 0.094273 0.018239217 0.02822023 0.01092027
0.03179573 -0.1000723 -0.09446116 -0.04579412 -0.0060142074 0.14967039 -0.10136467 0.08109209
-0.049728356 -0.08124444 -0.02353592 -0.13640788 0.06113205 -0.09605417 0.08376541 0.061306603
0.071485355 -0.095709644 0.068614334 -0.068279795 0.012915821 0.071542025 -0.11106478 0.1066222
-0.046727438 0.007214533 0.052384786 -0.020299882 -0.037577156 -0.08584204 -0.09637542 0.034635514
0.09866422 0.15121058 -0.03172558 -0.023392454 -0.105666764 -0.018042093 -0.07203759 -0.10582336
0.05271369 0.003065879 0.07043235 0.047088407 -0.14852276 0.1264154 -0.057628248 0.16758326
0.05044809 0.055250447 -0.06566547 -0.044408154 0.12469019 0.0743293 0.0077345977 -0.08098758
-0.11055503 0.034422126 -0.024084197 -0.0076917317 0.041004613 0.025918633 0.009253662 0.10487301
-0.097662024 -0.09527319 0.01900241 -0.09077108 0.08691161 -0.03337699 0.068137065 -0.047998335
-0.12286166 -0.065289944 0.003225459 0.03551145 0.041806154 0.10332112 0.13117865 -0.13213468
0.10851035 0.038232144 0.05398081 -0.100214064 0.031916764 0.014892974 -0.102722675 -0.111640655
0.0565521 0.09537412 0.037391424 0.0066398303 -0.10893356 -0.05425295 0.11850401 -0.058120027
0.082296655 0.033719327 0.08150068 -0.11112777 0.10643563 -0.044089604 -0.08930995 0.122671805
-0.042335875 0.107320614 -0.10478517 -0.038986813 0.04102769 0.052465037 -0.13054326 0.02880247
0.06294628 -0.009010611 -0.13488021 -0.02348055 -0.031276014 0.121245936 -0.08848828 -0.00836142
0.01391044 -0.09667112 0.032987215 0.080266915 0.0996988 0.027103921 0.03871366 0.13465221
0.13763674 -0.01303074 0.062466554 0.1184963 0.26348323 0.14067957 -0.030258937 -0.049829476
0.0047025015 0.037157807 -0.05716673 -0.07741277 0.107096836 -0.092700906 0.12089392 0.072637185
0.12011349 0.16662543 0.026173724 0.006974827 0.098157115 0.058196593 -0.1434441 -0.059069738
0.15005831 -0.060112618 -0.007823453 -0.07812131 0.10254503 0.062565476 -6.109319e-05 0.08831321
-0.021560224 0.19511984 -0.10886543 0.044217493 -0.090265974 -0.075012505 0.026053503 0.07005106
-0.07307703 -0.10085729 -0.093795806 0.098151654 0.10368909 0.093815714 0.23952276 0.15985686
-0.02331599 0.026299603 -0.042257737 -0.038287714 0.07526052 -0.123224474 -0.044449694 -0.02668794

lstm.bias_hh_l0 f4 [256]
00000000: 1e65 f03d 3699 bcbd 1a49 603d c6f0 44bd
00000010: f503 883d 9b1d 86bd 8848 9c3d 376c 9f3d
00000020: cffe 503d 0f1e fe3c 627f 06be 3279 92bd
00000030: 8997 013e cdf4 403e 1d30 b7bc e1d4 733c
00000040: c87d b93d 7d8c b83b ceb0 323d b742 b7bd
00000050: eddf 2fbc d50f a4bd 4070 953d e359 453e
00000060: 7986 453d a6e1 003e 94ec d93d 8b9a e53c
00000070: c09e 2b3e fdf1 80bd 2830 07be e5d1 de3d
00000080: 1fb0 3b3e 82cd 78bd eb1f 9dbd a7f5 8dbd
00000090: 175c 193e e1f6 c23d 61be f43d 6e1a d8bc
000000a0: 2452 b3bd b0cd 4d3c 9c79 c4bd db05 9e3c
000000b0: 7a7d 81bd 0023 743d a106 033e 2797 da3d
000000c0: 8ee2 5e3c d214 333b a423 63bd c2eb 4dbd
000000d0: 0e61 163e 4420 bb3d 85e7 c83d 5aa8 993d
000000e0: d7b4 283d 805d 783d 0799 943d 0e65 2bbd
000000f0: b8b6 4dbd 87ef 1fbd 519c 093d 19b1 90bd
00000100: cefe 12bd 1579 3ebc 971c 89bc c23a ae3d
00000110: d5b6 1d3d 1212 c63d 016f dc3b 44ee 033e
00000120: 6b59 2cbd a27f aebc 0f6e 083c 4d34 b23d
00000130: 4f4f e33c fe2a ff3d 4ffa 51bd df11 283d
00000140: b369 c73d 8629 bebd 55a4 343d 87c9 09bd
00000150: 333a 9e3d ec3a b33d eb94 d13d ac1f a33d
00000160: 74fb debd 7715 063e 9486 dfbd 081f a8bd
00000170: 9154 2f3c 1e1b a13c b492 12be 6bcb a3bc
00000180: 54e9 aa3d 2efc 11bd feeb 9f3c b390 e8bd
00000190: 7482 edba 0c5e 893d e22a b73d a523 12be
000001a0: 203b 7fbc 1266 093e fe4a f83d c272 1a3e
000001b0: 1f66 e13d ad38 903c f457 41bd f518 a13b
000001c0: 65e2 3bbc 1841 653d 5c35 fbbd 894a 343c
000001d0: a1c8 fe3b 7e62 3a3d d87a 933d 0fe5 d63d
000001e0: 1ac2 dcbb 0f2d 833c e696 c9bd eb1c 9abd
000001f0: 721d 82bd 4a72 9abd 0fc6 c63d b71e e93d
00000200: 13a3 8ebc 607f 92bd d2ad 063c 0d06 d43c
00000210: b45b 36bd 4c91 b6bd 193f 253d a2ea f1bd
00000220: ba42 553c 13a6 62bd f683 2abc 9868 313d
00000230: 65d0 bb3d 92e8 bc3d 3261 cc3c 1547 e2bd
00000240: cb66 bdbd dc96 babd 134f 94bc 6860 3d3d
00000250: 9d60 9e3d 77cc 7f3b e58d 953d 1a2b c93d
00000260: ebdb 593c 503e 993c 473c 323d 845c 52bd
00000270: 51bb d6bd cfc5 dfbd 48db 523c fb54 d83c
00000280: 991f ccbd df78 d33c 5cb8 b0bd fc98 e93c
00000290: 8b1c d63c fa1b 9e3d e0e9 48bc a014 bdbd
000002a0: 5692 89bd 74b7 84bc 0d91 573c e94c 343d
000002b0: 0b20 1c3d cd9c a23d 73a9 963d 13fe 7f3c
000002c0: 3d34 e03c f161 1d3b fb46 0fbc a61a 0d3c
000002d0: d024 a7bd e6dd 2c3d b3d5 883c b9c1 06be
000002e0: 612d 803d d76b b83d 5d5f 933d 0d36 3abd
000002f0: d0b1 d83d 6798 0a3d 31e7 9abc b4e1 8a3d
00000300: 6259 bf3d b08f babd beb0 153e e4e5 0fbb
00000310: 88d7 c83d 51fa a13d 5b67 f0bd 36f4 ddbd
00000320: 5860 d9bc e4a5 dbbc 7994 d33c 5114 0f3c
00000330: 19cd 0b3e 257f 173e 02f2 f03d 491b c63d
00000340: 32fd c13d 067d a9bd ce23 433a 7a19 0c3d
00000350: 9839 d3bd a50f 98bd 5bdb 99bd 5f5b 2ebd
00000360: ca50 f83d a356 613e 87dd 69bd df6a 5d3d
00000370: 171e 153e e70a 8bbd 550a 1abe bfad 95bb
00000380: d6c7 1d3d d62e 25bc b79d e13d 1dfc 36bd
00000390: 1ff2 8f3d 04e7 9fbc 5262 a8bd 99a9 bbbc
000003a0: e754 793d 5d3e 293e 83e3 1fbd 6e2f 5a3e
000003b0: 2b55 92bc a8be c63d a8fd 9f3c 5227 f63b
000003c0: 28a6 44bd 5ed0 893a 98a1 6dbd 1e8e 833d
000003d0: a3e5 37bd 71f1 5e3d 5990 7d3d adb9 953e
000003e0: f58a d2bd 7085 f43d 8d29 5fbd 5728 863d
000003f0: f049 c1bd 46e6 4cbd 68d2 c33d d2a5 bd3d
0.117380366 -0.0920891 0.054757215 -0.048081182 0.0664138 -0.065486155 0.07631022 0.07784312
0.051024254 0.031020192 -0.1313453 -0.071520224 0.12655462 0.18843384 -0.02236181 0.014882297
0.09057194 0.005631982 0.043625645 -0.08948272 -0.01073454 -0.08010832 0.072968006 0.1927257
0.048223946 0.12586078 0.10640827 0.028027793 0.16759777 -0.062961556 -0.13201964 0.10879878
0.18328904 -0.060742863 -0.076721035 -0.0693162 0.14976536 0.09519745 0.119503744 -0.02637979
-0.087559015 0.012561247 -0.09593508 0.019289901 -0.06322761 0.05960369 0.12795497 0.10673361
0.0136038195 0.0027325642 -0.05545391 -0.050273664 0.14685461 0.091370136 0.09809784 0.07502814
0.041188087 0.060636044 0.0725575 -0.04184442 -0.050223082 -0.03904679 0.03359634 -0.07065029
-0.035887532 -0.011625548 -0.016737266 0.08507301 0.03850444 0.096714154 0.0067271 0.1288386
-0.042077463 -0.021301094 0.008327021 0.08701382 0.027747778 0.12459372 -0.051264104 0.04103267
0.097369574 -0.09285264 0.04410203 -0.033639457 0.07725944 0.08751473 0.10233482 0.07965025
-0.108878046 0.13094126 -0.109143406 -0.08209044 0.010701315 0.01966625 -0.14313775 -0.019994458
0.08345285 -0.035640888 0.01952171 -0.11355724 -0.0018120543 0.06707391 0.08943726 -0.1427141
-0.015578061 0.13417843 0.121236786 0.15082839 0.11005806 0.01760515 -0.04720302 0.004916305
-0.011467551 0.05597028 -0.12266037 0.011004099 0.0077753817 0.045504086 0.07201165 0.10492908
-0.006737006 0.016012697 -0.09843235 -0.07525047 -0.063532725 -0.0754133 0.097057454 0.113828115
-0.017411744 -0.07153201 0.008220153 0.025881791 -0.04452105 -0.08914432 0.040343378 -0.11812331
0.013016397 -0.055334162 -0.0104074385 0.04331264 0.091706075 0.09224047 0.02494869 -0.11048714
-0.09248122 -0.091108054 -0.018104112 0.04623452 0.07733271 0.0039031783 0.07302455 0.09822674
0.013297061 0.01870647 0.043514516 -0.05135776 -0.104849465 -0.10926401 0.012869664 0.02640771
-0.09966964 0.025814472 -0.08628914 0.028515331 0.026136657 0.0772018 -0.012262791 -0.092324495
-0.067173645 -0.016200759 0.013157141 0.04401866 0.038116496 0.079400636 0.073565386 0.015624541
0.02736866 0.0024014676 -0.00874495 0.0086123105 -0.08161318 0.042203806 0.016703462 -0.13159837
0.06258655 0.09004944 0.071959235 -0.045461703 0.1058079 0.03383675 -0.018909069 0.06781331
0.0934322 -0.091094375 0.14618203 -0.0021957094 0.09806734 0.07909072 -0.117384635 -0.10837595
-0.026535198 -0.026812501 0.025827633 0.008732871 0.13652457 0.14794596 0.11764909 0.09673173
0.09472121 -0.082757995 0.0007443995 0.034203984 -0.103137195 -0.07424859 -0.07512542 -0.042567607
0.12124784 0.22005706 -0.05709603 0.054057 0.1456226 -0.06789189 -0.15043004 -0.0045678313
0.038520657 -0.010081967 0.1101641 -0.044674028 0.07028603 -0.019519337 -0.08221878 -0.022908019
0.060871985 0.16527696 -0.03903533 0.21307155 -0.017862877 0.097043335 0.019530132 0.0075120116
-0.04801002 0.0010514369 -0.058015436 0.06423591 -0.044896733 0.054429475 0.06190524 0.29243222
-0.1028041 0.11939514 -0.054482985 0.06550663 -0.094379306 -0.050024293 0.09561616 0.09260143

lstm.weight_ih_l1 f4 [256, 64]
00000000: 2575 0abe 668b 08be a8ca 973d 738e 6c3a
00000010: a0d8 4b3b 9569 e5bd bfbd d83a 0696 57bd
00000020: 5300 51bd 5002 15bd 79f6 e83c 629b 90bd
00000030: 98e4 24be 9632 9fbd fdea 8c3d 1df5 ccbd
00000040: 7e59 b6bd a82c d7bd 6d11 073e 0e3b 9e3d
00000050: 2252 073d 4a74 ccbd 6a3b 033e 2a8b 66bd
00000060: 6b5a 87bc f1a2 ae3b c7bd 90bd 6b59 2b3d
00000070: 948b 2d3e 88de 9b3d 3a7c 913d 4830 a1bd
00000080: 4f9d 033e 1683 2b3c 576f 96bd f0bd 10be
00000090: 9461 083e f8a5 6ebd d157 a93d 1937 73bd
000000a0: dea1 8abd 708d 983d f3e4 6d3c 7d15 db3d
000000b0: 795f 48bd 37df 913d dca9 3fbc b4d3 a73c
000000c0: aafa 25bc 5fc3 a83d 24c6 c6bc 97c0 cabd
000000d0: aeda 713d ec45 ab3c 5f70 1d3e 0883 02bd
000000e0: 0cb3 393d e445 463d 7329 b73d 2182 c5bd
000000f0: 9cb0 27bd c490 84bd adcb 92bd e581 1a3d
00000100: cca9 fb3c 8440 b9bd bdf3 be3d 5554 76bd
00000110: 709a 603d 85b3 e7bd 744f 3c3d f714 253c
00000120: ad5e 763d f413 e03b a7fd a7bc acc8 86bd
00000130: 6068 0bbe 22a3 98bd a4d5 6e3c f0c1 12bd
00000140: b8c1 acbd 9465 993d 8225 1d3e c1bf 9abd
00000150: 6bea 893d 7bbf 063e 8027 9c3d b4d0 f73d
00000160: c956 94bd 51e6 8c3c 6335 56bc 78b4 f4bd
00000170: b189 773c 315b 293d e594 b6bc 041a 463d
00000180: 3927 2b3d f949 0f3e cc1e e7bd c2a8 2abd
00000190: 4804 023e fa0e 793d 0bb2 67bb 0e3f 96bd
000001a0: c938 ca3d 3cd6 2d3e 1033 debc 4300 2cbd
000001b0: 1d71 843d 6681 eebd 4a5b 50bd e073 2abc
000001c0: 6454 213d 8111 a23c ec8b 39bd 007a da3c
000001d0: e3bf 74bd f97c c23d 2a8d c83d 7dd9 e83d
000001e0: 3f65 a8bd b09e 753d df8d 36bd f554 cebd
000001f0: 42b6 8b3d 69b9 b43d c5df 303d c047 213e
00000200: ba3a e03d 879f 89bd 057d 573d 4552 883b
00000210: ac03 af3d 4361 9fbb e6dd 8abd 4b99 3a3c
00000220: bbfa acbd 39c1 6abd 801e a73d c6c1 84bd
00000230: 1bbd 2b3e 63cb d53d 83a8 cd3c 36c2 a93d
00000240: 47bb a9bc bf23 393d e063 6abd 5ae1 b43d
00000250: 8a46 d43d 6eb8 01bd 7d09 7c3b f5e9 0dbd
00000260: 9bdd e4bd c15c 7b3d f3e5 14be 2179 28bc
00000270: 299f a6bd 7a47 d33d 9695 9f3b f47f 673b
00000280: 59eb a0bd 8ccb 3d3d 6585 f93d b497 e23d
00000290: 6a77 673d 3a85 093e 9f51 ba3d e92e a5bc
000002a0: 0c3b e43d 9bf1 0dbe b08c d2bd 998d 15be
000002b0: 24b1 373d b087 c6bd 29c8 5f3d fe60 673d
000002c0: 60d7 043e da24 b23b 0e61 9a3d 42f8 a6bd
000002d0: 896e 73bd 0261 c7bd b3d1 7abe c7e0 a0bc
000002e0: d063 e9bd 002d e3bd 69f5 2f3d 10c6 ba3c
000002f0: 93c2 8ebd 3a77 4ebc d55f b83d cefd 67bd
00000300: 9503 e43c e5a8 b6bd 6973 80bd 3c8c bc3d
00000310: aff7 bebc a149 533d d056 cfbc e0d9 8abd
00000320: 3cd3 183d 1cff 093e 6b55 2bbe 8df8 b33d
00000330: 3d3d 97bc f1e8 c1bd d840 df3d 83cb e0bc
00000340: 1355 b7bd 7bee bc3d c71c bc3b 70cc 05be
00000350: 54d5 d8bd 17ac b6bd 7438 983d 0c0b 0f3e
00000360: 9a88 1bbd 829d 7d3c 8fb8 b5bd 9a2d ae3d
00000370: 3148 0a3e bcb7 c03d 622d c6bd 5ddc 923d
00000380: 3209 b23d 71c0 673d aa91 5fbc f78b 1fbd
00000390: c18b d33d fda7 0abd 9dde db3d 5c83 edbd
000003a0: 0d72 cd3d 54b7 2c3e f53b 233d bdf4 843b
000003b0: 813d e0bd f2cd 8dbd 75e4 a83d 4756 193d
000003c0: a020 0bbe 4bfa 9e3d 94d8 54bd 7266 37bd
000003d0: cbc6 dd3d 4df2 81bd 7327 903d 277e 26be
000003e0: 2fec 213c f1ef fa3d 704d d1bd bc9b 99bc
000003f0: f5e7 943c 95ab bebd cb92 8d3c 116d 0f3e
-0.1352125 -0.13334426 0.074117005 0.0009023912 0.003110446 -0.11201779 0.0016536041 -0.052633308
-0.0510257 -0.03637916 0.02843784 -0.07060887 -0.16102827 -0.077733204 0.06880758 -0.10007689
-0.08903788 -0.105065644 0.13190241 0.077261075 0.033037312 -0.09983118 0.12815633 -0.05628506
-0.016522607 0.0053294827 -0.07067447 0.041833322 0.16947776 0.07610804 0.071037725 -0.07870537
0.12852977 0.010468265 -0.07345455 -0.14134955 0.13318473 -0.05826375 0.08268703 -0.059378717
-0.06769155 0.07448852 0.014519918 0.10697458 -0.048919175 0.07122653 -0.0116982125 0.02048669
-0.010130564 0.08240389 -0.024264403 -0.09900015 0.05904644 0.020907365 0.15374897 -0.031863242
0.045336768 0.048406497 0.08943453 -0.09643961 -0.040939912 -0.06472924 -0.07167754 0.037721533
0.030720614 -0.090455085 0.09323833 -0.06013902 0.054834783 -0.113135375 0.04597421 0.010075799
0.060148884 0.006838316 -0.020506693 -0.06581244 -0.13614035 -0.0745299 0.014577303 -0.035829484
-0.084353864 0.074900776 0.1534634 -0.075561054 0.06734165 0.13158982 0.076247215 0.12100354
-0.072431155 0.017199667 -0.013074252 -0.11948484 0.015108512 0.041346733 -0.022287795 0.048364654
0.041785453 0.13993062 -0.11285171 -0.041664846 0.12696946 0.0608053 -0.0035353925 -0.073362455
0.09874112 0.16976255 -0.027123958 -0.041992437 0.06466887 -0.116457745 -0.05086831 -0.010403603
0.03938712 0.019783737 -0.045299456 0.026669502 -0.05975331 0.09496493 0.0979255 0.113696076
-0.08222436 0.05996579 -0.044568893 -0.10074798 0.06821872 0.08824427 0.043182153 0.15750027
0.10948701 -0.067198806 0.052609462 0.004160198 0.08545622 -0.0048638894 -0.06780605 0.011389087
-0.084462605 -0.057313178 0.08160114 -0.06482272 0.16771357 0.104391836 0.025104767 0.08288996
-0.020719184 0.045200106 -0.057224154 0.08832045 0.10365017 -0.031670026 0.0038457804 -0.034646947
-0.111750804 0.061367754 -0.14540844 -0.010282786 -0.08135826 0.103163674 0.004870127 0.0035324069
-0.07857389 0.046336696 0.12183646 0.11064091 0.056510366 0.13429728 0.09097599 -0.02016397
0.11144075 -0.13861696 -0.1028074 -0.14604796 0.04484667 -0.09693849 0.054634247 0.056488983
0.12972784 0.005436522 0.07538043 -0.0815282 -0.059431586 -0.097353 -0.24494056 -0.019638432
-0.11395991 -0.110925674 0.04295865 0.022799522 -0.06970706 -0.012601668 0.090026535 -0.05663853
0.02783374 -0.08918933 -0.06272013 0.09206435 -0.023311464 0.05158389 -0.02530995 -0.067798376
0.037310824 0.13476223 -0.16731803 0.08787642 -0.018461818 -0.09468258 0.1090104 -0.027440792
-0.089517735 0.09225174 0.005740735 -0.13066268 -0.10587564 -0.08919542 0.074326426 0.13969058
-0.03797207 0.015479447 -0.088730924 0.085047916 0.13504101 0.094100446 -0.09676625 0.07170937
0.0869316 0.05658001 -0.013645569 -0.03895184 0.1032939 -0.033851612 0.107358195 -0.115973204
0.10031519 0.16866809 0.0398521 0.0040574954 -0.10949231 -0.069240466 0.082467 0.037435796
-0.13586664 0.07762583 -0.051964357 -0.044775434 0.108289324 -0.06345043 0.07038774 -0.16259061
0.009882971 0.122527964 -0.10219848 -0.018751018 0.018177012 -0.093100704 0.01728191 0.1400645

lstm.weight_hh_l1 f4 [256, 64]
00000000: fd8f 85bc 3c06 f9bc ac17 fcbc 1049 93bc
00000010: eecd 853d b658 b0bd 9675 513d 97c9 6bbd
00000020: a312 c53d fa35 d9bd ce26 d1b9 80c4 e03d
00000030: dadb 94ba 9fbf e4bd c668 8d3d 1ee7 44bd
00000040: 72fb 873d c8ab c33d 4388 3abd 69cd e2bc
00000050: 68e5 d7bb 0f20 dabd 556d e0bd 06c4 c33d
00000060: afc3 b53d 6b1c 6d3d 04c3 793d 1d79 c23d
00000070: b6d2 62bc 3eaf 8c3d 6707 723d 15b7 e33d
00000080: 6316 07be 09f4 febc 3c82 843d 6b75 4f3d
00000090: 974e 04bd be4d 213d ec5d 89bc 6498 0dbe
000000a0: c077 d8bd b40e 123e b9bb 4a3d 3be9 cebc
000000b0: 6b77 0cbc d4d7 f13d 0485 483d d511 ea3d
000000c0: 6100 0c3d bfa6 e2bd 17cb ddbd 96bb e73d
000000d0: 2f66 943d d4ff d4bd 8cce afbc 6200 4ebc
000000e0: e110 dfbd 58ab 533c 745e b4bd 7453 e03c
000000f0: 7635 203d 9fb6 a03d 1505 03be 7f1c 5fbc
00000100: 8c08 63bb ca33 a63d 8071 d3bd 73d0 42bd
00000110: a172 b33d 8451 4ebd 462f 613d 81e3 88bd
00000120: a095 843c d0ed 14bd e4eb f23d 70e9 4c3d
00000130: 0cb6 c3bd f44b 503b 57c8 e53c 99ae 073d
00000140: 467b b53d 729d b93c d8f8 44bc 2929 593c
00000150: 95f1 14bd a65e 643c d501 f43c c853 e0bd
00000160: 03ee d43d a412 963d 8d23 bdbd bc8e 293d
00000170: a270 ea3d ed9f e8bd 4e5d a13a 67f7 dbbd
00000180: d3fb c43d ee35 eabd 4250 3abd 4e71 c5bd
00000190: b595 883d d148 533c 4933 973d 360d ba3d
000001a0: 6060 e93c dbed f43c 25ca 72bd b630 993d
000001b0: c842 b33d fbce aebd f57c 29bd 625c 16bd
000001c0: baee 94bc 5cc8 b93d 7ba2 7c3d 0e0e 1dbe
000001d0: f8aa 063d 2595 a6bd bf19 90bd e571 2c3d
000001e0: 5f49 02be 98b1 ecbd aa27 a8bd 4cd8 00bc
000001f0: 9024 cabc db78 9d3d f1b2 6c3d ee26 c53d
00000200: 4629 96bd cfca a1bc 01c6 b1bd 2110 e5bc
00000210: 460b 4abc 71fa 2bbd 22fd 6cbc d4d5 1dbd
00000220: 7edf 873d da24 c93d 1d68 68bd 3829 cf3d
00000230: 135f b0bd 49dd b5bd c691 06bd 526b c9bd
00000240: be81 483d 3fa4 a03c a9ff 713d 443b 4dbd
00000250: 86d7 7d3d eb80 603c f586 e0bd 1854 623d
00000260: 107c df3d 07eb cabd 7178 833d 5007 573b
00000270: 9ce8 29bd fdc9 5cbd 4983 18bd 1355 19bc
00000280: d6f0 e23d 7e2e 853d 4ab7 f53d 595e 2bbd
00000290: 7b07 9bbd e85c 67bd 5c1f 0b3c 4626 a5bd
000002a0: 90e6 dabd 30f8 443d 9792 a63d 5100 3a3c
000002b0: cfbd a9bd 15e2 0a3b 9d95 87bc 1302 d43d
000002c0: 4e95 413d 0611 813d e4d1 c33d 1dbd bbbc
000002d0: 74a9 e23b c263 9ebd 425d 023e d94b 423d
000002e0: 6137 eabd 768a c0bd b9bb f5bd 523b 003e
000002f0: 6aa3 d2bc baf1 9f3d a9d8 e8bb 4d8d b4bd
00000300: b15f 15bd 4b73 f23d 9d8c 64bd 9b67 c53c
00000310: 57da ea3b 070f eb3d 0844 bb3d f9ab e43c
00000320: 1979 ac3b 3bcc a5bd 21ee 253d d4d5 1ab9
00000330: 4070 3f3d 72bf 0b3d cb38 a33d 75df 413d
00000340: 9105 023d 5285 e0bd 5b92 dabd 1863 033c
00000350: 15a0 a6bd e9aa eebd f5ed bdbd 8350 063e
00000360: d121 0ebe 98ac 43bd 4233 fcbb ab03 973c
00000370: 059e b83d 9fc9 03bd bcfe 92bd 887f f03c
00000380: 0603 3fbd 9514 953d 246c 903b 45b8 443d
00000390: 289b 91ba f578 bc3d eefd 97bd 9e59 5fbd
000003a0: 768e ba3d fcbe 29bc 2ebd a4bd d615 043e
000003b0: f192 df3d 1650 293c a639 453d 95a3 40bd
000003c0: 3827 243b e0fe 533c 977d d53c 4b97 4abd
000003d0: 8b5f 1e3d 65ef eebd 5860 b03d f87b 82bd
000003e0: 1166 6abd f482 12bd 1fa9 d5bd 4258 bebb
000003f0: 70ee c13b 1d4d 4dbd 3766 95bd efc9 42bc
-0.01630401 -0.03039848 -0.030773006 -0.017979175 0.065334186 -0.0861067 0.05113753 -0.057565298
0.09622695 -0.10605998 -0.00039892498 0.109749794 -0.0011357025 -0.11169361 0.069047496 -0.048071973
0.06639756 0.09554249 -0.045540106 -0.027685838 -0.0065886267 -0.10650646 -0.109583534 0.09558873
0.08875214 0.05788843 0.060976997 0.09495757 -0.013844183 0.06869362 0.05908909 0.111189045
-0.13192134 -0.031122224 0.06470153 0.050649088 -0.03230151 0.03938078 -0.016768418 -0.13827664
-0.105697155 0.14263421 0.049495433 -0.025257697 -0.008573393 0.11808744 0.04895498 0.114291824
0.03418005 -0.110669605 -0.10829752 0.11315076 0.072460525 -0.10400358 -0.021460794 -0.012573333
-0.10891891 0.0129192695 -0.08807078 0.027383544 0.039113484 0.07847332 -0.12794907 -0.013617634
-0.0034642546 0.08115347 -0.10324383 -0.047562074 0.08762098 -0.050370708 0.054976724 -0.06684018
0.016184628 -0.03635961 0.11861399 0.05002731 -0.09556207 0.0031783553 0.028049631 0.033125494
0.08861403 0.022658084 -0.01202222 0.013254442 -0.036363203 0.013938582 0.02978603 -0.1095348
0.1039696 0.07327774 -0.092352964 0.041395888 0.11447264 -0.113586284 0.0012311132 -0.107405476
0.09618344 -0.114360675 -0.045486696 -0.09640752 0.06669179 0.012895779 0.07382829 0.09084551
0.028488338 0.029898575 -0.05927481 0.07479994 0.08752972 -0.08535572 -0.041378934 -0.036709197
-0.01818024 0.09071419 0.06167839 -0.15337393 0.032877892 -0.08133916 -0.07036161 0.042100806
-0.12723301 -0.11557311 -0.0821069 -0.007864069 -0.024675637 0.07689067 0.05778784 0.09626566
-0.07332091 -0.019750027 -0.086803444 -0.027961792 -0.012331789 -0.041986886 -0.014464648 -0.038534
0.066344246 0.09821482 -0.056739915 0.10115284 -0.08611884 -0.088800974 -0.032853864 -0.09834923
0.048951857 0.019609569 0.059081707 -0.05010535 0.061973117 0.013702611 -0.10963241 0.05525598
0.10912335 -0.09908109 0.06419457 0.0032810755 -0.0414816 -0.05390357 -0.03723458 -0.009358662
0.11081092 0.06503008 0.1199785 -0.041838024 -0.07569786 -0.056485087 0.008491363 -0.08063941
-0.106885076 0.048088253 0.081334285 0.0113526145 -0.08288156 0.0021191884 -0.016550833 0.10351958
0.04726153 0.06302075 0.09561518 -0.022917325 0.006917173 -0.07733871 0.12730888 0.047435615
-0.11436344 -0.09401409 -0.11998696 0.12522629 -0.025712688 0.078097776 -0.007105906 -0.088160135
-0.03646821 0.11838397 -0.05579816 0.024097254 0.0071671414 0.114774756 0.09143835 0.027914034
0.0052634594 -0.080955945 0.0405103 -0.00014766242 0.04673791 0.034118123 0.07969817 0.047332246
0.03174359 -0.10962929 -0.10672446 0.008019231 -0.08136002 -0.11653692 -0.09273902 0.1311665
-0.13880087 -0.04777202 -0.00769654 0.018434366 0.09014515 -0.032174703 -0.07177493 0.029357687
-0.046633743 0.07279316 0.0044074226 0.048027296 -0.0011108862 0.09202758 -0.0742148 -0.054528825
0.091092035 -0.010360476 -0.08043896 0.12898955 0.10916699 0.010334035 0.04815068 -0.047031004
0.002504779 0.012939185 0.026060862 -0.04946069 0.038665336 -0.11666755 0.08612126 -0.063713014
-0.057226244 -0.035769418 -0.10432648 -0.005808861 0.0059183165 -0.05012237 -0.072948866 -0.011888965

lstm.bias_ih_l1 f4 [256]
00000000: cd88 10bd 699e 2fbd 72e2 d43d 9e09 393d
00000010: 7ff1 51bc 1ae5 01bd 1888 d2bc 5a81 4b3d
00000020: 8f41 533e 4a59 dc3d 8caa 023e c1c9 c4bd
00000030: 0711 ecbd d93f bc3d 09cf b1bb afca be3d
00000040: 602f 283d a2cd e33d ed3b b1bd 748f 7a3d
00000050: 923f e33d 93a2 2bbd ba1b a4bc fa92 c8bd
00000060: b547 403d b952 3cbd aba1 b3bc 5181 ebbc
00000070: 7029 e13d 8e40 0a3d 53ff c6bd c2d2 3b3d
00000080: 4ab4 4a3b e1da 0b3e c71f 02bd 3028 92bd
00000090: 5d1a e3bd c641 5fbd 2fa0 223d 1a26 5c3d
000000a0: 1a5d 94bd 5ff9 c1bd 77c5 0b3d e74b 1e3c
000000b0: a935 823c db4d 40bd cfe0 a93c 3e44 fa3b
000000c0: 9cbc 643d 40a3 963d bd33 033e 8348 10bd
000000d0: b21f 9d3c 0101 403d c7fb c83d 0337 a13d
000000e0: aabf 4c3d a00b ce3d bd0d fcbc a784 e5bd
000000f0: 268e 2b3d 68fa c53d 75d6 15bd 7f1f a3bd
00000100: 7c88 613c a8b6 a33d 35af 8b3d 35b0 1c3d
00000110: 467d 98bd da74 333d e09a 84bd b2a6 e2bd
00000120: 177a 11be e3e7 2dbd 55b3 53bd 2cfa d23d
00000130: 1dd5 ebbd d856 c0bd 1e00 7d3c c44c ec3d
00000140: c2ba 94bd f63c f23b 02e7 da3c f0ba 80bd
00000150: a98a e83d 5852 eabc 3f03 913d cd70 243d
00000160: e2aa 81bc 5196 4b3b 82d3 c53c 85d5 813d
00000170: 4bc1 893d 0710 a9bd 021f c8bd aad0 a1bd
00000180: ce46 993d c58b 05bc 1096 f23a e944 a03d
00000190: 1a2f b5bd b014 9fbd 4388 f63d 3223 923d
000001a0: c24a 0c3d 14a5 59bd 1026 a43d 49ec e63c
000001b0: 66f7 01bc 32ff 953d 509e d23b 6f80 2f3d
000001c0: 0808 8e3d 59d9 96bc 3b63 c43a b0a0 293d
000001d0: e3c6 a5bd 45f7 c0bd fa52 f5bd 96ff 2d3c
000001e0: 72e8 eb3d 21f3 e23d d381 c53b 1643 8abc
000001f0: 3ece d6bd cd1e 46bd 8441 8d3d 8dfd 763c
00000200: e8a2 5a3d a35e 8abd 77fc 7bbc b09b b5bd
00000210: c6f8 b13d 4cae 413d f193 ab3d 78fd 71bd
00000220: b7aa e1bd f688 37bc a93f be3c 7e5a dbbd
00000230: ed90 a8bd bbac 833d 8616 223d aaca 603d
00000240: 5477 903d 6ed0 47bd 80e8 b43b 6892 373d
00000250: 5d19 723d 0a57 d7bd 062d 953d 1a12 46bd
00000260: 350f a23d 6353 86bc 75e3 133d 0692 013d
00000270: 848f 3b3c 450e 3c3d 6229 5ebd cfb3 383d
00000280: 904c 743d e73b 6f3d a79c b83d 66c7 803c
00000290: d7a4 0bbd 7603 043c eba9 4abc 236f d2bd
000002a0: ba68 d53d 2040 a3bd 06b0 cbbd 41f6 ad3d
000002b0: da03 29bd 0116 803d 2ca2 dbbc feaf 27bd
000002c0: c3eb 3c3d f897 bb3c a435 90bc 7cee 003e
000002d0: 313a d0bd 8f17 b6bd 2ff6 b1bd 196b a3bd
000002e0: eb59 f1bd e28f a3bd c20f 78bc bb5e a83d
000002f0: 744d febc 40e1 c53d 15ce 2bbc d470 003e
00000300: bad9 343d 2ed5 6abd 8f3d 383d ce21 44bc
00000310: fbb1 363d 22c8 86bd 909d 213d e3fa 8d3d
00000320: 5d8e f63d 4300 ad3d 9086 223d 6751 9fbd
00000330: 974e 8e3c 89b0 0b3e 6065 d63d 851f ee3d
00000340: f9e5 033c 3646 b1bd 5c08 44bd 2039 26bc
00000350: 6fa8 c9bc 7ce3 b63c 2cb7 a43d 34e6 86bc
00000360: d685 39bd ef84 3b3d c948 ccbd f6aa 31bc
00000370: 543f 223e 4abb a43d e395 2a3d 153d 71ba
00000380: d067 c4bd b451 113e 5f43 89bd 2033 8a3d
00000390: b38a a1bd fdf2 45bc 31e9 7cbd a692 073e
000003a0: 88bd 0dbe ea83 91bc 974e c0bc 5440 033e
000003b0: 22d8 183d e05f 95bc 5871 843d 3552 863d
000003c0: 46cd 883d cfaa 4ebd 5169 0f3d b026 9bbd
000003d0: 8904 b0bd f8d9 c1bd 9b1f 433d dc60 413e
000003e0: 0f52 48bd 2355 9a3d 665a bf3d dd1a 893d
000003f0: 528f f7bd 5c2d ef3d 9be5 b73d 5517 fe3d
-0.035286713 -0.04287568 0.103947535 0.045175187 -0.012813925 -0.03171263 -0.02569966 0.049683906
0.20630477 0.10759218 0.12760371 -0.09608794 -0.11526685 0.091918655 -0.005426292 0.093160026
0.041060805 0.11123206 -0.08654008 0.061171964 0.110961094 -0.04190309 -0.020032752 -0.097936586
0.046943385 -0.045977328 -0.021927675 -0.028748186 0.10994232 0.03375297 -0.09716668 0.04585529
0.0030930215 0.13657714 -0.031768586 -0.071365714 -0.11089013 -0.054506086 0.039703544 0.053747274
-0.0724432 -0.09471392 0.034123864 0.009661651 0.015894728 -0.04694925 0.02073708 0.0076375296
0.055843934 0.07355356 0.12812705 -0.035225403 0.019180153 0.046875957 0.09813648 0.07871821
0.049987473 0.10060811 -0.03076827 -0.11206942 0.04188361 0.09666902 -0.036581475 -0.07964992
0.013765451 0.07993823 0.068205275 0.03825398 -0.07445769 0.04381261 -0.064748526 -0.11066951
-0.1420673 -0.042457473 -0.051684696 0.10301623 -0.115152575 -0.09391564 0.0154419225 0.115380794
-0.07262184 0.007392521 0.026721481 -0.062856555 0.11354572 -0.028603718 0.07080697 0.040146638
-0.015828554 0.0031064937 0.024148706 0.06339554 0.06726321 -0.0825501 -0.09771539 -0.07901128
0.07484208 -0.008150999 0.0018507857 0.078256436 -0.088468745 -0.07767618 0.120377086 0.07135619
0.034250982 -0.053135946 0.08015072 0.028188841 -0.00793252 0.07324065 0.0064275637 0.042847093
0.069351256 -0.018414186 0.0014983186 0.04141301 -0.08094575 -0.09422163 -0.11978717 0.0106200185
0.11518945 0.110815294 0.006027439 -0.016877692 -0.10488556 -0.048369218 0.06897262 0.0150751
0.053378016 -0.06756332 -0.0153800165 -0.08867586 0.08690028 0.047285363 0.08377827 -0.059079617
-0.110188894 -0.011202088 0.023223715 -0.107106194 -0.082307674 0.0642943 0.03957226 0.054880776
0.0705401 -0.04878276 0.00552088 0.04481736 0.05910622 -0.10514648 0.07283978 -0.048357107
0.07913057 -0.016397184 0.03610559 0.0316334 0.011447791 0.045912046 -0.054238684 0.045093354
0.05964333 0.058406737 0.09014254 0.01572008 -0.03409275 0.008057466 -0.012369613 -0.10275104
0.10420366 -0.07971215 -0.09945683 0.08494235 -0.04126344 0.06254197 -0.026810728 -0.040939324
0.046123277 0.022899613 -0.017603703 0.12590975 -0.10167349 -0.08891212 -0.08689534 -0.07979412
-0.117847286 -0.07986428 -0.015140476 0.082211934 -0.031042792 0.09662104 -0.0104861455 0.1254304
0.044152953 -0.05733221 0.04498058 -0.01197095 0.04460333 -0.06581141 0.039456904 0.069326185
0.120388724 0.084473155 0.03967911 -0.07779198 0.017371459 0.13641562 0.104685545 0.116271056
0.008050435 -0.0865597 -0.047859535 -0.010145456 -0.024616448 0.02232527 0.0804275 -0.016467191
-0.04529365 0.045781072 -0.0997482 -0.010843983 0.1584447 0.08043535 0.04164685 -0.00092025223
-0.09590113 0.14191324 -0.06702303 0.067480326 -0.07887783 -0.012081859 -0.061745826 0.13239536
-0.13841832 -0.017763097 -0.023474975 0.12817508 0.037315495 -0.018234193 0.06466931 0.065586485
0.06679778 -0.050455865 0.035012547 -0.075757384 -0.08594615 -0.09465402 0.047637563 0.18884605
-0.048906382 0.0753577 0.09343414 0.06694577 -0.12087883 0.116785735 0.08979341 0.12406794

lstm.bias_hh_l1 f4 [256]
00000000: aded c73d 4776 ebbd 4f32 00be 6f7e e83d
00000010: 37ca 463c 7af2 edbd 4856 553d 5405 d7bc
00000020: 6791 de3d 825e ec3d 3270 c73d ed81 53bd
00000030: fb2d e5bd 8e78 2dbd 16b9 17bc 676e aebd
00000040: f61a d93d 269f a43d 4353 b2bd 415a f43c
00000050: 0cda 25bd 9df8 2dbd 8501 383d 23e9 18bd
00000060: d76e f7bd fbbd a73c 5153 53bd de68 0abc
00000070: 8a6f 183e da02 d3bd d7b8 c1bd cefe c13d
00000080: b458 0b3e 9d5f 95bd 3243 773d 30e9 f7bc
00000090: e6c8 323d 8ab1 2ebd 9367 9abd c68e abbd
000000a0: 6b98 e0bc 9b8e cabd 8d24 893c 3f7c c3bd
000000b0: da89 dc3d 1fd5 43bd 8baf 033d dc80 f53c
000000c0: 8fe3 b53b 8a7d 8abd 009b 4abd ed3c 523d
000000d0: decb debc 1fc3 973d 3133 a2bd 1b2a e03d
000000e0: 4b8c 063e 9af2 f03d 3a30 67b9 8f1d ed3d
000000f0: 56a9 0abe aab1 b5bd 0194 063e 4d7e 853d
00000100: 8e1e d43d d5e9 403d 49a8 8c3d f3bb d9bd
00000110: ee2d 3e3d dcee d53c bc31 babd bcfb d23d
00000120: 0247 cabc e05c 16be e209 8dbd 3b26 fd3d
00000130: 03a6 793c 763f abbd 9f1a e2bd 8f47 983c
00000140: af60 2bbd 6a5a 923d 7bec d9bd b202 93bd
00000150: 08e3 e4bc 4524 6bbc bde1 203d 8efa cf3d
00000160: 5cae 86bd cbf7 e33c 2f4d d8bd 6b88 9a3d
00000170: 99ae 9f3d 75b9 85bd e85f b0bd 7cc7 75bc
00000180: 9ab9 873d 0cb0 0ebd 6944 2c3d 31d4 d8bd
00000190: 3d3c 9d3c 2020 d0bd 9c6f 18bd b20c ad3d
000001a0: 6e5f 21bd 3b53 d3bc 34da 74bd d6c5 2f3c
000001b0: 2461 043e b258 423d 916b e5bd e032 8c3d
000001c0: 7fc7 cebd 072b b93d f083 95bd 7f5d 07be
000001d0: f54a fb3d 7999 eabd 95fc 96bb a618 02bc
000001e0: f4e6 d6bd 7d5d 803d 4a0b 5abc d6a7 f23a
000001f0: 294d 10be 8981 cc3c 7a9d b83d f411 84bc
00000200: bdf0 08bd 8d3c 68bc 0030 b73d 0499 4939
00000210: 149f 8a3d 9804 11bd 654f 693d a0e8 293d
00000220: 4240 acbd 5796 ad3d 8cc3 1abc de54 8f3c
00000230: d94b f3bd b5c4 cfb9 b276 21bd 974f e23d
00000240: d084 88bd 8262 033d 5924 c5bd 6bd1 ab3d
00000250: 8563 223d f0b0 a63d 6c12 883d 32a9 32bd
00000260: 9364 b03d dca4 853d 897f 5abd 777f 963d
00000270: a6a8 db3b d58f 1f3d 5cce 033e db8e adbd
00000280: dd55 df3c 3ffa 03bc 5a34 cdbc 484b 473d
00000290: 89f3 cfbc 666d 8e3b 0984 acbc a023 f9bd
000002a0: c263 ae3d 4a98 a4bd 18c9 e6bd 0f18 873d
000002b0: dc2c 17bd 319d 9a3c 9044 91bd 0223 493d
000002c0: f9a6 bcbd 4191 503d 477b e93d 2038 dcbd
000002d0: f9ae 933d b430 423c d0cd 033e 9c40 4d3d
000002e0: 1de5 d0bd c1ed 473b 8193 9f3d 3f4a 2639
000002f0: ef78 9abd a21c dd3d 359a bfbd 5b35 82bc
00000300: 0c84 833c 5cc7 fe3d d2db be3d 0ee4 2cbd
00000310: 6b7f 033e 6e6b 8abd 05af b83d c992 3b3d
00000320: a04f 053b df1f b9bd 349a 1a3c cbba d6bd
00000330: 649d 983d ae2f f03d 396f 49bd 2378 3e3d
00000340: da34 103d 33fe e83c 4da2 be3c 52f5 90bc
00000350: 67f0 1bbd 9e43 1e3e f8eb 4ebd 66f5 423d
00000360: 3f44 5e3c 4518 253d 8b98 d4bd 9ce2 003d
00000370: 23fb 003e e669 d73d f5a4 02bd 6456 81bc
00000380: a3f5 1fbd b533 093e bf61 8bbd a02d a4bd
00000390: adf6 06bd 5d8b 28bd 67fc 4b3d f90b c2bd
000003a0: b3af 0ebd 8835 e7bd b932 44ba f4ea 74bd
000003b0: 727d 4f3d 5fc0 12bd 1848 c53c a747 8ebd
000003c0: c8b3 44bd 8902 d43b 819c 553d 60eb 7b3d
000003d0: 9230 053e c4a1 cd3d 824e 8abd 8ee4 3d3e
000003e0: 6aa2 a5bc 9192 183c 18d8 c03d 5b22 913c
000003f0: 2dcf b2bc 1804 0b3e fba6 28bd 6e42 103e
0.0976213 -0.11497169 -0.12519191 0.1135224 0.012133173 -0.11618514 0.052084237 -0.026247658
0.10867577 0.115414634 0.097381964 -0.05163758 -0.11190411 -0.042351298 -0.0092604365 -0.08517151
0.106008455 0.08038168 -0.08707287 0.029828193 -0.04049115 -0.042473424 0.044923324 -0.03733171
-0.12081688 0.020476332 -0.05159313 -0.008447854 0.14886299 -0.10303278 -0.094590835 0.09472428
0.13608056 -0.072936274 0.060366817 -0.03026256 0.043648623 -0.042649783 -0.075392865 -0.08376841
-0.027416429 -0.09890481 0.016741062 -0.095451824 0.107684806 -0.04781067 0.032149833 0.029968672
0.0055508087 -0.06762226 -0.049464226 0.051327635 -0.02719682 0.07410263 -0.0791992 0.10945531
0.13139455 0.117650226 -0.00022047843 0.115779035 -0.13541159 -0.08871777 0.13142397 0.065182306
0.1035739 0.047098 0.06868035 -0.106315516 0.04643052 0.026114874 -0.09091517 0.10301921
-0.024692062 -0.14683867 -0.068866506 0.123608075 0.015237334 -0.083617136 -0.11040234 0.01858881
-0.04184025 0.07146151 -0.10640808 -0.071782485 -0.027940288 -0.014351909 0.03927778 0.101552114
-0.06576225 0.027828118 -0.105615966 0.07545551 0.07796974 -0.06529514 -0.08612043 -0.015001174
0.066271976 -0.03483586 0.04205743 -0.10587347 0.019193763 -0.10162377 -0.037215814 0.08449687
-0.03939765 -0.025796523 -0.059778407 0.01072832 0.12927681 0.047447868 -0.11202157 0.06845641
-0.100966446 0.0904141 -0.07300556 -0.1321926 0.12270156 -0.11455054 -0.004607747 -0.007940447
-0.104932696 0.062678315 -0.013308356 0.0018513154 -0.14091934 0.02496411 0.09014411 -0.016121842
-0.03343271 -0.014174593 0.08944702 0.00019225857 0.06768623 -0.03540477 0.056960482 0.041481614
-0.08410694 0.08475941 -0.009446036 0.017496523 -0.11879701 -0.00039628675 -0.039419837 0.11050337
-0.06665957 0.032076366 -0.096260734 0.08389553 0.03964569 0.08139217 0.06644139 -0.04361839
0.08612933 0.06525585 -0.053344283 0.07348531 0.006703454 0.03895553 0.12871689 -0.08474513
0.027262622 -0.008055269 -0.025049377 0.04865578 -0.025384681 0.0043465374 -0.021059053 -0.12164998
0.08515121 -0.08036859 -0.11268824 0.06596386 -0.036908016 0.018873783 -0.070931554 0.04910565
-0.09211535 0.050919775 0.114004664 -0.107528925 0.07211108 0.011852432 0.1287148 0.050110444
-0.1019995 0.0030506703 0.07791806 0.00015858652 -0.075425975 0.10796477 -0.093555845 -0.015894582
0.016054176 0.124403685 0.09319271 -0.042209677 0.12841575 -0.06758772 0.09017757 0.045794282
0.002034165 -0.09039282 0.009436179 -0.10484847 0.07451895 0.11727844 -0.049178336 0.04650129
0.035206653 0.028441524 0.02327075 -0.017695103 -0.038071062 0.15455481 -0.050518006 0.04759731
0.013566076 0.04030635 -0.10380658 0.03146611 0.12595801 0.105182454 -0.031895597 -0.015788265
-0.039052617 0.13398631 -0.06805753 -0.08016515 -0.032950092 -0.041148532 0.049801257 -0.0947494
-0.03483553 -0.11289507 -0.0007484365 -0.05979438 0.050656743 -0.03582799 0.024082229 -0.0694726
-0.048023015 0.006470029 0.052151207 0.061503768 0.1300681 0.1004062 -0.067532554 0.18544218
-0.020219047 0.009312288 0.094162166 0.017716577 -0.021827305 0.1357578 -0.04117487 0.14087841
