crypto_models/ETH_USD_lstm.pth (torch, 206101 bytes, 9 tensors)

lstm.weight_ih_l0 f4 [256, 1]
0	0x3d4940ba	0.049133994
1	0x3d0ee460	0.034885764
2	0x3e063836	0.1310738
3	0x3ddb7617	0.10715883
4	0x3db9336e	0.090430126
5	0xbde92db5	-0.11385671
6	0xbddbb836	-0.10728495
7	0x3ccbb0da	0.024864603
8	0x3e0c64fe	0.137104
9	0x3d3d4ebf	0.046217676
10	0x3da70b5e	0.08156465
11	0x3dd7d0e8	0.105378926
12	0x3cd1bc16	0.025602382
13	0xbcb25ff0	-0.021774262
14	0x3e4c2271	0.19935013
15	0x3d85dc1b	0.065361224
16	0x3e2994e8	0.1656071
17	0x3d2f16a3	0.042746197
18	0x3dccf80e	0.1000825
19	0x3e48b6a3	0.1960092
20	0x3ddea68b	0.10871609
21	0x3d94bb11	0.072622426
22	0x3dcca3e1	0.09992195
23	0x3da34367	0.0797184
24	0x3da48060	0.08032298
25	0x3e0b1182	0.13580897
26	0x3e0dae9f	0.13836144
27	0xbd9f3aeb	-0.077749096
28	0x3d5d3bd4	0.054012135
29	0xbda65386	-0.081213996
30	0xbd8b0bf3	-0.067893885
31	0xbd59203f	-0.053009268
32	0xbd147cd8	-0.036251873
33	0x3e254fde	0.16143748
34	0x3e012409	0.12611403
35	0x3e5da5f5	0.21645339
36	0x3da93c53	0.08263459
37	0xbc0fee89	-0.008784899
38	0xbcbf43c0	-0.023347735
39	0xbda7b529	-0.081888504
40	0x3d62f767	0.055411723
41	0x3e405061	0.18780662
42	0xbd16dee3	-0.036833655
43	0x3da68d40	0.0813241
44	0x3e01dd9a	0.1268219
45	0x3c2da80f	0.01059915
46	0xbcf631a9	-0.030052977
47	0xbd689d74	-0.056790784
48	0x3e0eedf9	0.13957967
49	0x3c19069b	0.009339954
50	0x3d0f91ca	0.035051145
51	0xbe14b5f0	-0.14522529
52	0xbd88738f	-0.06662666
53	0xbca9935d	-0.020700151
54	0x3d073a01	0.0330143
55	0xbd524912	-0.051339217
56	0x3e4245d1	0.18971945
57	0x3cccea39	0.02501403
58	0x3e1099ea	0.14121214
59	0x3cb59b6d	0.02216884
60	0x3cf97569	0.030451493
61	0x3cf96f16	0.030448478
62	0xbca9e340	-0.020738244
63	0xbe061f8d	-0.13097973
64	0x3d6fb078	0.058517903
65	0xbe9d1513	-0.3068014
66	0xbb40622b	-0.0029355388
67	0x3c09053a	0.0083630625
68	0xbcf294a8	-0.0296119
69	0xbda3d383	-0.07999327
70	0xbe1696a0	-0.14705896
71	0x3ce672ca	0.028130908
72	0x3d5bc521	0.053654794
73	0x3de3ad22	0.11117007
74	0xbcf9948d	-0.030466342
75	0x3df0d014	0.11758438
76	0xbcfdaa68	-0.030965045
77	0xbcd5da0c	-0.02610495
78	0xbe3b3abe	-0.18284127
79	0x3e045e9b	0.12926714
80	0x3d7e1351	0.06203014
81	0xbd0ccd8a	-0.034375705
82	0xbce66b09	-0.02812721
83	0xbdf55cb0	-0.11980569
84	0xbcc699e0	-0.024243295
85	0xbe0df8b8	-0.1386441
86	0x3e063655	0.13106664
87	0x3dadb28a	0.08481319
88	0xbb6f70fe	-0.0036535854
89	0x3cb89544	0.022532113
90	0x3d31a2c6	0.043368123
91	0xbde47349	-0.111548014
92	0x3d779fce	0.060455136
93	0xbc9ef3ed	-0.019403422
94	0xbda27c92	-0.07933916
95	0x3d7c0117	0.061524477
96	0x3b7ecba5	0.0038878706
97	0x3cacd60a	0.021098156
98	0xbd638d36	-0.05555459
99	0xbd6f8d4c	-0.05848436
100	0x3e28377b	0.16427414
101	0xbe3506cd	-0.17678376
102	0xbdb8b0ed	-0.09018121
103	0xbdb37b4d	-0.08763752
104	0x3de631d2	0.11239971
105	0x3c8389db	0.016056946
106	0xbddce8b3	-0.10786571
107	0xbcc210cf	-0.023689656
108	0xbd020c6c	-0.031750128
109	0xbc4be46a	-0.012444595
110	0x3cdaa968	0.026692107
111	0xbbd3edd6	-0.0064675612
112	0x3e04f12e	0.12982628
113	0xbd2a843b	-0.04163001
114	0xbe0382b8	-0.12842834
115	0xbc0c35c2	-0.008557739
116	0x3d66dde1	0.056363944
117	0x3d9eef40	0.07760477
118	0x3da0bf7f	0.07849025
119	0x3e3054d6	0.17219862
120	0xbc5414fc	-0.012944456
121	0x3e16a9e8	0.14713252
122	0x3dd78122	0.10522677
123	0x3e2372b3	0.15961723
124	0x3e1a1423	0.15046744
125	0xbd8e2925	-0.069414414
126	0xbd18debc	-0.03732179
127	0x3d34a96c	0.044106886
128	0xbd94552f	-0.0724281
129	0xbe43b719	-0.19112815
130	0x3e1ec6ea	0.15505567
131	0x3de59299	0.11209602
132	0x3dbcc4dd	0.09217236
133	0xbd04803f	-0.032348868
134	0xbe13e0e2	-0.14441255
135	0x3dffcf23	0.1249068
136	0x3e1cf554	0.1532796
137	0xbd5cf841	-0.05394769
138	0xbe4c302b	-0.1994025
139	0xbe2204ad	-0.15822096
140	0xbe00a4b2	-0.12562826
141	0x3e2e13a8	0.16999686
142	0xbe2c2289	-0.16810049
143	0xba6c9f97	-0.0009026466
144	0xbe2276d0	-0.15865636
145	0x3dc164ec	0.094430774
146	0x3d6ad6d2	0.057333775
147	0x3e20af85	0.15691955
148	0xbe2d1b92	-0.16905048
149	0xbdc48f27	-0.09597617
150	0x3c70977f	0.014684557
151	0x3e3b6399	0.18299712
152	0x3dc8c176	0.09802525
153	0xbe041006	-0.12896737
154	0x3dcc2ffc	0.0997009
155	0x3dabf013	0.083954
156	0x3d0c8d8e	0.034314685
157	0xbde19cc2	-0.11016227
158	0xbd3a33cc	-0.045459554
159	0xbe132529	-0.14369644
160	0xbe3d3796	-0.18478236
161	0x3e424da0	0.18974924
162	0x3e5ca4db	0.21547262
163	0x3e5f9e4a	0.21837726
164	0xbddcac5c	-0.107750624
165	0xbe48e465	-0.19618376
166	0x3d504221	0.050844315
167	0x3d9b905f	0.07595896
168	0x3d2e6a6f	0.04258197
169	0xbdc7b935	-0.09752122
170	0xbba59c9b	-0.005054069
171	0xbd1231cb	-0.035692018
172	0x3e00cc79	0.12578
173	0x3e1f1063	0.15533595
174	0xbe45692f	-0.19278406
175	0x3e185aaf	0.14878343
176	0xbc6af6f6	-0.014341107
177	0x3cd40394	0.025880612
178	0x3dfffbbe	0.12499188
179	0xbd90efd8	-0.070769966
180	0xbd52a180	-0.05142355
181	0x3e0b3fae	0.1359851
182	0x3e08530a	0.13312927
183	0xbe40d679	-0.18831815
184	0xbe5d8b4a	-0.21635166
185	0xbbaddcd9	-0.005305868
186	0x3dd29835	0.102829374
187	0xbe4a5fb9	-0.19763078
188	0xbdf2a506	-0.11847882
189	0x3e202156	0.15637717
190	0xbe3fa431	-0.18714978
191	0x3d68b83b	0.05681632
192	0x3af7e6af	0.0018913354
193	0xbd8c82b1	-0.06860865
194	0x3d29e46b	0.041477602
195	0x3dbcaf3a	0.09213109
196	0x3cb629ab	0.022236666
197	0x3d887416	0.06662767
198	0x3dab8bc3	0.08376267
199	0xbd86beb0	-0.065793395
200	0x3e197cb8	0.14988983
201	0x3dbb47dc	0.091445655
202	0x3d79e24e	0.061006837
203	0x3e8ab3d5	0.27090326
204	0x3c17f31e	0.009274272
205	0x3e5e0f2a	0.21685472
206	0x3e00d6d6	0.12581953
207	0x3cd32705	0.025775442
208	0xbd36af18	-0.044600576
209	0x3e20177b	0.15633957
210	0x39bca743	0.00035982774
211	0x3e439d3d	0.1910295
212	0x3dac2f22	0.08407427
213	0x39c0598b	0.00036687808
214	0xbccaf768	-0.024776176
215	0x3d3dd860	0.04634893
216	0xbc8ba1bc	-0.017044894
217	0x3c06b205	0.008221154
218	0x3e2d1af1	0.16904809
219	0x3cfda507	0.03096248
220	0xbd6bf52a	-0.057606854
221	0xbd493645	-0.04912402
222	0x3d8135fe	0.06309126
223	0x3b1cff0a	0.0023955726
224	0xbcc40a69	-0.023930745
225	0x3da3092c	0.07960734
226	0x3bd3b069	0.0064602387
227	0x3da7037a	0.0815496
228	0x3d8c665f	0.06855463
229	0xbdab3530	-0.08359754
230	0x3c8969d2	0.016774092
231	0xbd72b15c	-0.059251174
232	0xba61c4ce	-0.0008612395
233	0x3d28b5b6	0.041188918
234	0x3d8fa986	0.07014756
235	0x3dcbb6ba	0.09946962
236	0x3df6b582	0.120463386
237	0x3ca855bf	0.0205487
238	0x3e5b93cd	0.214431
239	0x3de74003	0.11291506
240	0x3d77ff99	0.06054649
241	0x3d9ce850	0.076614976
242	0xbd89ee23	-0.06734874
243	0xbcd7127a	-0.026253927
244	0x3ca93d98	0.020659253
245	0xbba253f6	-0.0049538566
246	0x3deb2c0d	0.114830114
247	0x3de4147d	0.1113672
248	0x3e408336	0.18800053
249	0x3dd3aa59	0.103352256
250	0xbd7a56f6	-0.06111809
251	0x3e6b028a	0.22950187
252	0x3d9f5faf	0.07781922
253	0x3bf1ccec	0.007379165
254	0x3e138698	0.14406812
255	0xbdf94540	-0.121714115

lstm.weight_hh_l0 f4 [256, 64]
0	0x3d3a373e	0.04546284
1	0xbd29fcd3	-0.041500878
2	0x3d3693ab	0.04457442
3	0xbc9e0dc5	-0.019293675
4	0x3dc29127	0.09500342
5	0xbe173640	-0.14766788
6	0xbdd10f73	-0.10208025
7	0xbb333167	-0.0027342679
8	0xbc4b3509	-0.012402781
9	0xbc56bff1	-0.013107286
10	0x3d41c2ad	0.047304798
11	0xbd7300c2	-0.059326895
12	0x3dcc57ae	0.09977661
13	0xbd2673b5	-0.04063769
14	0x3b324035	0.0027198915
15	0xbd95fa79	-0.073231645
16	0x3cedae3f	0.029013751
17	0xbd5f03e8	-0.054447085
18	0xbe127a78	-0.1430453
19	0xbe04b6d2	-0.12960365
20	0x3d86f4ea	0.065896824
21	0xbc7d2444	-0.015450541
22	0xbe09a8ea	-0.13443342
23	0xbda3362e	-0.07969318
24	0xbd783cd8	-0.0606049
25	0xbdac7b0c	-0.08421907
26	0x3dbb62f2	0.09149732
27	0xbc2ad152	-0.010425882
28	0x3c1a7d0b	0.009429227
29	0x3dc1ad33	0.09456863
30	0x3d7f8c2e	0.062389545
31	0x3d35929b	0.044329267
32	0x3cc96ab1	0.024587007
33	0xbdc520ca	-0.09625395
34	0x3e0a5c1f	0.13511704
35	0xbd223875	-0.039604623
36	0xbd366cc4	-0.04453732
37	0x3db17f5f	0.08666872
38	0x3db0a063	0.08624341
39	0xbd43809a	-0.047730066
40	0xbd7e1974	-0.062035993
41	0x3cd9256a	0.026507098
42	0x3db640d5	0.088990845
43	0xbd41ec44	-0.04734446
44	0x3d89badf	0.06725096
45	0xba2492ae	-0.00062779605
46	0xbd27f378	-0.041003674
47	0xbd85c9b7	-0.06532615
48	0x3e0f22ab	0.13978069
49	0x3def7d1f	0.11693787
50	0xbce57eae	-0.028014507
51	0x3c1af186	0.009456998
52	0xbc7deeb1	-0.015498803
53	0x3ce0acbf	0.027426122
54	0x3dc1a998	0.094561756
55	0x3d94cf65	0.0726612
56	0xbd0c2a3e	-0.034219973
57	0x3d4fea4a	0.050760545
58	0xbcdd5352	-0.02701727
59	0xbbcc8f38	-0.006242659
60	0x3dbbc424	0.0916827
61	0x3d96f0b4	0.07370129
62	0xbdaca4fd	-0.084299065
63	0xbdb7629f	-0.08954357
64	0x3d3b0eea	0.04566852
65	0x3e4fdee7	0.20299874
66	0xbd3e887f	-0.04651689
67	0xbd9adf16	-0.075620815
68	0x3d60a15b	0.05484138
69	0x3e47e7ac	0.1952197
70	0x3e5809dd	0.21097513
71	0xbe4de342	-0.20106223
72	0xbe8ecd50	-0.27891016
73	0x3da512fc	0.080602616
74	0x3da310ad	0.07962165
75	0xba703684	-0.0009163397
76	0xba81f318	-0.0009914367
77	0xbde674b5	-0.11252729
78	0x3e7a5be4	0.24449116
79	0x3df99cac	0.12188086
80	0x3ea16a4f	0.3152642
81	0xbd6b13f7	-0.057392087
82	0xba599278	-0.00082997186
83	0xbea0578e	-0.313168
84	0xbcb6d322	-0.022317473
85	0x3e2dc2ed	0.1696889
86	0x3dcd20dc	0.10016033
87	0xbd094be4	-0.03351964
88	0x3d81ea9f	0.063435785
89	0xbd6bdea3	-0.05758537
90	0xbd6378ae	-0.05553501
91	0xbbb14f21	-0.005411044
92	0x3e0b0079	0.13574399
93	0x3e6eb31b	0.23310511
94	0xbe616273	-0.22010212
95	0xbe27a257	-0.16370521
96	0x3c2329a9	0.009958663
97	0xbe15ca6e	-0.14628002
98	0xbe7eb93e	-0.24875352
99	0xbea309ee	-0.31843513
100	0xbc64704b	-0.013942788
101	0x3e2cefb6	0.16888317
102	0x3bc82aaf	0.006108604
103	0xbe48d276	-0.19611534
104	0x3df18ff7	0.11795037
105	0xbd7a6676	-0.06113287
106	0x3af412a4	0.0018621278
107	0xbd3cd9ed	-0.046106268
108	0xbdb4299d	-0.087969996
109	0xbe55b96c	-0.20871514
110	0xbcd1828b	-0.025574943
111	0x3e14bfc1	0.14526273
112	0xbcbd3154	-0.02309481
113	0xbd4af582	-0.04955054
114	0xbdda3cf3	-0.106561564
115	0x3e166c85	0.14689834
116	0x3deb0742	0.11475994
117	0xbc0cbb8b	-0.008589636
118	0xbd9104b4	-0.07080975
119	0xbd8dfc75	-0.06932918
120	0x3e1f1a08	0.15537274
121	0x3e2b485c	0.16726822
122	0x3de6cf48	0.112700045
123	0xbc1827d1	-0.009286837
124	0x3d35dce5	0.044400115
125	0xbe5473d2	-0.20747307
126	0xbc6eac4a	-0.014567444
127	0xbdecc7df	-0.1156156
128	0xbdd733f8	-0.10507959
129	0x3a03071e	0.0004998314
130	0x3c4c8d3a	0.012484843
131	0x3da82fc5	0.08212236
132	0xbd25a061	-0.040436152
133	0x3d29e549	0.04147843
134	0x3bb45bdf	0.005504116
135	0xbdb6b68c	-0.08921537
136	0x3cc082d5	0.023499886
137	0x3dadaff5	0.08480827
138	0xbd5072b4	-0.05089064
139	0xbd650a3a	-0.055917956
140	0x3daf9b6b	0.085745655
141	0xbd82504a	-0.0636297
142	0xbc85e57a	-0.016344775
143	0xbdc7d915	-0.09758202
144	0x3d71a055	0.058990795
145	0xbda09b3c	-0.078421086
146	0xbd2af5a5	-0.04173817
147	0x3c95921e	0.01825815
148	0xbdb2f4c8	-0.087380946
149	0x3e0546be	0.13015267
150	0xbd64a5dc	-0.05582224
151	0x3decc11e	0.11560272
152	0x3ddccffa	0.10781856
153	0xbd98320c	-0.07431421
154	0xbdbfc996	-0.09364621
155	0xbdd00f36	-0.10159151
156	0xbd559da3	-0.052152287
157	0x3ccf3c8f	0.025297431
158	0x3d4e7418	0.050403684
159	0xbc4080ee	-0.011749489
160	0xbe024ccd	-0.1272461
161	0x3df94a1c	0.12172338
162	0xbd98d0f4	-0.0746173
163	0xbd363ae4	-0.044489756
164	0xbc72b931	-0.014814661
165	0xbd8e6703	-0.06953242
166	0x3db7b9c9	0.089709826
167	0xbd4834cd	-0.04887848
168	0x3b79c96d	0.0038114444
169	0x3c83470e	0.016025092
170	0x3d74b3a6	0.05974164
171	0xbc4c8e76	-0.012485137
172	0xbdd4db7d	-0.103934266
173	0xbdb0c6e1	-0.08631683
174	0xbce23251	-0.027611883
175	0xbbd5ae50	-0.006521024
176	0xbdd25f82	-0.10272123
177	0x3dea0ab0	0.1142782
178	0xbb2bb570	-0.0026200674
179	0xbc359ad3	-0.011084276
180	0x3d4b6c46	0.049663804
181	0xbd041289	-0.03224424
182	0x3de0450f	0.10950672
183	0x3d8a9233	0.067661665
184	0x3d08ff19	0.033446405
185	0xbdbf53b2	-0.093421355
186	0x3df07c6c	0.117424816
187	0xbdbc7601	-0.09202195
188	0xbd9f4824	-0.077774316
189	0x3cf35978	0.029705748
190	0x3d144ff9	0.03620908
191	0xbd80f4f6	-0.062967226
192	0xbd8e77c8	-0.0695644
193	0x3e45f305	0.19330986
194	0x3bfb7f38	0.0076750778
195	0xbd858d48	-0.06521088
196	0x3c61a01a	0.013771081
197	0xbcd13c38	-0.02554141
198	0x3d1c4858	0.03815493
199	0xbc63cd15	-0.013903876
200	0xbdeac716	-0.11463754
201	0x3d96d03d	0.07363937
202	0x3de5784f	0.11204588
203	0xbd50b001	-0.0509491
204	0xbda02404	-0.078193694
205	0xbdb1ec25	-0.08687619
206	0xbd01451b	-0.031560045
207	0xbdefad2c	-0.11702952
208	0x3d1162a4	0.03549446
209	0xbcf7177e	-0.03016257
210	0x3e0b15d9	0.13582553
211	0xbc828e91	-0.015937122
212	0x3db33b8a	0.087515905
213	0x3d0ff97a	0.03515003
214	0xbd6ed0d7	-0.058304634
215	0x3d4e761d	0.05040561
216	0xbd9240c3	-0.071412586
217	0x3c969e69	0.018386083
218	0xbde4bc48	-0.11168724
219	0x3b9c066d	0.004761508
220	0x3e02b7a1	0.12765361
221	0x3c0dfe68	0.008666612
222	0x3d969303	0.07352259
223	0xbdea701d	-0.11447165
224	0x3da3640b	0.07978066
225	0x3d9b9497	0.07596701
226	0x3cae5f4a	0.021285672
227	0xbde99290	-0.11404908
228	0x3d6a9864	0.057274237
229	0x3ddd81a7	0.10815745
230	0x3dd5cbc6	0.10439257
231	0x3e0038bd	0.12521644
232	0xbd31acce	-0.04337769
233	0x3d8d50e7	0.069001965
234	0xbc0540e7	-0.00813315
235	0xbddfd1d9	-0.10928697
236	0x3db9dc6b	0.090752445
237	0x3d9560ab	0.072938286
238	0x3d9d5da3	0.076838754
239	0x3cd4c91a	0.025974799
240	0xbdbb1450	-0.09134734
241	0xbd8871d5	-0.06662337
242	0xbdd37d75	-0.103266634
243	0xbbe53b98	-0.0069956295
244	0xbd5e7955	-0.05431493
245	0xbd8b83b8	-0.06812233
246	0xbddec122	-0.10876681
247	0xbdf12d62	-0.11776234
248	0xbd461f60	-0.048369765
249	0xbda3e030	-0.08001745
250	0x3db40dd2	0.087916985
251	0x3d9e21c7	0.07721286
252	0x3daa9d2f	0.08330762
253	0xbd80dd78	-0.06292242
254	0xbc72eec3	-0.014827433
255	0xbda078f0	-0.07835567

lstm.bias_ih_l0 f4 [256]
0	0xbd91c7cf	-0.071181886
1	0x3e376150	0.17908216
2	0x3da78c8c	0.08181104
3	0x3df60535	0.12012712
4	0x3d0d70c0	0.034531355
5	0x3cc0eb0b	0.023549577
6	0x3dca0bfa	0.098655656
7	0x3e086061	0.13318016
8	0x3dc4adaf	0.0960344
9	0xbde50dd7	-0.1118428
10	0x3e4474b9	0.19185151
11	0x3de8826f	0.11353003
12	0xbdc4d4cb	-0.096108995
13	0x3c13fa36	0.009031823
14	0x3e82b6b4	0.25530016
15	0x3d678bfd	0.056529988
16	0x3cd23f78	0.02566503
17	0xbdb1f018	-0.086883724
18	0x3da25b35	0.079275526
19	0x3dda5747	0.10661178
20	0x3e233e27	0.15941678
21	0x3cad0f2c	0.021125399
22	0xbdbf8f9c	-0.09353563
23	0xbc7900f7	-0.015197984
24	0xbcf3b696	-0.02975015
25	0x3deb3224	0.11484173
26	0xbcda672d	-0.026660526
27	0xbe09087f	-0.13382147
28	0xbe175cdd	-0.14781518
29	0x3d6d5ea1	0.057951573
30	0xbd3d1fc4	-0.046172872
31	0x3d07e4ea	0.033177294
32	0xbdaa2384	-0.08307555
33	0xbcc8bdad	-0.024504507
34	0x3e1f579b	0.15560763
35	0x3e81a106	0.25318164
36	0x3ca4605b	0.020065477
37	0xbc915e30	-0.017745107
38	0xbccfc4ef	-0.02536246
39	0x3c92c246	0.017914902
40	0xbdac0e84	-0.08401206
41	0xbdb1223b	-0.08649107
42	0x3b828ea7	0.0039842906
43	0x3d9ae7cd	0.07563744
44	0x3da63fc4	0.08117631
45	0x3b8cc2b6	0.0042956723
46	0x3cf21b95	0.029554168
47	0xbdfa3642	-0.1221738
48	0xbcfd51bf	-0.030922769
49	0xbe07044b	-0.13185231
50	0xb9fb3a74	-0.00047918002
51	0xbd99a05e	-0.07501291
52	0xbd9d3af6	-0.076772615
53	0x3cec7a5a	0.028866936
54	0xbd48db1b	-0.04903708
55	0xbdc29eeb	-0.095029674
56	0x3de2a725	0.110670365
57	0xbe08204d	-0.13293572
58	0xbdcbd64e	-0.09952985
59	0x3e10bd70	0.14134765
60	0x3d297772	0.041373678
61	0xbde80b44	-0.11330274
62	0x3d12bc31	0.035824005
63	0xbe05cd78	-0.13066661
64	0x3d916383	0.070990585
65	0xbdb89769	-0.09013254
66	0x3db84e71	0.089993365
67	0xbd326e2c	-0.0435621
68	0x3da9a692	0.08283724
69	0xbcc1ffc6	-0.023681533
70	0x3d7f1865	0.062279124
71	0x3d54297b	0.05179737
72	0xbd980377	-0.07422536
73	0xbd5e4abc	-0.05427049
74	0x3d555464	0.052082434
75	0xbb860153	-0.0040895133
76	0x3dc756bc	0.0973334
77	0x3cc60940	0.024174333
78	0xbd305612	-0.043050833
79	0xbd8880c4	-0.06665185
80	0xbd04afe8	-0.03239432
81	0x3c92b52d	0.017908657
82	0xbdcc92ab	-0.09988912
83	0x3d829058	0.06375188
84	0xbd574baf	-0.052562412
85	0x3d22b3c4	0.03972222
86	0x3d8ec85e	0.06971811
87	0x3d7a50d4	0.06111224
88	0x3d8704f3	0.06592741
89	0xbc9ce7af	-0.019153444
90	0xbd8c5e56	-0.06853931
91	0xbda0bab8	-0.07848114
92	0xbe15cd6e	-0.14629146
93	0x3d4cc144	0.049989
94	0xbe080334	-0.13282472
95	0x3dde2105	0.10846142
96	0xbd97a31b	-0.07404157
97	0x3c8a75c5	0.01690186
98	0x3c990a67	0.018681718
99	0x3d97cad2	0.07411732
100	0x3c80a8a5	0.015705416
101	0xbe056d92	-0.13030079
102	0x3dd78246	0.105228946
103	0x3c9a1b2b	0.018811783
104	0x3cf236fc	0.029567234
105	0xbdb384aa	-0.08765538
106	0xbdcf5a6a	-0.10124667
107	0x3bc0ca48	0.005883489
108	0x3c60b743	0.013715568
109	0xbcf15c3f	-0.029462932
110	0xbd939019	-0.07205219
111	0xbd07dcce	-0.03316956
112	0x3d42125a	0.047380783
113	0x3ddea504	0.10871318
114	0xbc7882c6	-0.015167898
115	0x3d90e898	0.07075614
116	0xbd961953	-0.07329049
117	0xbd0e475a	-0.034736015
118	0x3d60acdb	0.054852348
119	0xbd022d2f	-0.03178137
120	0x3dfb13a4	0.122596055
121	0xba59642d	-0.00082928204
122	0xbe03046e	-0.12794659
123	0xbd0fe485	-0.035130043
124	0x3dc4d72e	0.09611355
125	0xbdceedff	-0.10103988
126	0xbd07941e	-0.03310024
127	0x3c81df8c	0.015853666
128	0xbd83f7a9	-0.06443722
129	0xbd78cdf6	-0.060743295
130	0x3d829422	0.0637591
131	0xbdc25157	-0.094881706
132	0xbd01dabd	-0.031702746
133	0x3db0a6e1	0.086255796
134	0x39cdc027	0.00039243812
135	0x3c43bac8	0.011946388
136	0xbdc377a1	-0.09544302
137	0x3d10ea22	0.035379536
138	0xbbd5e303	-0.006527306
139	0x3dea5f9e	0.11444019
140	0x3b17cd4a	0.0023163133
141	0xbdc7cf86	-0.09756379
142	0x3cf3cd75	0.029761055
143	0xbc1b577a	-0.009481305
144	0x3e000247	0.12500869
145	0xbb955a5f	-0.004557892
146	0x3d5f2aa9	0.054484043
147	0xbc9460b9	-0.018112527
148	0xbcde9d62	-0.027174655
149	0x3b096bf9	0.0020968898
150	0x3dddc558	0.10828656
151	0xbd75e07a	-0.06002853
152	0x3d87ca18	0.06630343
153	0xbd0ea98c	-0.03482966
154	0xbd756c43	-0.0599177
155	0xbde3d31d	-0.11124251
156	0x3c73f0fd	0.014888999
157	0x3dbd0c27	0.092308335
158	0xbcad8137	-0.021179779
159	0xbd84f50d	-0.06492052
160	0x3cf9ab8b	0.030477306
161	0xbc925b38	-0.017865762
162	0xbdcf8903	-0.10133555
163	0xbde37ba3	-0.11107566
164	0xbd3bf01c	-0.045883283
165	0x3da212d8	0.079137504
166	0x3d8fc024	0.0701907
167	0x3d42e87c	0.047584996
168	0x3dbd8bbd	0.092551686
169	0xbaecbaaf	-0.0018061007
170	0x3c7ab748	0.015302487
171	0xbdd4b35f	-0.10385775
172	0xbbce9619	-0.006304514
173	0x3da19b68	0.078909695
174	0xbda80159	-0.08203382
175	0x3d5efd02	0.054440506
176	0xbdd1835e	-0.102301344
177	0xbcd0dba6	-0.025495362
178	0x3ccfcf40	0.02536738
179	0x3c8524e5	0.016252944
180	0xbbc60988	-0.0060436167
181	0x3d0474bd	0.032337893
182	0xbe077311	-0.13227488
183	0x3c4f5720	0.01265505
184	0x3d872a78	0.06599897
185	0x3c887a01	0.016659738
186	0x3d145f1f	0.036223527
187	0x3d68e8b6	0.056862555
188	0x3d8801f9	0.06641001
189	0xbda3af51	-0.07992423
190	0xbd3d4deb	-0.046216886
191	0xbdeb3e79	-0.11486525
192	0xbd0ba1b5	-0.034089763
193	0x3e351e59	0.17687358
194	0xbd5494d2	-0.05189974
195	0xbceffc48	-0.029295102
196	0xbdb09149	-0.08621461
197	0xbd207e3d	-0.03918289
198	0x3d5e9f0a	0.05435089
199	0x3db74d47	0.08950286
200	0x3e0b4944	0.13602167
201	0xbdedad12	-0.11605276
202	0x3e62719c	0.22113651
203	0x3e63a5e5	0.22231252
204	0x3cadd6ab	0.021220526
205	0x3dd2968d	0.102826215
206	0x3d92a6c6	0.07160716
207	0x3da71999	0.08159179
208	0x3cf339cf	0.029690651
209	0x3c4a88d2	0.012361722
210	0xbd9503ef	-0.07276141
211	0x3e551274	0.2080782
212	0x3e316a34	0.1732567
213	0xbdc09aeb	-0.09404548
214	0xbdff05fe	-0.12452315
215	0x3e07a5de	0.13246867
216	0xbd84fbf9	-0.064933725
217	0x3da82cc3	0.082116626
218	0x3de7d226	0.113193795
219	0x3dba3a2f	0.09093129
220	0xbe20a223	-0.1568685
221	0xbd4516b2	-0.048117347
222	0x3d34d087	0.04414418
223	0xbdf800e1	-0.12109543
224	0x3daeef97	0.08541792
225	0x3e6122bf	0.21985911
226	0x3e56de2a	0.20983186
227	0x3ea0fdc3	0.31443605
228	0xbc814807	-0.015781416
229	0xbb08b524	-0.0020859921
230	0x3cb72537	0.022356613
231	0x3db0e628	0.08637649
232	0xbdf154dd	-0.117837645
233	0xbd1ec2a9	-0.03875986
234	0x3d52da37	0.051477637
235	0x3cd8efd5	0.026481548
236	0xbc99d6a6	-0.01877911
237	0x3e47bbf3	0.1950529
238	0xbd901b03	-0.07036402
239	0x3cd93930	0.026516527
240	0xbe0854d3	-0.13313608
241	0x3d67744a	0.056507386
242	0x3d864103	0.06555369
243	0x3d9b4254	0.075810105
244	0x3cdeac39	0.027181732
245	0x3db981ea	0.09057982
246	0xbb8d3605	-0.004309418
247	0x3cd0d7de	0.025493558
248	0x3e0142a8	0.12623084
249	0xbdb66fc2	-0.08908035
250	0x3cfdce1b	0.030982068
251	0x3d81f162	0.06344868
252	0xbd8e4226	-0.069462106
253	0x3cb0c4a9	0.02157815
254	0x3e01c468	0.1267258
255	0x3d1d8651	0.038458172

lstm.bias_hh_l0 f4 [256]
0	0x3d781439	0.06056616
1	0x3e025c4e	0.12730524
2	0x3d038009	0.032104526
3	0x3df59ae3	0.11992433
4	0x3da6225a	0.08112021
5	0x3d6c1200	0.057634354
6	0xbcc0fd32	-0.023558233
7	0xbc17f5eb	-0.00927494
8	0x3e2f3812	0.17111233
9	0xbddb97dd	-0.10722325
10	0x3d3ef831	0.046623413
11	0x3e274e18	0.16338384
12	0xbe05c8f4	-0.13064939
13	0xbc679236	-0.0141339805
14	0x3e806f97	0.25085136
15	0xbd75ea4b	-0.060037892
16	0x3e29720c	0.16547412
17	0xbda9ee7c	-0.082974404
18	0xbcecb95d	-0.028896982
19	0x3e4ba63d	0.19887634
20	0x3e233c41	0.15940954
21	0x3de6188d	0.112351514
22	0x3dd61270	0.104527354
23	0x3de62a87	0.1123858
24	0x3a8a4ddb	0.0010551767
25	0x3dc35348	0.09537369
26	0x3c3c501b	0.011493708
27	0xbddd85d7	-0.108165435
28	0x3c73b737	0.014875225
29	0xbe0ca74e	-0.13735697
30	0xbdfe0420	-0.124031305
31	0x3d8e96ea	0.06962378
32	0x3ba10b9b	0.0049147136
33	0x3e27ad37	0.1637467
34	0x3e18680b	0.14883439
35	0x3e8e9c15	0.27853456
36	0xbdfb607c	-0.12274262
37	0x3e2694e6	0.16267738
38	0xbd829c0e	-0.06377421
39	0x3c795d51	0.015220002
40	0x3d95412a	0.0728782
41	0x3e0b5d62	0.13609841
42	0x3d9a81f9	0.075443216
43	0xbd4471b3	-0.047959995
44	0x3cbc429d	0.022980982
45	0xbc4c30bd	-0.012462792
46	0x3ded8544	0.11597684
47	0xbda608ce	-0.08107148
48	0x3c440c2d	0.011965794
49	0x3d87e26d	0.06634984
50	0xbc626c65	-0.013819789
51	0x3dd17652	0.10227646
52	0xbe03f022	-0.12884572
53	0x3daa35ce	0.08311044
54	0x3e229d7e	0.15880391
55	0xbd817cd3	-0.063226365
56	0x3e054d6b	0.13017814
57	0x3d73d28d	0.05952697
58	0x3c541719	0.01294496
59	0x3c295f20	0.010337621
60	0x3de456a4	0.11149338
61	0x3cb09c2f	0.02155885
62	0x3c2dfd3a	0.010619456
63	0xbbf14aee	-0.0073636686
64	0xbe208562	-0.15675882
65	0x3dd97b23	0.106191896
66	0x3df08c17	0.1174547
67	0xbcea744a	-0.028619904
68	0x3d9b711a	0.07589932
69	0x3c9c0f0c	0.019050144
70	0xbc704bcb	-0.014666508
71	0xbd94cfd2	-0.07266201
72	0xbd9ab315	-0.075536884
73	0xbe143178	-0.14471996
74	0xbdc194b0	-0.09452188
75	0xbda8627c	-0.082219094
76	0xbd59487f	-0.053047653
77	0xbd287d08	-0.041134864
78	0x3c970805	0.018436441
79	0xbd9b0d2e	-0.07570873
80	0x3d843343	0.0645509
81	0x3d131c2f	0.03591555
82	0xbd20d7cb	-0.039268296
83	0x3d9fcdb6	0.07802908
84	0xbde72a68	-0.11287385
85	0xbd56d01e	-0.05244457
86	0xbe0906c3	-0.13381486
87	0x39bd7470	0.00036135642
88	0x3ce807b3	0.028323984
89	0x3ddae93b	0.106890164
90	0x3d44a5be	0.048009627
91	0xbd8bcd1f	-0.06826233
92	0xbd73cfd6	-0.05952438
93	0xbdaa867c	-0.08326432
94	0xbd297351	-0.04136974
95	0xbd6628d4	-0.05619128
96	0x3da2e96d	0.07954679
97	0xbdc5337d	-0.09628961
98	0x3ca042e9	0.019563155
99	0x3e19ca3c	0.15018553
100	0xbccb181e	-0.024791773
101	0xbd4b79e9	-0.04967681
102	0xbdaf41d8	-0.085574806
103	0x3ce22e79	0.02761005
104	0x3db1518a	0.086581305
105	0xbdbf52ae	-0.09341942
106	0xbdcc2d78	-0.0996961
107	0xbdbdd96c	-0.092699856
108	0x3dace906	0.08442883
109	0xbde66cb5	-0.11251203
110	0xbd88ff47	-0.06689315
111	0x3cc47af0	0.023984402
112	0xbdd15f7a	-0.10223289
113	0xbd7081fe	-0.05871772
114	0xbd2e82f0	-0.04260534
115	0xbdc1411c	-0.09436247
116	0x3d888aa7	0.06667071
117	0x3d810116	0.06299035
118	0xbc268b79	-0.010165089
119	0x3d9d44bc	0.07679126
120	0xbdc4b041	-0.0960393
121	0xbdaf3e7a	-0.08556838
122	0x3dc39840	0.09550524
123	0xbd887dda	-0.06664629
124	0x3dcc03a8	0.09961635
125	0xbb8c4eca	-0.0042818533
126	0xbd80195f	-0.06254839
127	0xbd023c8d	-0.031796027
128	0xbab940af	-0.0014133657
129	0x3e0ce24c	0.137582
130	0x3dcacd7c	0.09902474
131	0x3db30abb	0.08742281
132	0xbd133d1d	-0.035946954
133	0x3cdaffa3	0.026733225
134	0x3df5f280	0.12009144
135	0xbd133adb	-0.0359448
136	0xbccfb219	-0.025353478
137	0x3dadc0b1	0.084840186
138	0x3dda982a	0.10673554
139	0xbdc4d2ea	-0.09610541
140	0xbbfb2cec	-0.007665267
141	0x3d38b526	0.04509463
142	0xbc0ba536	-0.008523276
143	0x3c26bcb8	0.01017683
144	0xbdba5086	-0.0909739
145	0xbcb8f7d6	-0.022579115
146	0x3cfcb3e9	0.030847507
147	0xbb5d0e8e	-0.00337306
148	0x3defb053	0.11703553
149	0x3d1eceb8	0.03877136
150	0xbcf48de0	-0.029852808
151	0x3d18b3ba	0.037280776
152	0xbdd1125c	-0.1020858
153	0x3c9f6904	0.019459255
154	0x3de3b944	0.11119321
155	0x3c3a24ef	0.011361345
156	0x3d6ac261	0.05731428
157	0x3daf8589	0.08570392
158	0xbd82589e	-0.06364559
159	0xbd896779	-0.06709189
160	0xbd8aae04	-0.06771472
161	0xbd2c9860	-0.042137504
162	0x3bed1dbb	0.00723621
163	0xbc9a3a08	-0.0188265
164	0xbdad9fe7	-0.084777646
165	0x3c1709dc	0.009218659
166	0xbdb0191a	-0.08598538
167	0xbbb1f72b	-0.005431076
168	0x3d942fb3	0.072356604
169	0xbb28137e	-0.0025646384
170	0xbd44e6f9	-0.048071835
171	0x3d020d6b	0.031751078
172	0xbcdea23c	-0.027176969
173	0xbdfcc5f2	-0.123424426
174	0x3d97c5d1	0.07410777
175	0x3c9cf2b5	0.0191587
176	0x3d57909c	0.052628145
177	0xbdb984bd	-0.09058521
178	0xbd1ba68d	-0.038000632
179	0x3d3ccba9	0.046092663
180	0x3d899f52	0.06719841
181	0xbda4cb24	-0.080465585
182	0x3d7c89eb	0.061654966
183	0x3c93d658	0.018046543
184	0x3d5077eb	0.050895613
185	0x3d8ad250	0.06778395
186	0x3d865d7f	0.06560802
187	0xbdcf8a48	-0.10133797
188	0xbdb815a7	-0.08988505
189	0xbd00a638	-0.03140852
190	0x3d89a892	0.06721605
191	0x3d4012e1	0.046893004
192	0x3c9ec837	0.01938258
193	0x3df9ddf0	0.12200534
194	0x3d12a812	0.035804816
195	0x3a800ffb	0.0009770388
196	0x3db0ea31	0.086384185
197	0xbd3d4c4f	-0.04621535
198	0xbd876d27	-0.06612616
199	0xbb28b6ca	-0.0025743716
200	0x3e561988	0.20908177
201	0xbd87cc47	-0.0663076
202	0x3e3494f8	0.17634952
203	0x3cc63539	0.0241953
204	0xbbc18084	-0.005905213
205	0x3da38c8f	0.07985794
206	0x3e3d782e	0.18502876
207	0x3caf1052	0.021370087
208	0x3d95f332	0.073217764
209	0xbde02a93	-0.109456204
210	0xbdc18c7b	-0.09450623
211	0x3d9b0ac5	0.075704135
212	0x3d827d91	0.06371606
213	0xbd8aaa95	-0.06770817
214	0x3dcf8800	0.10133362
215	0xbda00cd1	-0.078149445
216	0x3d3fdf36	0.04684373
217	0x3e386709	0.18008055
218	0x3d67c7f5	0.05658718
219	0xbd54df6f	-0.051970895
220	0xbd714b82	-0.0589099
221	0xbd43cd5a	-0.04780326
222	0xbdc0296d	-0.09382901
223	0x3dc03209	0.093845434
224	0x3d57150d	0.05251031
225	0x3e51ce99	0.20488967
226	0x3e073f4b	0.13207738
227	0x3e5e5b0f	0.21714424
228	0x3cafc344	0.021455415
229	0x3e086292	0.13318852
230	0xbccc5f87	-0.024947895
231	0xbd9de549	-0.07709748
232	0xbd391dd7	-0.045194473
233	0x3dd65252	0.1046492
234	0xbd478e7b	-0.048719864
235	0xbe037dff	-0.12841032
236	0xbd4e89e6	-0.05042448
237	0xbbb7a9c3	-0.005604954
238	0xbd9e9461	-0.07743145
239	0x3df63aa1	0.12022901
240	0x3cf52613	0.029925382
241	0xbdbfd8b9	-0.093675084
242	0x3da2750d	0.07932482
243	0xbd4205dd	-0.047368873
244	0xbdb43221	-0.08798624
245	0xbd118517	-0.035527315
246	0x3bd029fb	0.0063526607
247	0x3d929c61	0.07158733
248	0x3dc33b51	0.09532798
249	0xbd506047	-0.050873067
250	0xbd553eb6	-0.05206176
251	0x3d8ec7ee	0.06971727
252	0xbc056b56	-0.008143267
253	0xbdacbd76	-0.08434574
254	0x3e067898	0.1313194
255	0x3c2bfa74	0.010496724

lstm.weight_ih_l1 f4 [256, 64]
0	0xbe0239ad	-0.12717314
1	0xbc1feb72	-0.009760724
2	0x3ddcb90e	0.10777484
3	0x3cf14b0f	0.029454736
4	0x3dc1399f	0.094348185
5	0xbcac0a09	-0.021000879
6	0x3d961639	0.073284574
7	0x3c825db9	0.015913831
8	0x3d11c396	0.035586916
9	0xbdbba2ad	-0.09161887
10	0xbe211833	-0.15731888
11	0xbe359099	-0.17730941
12	0xbd95206d	-0.07281575
13	0x3dabb9be	0.08385037
14	0xbe0af0af	-0.13568376
15	0x3ced9761	0.029002847
16	0xbe2028f5	-0.15640624
17	0xbccc93b0	-0.024972767
18	0x3c1568c4	0.009119216
19	0xbd93bc7a	-0.072136834
20	0xbd645b6c	-0.05575125
21	0x3a49f27e	0.00077036757
22	0xbd9d89fb	-0.07692333
23	0x3dd1a413	0.10236373
24	0x3ccf515e	0.025307354
25	0xbd8714e8	-0.065957844
26	0xbc7e3ef0	-0.015517935
27	0x3cb61c43	0.022230273
28	0x3d5fc347	0.05462959
29	0x3de8d55c	0.1136882
30	0xbae1641a	-0.001719597
31	0xbc4f6e43	-0.012660566
32	0x3d46cdba	0.04853604
33	0x3d4dee0f	0.05027586
34	0x3e313204	0.17304236
35	0x3dc0bbf3	0.094108485
36	0xbc65fcca	-0.01403732
37	0xbe230e04	-0.15923315
38	0xbbc62f14	-0.0060480926
39	0x3ba279ee	0.004958383
40	0xbd95fe0b	-0.073238455
41	0xbe00c3e6	-0.1257473
42	0xbdbb3e99	-0.09142799
43	0xbe1369b2	-0.14395788
44	0xbd5e223c	-0.054231867
45	0xbcc6111c	-0.02417808
46	0xbdafba20	-0.085804224
47	0xbc20beed	-0.009811145
48	0x3c9a7917	0.018856568
49	0xbbf92e22	-0.0076043764
50	0x3d12f094	0.035873964
51	0xbdb5719a	-0.088595584
52	0xbd2c0fbb	-0.04200719
53	0x3e0daa92	0.13834599
54	0xbd488de4	-0.048963442
55	0x3d817f56	0.063231155
56	0x3d2a18bf	0.041527506
57	0x3e013f4b	0.126218
58	0x3d895e86	0.06707482
59	0xbd32722c	-0.043565914
60	0xbd39570f	-0.04524904
61	0x3dc0b03d	0.09408615
62	0x3d657c6f	0.056026872
63	0xbb7b656c	-0.0038360013
64	0x3dee80be	0.116456494
65	0x3d34053a	0.043950297
66	0xbd6769ea	-0.056497492
67	0x3d9d4c37	0.076805525
68	0xbbbece45	-0.005822929
69	0xbd745d76	-0.059659444
70	0x3ce81380	0.02832961
71	0xbd09ea71	-0.033670846
72	0xbb894acd	-0.004189825
73	0x3ce25c40	0.027631879
74	0xbdcd37f3	-0.10020437
75	0x3cc2fc77	0.023802025
76	0xbdc1846d	-0.09449086
77	0x3dc311dd	0.095248915
78	0xbe28487f	-0.16433905
79	0xbc367e05	-0.011138444
80	0xbdfc31d0	-0.123141885
81	0xbdc92cb8	-0.098229825
82	0xbd80d054	-0.062897354
83	0x3d80da39	0.06291623
84	0xbd054ee5	-0.032545943
85	0x3d594a0d	0.053049136
86	0x3ca7c9cc	0.020481966
87	0xbda225ea	-0.07917388
88	0x3d58f294	0.052965716
89	0xbd2c504b	-0.04206876
90	0xbdaf3785	-0.085555114
91	0x3dc1ad3e	0.094568714
92	0x3df60144	0.1201196
93	0xbc3a2834	-0.011362124
94	0xbcc35362	-0.023843471
95	0xbce7c19b	-0.02829056
96	0x3cc128f3	0.023579096
97	0x3dde83b3	0.108649634
98	0x3cbdb0ab	0.02315553
99	0x3e519ebd	0.2047071
100	0x3c9bc1d7	0.019013328
101	0x3d093a41	0.03350282
102	0x3d96ed02	0.073694244
103	0xbd8e17ff	-0.06938171
104	0x3d8099eb	0.062793575
105	0xbe0bdcd5	-0.1365846
106	0xbd9b8780	-0.07594204
107	0xbdc72754	-0.09724298
108	0x3de10a14	0.109882504
109	0x3e157929	0.14597
110	0x3d858666	0.06519775
111	0x3da6eb69	0.0815037
112	0xbd09e1f7	-0.033662762
113	0xbda0f847	-0.07859855
114	0xbde835b5	-0.11338369
115	0x3dbab209	0.09115989
116	0x3c5f418c	0.013626467
117	0xbd081467	-0.033222582
118	0x3def3e18	0.11681765
119	0x3d887c8f	0.06664383
120	0xbd3880b2	-0.04504461
121	0xbb105f35	-0.0022029404
122	0x3e02b591	0.12764575
123	0xbd2e6c27	-0.04258361
124	0x3dd50ad7	0.10402458
125	0x3ddd8c5b	0.10817786
126	0xbd450c48	-0.048107415
127	0xbd8d3976	-0.068957254
128	0x3d959ac1	0.073049076
129	0xbe4d27fd	-0.20034786
130	0xbdafa271	-0.08575905
131	0x3d5f60b8	0.054535598
132	0xbdbe1882	-0.09282018
133	0x3e10e81a	0.1415104
134	0x3d7d7eb8	0.061888427
135	0x3dbeb1fc	0.093112916
136	0x3dba517e	0.09097575
137	0xbdad7903	-0.08470347
138	0xbe13ddb0	-0.14440036
139	0xbde302e7	-0.11084538
140	0x3d09ff77	0.033690896
141	0x3b2e5d75	0.0026605998
142	0x3c6b5379	0.014363163
143	0x3d6427b4	0.055701926
144	0xbcfda64c	-0.030963086
145	0x3e0b016b	0.1357476
146	0xbd8c714d	-0.06857548
147	0x3ca9e0ca	0.02073707
148	0x3d3ece7d	0.04658364
149	0xbdcffff2	-0.101562396
150	0x3d2c9cf9	0.04214189
151	0x3dfcf258	0.12350911
152	0x3d5514fc	0.052021965
153	0xbe23e209	-0.16004194
154	0x3c6c2b0a	0.014414558
155	0xbd4c0392	-0.049808092
156	0x3d7f9bca	0.06240443
157	0x3d3d03ce	0.046146207
158	0xbe166f9a	-0.1469101
159	0x3da93936	0.08262865
160	0xbdb70366	-0.08936195
161	0x3e448c7d	0.19194217
162	0x3d8c989e	0.06865047
163	0x3e0f9cc1	0.1402464
164	0x3dab5c73	0.08367243
165	0xbc418a0e	-0.0118127
166	0xbd019d1d	-0.031643976
167	0xbb9dec50	-0.0048194304
168	0x3df34cba	0.11879869
169	0xbdb640ec	-0.088991016
170	0x3db93c39	0.0904469
171	0xbda73dff	-0.08166122
172	0x38f82f93	0.00011834423
173	0x3d3cd885	0.046104927
174	0x3c1b5042	0.009479584
175	0x3dd75b6e	0.10515486
176	0x3d5828fd	0.052773464
177	0xbe08abbc	-0.13346761
178	0xbd82a237	-0.06378596
179	0xbd68b0f1	-0.05680937
180	0x3d8ab1ec	0.06772217
181	0x3da4397f	0.08018779
182	0x3dd0e844	0.10200551
183	0x3cc89ca7	0.02448876
184	0xbd42554e	-0.047444634
185	0x3d1f298e	0.03885799
186	0x3e02c03e	0.12768647
187	0xbdf374da	-0.11887522
188	0xbd9ee70b	-0.07758912
189	0x3dca5ea0	0.098813295
190	0x3c9b2f33	0.018943405
191	0xbd235ffd	-0.039886463
192	0xbbbb7a4b	-0.0057213656
193	0xbe002d9d	-0.125174
194	0x3daa14a8	0.08304721
195	0x3dda223f	0.10651063
196	0x3bc8fea6	0.006133872
197	0x3d80679b	0.06269761
198	0x3d6da059	0.058014248
199	0x3de99852	0.11406006
200	0x3e2900d7	0.16504227
201	0xbcb8b60c	-0.022547744
202	0x3d1ada29	0.03780571
203	0xbdd27e50	-0.102779984
204	0xbc2d2be8	-0.01056955
205	0x3e072a38	0.13199699
206	0xbcdcc545	-0.026949534
207	0x3d4af864	0.04955329
208	0xbe69c314	-0.22828323
209	0x3b06560c	0.0020498065
210	0xbda1fcf5	-0.07909576
211	0xbcf89094	-0.030342378
212	0x3bfe5c2f	0.007762454
213	0x3d66ac65	0.056316752
214	0xbdb84a9f	-0.08998608
215	0x3a204a1f	0.00061145605
216	0xbdacc9c2	-0.0843692
217	0xbdba2709	-0.090894766
218	0x3dad299a	0.084552005
219	0xbd1822d2	-0.037142582
220	0x3c9760ca	0.01847877
221	0x3d78aa23	0.06070913
222	0x3bb426fd	0.005497812
223	0x3d88048e	0.06641494
224	0xbe0601bb	-0.13086598
225	0x3c9c96d0	0.019114882
226	0xbcfba274	-0.030717112
227	0xbc303aac	-0.010756176
228	0x3c63a98b	0.013895403
229	0xbd70ad7b	-0.058759194
230	0x3ddbf678	0.107403696
231	0x3d65faa9	0.05614725
232	0x3c66e24c	0.014092039
233	0xbe083bb7	-0.1330403
234	0xbde38114	-0.11108604
235	0x3bffe14a	0.007808839
236	0x3e1b85fc	0.1518783
237	0x3e1e19c9	0.15439524
238	0xbe0661b8	-0.13123214
239	0x3d8fe098	0.0702526
240	0xbe160ec4	-0.1465407
241	0xbe094f0f	-0.13409065
242	0xbd621d4b	-0.055203717
243	0xbd9d0f22	-0.07668902
244	0xbde64169	-0.11242945
245	0x3dd7f04c	0.1054388
246	0xbd71c4a4	-0.05902542
247	0x3d3be618	0.04587373
248	0xbbc0332a	-0.005865474
249	0xbd0787b6	-0.03308841
250	0x3c0e0b47	0.008669681
251	0xbdea4a1f	-0.11439919
252	0xbcc1f738	-0.023677453
253	0x3dc38d3d	0.095484234
254	0x3d3c0dee	0.045911722
255	0x3da42fea	0.080169514

lstm.weight_hh_l1 f4 [256, 64]
0	0x3d401e2d	0.046903778
1	0x3cfe345b	0.031030824
2	0xbda056fe	-0.078290924
3	0x3d516fdc	0.051132068
4	0xbdd36964	-0.10322836
5	0xbd3f0685	-0.046637077
6	0x3c03fb01	0.008055449
7	0xbb8eee1c	-0.004361881
8	0x3b5d6742	0.003378347
9	0xbddfd5e7	-0.109294705
10	0xbd977917	-0.07396143
11	0x3bd3ed36	0.0064674867
12	0x3d913cc6	0.0709167
13	0xbd8a0d84	-0.06740859
14	0x3e03ecd5	0.12883313
15	0xbdb1464b	-0.086559854
16	0xbe120dc7	-0.14263068
17	0x3d838b31	0.06423033
18	0xbd28f991	-0.04125363
19	0x3ddd50ad	0.10806403
20	0xbda0647f	-0.07831668
21	0x3da0e555	0.078562416
22	0x3d30938c	0.04310946
23	0xbd8fbfbf	-0.070189945
24	0xbd218aca	-0.039439
25	0x3c9d5100	0.019203663
26	0xbdbd026b	-0.09228977
27	0x3d81cf8a	0.06338413
28	0x3d990856	0.07472293
29	0xbdeed7c3	-0.11662247
30	0x3bf1747d	0.007368623
31	0x3d5e1bf1	0.054225866
32	0xbd5fb841	-0.054619078
33	0x3d5bafed	0.053634573
34	0xbd5ec365	-0.05438556
35	0xbc1698b5	-0.009191682
36	0xbda2e986	-0.07954697
37	0xbb94c0bb	-0.004539577
38	0xbc9bad3a	-0.0190035
39	0x3d6a7880	0.057243824
40	0x3dbfa12c	0.09356913
41	0xbca100d4	-0.019653715
42	0x3d866992	0.06563105
43	0xbdb18626	-0.08668165
44	0xbda9196a	-0.082568005
45	0xbd98440a	-0.074348524
46	0xbe0736be	-0.13204476
47	0x3d065493	0.0327955
48	0x3dd5c527	0.104379945
49	0xbe0636e6	-0.1310688
50	0x3c596f95	0.013271232
51	0x3d7fe8a5	0.062477726
52	0x3dd49f6a	0.10381968
53	0xbce3230c	-0.027726673
54	0xbd7770d3	-0.060410332
55	0x3dbcb38e	0.09213935
56	0xbc2425a1	-0.010018737
57	0xbddec73d	-0.108778454
58	0x3d938e02	0.0720482
59	0xbd2f550f	-0.042805728
60	0xbd873fc4	-0.06603959
61	0x3df0a04a	0.11749323
62	0x3d7e834d	0.062136937
63	0x3a83f2f4	0.0010066913
64	0x3d915f17	0.07098215
65	0x3d5e4196	0.054261766
66	0xbdc8b0d3	-0.097993515
67	0xbd27a2b4	-0.04092665
68	0x3ddbcfda	0.10733004
69	0xbd68ef13	-0.056868624
70	0xbba4d07a	-0.005029735
71	0x3d36d582	0.04463721
72	0xbccf3361	-0.025293054
73	0xbd4f5b1f	-0.05062401
74	0xbd838f79	-0.064238496
75	0x3dd5b0d2	0.104341164
76	0x3cce7a43	0.025204783
77	0x3db6258e	0.08893882
78	0x3dc9133b	0.09818121
79	0xba52956b	-0.0008033129
80	0x3dbbe155	0.09173838
81	0x3df76e0a	0.12081535
82	0x3d42b080	0.047531605
83	0x3de3fdc1	0.11132384
84	0xbddd620b	-0.10809716
85	0xbdcd04c7	-0.10010677
86	0x3cc7f8c5	0.024410615
87	0x3d97e484	0.07416633
88	0xbd5536a6	-0.05205407
89	0x3da02595	0.07819668
90	0xbcbd5923	-0.023113793
91	0x3d9ec26a	0.07751925
92	0x3bb87437	0.0056290883
93	0xbd05662c	-0.03256814
94	0x3ce93b06	0.028470527
95	0x3d3ac5c4	0.04559876
96	0x3ca399bf	0.019970773
97	0x3ce60e48	0.028082982
98	0x3e24f756	0.16109976
99	0xbd915c4f	-0.070976846
100	0xbdf706c8	-0.1206184
101	0x3c08e18b	0.008354555
102	0xbda184ee	-0.078866825
103	0xbdbe02d4	-0.09277883
104	0xbd8ddef6	-0.06927292
105	0x3dbbb5ea	0.09165557
106	0xbdbbd528	-0.09171516
107	0x3dda870b	0.10670289
108	0xbb7ab6ae	-0.0038255858
109	0x3d1acc44	0.03779246
110	0x3c13722f	0.008999391
111	0x3df02adf	0.11726927
112	0x3debc607	0.1151238
113	0xbd8ef134	-0.069795996
114	0xbd7ebd0f	-0.06219202
115	0x3dec0df9	0.115261026
116	0x3e2801a3	0.16406874
117	0xbe056261	-0.1302581
118	0x3d8df2b6	0.06931059
119	0xbd167bfb	-0.03673933
120	0x3c9b6331	0.018968197
121	0xb981e34b	-0.00024774144
122	0xbdef8e99	-0.1169712
123	0x3d9ba371	0.07599533
124	0x3bbe126e	0.005800537
125	0xbc9702a5	-0.018433878
126	0xbda191cc	-0.07889137
127	0x3d95f839	0.07322735
128	0xbddc3c4b	-0.107536875
129	0xbd8f1d0f	-0.06987964
130	0x3d7e276b	0.06204931
131	0xbda4284d	-0.08015499
132	0xbdcd8a01	-0.10036088
133	0x3da47b95	0.08031384
134	0x3cf3541b	0.02970319
135	0xbd8e73d2	-0.06955685
136	0xbd8a3123	-0.06747653
137	0x3c5ce179	0.013481491
138	0x3dda1f09	0.10650451
139	0xbbe5ed95	-0.0070168474
140	0x3db1fe85	0.08691124
141	0x3d21f413	0.039539408
142	0xbc9ea43c	-0.019365422
143	0xbd75aee6	-0.05998125
144	0xbd550c95	-0.052013952
145	0xbd5b64e5	-0.053563017
146	0x3d9e2033	0.07720985
147	0xbd72da0f	-0.059289988
148	0xbcedd111	-0.029030355
149	0x3d2b3fae	0.041808777
150	0xbc7dc43e	-0.015488682
151	0x3c9b2523	0.018938607
152	0xbd1a5318	-0.0376769
153	0xbd4d7bca	-0.050166883
154	0xbdf08a5b	-0.11745139
155	0xbca01d6d	-0.019545281
156	0xbc113509	-0.008862742
157	0x3d82a275	0.063786425
158	0x3d9d9283	0.076939605
159	0x3db3fe8b	0.087887846
160	0xbc93fc22	-0.018064562
161	0xbdd7e8a9	-0.10542423
162	0x3ca2dc72	0.019880507
163	0xbd863e6f	-0.06554877
164	0xbd78a62c	-0.06070535
165	0xbe01e926	-0.12686595
166	0xbd10ebf6	-0.03538128
167	0x3dafa22a	0.08575852
168	0x3da01040	0.078155994
169	0x3d8a4507	0.06751447
170	0x3dd85a82	0.10564138
171	0xbbafd1c0	-0.0053655803
172	0xbd9e01ec	-0.0771521
173	0x3dcd0052	0.10009827
174	0x3d8cf894	0.0688335
175	0xbd18a6fc	-0.037268624
176	0xbdd91873	-0.106003664
177	0xbd420b5b	-0.04737411
178	0x3bd7d2d0	0.00658641
179	0xbd281f6c	-0.04104559
180	0xbd14e4b9	-0.03635094
181	0x3cce125b	0.025155237
182	0x3d5c1a85	0.05373623
183	0xbc6ef20f	-0.014584078
184	0x3a9ac155	0.0011806885
185	0xbcc8314f	-0.024437575
186	0x3dd7aafb	0.10530659
187	0x3d6479d3	0.055780243
188	0x3c95705f	0.01824206
189	0xbd3f8ebd	-0.046766985
190	0x3ddb9e7a	0.107235864
191	0x3dd28d8b	0.102809034
192	0xbe008d5e	-0.12553927
193	0x3d2323fb	0.039829236
194	0x3dcd6d77	0.100306444
195	0xbc4f1100	-0.01263833
196	0xbd59afd2	-0.05314619
197	0xbd2fa7a3	-0.04288448
198	0x3d96c01a	0.07360859
199	0xbccbf6e5	-0.024898002
200	0xbe04cd91	-0.12969042
201	0xbca482c5	-0.020081887
202	0xbddf8d3e	-0.10915612
203	0x3da0ef68	0.07858163
204	0xbdb3ebc2	-0.087852016
205	0xbddfc488	-0.10926157
206	0x3dc76b86	0.09737305
207	0x3d4effa2	0.05053676
208	0x3d50cf18	0.05097875
209	0x3dd0fe90	0.10204804
210	0xbcc9859e	-0.024599846
211	0xbdb9165c	-0.09037468
212	0xbd9a9742	-0.075483814
213	0xbd9f2597	-0.077708416
214	0x3d593fea	0.05303947
215	0x3c55f814	0.013059635
216	0x3d4a7ccc	0.04943542
217	0xbce82481	-0.028337719
218	0xbdfcba61	-0.123402365
219	0xbd380224	-0.044923916
220	0xbd37710b	-0.04478554
221	0xbd1174c5	-0.03551175
222	0x3ca04d8d	0.01956823
223	0xbd064965	-0.03278484
224	0x3d9f2ed3	0.07772603
225	0xbc6b1ff8	-0.014350884
226	0x3d467b61	0.048457507
227	0x3dd602c5	0.10449747
228	0x3d13bb4d	0.036067296
229	0xbd4186ee	-0.04724782
230	0xbcb4d630	-0.022074789
231	0xbda32e02	-0.0796776
232	0x3d597bc6	0.053096555
233	0xbc3763d8	-0.011193238
234	0xbc86abda	-0.016439367
235	0xbd36d342	-0.044635065
236	0x3d818ea4	0.06326035
237	0xbce177d1	-0.027522953
238	0x3d910da8	0.07082683
239	0x3c56837b	0.013092871
240	0xbdcd337c	-0.100195855
241	0xbdbb64c0	-0.09150076
242	0xbcecd16c	-0.028908454
243	0xbd6b5638	-0.05745527
244	0x3dcc48b0	0.099748015
245	0x3c7c2d98	0.01539173
246	0xbb0692b8	-0.0020534229
247	0xbd74781c	-0.059684858
248	0xbbd0200f	-0.006351478
249	0xbdea3a15	-0.114368595
250	0xbda06c0d	-0.07833109
251	0xbc2b2f63	-0.01044831
252	0xbdc65e58	-0.096859634
253	0xbdf1bb1b	-0.11803266
254	0x3da49e4b	0.080380045
255	0xbdca4f63	-0.09878423

lstm.bias_ih_l1 f4 [256]
0	0xbd16489a	-0.036690332
1	0xbd14355f	-0.03618371
2	0x3cb00aa8	0.021489456
3	0x3dee2a40	0.11629152
4	0x3da24a6b	0.0792435
5	0x3d7e4e4e	0.062086396
6	0x3dca6e58	0.09884328
7	0x3dbc23d7	0.091865234
8	0x3c6aff1d	0.01434305
9	0xbd529c73	-0.051418733
10	0xbd75bd62	-0.059995063
11	0xbb423519	-0.00296337
12	0x3da4b8d1	0.080430634
13	0x3ca92d35	0.02065144
14	0x3d3eb50a	0.04655937
15	0xbd97cc93	-0.07412066
16	0xbd1a0e25	-0.037611146
17	0x3c24cc94	0.010058541
18	0x3ca96065	0.020675847
19	0xbddbfd02	-0.10741617
20	0x3e45db26	0.1932188
21	0x3b5888b0	0.0033040456
22	0x3dcc6c0c	0.09981546
23	0x3e17c950	0.14822888
24	0x3c6b80d2	0.014373975
25	0x3d855a6c	0.06511387
26	0xbc1011fd	-0.008793351
27	0xbbd8f6c9	-0.006621216
28	0x3decfe45	0.115719356
29	0x3db96a6c	0.090535015
30	0x3d3251e5	0.043535132
31	0x3e113524	0.14180428
32	0x3dc3fa40	0.09569216
33	0xbd5c3501	-0.053761486
34	0xbb6624ca	-0.0035117143
35	0xbc402399	-0.011727237
36	0xbd6a2c55	-0.057171185
37	0x3df79f63	0.120909475
38	0x3d620001	0.055175785
39	0x3db0182e	0.08598362
40	0xbc6709cd	-0.014101458
41	0x3df422f7	0.119207315
42	0xbd059ed9	-0.032622192
43	0x3dca9525	0.09891728
44	0xbc8c08b9	-0.017094003
45	0x3dfb2df4	0.12264624
46	0x3da70f6e	0.0815724
47	0xbc134746	-0.008989161
48	0x3dc21319	0.09476299
49	0xbd49f56e	-0.049306326
50	0xbcc592d3	-0.024117863
51	0xbb180892	-0.0023198468
52	0xbd86d762	-0.0658405
53	0x3ccf86ec	0.02533289
54	0x3d9be1ca	0.07611425
55	0xbd529188	-0.05140832
56	0x3dab9106	0.083772704
57	0xbd5524f8	-0.05203721
58	0x3cabc8b3	0.020969724
59	0x3b160dec	0.0022896482
60	0xbcbf0dac	-0.023321949
61	0x3ddd16c4	0.10795358
62	0xbc8dbb1e	-0.017301138
63	0xbc94f0cc	-0.018181227
64	0x3e092548	0.13393128
65	0xbd5fdc61	-0.05465353
66	0xbdbab80c	-0.091171354
67	0x3ddd8045	0.10815481
68	0xbdf1e060	-0.11810374
69	0xbdb5c916	-0.08876245
70	0x3da5e28d	0.08099852
71	0xbbd055f3	-0.006357902
72	0x3cb60d5c	0.022223167
73	0xbda68fca	-0.08132894
74	0xbd853570	-0.06504333
75	0xbe15fe20	-0.14647722
76	0x3e00e0f3	0.12585811
77	0x3df1bd42	0.11803676
78	0x3c8f54a1	0.017496409
79	0xbdca5f3d	-0.098814465
80	0xbdbcf919	-0.09227199
81	0x3d31dee2	0.04342545
82	0xbd85f9c0	-0.06541777
83	0x3c888892	0.016666684
84	0xbd66a91c	-0.05631362
85	0xbcc687d3	-0.024234688
86	0xbd224cef	-0.03962415
87	0x3d769a06	0.060205482
88	0x3dcd3649	0.1002012
89	0x3d8dead0	0.069295526
90	0x3d619918	0.055077642
91	0xbd9c3d07	-0.076288275
92	0x3d1225f5	0.03568073
93	0x3d869f72	0.065733805
94	0x3aa4e1ee	0.0012579539
95	0x3d7e4b21	0.062083367
96	0x3d01208a	0.031525172
97	0xbda314e2	-0.079629675
98	0xbd3b90e7	-0.045792487
99	0xbd185093	-0.037186217
100	0x3dce57c2	0.10075332
101	0xbdd80927	-0.10548621
102	0xbdbe4a72	-0.09291543
103	0x3cc1c4b7	0.023653371
104	0x3c19d357	0.009388766
105	0xbdb8182a	-0.08988984
106	0x3d5a9ccc	0.05337219
107	0xbdc90c73	-0.098168276
108	0xbd2161ea	-0.03940002
109	0x3d8422c8	0.064519465
110	0xbdc4fbe3	-0.09618356
111	0xbdeeb9b0	-0.11656511
112	0x3ddf4ecb	0.109037004
113	0xbbb87de5	-0.005630242
114	0x3ce958c1	0.028484704
115	0xbb3273df	-0.002722971
116	0xbcb6ade1	-0.022299709
117	0xbdfd943c	-0.12381789
118	0xbdb3faba	-0.08788057
119	0x3c57cd68	0.013171531
120	0xbdccdba8	-0.100028336
121	0xbc679966	-0.014135694
122	0x3a8d67e1	0.0010788405
123	0xbddcaa46	-0.107746646
124	0x3dc183d3	0.094489716
125	0xbe02749d	-0.12739797
126	0x3d6f64cb	0.058445733
127	0x3d5158fa	0.051110245
128	0xbd4dc88d	-0.05024009
129	0xbda0a506	-0.07843976
130	0x3dd599f2	0.10429753
131	0x3d07e4f4	0.03317733
132	0x3b5903f6	0.0033113933
133	0xbbda1075	-0.006654794
134	0x3dc353ba	0.09537454
135	0xbcc49556	-0.02399699
136	0xbdcfdcbb	-0.10149523
137	0xbdaa40c1	-0.08313132
138	0x3d71af01	0.059004787
139	0x3cdc80e4	0.026916929
140	0x3d955de4	0.07293299
141	0x3db73f30	0.08947599
142	0x3d7125f3	0.05887408
143	0x3dbdd952	0.09269966
144	0xbcdf91da	-0.027291227
145	0x3df21069	0.11819536
146	0x3e09b680	0.13448524
147	0x3e066b3e	0.13126847
148	0x3df4e5d0	0.11957896
149	0x3d5e2e66	0.054243468
150	0x3e0183e0	0.12647963
151	0x3dc7bf33	0.09753265
152	0xbd2203d4	-0.039554432
153	0x3b80db69	0.0039324057
154	0x3c0829fb	0.00831079
155	0x3d88222a	0.06647141
156	0x3d85ea64	0.06538847
157	0xbc74ebb6	-0.014948776
158	0xbdf390aa	-0.11892827
159	0xbd88f51c	-0.06687376
160	0xbd9072f2	-0.07053174
161	0xbd5c061a	-0.053716756
162	0x3d3dffe6	0.046386622
163	0xb9ab68b2	-0.00032693666
164	0xbc9593aa	-0.018258888
165	0xbd1de3c7	-0.038547304
166	0x3d64cd36	0.055859767
167	0x3da562d3	0.0807549
168	0x3d5cdd3c	0.053921923
169	0x3ce545be	0.027987357
170	0xbd5124f1	-0.05106062
171	0x3d87ab89	0.066245146
172	0xbdf4b253	-0.11948075
173	0xbdcaa0c0	-0.09893942
174	0xbca0cd90	-0.01962927
175	0xbc87d6fb	-0.016582003
176	0x3dcddc43	0.10051777
177	0xbdbce44a	-0.0922323
178	0xbd8280e7	-0.063722424
179	0xbde20b51	-0.11037315
180	0x3e02900a	0.12750259
181	0xbd0237ee	-0.03179162
182	0x3ae5cb60	0.0017531924
183	0xbdaf5208	-0.08560568
184	0xbdb827b9	-0.089919515
185	0x3dbc0252	0.0918013
186	0x3dd05484	0.1017237
187	0x3cf35fe5	0.029708812
188	0xbdc32c91	-0.09529985
189	0xbd6c932f	-0.057757553
190	0xbd1c5466	-0.038166426
191	0xbdd49141	-0.103792675
192	0x3e01b6ad	0.12667342
193	0xbb00a7a4	-0.0019631172
194	0x3e0c249c	0.1368584
195	0x3d46eeac	0.04856746
196	0x3cdcb525	0.026941845
197	0x3dc3cb58	0.09560269
198	0x3cb8387b	0.02248787
199	0xbda1c65c	-0.07899162
200	0x3db8d519	0.0902502
201	0x3c90af97	0.017661853
202	0x3ce7a58d	0.028277183
203	0x3d9f1318	0.07767314
204	0x3d53910d	0.051652003
205	0xbdbb1ee9	-0.09136755
206	0x3df242ae	0.118291244
207	0x3ddbf6d0	0.10740435
208	0xbd941867	-0.07231217
209	0xbd767799	-0.06017265
210	0x3c7cf2ad	0.015438718
211	0xbdacfdb6	-0.08446829
212	0x3d3cdfa0	0.046111703
213	0x3db0c0f4	0.08630553
214	0x3dd5eadd	0.10445187
215	0x3d9f7015	0.0778505
216	0x3dfd9f98	0.12383956
217	0xbcb78f0e	-0.022407081
218	0x3d17b416	0.037036978
219	0x3d3d4637	0.04620954
220	0x3c633f9f	0.013870149
221	0xbd83f01f	-0.06442284
222	0x3ded6fc7	0.115935855
223	0x3d68a41d	0.056797136
224	0xbd3306ad	-0.04370754
225	0x3c9aed9a	0.018912125
226	0xbdac6ccf	-0.08419191
227	0x3e0d22ff	0.13782881
228	0xbc78c2cb	-0.015183161
229	0xbc9a98c9	-0.018871682
230	0x3da8dc78	0.08245176
231	0x3b9b267d	0.004734813
232	0x3ced4d3d	0.028967494
233	0x3ddc1bf7	0.10747521
234	0xbcc4f286	-0.024041425
235	0x3c0f4c00	0.008746147
236	0xbcabe06e	-0.02098104
237	0xbc6ccd33	-0.01445322
238	0x3e08b035	0.13348468
239	0x3d074a38	0.033029765
240	0x3d0e7c81	0.034786705
241	0xbdda329c	-0.10654184
242	0x3baf3c68	0.005347777
243	0x3dbbddf8	0.091731966
244	0xbda95862	-0.08268811
245	0xbb9c5aeb	-0.0047715805
246	0x3d193918	0.037407964
247	0xbcf01a56	-0.029309433
248	0xbc6a32e6	-0.014294362
249	0xbd93a2d9	-0.07208795
250	0xbd85e945	-0.06538633
251	0x3d265aa1	0.040613774
252	0x3def63d1	0.1168896
253	0xbdd18f6f	-0.10232436
254	0x3e07ecf6	0.13273987
255	0x3ddeaee1	0.10873199
