crypto_models/EURUSD=X_lstm.pth (torch, 206117 bytes, 9 tensors)

lstm.weight_ih_l0 f4 [256, 1]
000000 89 8e b8 3d f5 81 7c bd 06 a9 04 bd 5b 47 65 3e
       0.090115614 -0.061647374 -0.032387756 0.22390501
000010 31 f9 bb 3d 67 db a8 3b 96 c4 21 bd 5d 30 74 3d
       0.09178389 0.005153108 -0.03949412 0.059616435
000020 5e 83 d8 3c 7e f1 10 bd c4 1c f2 3c b5 09 0a 3e
       0.026429828 -0.035386555 0.029554732 0.13480265
000030 5e 32 11 3d 56 54 25 3e 03 d1 b0 bd f9 c8 ec 3d
       0.035448425 0.16145453 -0.08633616 0.1156177
000040 25 74 df bd 2c 65 e2 bc 65 5e 24 3e 8e cb f3 3d
       -0.10910825 -0.027636133 0.16051634 0.11904059
000050 a8 64 51 3c fc 94 52 3d 42 f7 11 3e 4f c2 0e 3e
       0.012780346 0.051411614 0.14254478 0.1394131
000060 3d 19 e7 3d 14 8c 99 bd 8e 21 b7 3d 2e eb c3 bd
       0.11284111 -0.07497421 0.08941947 -0.09566341
000070 d1 2a 47 3e e8 87 02 3e 22 03 b9 bc 6a d2 60 3e
       0.19449927 0.12747157 -0.022584502 0.21955267
000080 10 f6 fc 3c 98 ca 50 3e 9e 56 d9 3d 3b 5f a9 bd
       0.03087905 0.20389783 0.10612224 -0.08270117
000090 b5 63 1a 3e a8 0c 5d 3b 3a ed 09 3e de 09 43 3e
       0.15077098 0.0033729468 0.13469401 0.19046733
0000a0 69 c0 53 3d ac 2c d0 3d de b2 79 3d 5b fc de 3d
       0.05169717 0.101647705 0.060961597 0.10887977
0000b0 60 fb 0e 3e 5a 96 24 3d b3 05 59 3d f2 d2 2f 3e
       0.1396308 0.04018245 0.05298395 0.17170313
0000c0 ca 1d 1b 3c c7 93 50 be 80 7b 8c bd b2 0a 94 3d
       0.0094675515 -0.20368873 -0.06859493 0.072286025
0000d0 c9 1b 00 3e 15 95 d6 3d a8 2c 01 3d 7a 23 8a bc
       0.12510599 0.10477654 0.03153673 -0.01686262
0000e0 de bc 5e bb bf e7 d0 bd 27 e7 c0 bb ca 22 24 bd
       -0.0033987085 -0.10200452 -0.0058869305 -0.04007224
0000f0 49 fe 08 3d 86 68 0e 3e aa 83 2d bd 33 da 02 3c
       0.03344563 0.1390706 -0.042361893 0.007986593
000100 d1 c3 d1 3d 19 2d e3 3d 73 5b 9c bd fe 3b 5f 3e
       0.10242427 0.11092586 -0.0763463 0.21800229
000110 33 e8 b1 3d 09 16 a0 bc b2 04 f2 bd 60 66 b7 3d
       0.086868666 -0.019541757 -0.11817302 0.08955073
000120 f7 bc c4 3d 5b 11 e2 3d 6f 86 a8 3d 62 0a 8b bd
       0.09606355 0.110384665 0.08228766 -0.0678909
000130 75 fb e4 3c b0 e6 e2 3d e2 af bc bd bc 4c d8 3d
       0.027951935 0.110791564 -0.092132345 0.10561511
000140 04 f2 f4 3d 1d 6d 42 be 5a fa 8d bd 5c dc 31 bd
       0.11960223 -0.18986936 -0.069325164 -0.04342304
000150 41 c2 ec bd a3 09 b3 be d3 cb ee 3d 67 98 d4 3d
       -0.115604885 -0.3496829 0.1165997 0.10380631
000160 b6 b2 aa 3d 04 0c d0 bb 38 02 73 3e de 42 94 bd
       0.08334868 -0.0063490886 0.23731315 -0.072393164
000170 ff a1 2d 3e c7 f9 44 3d ed 48 9a 3d eb 32 33 3e
       0.16956328 0.04808977 0.07533441 0.17499892
000180 8c 46 08 3e 77 2a 16 3d c0 7f 7b 3c 01 ec bf bd
       0.13308161 0.03666159 0.015350282 -0.09371186
000190 02 1e 50 3e 85 3a e2 bd 0c f8 ea 3b 8d 6f 32 be
       0.20323947 -0.11046318 0.007170683 -0.17425366
0001a0 f3 f7 02 bb 2e ff 53 bb 65 08 09 3e ef 40 59 bd
       -0.0019984215 -0.0032348144 0.13382109 -0.05304044
0001b0 5f 8c 3f be aa ff bf bc b1 f7 aa 3c e5 09 9a 3d
       -0.18705891 -0.02343734 0.020870062 0.075214185
0001c0 1e bb bd bc da fb d9 bd 65 7a eb bd 3c eb 93 3d
       -0.023160513 -0.1064374 -0.11497954 0.07222602
0001d0 28 a4 5d 3d f2 ea 20 3e 17 a8 64 3a f2 2e 7f bd
       0.05411163 0.15714625 0.0008722557 -0.06230063
0001e0 6f 5d 76 3d 4b a9 f7 3c 8d ec 3e bd 1a 6c 7a 3b
       0.0601477 0.030232092 -0.04661231 0.0038211406
0001f0 b4 64 68 bd d2 55 31 3e c0 34 2c bd 76 1d 84 3d
       -0.056736663 0.17317894 -0.042042494 0.06450932
000200 91 67 e5 3c 2d e5 b8 bd e7 a6 37 be 5c a6 69 3e
       0.028003486 -0.09028087 -0.17934762 0.22817367
000210 1d 6a 11 3d 92 ea 5c bd 5e 9b 56 3e d6 9d 07 bd
       0.035501588 -0.05393464 0.20957705 -0.03310951
000220 d8 76 4a be 9c be 01 bd 57 6d 4d be 2d 76 1c bc
       -0.19771898 -0.03167592 -0.20061241 -0.00954966
000230 81 7a a7 bd 71 52 59 be 9d e0 b1 bd 15 9f 36 3e
       -0.08177663 -0.21222855 -0.0868542 0.17834122
000240 46 ac 15 3d bc be 1c 3e 4d 4a df 3d 2e 67 fb bc
       0.036541246 0.15307134 0.109028436 -0.030688848
000250 07 4f d8 3d fb 3b 62 3e 3d 6f c0 3d eb 00 2a 3e
       0.10561948 0.22093193 0.09396217 0.16601913
000260 68 b9 41 3e cc 01 8a bd 59 fe 13 be ea f0 08 be
       0.18918383 -0.06738624 -0.14452495 -0.13373151
000270 e0 73 33 be c3 ec 63 be 08 d4 8d 3d c0 05 4a be
       -0.17524672 -0.22258286 0.069252074 -0.19728756
000280 c3 2e ec bd b3 26 7a 3e e4 90 02 be 19 0d 71 bd
       -0.115323566 0.24428825 -0.12750584 -0.05885038
000290 51 e0 6d be 80 b6 3f 3e bc 73 4e be 6b f8 79 be
       -0.23230101 0.18721962 -0.20161337 -0.2441117
0002a0 96 5e 0f be 7b 63 ee 3c e7 19 66 3a ef bf 11 3e
       -0.14000925 0.02910017 0.00087776635 0.14233373
0002b0 ef 61 58 3e 2e 14 0b 3e 00 9f 35 be 2e df 6d be
       0.21131109 0.13581917 -0.17736435 -0.23229668
0002c0 7f cf 42 3d 29 c6 03 3e 01 3c 4d 3e f3 e2 36 bd
       0.047561165 0.12868561 0.20042421 -0.04465003
0002d0 3f c0 45 3e af ff 55 be fc 98 00 3e d0 e1 d9 bd
       0.19311617 -0.20898317 0.12558359 -0.106387734
0002e0 8d 29 c1 3d 16 e0 dc bd f5 d5 65 bd f7 8e ab bc
       0.09431753 -0.107849285 -0.05611225 -0.020942194
0002f0 e3 dd aa 3d 98 73 4c 3e a9 ca b1 3d 78 3b 62 bd
       0.08343103 0.1996597 0.086812325 -0.055232495
000300 81 7a 2e bd 15 7b 7d 3d f5 1d c5 3c f3 2d 8b 3e
       -0.042597298 0.06188496 0.024062136 0.27183494
000310 8c e3 59 bd c1 06 c3 3c 12 dc 7f 3d f9 97 02 be
       -0.05319552 0.023806931 0.062465735 -0.12753285
000320 c8 74 be bc 27 4e a1 bd d5 fa a7 3d 8e 14 dc 3d
       -0.023249045 -0.078762345 0.08202139 0.10746108
000330 e6 76 43 bd 3c 0e 5f 3e 8d a1 3e bd b8 48 eb 3d
       -0.047720812 0.21782774 -0.046540786 0.114884794
000340 b6 d1 eb 3d de a2 8d bd ab cd 65 3d 13 46 aa bd
       0.115146086 -0.0691583 0.056104343 -0.08314147
000350 e1 cc dd bd ef 08 5b 3d 13 13 4f 3e f4 d9 16 3c
       -0.10830093 0.053475317 0.2022212 0.0092072375
000360 8b a4 24 3e 8d 94 17 bb 48 ef c8 3e 4e 0d 90 3d
       0.16078393 -0.0023129315 0.39245057 0.07033788
000370 84 4e 65 3e 8c 89 de 3d 92 ea 6c 3d 61 3f 3d 3e
       0.22393233 0.10866079 0.05784089 0.18481208
000380 e6 94 b3 3d 63 44 77 3e 30 1d 1f 3e a6 e7 d0 3b
       0.087686345 0.24147181 0.15538478 0.006375271
000390 c6 de 8e 3e fb f5 2f 3e 84 fb 03 3d 76 c1 c3 3d
       0.27904338 0.17183678 0.032222286 0.09558384
0003a0 d4 37 b4 3d e6 b6 b3 bc a1 8d 1f 3b f1 73 3c 3e
       0.08799711 -0.021937799 0.0024345892 0.18403603
0003b0 f8 b4 35 3e 03 89 b6 bc 6d db 55 3e 03 6d 17 3c
       0.17744815 -0.02228213 0.20884486 0.009242299
0003c0 4e bc 4a 3e 8f 24 8c be d4 83 07 3e 00 3c 27 3c
       0.19798395 -0.27371642 0.13233882 0.010207176
0003d0 3f 22 21 3d d4 3f 30 3e 4b dc 02 be f7 2f 26 bd
       0.0393393 0.17211848 -0.12779348 -0.040573087
0003e0 7d 6d 20 3d 38 c2 32 bd 72 38 9c bd c4 32 a5 bc
       0.039166916 -0.043642253 -0.076279536 -0.020165808
0003f0 42 fd fa bc a8 7b 01 3e 61 80 07 bd 10 44 10 3d
       -0.03063834 0.12644827 -0.033081416 0.03522116

lstm.weight_hh_l0 f4 [256, 64]
000000 e9 47 9c 3c aa 7c c3 bd 8c ef 2a be c8 9b 89 3c
       0.019077258 -0.09545262 -0.16692942 0.016797915
000010 98 12 47 bd 5d b0 01 be fc 3c fd bc a3 55 bf 3d
       -0.048601717 -0.12664934 -0.030912869 0.09342506
000020 cd 25 12 bd 65 1c 75 3c dd b9 58 3d 69 c6 0c bd
       -0.03568058 0.014960383 0.052911628 -0.034368906
000030 3d bc 04 3e 94 d5 99 3d 3c 7d e3 3c ca d0 d5 bd
       0.12962432 0.0751144 0.027769677 -0.10440214
000040 3e 25 8d bd 22 3f 8f bd da 19 81 bd 26 df ad 3b
       -0.06891869 -0.069944635 -0.06303759 0.0053061424
000050 81 1f c3 3d b3 0d ef bd 5b 5f 39 bb 11 4a db bd
       0.09527493 -0.11672535 -0.0028285596 -0.107074864
000060 c9 86 d9 bd 73 14 a8 3d 8e fd 6a bd d6 5c ce bd
       -0.10621411 0.082070254 -0.057370715 -0.10076301
000070 bf 1b c5 3d fd f1 75 bc d1 18 66 bd ef b4 a0 3c
       0.09624433 -0.015011308 -0.05617601 0.019617526
000080 cb 0b 8c bd 9a d5 c5 bc d3 a7 cb bd e3 18 25 3d
       -0.06838187 -0.024149705 -0.09944119 0.040306937
000090 57 d3 1a 3d ef 4d 01 3e ef f1 86 bc e0 4d 79 bd
       0.037799206 0.12627386 -0.016472785 -0.060865283
0000a0 ec 13 bc 3d 73 4a f7 bd 9a 84 10 3d d8 d5 d7 bd
       0.09183487 -0.12074747 0.03528271 -0.10538834
0000b0 f5 50 d6 bd 70 e5 14 bc 3c 4b 32 3d b6 f3 bc 3d
       -0.1046466 -0.009087905 0.04352878 0.09226172
0000c0 f7 51 96 bd c0 07 5d 3c 3c 62 80 3d 19 9a e0 bd
       -0.07339852 0.013490617 0.06268737 -0.10966892
0000d0 28 5b 20 bd 7d 2e 91 3c e6 61 3f bd 8b cc 97 bc
       -0.039149433 0.017722363 -0.046724223 -0.01853015
0000e0 c0 1f 52 3d 5e d8 b5 bc fd 48 2e bd 9c fd 8d bd
       0.05129981 -0.022197898 -0.042550076 -0.06933138
0000f0 ad 53 db bd f3 ad 93 3d 06 f7 a4 3d 62 52 44 3c
       -0.10709319 0.072109126 0.080549285 0.011982532
000100 84 01 11 3d 26 73 04 3c a4 c5 14 bd d9 77 ba bd
       0.035401836 0.008084094 -0.036321297 -0.091048904
000110 03 52 c7 3d 58 1d 01 3c ff 62 23 3e 9c 7e 10 bd
       0.09732439 0.007880531 0.15955733 -0.035276994
000120 e9 46 02 be 10 be db bd 58 86 21 be 25 cb 3f bd
       -0.12722363 -0.10729611 -0.15773904 -0.046824593
000130 88 a3 b4 3a 96 7a e5 bd e4 e7 b2 3d 82 b9 f8 3d
       0.0013781646 -0.11205022 0.08735636 0.12144758
000140 91 e7 44 3d ce fc 51 3e 8b 88 11 3d 7d 97 85 bc
       0.0480724 0.20506594 0.03553061 -0.016307587
000150 b6 66 de bd 49 33 b6 bd f7 82 c1 bd 5c bb 07 3d
       -0.10859434 -0.088965006 -0.09448808 0.033137664
000160 ac 3a 72 3c 43 ef 2d bc 45 25 5d bd 1b c8 a8 3d
       0.014784496 -0.0106161265 -0.05399062 0.08241292
000170 b6 43 8b 3d 8f 82 c2 bd 08 0e 9b bc 00 43 fe 3c
       0.06800024 -0.09497558 -0.018927589 0.031037807
000180 3b d7 25 bd d5 db 41 3d 3c a2 c7 bd c2 0d c4 3d
       -0.040488463 0.04732879 -0.097477406 0.095729366
000190 25 e4 d9 bc 1a 1d 1a 3e c1 63 9e 3d 1a a2 9a 3c
       -0.026598046 0.15050164 0.0773387 0.018876124
0001a0 e6 fa c3 3d 9c 02 6b bd ff fb 07 bd 2b 5c 57 3d
       0.095693395 -0.057375535 -0.033199307 0.052578133
0001b0 fa 0d 1a bd 35 dd ae bd ba 56 3a 3a 71 27 2f be
       -0.037610985 -0.08538286 0.000710826 -0.1710489
0001c0 37 e7 4e 3d bf 2e c5 bb b5 3e 54 bc b6 8a ac bd
       0.050513472 -0.0060175355 -0.012954404 -0.084248945
0001d0 af 5e bd 3d cb 15 24 bd 47 3d 4f bc 12 3f 3f bd
       0.09246575 -0.040059846 -0.012648887 -0.046691008
0001e0 d7 c9 e5 bc f7 a7 23 bd bc 9e c0 bd 0a 04 8e bd
       -0.028050346 -0.039955106 -0.09405276 -0.06934364
0001f0 f1 37 eb bc 5c a2 a1 bd a9 50 b3 3d f9 f7 e2 bd
       -0.028713198 -0.07892296 0.08755619 -0.11082453
000200 12 3e 20 3d 83 64 9e ba 38 07 02 3d 2d 33 a8 3c
       0.039121695 -0.0012084398 0.031745166 0.020532215
000210 59 4e 32 bd bc b7 20 3e 9c 49 f1 bd 62 21 c5 3d
       -0.04353175 0.15695089 -0.11781618 0.09625508
000220 a4 ca 40 be 70 f8 32 3e 02 f1 1f be e9 8e c6 3d
       -0.18827301 0.17477584 -0.15619281 0.09695227
000230 50 b4 0d be 41 76 4c bd a3 c8 97 3c ea 17 32 3e
       -0.13838315 -0.049917463 0.018528288 0.17391935
000240 95 12 19 be 5c ab 31 bd 52 08 cd bc 36 fa 59 3d
       -0.14948495 -0.04337631 -0.025028381 0.053217135
000250 c4 5e 33 be dd 6c b6 bd a0 80 18 3d c8 25 2e 3e
       -0.17516619 -0.08907483 0.03723204 0.170066
000260 2e fa 94 3c 21 69 d8 bd 22 34 01 be 72 85 1a 3d
       0.018185701 -0.10566927 -0.12617543 0.03772492
000270 ec cd e9 bd 93 70 3e bd 39 52 39 3e 8f 89 89 39
       -0.114162296 -0.046494078 0.18097772 0.00026233165
000280 95 65 c0 bc 0c 80 68 3d 17 96 3f be 50 4f c9 bd
       -0.023485938 0.05676274 -0.18709598 -0.09829581
000290 a3 2c f4 bd 3d d8 66 bd ab 64 78 bd ea 38 7c bd
       -0.11922576 -0.056358565 -0.06064288 -0.061577715
0002a0 7e 07 66 be 9c 94 ad 3d 2d 7f 91 3d a3 df 2f 3c
       -0.22463796 0.084756106 0.07104335 0.0107344715
0002b0 aa ef 01 be 78 9d 48 3e 65 d1 ce 3c 23 fc c3 bc
       -0.12689081 0.1959132 0.025246331 -0.02392394
0002c0 8b 2c 59 3e 76 e2 44 be 1b 22 82 bd 41 3d 91 3d
       0.21208398 -0.19227013 -0.06354161 0.070917614
0002d0 ea 43 0b 3e 44 6f 78 3c b1 0b 33 bc 75 91 f4 bd
       0.13600126 0.015163247 -0.01092808 -0.11941806
0002e0 af f8 ad 3d 5e 5f 1e 3e a1 f3 a5 3d d2 b9 5a bd
       0.08494698 0.15466067 0.08103109 -0.05339987
0002f0 f8 e8 0a 3e b7 92 bd bb 5b 9f cd 3d 86 58 fd bc
       0.13565433 -0.005785312 0.1004016 -0.030926
000300 5b b7 3d 3d f1 e5 aa 3c c5 62 40 3d f6 eb ed 3d
       0.04631744 0.020861598 0.046969194 0.116172716
000310 df 2b 84 3c 7a 70 ed 3d aa 2b 75 bd e6 4f 82 3d
       0.0161342 0.11593719 -0.059856094 0.06362896
000320 d0 3d da bd f5 bb fc bb d5 3d 1a be 86 5c ee 3c
       -0.10656321 -0.007712836 -0.1506265 0.029096853
000330 19 1b 14 be bd d4 25 be f4 80 06 3c 43 bd 0c bd
       -0.14463462 -0.16194434 0.008209456 -0.03436018
000340 86 75 17 3c 38 d1 49 3d c2 f0 14 3e 2c ab a9 bd
       0.009244328 0.049271792 0.14544967 -0.082846016
000350 9a d4 ec 3c ab b0 0b be 38 b1 39 3b 71 57 0e 3e
       0.02890997 -0.13641612 0.002833439 0.13900544
000360 8e 5c d0 3d 51 74 b2 bb a3 70 25 be f8 d3 2a 3d
       0.101739034 -0.005445995 -0.16156249 0.041706055
000370 5d fc 79 bd 3c c7 d8 bd b9 21 0a 3e 5d d2 86 bc
       -0.061031688 -0.10584876 0.13489427 -0.01645773
000380 e3 b2 d0 bd 81 80 a9 bc 54 63 23 3d f9 58 11 be
       -0.1019037 -0.020691158 0.03988965 -0.14194097
000390 90 b8 2c be bd b4 26 bd a8 ab a1 bd 1f 35 93 bd
       -0.1686728 -0.04069971 -0.07894069 -0.071878664
0003a0 80 85 89 3d 81 07 9b bc 2e 96 0f 3e b3 ef 9c 3d
       0.06714916 -0.018924477 0.14022133 0.076629065
0003b0 d7 f7 96 3d 01 47 ff 3d 3e f1 24 be 40 21 f9 bb
       0.073714904 0.12464715 -0.16107652 -0.0076028407
0003c0 36 1a a6 bd 36 d0 c7 3b c8 4a 0f 3e 48 58 40 bd
       -0.08110468 0.0060978187 0.1399337 -0.04695919
0003d0 59 35 85 bd 88 91 8d 3c 00 e4 d1 bd 22 ee d2 3d
       -0.06504316 0.017281309 -0.10248566 0.102993265
0003e0 61 3f c4 3d 78 b1 05 3e 0a d9 56 bc 5c 96 4a 3d
       0.09582401 0.1305598 -0.01311327 0.0494598
0003f0 f5 d6 44 bd ae cd 72 3d 2c 73 9b 3d 2c 20 d1 3c
       -0.04805656 0.059278183 0.07590327 0.025528036

lstm.bias_ih_l0 f4 [256]
000000 b5 01 85 bd 09 72 84 3d f5 72 35 3e de ef 24 3d
       -0.06494466 0.06467063 0.17719634 0.040267818
000010 88 cd 60 bd 83 82 11 be 2a 87 9d 3d 1e 4b b0 bd
       -0.05488351 -0.14209943 0.07691796 -0.086080775
000020 4a 9e 16 3d 3c 71 88 bd aa 69 21 bc 88 de e7 bd
       0.03677205 -0.06662223 -0.009851852 -0.11321741
000030 81 a9 0e 3d df af 82 bd a3 93 8c bc 0b 76 70 3d
       0.03482962 -0.06381201 -0.017160242 0.058706325
000040 ae b9 92 bb bb b0 db 3d 04 30 8d 3d e4 52 5c bd
       -0.004477701 0.10727068 0.06893924 -0.05378999
000050 ac 51 26 bd 4a 60 66 3d 4a 3a ae 3d c2 43 74 bd
       -0.040605232 0.056244172 0.085072115 -0.05963493
000060 97 da 10 3e 3a 2a 5a bd 32 c7 e2 3c 34 3e 23 ba
       0.14145885 -0.053262927 0.027682874 -0.00062272255
000070 63 91 4f bd bc 19 5e bd f9 9f e8 bd 44 48 87 3e
       -0.05067576 -0.05422376 -0.11358637 0.26422322
000080 f6 d9 32 bd b1 51 4d 3e b5 e9 a0 bd c3 d7 76 bd
       -0.043664895 0.20050694 -0.07857076 -0.06026436
000090 45 81 3b 3e 3a ec 12 3e 39 ab 06 3d 0d 52 6d 3e
       0.18311031 0.14347926 0.032878134 0.23175831
0000a0 a2 68 2c 3b cc c9 66 3d 40 dc 6b bb 33 43 ca 3d
       0.0026307483 0.056344792 -0.0035989434 0.098760985
0000b0 c1 2a 0f 3e 9e 72 97 3d 14 ad d3 3d ec 25 bb 3d
       0.13981153 0.07394908 0.103357464 0.091380924
0000c0 e0 1c af bd 9e 24 22 3e 8a eb e3 3d 9f 7f ec bd
       -0.08550429 0.15834281 0.1112891 -0.11547779
0000d0 95 ac be 3d 72 fa 87 bd f4 b9 0e 3d 51 ee 72 3d
       0.09310261 -0.066395655 0.034845307 0.059309307
0000e0 38 69 0d 3d 44 85 8d bd b8 96 98 3d af b2 df 3c
       0.034524173 -0.06910184 0.07450622 0.027306883
0000f0 31 97 40 bd 60 40 1f 3d 90 34 a1 3d 33 50 0f bd
       -0.047019187 0.038879752 0.078713536 -0.034988593
000100 35 63 0c be 96 dd 03 3d ca dd f2 3b 87 1f a6 bc
       -0.1370972 0.032193743 0.007411693 -0.020278705
000110 61 91 ad bd 53 7e 00 be 8b 64 b4 bd 5e 55 96 3d
       -0.084749945 -0.12548189 -0.088082395 0.07340501
000120 a0 43 9e 3d 4d 64 9a 3c c4 4e dc 3d 1a 1d e2 3c
       0.07727742 0.018846655 0.10757211 0.027601767
000130 1b e2 c1 bd 66 81 af 3b 51 fb fd bd 98 2d 23 3c
       -0.09466954 0.0053560017 -0.124014504 0.009959601
000140 40 6f b1 bd 16 6b 7e bd 17 9d f2 bd 59 3e cf bd
       -0.086637974 -0.062113844 -0.11846369 -0.10119314
000150 26 22 bd 3c 39 bd c8 bd 03 16 3a 3c c0 72 c3 3d
       0.023087572 -0.09801716 0.011357787 0.09543371
000160 0f 7f e5 3c 98 1c 5f bd f8 43 e7 bd 80 17 71 3d
       0.028014688 -0.05447063 -0.11292261 0.058860302
000170 ce d2 ed 3d 2e b5 c7 bd 20 b9 a5 bd 68 0b b7 bd
       0.116124734 -0.09751354 -0.080919504 -0.089377224
000180 3f 53 0b bd 47 cf e5 3b a4 2a b8 bd 91 15 f4 bd
       -0.034014937 0.007013235 -0.08992508 -0.11918176
000190 64 c6 8b bd 97 21 1e 3e 8f ca 6d bd b0 96 d9 bc
       -0.068249494 0.15442501 -0.058054503 -0.026561111
0001a0 92 f0 0c bd 6a cd c4 bd ed 2a 8b 3d 18 44 df 3c
       -0.034409113 -0.09609492 0.06795297 0.02725415
0001b0 78 fd 08 be 93 9e c4 3b d1 fa ab 3d a1 e4 a1 3d
       -0.1337794 0.006000349 0.08397449 0.07904936
0001c0 10 b2 9f bc 2b ce e2 3d 5b 15 97 3d 2d 3b e9 bd
       -0.019494087 0.1107448 0.0737712 -0.1138824
0001d0 8c 35 8c bd fd b7 72 bb 67 66 89 3d 6f 1d c5 3d
       -0.06846151 -0.0037035935 0.06708985 0.09624755
0001e0 9c a6 ee bd 21 0f 0d 3d 64 d3 17 bd bf ab 8f 3d
       -0.11652872 0.034438256 -0.037066832 0.0701518
0001f0 f1 fa f4 bd c6 cf db 3d e7 e6 42 3d 7d cf 9f bd
       -0.11961926 0.10732989 0.047583487 -0.07803247
000200 6d 5a 84 3d 90 7e b2 3d 18 b7 12 3d 5f 0d 0e 3d
       0.0646256 0.08715546 0.035819143 0.03468072
000210 cc ca 74 bd d2 b5 9d 3d f0 b7 da 3c 2c f0 ca 3d
       -0.059763715 0.07700695 0.026699036 0.099090904
000220 a8 69 be 3c 91 ca 88 3d b3 f7 9f 3d 4d 8b c7 3d
       0.02324374 0.066792615 0.07810917 0.097433664
000230 69 63 3f bd 9f f7 2a bd e4 88 26 bc bb ce 2b 3b
       -0.046725664 -0.041740056 -0.010164473 0.002621575
000240 a2 1e ef bd 60 53 00 be a2 9d 8a bc 28 0b 48 3c
       -0.116757646 -0.12531805 -0.016920868 0.012209691
000250 0d e8 c5 bd eb 8e 38 3d e6 55 25 bb d2 71 17 bd
       -0.09663401 0.045058172 -0.0025228201 -0.036973782
000260 b7 0e 9b 3d f1 be 74 bd de a7 96 bb c0 a0 d6 3d
       0.07571166 -0.05975241 -0.004597648 0.104798794
000270 2f 2e cd 3c a7 ca 66 bd ea 73 9e 3d 6c 40 bb 3d
       0.025046436 -0.056345608 0.077369526 0.09143147
000280 54 e2 3d 3c cf de e9 bc bf 51 99 3b 9e 7e 24 bd
       0.011589605 -0.028548626 0.0046789343 -0.040159814
000290 2f 34 25 3c fa 0b 32 ba 85 f0 a9 bd 6d e3 81 3d
       0.010083242 -0.0006791946 -0.082978286 0.06342206
0002a0 f1 06 95 bd 60 97 ef bc 7b 36 a3 3d 8f f9 51 3d
       -0.072767146 -0.029246986 0.07969376 0.05126339
0002b0 4b 63 17 bd fe f8 34 3d d9 0f 74 bd e6 fb c8 3d
       -0.036959928 0.04418277 -0.059585426 0.09813671
0002c0 1f 1a 1f 3d d2 65 1d 3c 41 05 62 3d 52 0f 0c 3c
       0.03884327 0.009606795 0.05518079 0.0085485745
0002d0 13 ba 01 be 2c 36 79 3c e9 6b b1 bd d4 3c 0c 3d
       -0.12668638 0.0152106695 -0.0866316 0.034237698
0002e0 fb 25 cb bc 0e 87 cf 3d 97 ab 69 3d 1c e2 06 3d
       -0.024798384 0.101331815 0.057048406 0.03293048
0002f0 8a 74 8d 3d e8 01 f4 ba 4a 0e bb 3d 62 24 6d bd
       0.06906994 -0.0018616291 0.09133585 -0.057896025
000300 9c f1 8f 3d 9d 80 7d 3c 60 c9 57 3d 67 ce 3c 3e
       0.07028505 0.015472558 0.05268228 0.18438111
000310 96 f6 d1 3d 1a 65 90 bd 6e ce 8c bc e9 7b df bd
       0.10252111 -0.070505336 -0.017188277 -0.10912306
000320 6f 29 75 3d ea 02 12 be 4d 1d 65 3c 17 91 00 bd
       0.059853967 -0.14258924 0.013984037 -0.03138837
000330 52 d7 b2 bb 34 14 bb 3d 0f 88 aa 3c 24 63 9b bd
       -0.005457797 0.09134713 0.02081683 -0.07587269
000340 c6 c9 08 be 76 7a 18 3e 47 00 be 3d 05 1c 67 3c
       -0.1335822 0.14890465 0.09277397 0.0141058015
000350 c8 0b 00 be 61 07 83 3e d3 f8 68 3d f9 53 21 bd
       -0.12504494 0.25591567 0.056877922 -0.039386723
000360 14 86 54 bb 8d 66 dd bd 5f 23 95 bc 57 f1 98 bd
       -0.003242855 -0.10810576 -0.018205343 -0.07467907
000370 57 c4 16 3c 80 d0 f7 3d 70 fc dd bd 05 8d 1f 3e
       0.0092020845 0.12100315 -0.10839164 0.15581138
000380 88 73 90 3d 8b 10 8f bc 9b 68 eb 3c 33 33 9f bd
       0.07053286 -0.017463943 0.028736403 -0.07773437
000390 97 6b 16 bb ba ec 4f 3e 6d 55 fd 3d e7 89 26 3e
       -0.0022952312 0.20305148 0.12369809 0.16263543
0003a0 95 5b b4 bd 1f fe 83 3c 13 0e eb 3d 5b f4 eb 3d
       -0.088065304 0.016112385 0.11477294 0.115212165
0003b0 80 d8 9f 3e 69 3f e5 bd fb 5f 4e bd 52 e1 04 3e
       0.31219864 -0.11193735 -0.050384503 0.12976578
0003c0 c6 bf f2 3d 05 c5 72 3d d9 03 73 3e 86 ea c9 ba
       0.11852984 0.059269924 0.23731937 -0.0015404976
0003d0 d5 73 43 3e 25 88 93 bd bf 95 60 3d 70 ba 1b 3e
       0.19087155 -0.07203702 0.05483031 0.15207839
0003e0 6d 6b e0 3c e5 90 cd bd dd e7 dd bd 80 6d 46 bc
       0.027394975 -0.10037402 -0.1083524 -0.012111068
0003f0 b9 a5 90 3d 35 04 98 3d ae c1 9e bd 73 a6 f3 bd
       0.07062859 0.074226774 -0.07751785 -0.11896982

lstm.bias_hh_l0 f4 [256]
000000 f6 5d 06 be 51 59 d0 3d a9 5e 04 3e 7d 52 e4 3d
       -0.13121781 0.10173286 0.12926735 0.11148546
000010 82 72 b3 bd 95 0a 23 bd 2a 1f 5f 3d 70 ca bd bd
       -0.08762075 -0.039805014 0.05447308 -0.092671275
000020 35 29 a8 bc e4 ab 05 be d4 f2 56 3e d8 96 ff bd
       -0.020527462 -0.13053852 0.20991069 -0.12479943
000030 43 32 96 bd 90 df 13 3e 79 45 ac bd a3 57 c4 3d
       -0.073338054 0.14440751 -0.08411688 0.09587028
000040 0e d8 d4 bd 8a 56 87 3c 1f e8 76 3d c1 e8 a2 3d
       -0.10392772 0.016520757 0.06027996 0.079545505
000050 52 4a 6e 3d ec 7e 2f 3e 20 f4 ba 3d 26 47 63 bd
       0.058176346 0.1713826 0.091285944 -0.055487774
000060 87 e5 81 bd db e2 91 3d 26 07 09 3e 01 9e 58 3d
       -0.06342607 0.07123347 0.13381633 0.05288506
000070 f5 24 6b bd 78 1e 67 bd 27 2d bf bd 5b 03 2a 3e
       -0.05740829 -0.05642554 -0.09334784 0.16602843
000080 86 b1 30 bd 87 a2 0d 3e 4b 86 fd 3d a9 64 c1 3d
       -0.04313805 0.1383153 0.1237913 0.094430275
000090 ed b9 46 3e ac 12 41 3e 75 a6 12 3e b6 2a 7c 3e
       0.19406863 0.18854779 0.14321311 0.24625668
0000a0 e4 ab 18 3e c6 37 b1 bd 3e 0d c3 bd 4b 7b 99 3d
       0.14909321 -0.08653216 -0.0952401 0.074942194
0000b0 0d 16 19 3e d6 6c 00 be 5a 97 c6 bd 48 9d 92 3d
       0.14949818 -0.12541518 -0.09696837 0.07158905
0000c0 a8 c3 f5 3d 72 96 10 3d 9f 6d 17 3e 6f 75 d7 3d
       0.12000209 0.035299726 0.14787911 0.105204456
0000d0 a1 8c 97 3d 63 b1 56 3d a6 37 84 3d 8d 57 d6 3c
       0.0739987 0.052415263 0.064559266 0.026164794
0000e0 f0 7e e8 bd f4 59 94 3c c0 29 b3 bd 51 ab 0d 3c
       -0.113523364 0.0181093 -0.087481976 0.008646802
0000f0 db 35 5d bd 40 78 de 3d ac f6 25 3c c0 de 50 bd
       -0.05400644 0.108627796 0.010129612 -0.05099368
000100 78 56 04 be 48 e8 e3 bd 2c 65 d2 3d 19 cc d6 3d
       -0.1292361 -0.111282885 0.10273203 0.10488147
000110 73 b8 c0 3d 04 94 3c bd 9d d1 02 3e 1c 31 a7 bd
       0.09410181 -0.046039596 0.12775274 -0.08163664
000120 2c 6c 46 3d 06 6f 9e bd 00 53 12 3e bb c5 f4 bb
       0.048443004 -0.0773602 0.14289474 -0.0074698604
000130 dd b1 cf bd f3 01 02 bd 97 fb e9 bd a2 6e de bd
       -0.101413466 -0.03174014 -0.1142494 -0.10860945
000140 24 47 ed bc 7c 4a 9a 3d 21 6f 64 bd 99 1b cf 3d
       -0.028964587 0.07533738 -0.055770043 0.10112686
000150 03 e7 20 bc 1d 6d 32 bc 68 6b b9 3d 45 31 6b 3c
       -0.0098207025 -0.010890272 0.09053689 0.0143550085
000160 e0 a7 c8 bd e3 cb c6 3c c0 ba ed 3c c5 30 13 be
       -0.097976446 0.024267143 0.029019713 -0.14374073
000170 ea 41 a8 bd 64 0b 84 bd 48 f3 cc 3d 9e 52 22 ba
       -0.08215697 -0.06447485 0.1000734 -0.00061921205
000180 69 c0 8b 3a ee 91 35 bd 50 52 f2 bc cd 79 9e 3d
       0.0010662201 -0.044328623 -0.029580265 0.077380754
000190 63 32 62 3d 0c 02 9e bd f6 68 02 3e 52 c0 67 3d
       0.055223834 -0.07715234 0.12735352 0.056579895
0001a0 0e e0 b1 bd d9 f5 a7 3b a7 2a aa bd 62 90 70 3d
       -0.08685313 0.005125743 -0.083089165 0.058731444
0001b0 48 0d 1b be 0a 7c 0a be b7 1e fa 3d a4 8f 13 3e
       -0.15141785 -0.1352388 0.1221289 0.14410263
0001c0 a5 a0 db bd 2c 1d 39 3d 73 e0 0d bd c6 a4 cf 3b
       -0.10724 0.045193836 -0.03463788 0.006336781
0001d0 d7 dc 39 3c 83 98 6d 3d c3 6a c6 bd f7 f9 73 3c
       0.011344156 0.058006775 -0.09688332 0.014891139
0001e0 7e 79 d0 bd ee 47 49 bc 6d 9b 57 3c ea 81 67 3d
       -0.10179423 -0.012285216 0.013159615 0.05652038
0001f0 46 09 14 bd 44 63 ad bd 63 0b ae bd d6 5b 48 3d
       -0.036141656 -0.08466199 -0.084982656 0.048915707
000200 c4 ef c4 bb fe 9a 70 bd a0 e1 b5 3b 7a 90 6e 3c
       -0.0060100276 -0.058741562 0.0055505782 0.014560813
000210 7d 80 c0 bd 43 5b 6e 3c fb 00 d8 bd 6e b3 0b 3d
       -0.09399507 0.014548126 -0.10547062 0.034106664
000220 72 f3 c8 bd 3e e0 3b 3d c9 79 93 bd af c2 6c 3c
       -0.098120585 0.04586815 -0.07200963 0.014450713
000230 41 a1 aa bc ed 40 99 3d ca b9 e7 3d 36 e5 dd bc
       -0.020828845 0.07483087 0.11314733 -0.027086835
000240 de 2c ae 3d 09 61 1e 3d e8 0f 32 3d cc 0b 32 bc
       0.085046515 0.03866676 0.0434722 -0.01086707
000250 3f 76 cc bc ec 0b c0 bd 41 f2 b2 b9 ee 9d 0f 3d
       -0.024958728 -0.09377274 -0.000341313 0.035062723
000260 8b 04 b5 bd 80 ee cf 3d 89 f6 f5 bd 4c 9c 5f 3d
       -0.08838757 0.10152912 -0.120099135 0.054592416
000270 e1 45 ad bd 9c ab a0 3d 16 b5 f5 bc 2a 53 c5 bd
       -0.08460594 0.07845232 -0.029993575 -0.09635003
000280 32 59 98 bc 01 93 5a bd a2 42 8b bc fa 5e bb bd
       -0.01859722 -0.05336285 -0.016999546 -0.09148975
000290 03 44 5f bd 5c 07 3d bd d9 24 c7 3d f4 a6 03 bd
       -0.05450822 -0.046149597 0.09723825 -0.03214164
0002a0 87 97 b6 3d d4 c6 a5 3c 59 4f a2 bc 39 ac 5a bd
       0.0891562 0.02023641 -0.019813227 -0.0533869
0002b0 dd 34 35 39 d2 36 71 3d f5 26 13 bd 41 55 3c bd
       0.00017281198 0.05889017 -0.035925824 -0.045979742
0002c0 07 bb 03 bd a2 45 8b bd 78 68 00 be 45 d4 84 bc
       -0.032160785 -0.06800391 -0.12539852 -0.0162145
0002d0 29 c3 a3 3d ef de 85 3b 01 b3 b1 bd 1f 17 ac bc
       0.07996208 0.0040854136 -0.086767204 -0.021007119
0002e0 80 24 07 3d 7d 62 af bc 9e b2 62 3c 54 5c 1d 3d
       0.032993793 -0.021409268 0.013836531 0.03841813
0002f0 f5 43 43 3d 56 3d 90 bc 4f 76 2a bd 82 37 32 bd
       0.04767223 -0.017607372 -0.041616734 -0.043509968
000300 2e 16 f2 bd 80 9b 4b bd af 7d af 3d 48 36 d0 bc
       -0.11820637 -0.049708843 0.08568894 -0.025416508
000310 83 69 21 3c 9a 31 2e 3a 0c 01 fc 3c 7a c5 d3 bc
       0.009851816 0.00066449645 0.030762218 -0.025851
000320 41 88 b4 bd f5 38 33 3d 28 f9 10 3d f9 5b 38 bd
       -0.08815051 0.04375549 0.035393864 -0.045009587
000330 21 2a bf 3d 2f ad 84 3d 6b 92 02 3d 68 25 37 3d
       0.09334207 0.06478345 0.031877916 0.044713408
000340 89 a5 b8 bc da f1 2c 3e 99 74 65 3c 6b 42 03 3d
       -0.02253987 0.16889134 0.01400485 0.032045763
000350 a6 6b f9 3d 97 a8 d1 3d 94 94 85 3d 40 9a 97 bd
       0.121787354 0.10237234 0.0652248 -0.07402468
000360 07 0a 67 3d 28 dc ca bd fa 93 cd 3d bb d0 30 bb
       0.056406047 -0.09905273 0.1003799 -0.0026979882
000370 3f 87 48 bd 15 34 2b 3e a9 e4 03 bd 13 45 2d 3e
       -0.048957106 0.16719086 -0.03220049 0.16920881
000380 a8 4b 34 3d 26 2b cb 3d 0d 36 6c bc 93 fc 9a bd
       0.044017464 0.09920339 -0.014417184 -0.07567706
000390 54 23 10 3e 30 b8 5f 3e 7a 3b 1f 3e 16 90 b6 3e
       0.14075977 0.21847606 0.15550032 0.35656804
0003a0 31 db 9f bd 7d f3 04 be df 4b b6 3d 83 d8 98 ba
       -0.07805479 -0.12983508 0.0890119 -0.0011661205
0003b0 8e 80 63 3e 79 fd 00 be c3 95 bd 3c 14 9d 6d 3e
       0.22217008 -0.12596692 0.023142701 0.23204452
0003c0 11 c1 50 3d 84 14 88 bd cd 2b 57 3c 79 6c c0 bd
       0.050965372 -0.06644538 0.0131330015 -0.093956895
0003d0 a6 e8 2d bd 8b bc 0d 3e 06 70 b6 bd 7a 1c 26 3e
       -0.0424582 0.13841455 -0.089080855 0.162218
0003e0 27 59 94 bd 6c fc 0b be ed c6 20 3c f2 08 88 bc
       -0.07243567 -0.1367051 0.009813053 -0.016605828
0003f0 33 b8 e2 bd 8d 00 ed 3d 3d 5d 43 bd 1d 29 73 bd
       -0.110702895 0.11572371 -0.04769634 -0.05936538

lstm.weight_ih_l1 f4 [256, 64]
000000 0a e4 9b 3d 56 1b d2 bd 48 78 a8 3d 5b 31 a3 ba
       0.076118544 -0.1025912 0.08226067 -0.0012450622
000010 04 71 72 bd 03 26 31 3c d4 83 a1 bc 7d 48 d9 3d
       -0.05918981 0.010812285 -0.01971618 0.10609529
000020 d7 34 d6 3d 93 09 d1 3d 7b d9 f1 3b 9f 06 b8 bc
       0.10459297 0.10206904 0.007380662 -0.022464095
000030 78 61 2c 3d 15 24 09 3d 11 a2 47 3d d6 ab 83 bd
       0.04208514 0.033481676 0.048738543 -0.064292595
000040 fe b7 a5 bd 23 f4 c4 bc 06 86 7b bd d1 2c 7a bd
       -0.08091734 -0.024042195 -0.06140711 -0.061077897
000050 01 21 5e bd d5 b3 05 be b9 c8 55 bd b3 53 56 3d
       -0.054230694 -0.13056882 -0.052193377 0.052325916
000060 5d bf 09 bd bd b5 33 3c 30 f9 99 bc 86 fd e5 bd
       -0.033629764 0.010968623 -0.01879558 -0.112299964
000070 bd 48 68 bd 86 6c 14 3d 16 7b b8 bd 72 22 bf 3d
       -0.056709994 0.03623631 -0.09007852 0.09332742
000080 83 ff f6 bd b4 00 97 3d 62 1f b4 bd 11 37 e9 3c
       -0.12060454 0.07373181 -0.08795048 0.02846864
000090 d3 38 ce bd 08 3d 67 bd cf a5 fc 3d e2 a4 1f 3d
       -0.10069432 -0.05645469 0.12336313 0.038975604
0000a0 03 f3 fd 3b 88 ff ef bc e7 47 ed bd f5 0a 86 3d
       0.0077499165 -0.029296651 -0.1158598 0.06545059
0000b0 6f f4 79 bd 87 0f 94 3d df 03 6c bd ce 02 e6 3d
       -0.061024126 0.07229524 -0.05762088 0.11231004
0000c0 d3 2b a2 3b 8c d9 1c be b3 f0 4a 3d 45 59 18 bd
       0.004949072 -0.15317363 0.049545955 -0.03719451
0000d0 65 a1 aa bd 61 9c 83 3d a8 7f 5d 3d 13 3c c5 bc
       -0.08331565 0.06426311 0.05407682 -0.024076497
0000e0 44 05 76 bd da 9b a2 3d 64 94 97 3d 94 06 96 bd
       -0.060063615 0.079398826 0.0740135 -0.073254734
0000f0 31 1b a5 bc d8 d7 12 3d 32 a6 03 3e 7e 81 95 3d
       -0.020154567 0.035850376 0.12856367 0.07300089
000100 33 a5 27 3d 2a d5 8f 3d 9c b6 99 bd c6 00 29 3e
       0.04092903 0.0702308 -0.07505533 0.16504201
000110 ad ab ab bd 52 ba 9c 3d 8f 79 4c bd d1 e4 15 3e
       -0.08382354 0.07652725 -0.049920615 0.14638068
000120 a9 e9 72 bd b4 7d e0 3c 92 7f 27 be cb a5 52 3d
       -0.059304867 0.02740369 -0.16357258 0.051427644
000130 38 47 89 3c b2 a1 f1 bd ff 25 e9 3c ec fd 1a 3e
       0.016757593 -0.11798419 0.0284605 0.15135926
000140 39 96 8d 3c 6e 24 1c 3e 4c 58 9d bd 9a 5e 81 bc
       0.017283546 0.15248272 -0.07682857 -0.01579218
000150 36 09 00 be 73 86 2a 3d d5 b7 e7 3d 9a 33 b5 3c
       -0.12503514 0.041632127 0.1131436 0.022119332
000160 f0 f8 4e 3d c1 23 b1 3d 07 79 8b bd 50 f9 86 bd
       0.050530374 0.08649398 -0.068101935 -0.06590521
000170 7a fe 83 bd 10 02 4d bd ef 16 bd 3d 58 28 0a bd
       -0.06445022 -0.050050795 0.0923289 -0.03372988
000180 5d 14 a4 3d 34 c1 7c 3c 37 93 06 be 7e c7 99 3b
       0.080116965 0.015426923 -0.13142096 0.004692971
000190 77 80 a1 3d 29 8d 5a 3d 15 5e c5 bd 1f be 96 bd
       0.07885831 0.053357277 -0.09637085 -0.073604815
0001a0 a1 c6 3c 3d 34 f9 a1 bd 83 05 fb 3c 6a bb 13 bd
       0.046087865 -0.0790886 0.030642277 -0.036067404
0001b0 10 ab 79 3d 92 4e 32 bc 20 15 25 3d 21 83 0e be
       0.060954154 -0.01088299 0.04030335 -0.13917209
0001c0 e3 24 74 3c 55 0e 01 3e b8 55 c2 3d 71 0a c5 3d
       0.014901373 0.12603123 0.09489006 0.09621132
0001d0 a0 21 09 3e 9c 3d 84 bd 1a 5d ba bd 5b 78 98 bd
       0.13391733 -0.064570636 -0.09099789 -0.07444831
0001e0 db e2 0b 3e ca d5 45 bc 7f 24 88 3c 3f ae 6d 3d
       0.13660757 -0.012074897 0.016618965 0.058027502
0001f0 d3 9c 3c bd 39 88 29 3e 60 01 7b bd 6f 7c 62 3d
       -0.046047997 0.16555871 -0.06128061 0.05529445
000200 65 94 b0 3d 8f db a6 3d 3f 18 55 bd 1c e8 0f 3e
       0.08622054 0.08147346 -0.052025076 0.14053386
000210 6e 34 87 3d f0 ac 28 bc eb 33 ec 3d 2c 47 0e 3e
       0.06601797 -0.010295138 0.1153334 0.13894337
000220 e1 53 e3 3b 3e 5a 5f bc 40 f6 10 3d 05 98 92 3b
       0.0069374894 -0.013632355 0.035391092 0.0044736885
000230 17 aa 3b 3d ca f8 2d 3d e8 ae ff 3c 02 fe d7 3d
       0.045816507 0.042473592 0.031211331 0.10546495
000240 66 27 b2 bd 72 e7 a7 bd f2 06 42 bd 95 ea e4 bc
       -0.08698921 -0.081984416 -0.047369905 -0.027943889
000250 0e 0b 1e ba 7e d5 89 3d 5d 64 16 3d 07 e7 02 3e
       -0.0006028869 0.067301735 0.036716808 0.12783442
000260 f3 6d 87 3d 00 9c cf 3c 39 59 46 bd 33 17 34 bd
       0.06612768 0.025342941 -0.048424933 -0.043967437
000270 1c 8b 85 bc 5a bf 10 be a6 b4 06 3e f0 0f af bc
       -0.016301684 -0.14135495 0.1315485 -0.021369904
000280 19 a0 f3 3c 69 75 dc 3d 75 9f 4f bb 1b c1 a2 bd
       0.029739426 0.10764582 -0.0031680737 -0.07946988
000290 c1 55 16 be ad 06 ce bc bb c2 e7 bd 28 fb 06 3d
       -0.1468115 -0.025149668 -0.11316439 0.032954365
0002a0 83 97 a5 bc a7 26 1d 3e 80 c3 9c bd 05 2a 83 3d
       -0.020213848 0.15346776 -0.07654476 0.06404499
0002b0 06 89 97 3c 42 6e 15 bd 8d 99 8a 3d dc 7e 8a 3c
       0.018497955 -0.036482103 0.06767569 0.016906194
0002c0 82 eb 86 bd 06 81 a5 bc 28 3b 10 3d c2 17 5d bd
       -0.06587888 -0.020203125 0.035212666 -0.053977735
0002d0 a2 79 dd 3c aa bd 6f 3c 09 22 84 3d 17 a3 ae bc
       0.027035538 0.014632622 0.06451804 -0.021318002
0002e0 b8 59 5e bc 98 39 a6 3c e3 0a 5a 3c d5 b7 6c bd
       -0.013571195 0.020291135 0.01330826 -0.057792503
0002f0 2f e6 a1 bd 81 20 20 3e c9 b4 bf 3d dd 6b 38 3c
       -0.07905232 0.156374 0.09360654 0.011256185
000300 b6 e2 00 3c df 72 0c 3d e2 e0 10 be 50 bd d1 bc
       0.007866552 0.034289237 -0.14148286 -0.025602967
000310 e1 54 d2 bc 47 97 ce bd a9 44 f0 3d e2 ec 87 bd
       -0.025675239 -0.100874476 0.11731846 -0.06636979
000320 1b fc d5 3d 14 51 5b bd 6b 6a e5 3c be 83 ee 3d
       0.10448476 -0.05354412 0.028004846 0.116462216
000330 e2 5c 6e 3b 58 3a 05 3c e2 0b be 3b bf 4e 9e bd
       0.003637128 0.008131586 0.0057997564 -0.077298634
000340 29 62 78 3d b4 c2 16 3e 82 fa 67 3d c7 d6 a3 bc
       0.060640488 0.14722711 0.056635387 -0.019999875
000350 3c 9b 6c bd a6 07 a5 3d ba 3c 74 3c 5e 23 ef 3d
       -0.05776523 0.080580994 0.0149070565 0.11676668
000360 04 12 ad 3d 5c 00 f0 3c 4f 08 0d be 4f 08 f9 bd
       0.08450702 0.029297046 -0.137727 -0.12159788
000370 6a c7 54 3c dd 45 e3 bd b4 6d 96 3d 09 bc 42 be
       0.012986997 -0.1109731 0.07345143 -0.19017042
000380 ec 78 92 3d 17 44 25 3e c8 63 a1 3d 8c 01 b0 ba
       0.0715197 0.16139255 0.0788036 -0.0013428195
000390 5d df 80 bd c6 96 45 3d 44 52 63 bb 72 47 75 3d
       -0.06292603 0.048239492 -0.0034686485 0.05988259
0003a0 b4 8b ea bc 97 2f a9 bd 40 48 b9 bd a3 26 f2 3d
       -0.028631069 -0.0826103 -0.09046984 0.118237756
0003b0 82 26 9c b9 b5 5b 86 bd 2d a1 e0 bd f8 72 0e be
       -0.0002978333 -0.065604605 -0.10968242 -0.13911045
0003c0 b0 98 a8 3d e7 64 77 3d 1a 3a 95 3d 88 24 77 bd
       0.08232248 0.060398962 0.072864726 -0.060337573
0003d0 73 c2 98 3d 69 80 fe bd d0 c3 01 3e cd 4d 62 3d
       0.07458963 -0.12426836 0.12672353 0.055249978
0003e0 87 f5 07 bd 19 ac 33 bd 24 08 08 bd bd ff f0 3d
       -0.033193137 -0.043865297 -0.03321089 0.11767528
0003f0 da b3 f4 3d a7 75 14 3e 4f a7 36 bd 11 26 d0 3d
       0.119483665 0.14498006 -0.04459315 0.101635106

lstm.weight_hh_l1 f4 [256, 64]
000000 00 54 03 3e c6 b0 c8 bd 66 f0 8b 3d 91 c7 e5 3b
       0.12825012 -0.09799342 0.06832962 0.0070123156
000010 d7 ed 69 3d 66 a3 06 be e9 cb 16 3d 64 0d b3 3d
       0.057111587 -0.13148269 0.036815558 0.087427884
000020 f5 3a af bc 1f 25 e5 bd 13 c5 9e bd 9c c7 91 bd
       -0.021390418 -0.11188721 -0.07752433 -0.071181506
000030 5c c1 81 bd bd e8 f7 bc 6f d2 9b bd 41 4d d6 bd
       -0.063357085 -0.030262345 -0.076084964 -0.10463954
000040 3b 94 92 3d 02 3d 98 bd b6 3f 8d 3c a5 5d b7 bd
       0.07157179 -0.07433511 0.017242294 -0.08953408
000050 a5 88 5d 3d 62 e5 5a 3d f6 a6 32 bd 40 96 cb 3d
       0.054085393 0.053441413 -0.043616258 0.09940767
000060 75 f7 ee 3d 1c 4a e5 3d c1 41 0b 3d 4e 55 51 3c
       0.116682924 0.11195776 0.033998255 0.012776686
000070 e9 8a 16 bc b2 8d 8a 3d f0 e3 bb 3c c3 2d d6 bd
       -0.009188392 0.067653075 0.022935838 -0.10457947
000080 c7 48 aa bd 1a 3a 0b 3e e3 03 8c bd 73 07 f6 bb
       -0.083146624 0.13596383 -0.06836679 -0.0075082122
000090 1c 28 81 3d b7 9b d1 bc b3 48 20 bd 52 0a 39 bd
       0.063064784 -0.025586946 -0.03913183 -0.045175858
0000a0 15 28 5a be e8 6f 18 3d 3a 2e 4e bd 25 62 99 3d
       -0.21304353 0.037216097 -0.050337054 0.07489423
0000b0 c6 4a 92 3d 31 64 e3 3c 6e c2 e3 3d 79 1e ed bd
       0.07143168 0.027757736 0.11121069 -0.11578078
0000c0 fa 72 94 bd 56 a0 5d bd c6 02 e4 3c 58 36 fd bd
       -0.072484925 -0.054107986 0.027833354 -0.12363881
0000d0 ed d4 d7 bd a8 87 be bd d9 73 fe bc 32 6a 0c bd
       -0.10538659 -0.09303218 -0.0310611 -0.034280963
0000e0 fb 56 ec 3d b1 f1 82 bd b6 26 ca 3d fd d0 a6 3c
       0.11540028 -0.06393755 0.09870665 0.020363325
0000f0 fc 70 c2 bd c1 94 13 3d 19 44 19 bc ca 7f 19 3d
       -0.09494206 0.036030535 -0.009354615 0.037475385
000100 25 20 05 3e 93 5b 95 3d 28 db 47 3d 53 2f f0 bd
       0.13000543 0.07292857 0.048792988 -0.117277764
000110 cf 6e 1a 3d f1 7d 94 3b a0 0b 03 bd 35 d6 72 3d
       0.03770333 0.004531615 -0.03199351 0.059286315
000120 f6 d7 3d 3d e4 ea 4c 3d a0 43 b7 bc 01 2e ca bd
       0.046348535 0.050028697 -0.022371113 -0.09872056
000130 1c 17 e0 3d c3 be 14 3c 20 e2 0f 3c 6c be 80 3d
       0.10941908 0.009078684 0.00878194 0.0628632
000140 0a 74 16 be da 13 b6 bd 71 b1 11 3e a6 a3 4e 3c
       -0.14692703 -0.08890505 0.14227845 0.012612259
000150 41 3f 04 bd 82 f0 94 3d 87 07 2b 3d b8 57 90 3d
       -0.032286886 0.07272436 0.041755226 0.07047981
000160 9c f6 6d 3c 7e a4 e6 bd 10 cf e2 3d ec c5 30 3d
       0.014524128 -0.11261843 0.1107465 0.043157503
000170 16 08 19 3e 60 04 8c 3d 6a 3d 91 bd 62 e7 a2 3d
       0.14944491 0.06836772 -0.07091792 0.07954289
000180 ba 2c 20 3e 3d 0e 82 bd c1 f5 23 bd 48 74 8d bc
       0.15642062 -0.06350372 -0.04002929 -0.017267361
000190 bf 49 93 bd 45 4d 93 bd e9 bc 29 3c 3b 51 6d 3d
       -0.071918 -0.07192472 0.010359981 0.057938796
0001a0 69 25 51 3d 33 aa ca bd 0e 0c b0 3d 50 fd c8 bd
       0.051061068 -0.09895744 0.08596049 -0.098139405
0001b0 81 4a 0c be 66 d1 da 3d 22 85 c1 bd de b8 a2 bd
       -0.13700296 0.10684471 -0.09449221 -0.07945417
0001c0 32 9d 8d 3d 5f d9 05 3c 06 58 fa bc c6 fa 56 bd
       0.06914748 0.008169501 -0.030559551 -0.05248525
0001d0 0d 8b 33 3d 7d 94 9d 3d b8 86 59 bb b6 f1 df bd
       0.04383378 0.076943375 -0.003319187 -0.109347746
0001e0 e9 f1 da 3d c9 b7 98 3d 9f 1b 23 3d 95 00 f0 bd
       0.10690672 0.07456929 0.039821263 -0.11718861
0001f0 88 0e 89 3d 27 e5 0b 3d 00 31 80 bd 59 4c 43 3d
       0.06692225 0.034154084 -0.06259346 0.047680233
000200 50 35 1d 3e 16 66 cd 3d 85 86 8b bd a5 fa 62 3d
       0.15352368 0.10029237 -0.06812767 0.055414815
000210 43 a1 ea bd bd cf 46 be c9 89 50 3c 7a 01 13 bd
       -0.114565395 -0.19415183 0.012728163 -0.03589008
000220 17 eb c6 bd 85 42 94 3d b5 bd 86 3d b6 d7 1d bd
       -0.097128086 0.0723925 0.065791525 -0.038535796
000230 8d a8 aa 3b 42 7a 8c bd a7 36 07 be 72 22 b8 bd
       0.005208081 -0.06859256 -0.13204442 -0.08990945
000240 62 0a c8 3d 4f 62 00 be 74 f2 45 3d 44 8a 06 3e
       0.09767605 -0.12537502 0.048326924 0.13138682
000250 07 70 a5 3d 3b a2 7c bc ac 46 6e 3c 94 aa 9c 3c
       0.08078008 -0.015419538 0.014543217 0.019124307
000260 2b b9 fb bd 7f ef 74 bd f8 1c b9 bc cc 6d 9b 3d
       -0.12291177 -0.059798714 -0.022596821 0.075893015
000270 b4 13 92 bd 40 65 0e bd d8 7b d6 3d 36 f9 fb bd
       -0.07132664 -0.03476453 0.1047284 -0.123033926
000280 b1 68 2b bd c0 34 b3 3d fb 5a e8 3b c8 9d fa bd
       -0.04184789 0.08750296 0.007090924 -0.12237126
000290 31 bd 06 3e 3a 1b 93 3d 4a 1e dd 3d 43 fe 4e bd
       0.13158108 0.071829274 0.10796793 -0.05053545
0002a0 c4 bb 32 3d db e5 13 be f8 7e b6 3d 9a 21 14 3d
       0.0436361 -0.14443152 0.08910936 0.036164857
0002b0 0c bd 0e bd 07 ac 1a bc 09 ba 66 3d 6a b8 34 bc
       -0.034848258 -0.009440429 0.05632976 -0.011030296
0002c0 3d 16 31 bd c1 70 2c 3d 2d ee 85 bd bd 30 e5 3c
       -0.0432341 0.042099718 -0.06539569 0.027977342
0002d0 d4 8f 6b bd 89 c9 f3 3c 6c 0f d2 bc d9 ad d8 3c
       -0.057510212 0.029759185 -0.02564212 0.026450085
0002e0 1a e6 00 3e 34 56 b7 bc 18 4a ab bd 1a 43 11 bc
       0.12587777 -0.022379972 -0.08363742 -0.008866096
0002f0 e9 dd d2 3d 27 91 80 bd 86 ae 1a bd 81 1f 47 bd
       0.10296232 -0.062776856 -0.037764095 -0.04861403
000300 06 e9 a7 3b ec d4 fc 3d 5e fa 43 bd 87 82 54 bd
       0.005124214 0.12345299 -0.04784619 -0.051882293
000310 73 ff 35 3d e1 c0 22 be 96 b6 d8 bc a0 7d cb 3d
       0.04443307 -0.1589389 -0.026454251 0.099360704
000320 f7 14 00 be 47 c2 2b 3e 77 b1 cd 3c 4c f8 31 be
       -0.12507997 0.1677333 0.025109036 -0.17379874
000330 fa 33 94 bd 34 87 94 bd d2 8a 54 3d b0 a2 5f 3c
       -0.07236476 -0.072523504 0.051890202 0.013649628
000340 fb 7c 06 be fa d0 a6 bd a6 75 97 3d 50 e5 1a 3e
       -0.13133614 -0.08145328 0.073954865 0.15126538
000350 82 7e 9e bb 97 05 9a 3d 08 0a f8 bd 5d 3c 80 bc
       -0.0048368583 0.075205974 -0.12111288 -0.015653783
000360 37 b4 1c 3d 97 1f 55 3d 76 9b 82 bd 87 7c b0 3d
       0.038257804 0.05203208 -0.06377308 0.08617502
000370 15 81 39 3c e9 4d 91 bd 79 cb a2 3d 57 30 84 bd
       0.011322279 -0.07094938 0.079489656 -0.064545326
000380 da 96 86 bd c2 7c a9 bc 84 0c 33 3c 95 40 29 be
       -0.065717414 -0.020689372 0.010928277 -0.16528542
000390 5e 69 ab 3d 41 04 a2 3d 73 df a8 bc d9 dc 0e bd
       0.083697066 0.079109676 -0.020614361 -0.034878585
0003a0 92 c6 4f 3d b1 f7 92 bd cb 04 f9 3c 9a a3 c4 bd
       0.05072648 -0.0717615 0.030397793 -0.09601517
0003b0 dd a2 68 3d 08 8f 66 3d 5e 1c 27 3c fe 47 97 bd
       0.056795944 0.05628875 0.010199634 -0.07386778
0003c0 7e c9 ef bd e9 c1 7d 3d b1 20 b1 bc 9c e4 fa bc
       -0.117083535 0.061952505 -0.021622034 -0.030626588
0003d0 09 05 91 3b ac e0 ac 3b 74 ae 99 3c 86 1b cb bc
       0.004425649 0.0052758064 0.018759944 -0.024793398
0003e0 5a 8c 1b 3e 50 01 bf 3b cd 01 3f bd 05 e0 83 bd
       0.15190259 0.005829014 -0.046632577 -0.06439213
0003f0 2e e1 01 3e 93 6d 86 3d 15 e9 43 bd a0 12 72 3d
       0.12683555 0.065638684 -0.047829706 0.059099793

lstm.bias_ih_l1 f4 [256]
000000 72 bc 72 bc eb 4e f3 3d d6 c8 06 3e be b9 db bd
       -0.014815437 0.11880287 0.1316255 -0.10728787
000010 f6 93 97 bc cd 93 d7 3d 5d a5 91 3d 8f de af bd
       -0.01850317 0.10526238 0.07111619 -0.085873716
000020 81 19 26 3e 09 c5 0b 3e 45 0f f2 3d 86 ba 8a 3e
       0.16220666 0.13649382 0.11819319 0.2709543
000030 4b e5 cd 3d 9c 5b 8a bd af 24 79 3c 6f 9c d9 3d
       0.100535 -0.06755754 0.0152065 0.106255405
000040 58 c4 fd 3d 71 64 9f 3d 19 16 89 3d 1b 99 16 3e
       0.12390965 0.077828296 0.06693668 0.14706843
000050 d4 ac 54 3c 74 ac b9 bc 27 cc d8 3c 25 a0 fb 3d
       0.012980659 -0.02266524 0.026464535 0.122864045
000060 6c c1 4a bd bf d3 33 3d bd ad cb bc 47 78 1c 3c
       -0.049500868 0.04390311 -0.024863118 0.009550161
000070 2d d9 a2 3d e7 24 cc 3c 59 c5 ea 3d 1e 32 a1 3c
       0.07951579 0.02491994 0.11463422 0.019677218
000080 c0 59 2e 3d 6d 87 da 3c fc 30 51 bd 7b 58 16 3d
       0.04256606 0.026675904 -0.051072106 0.036705475
000090 25 56 c6 3d 1d fc dd bd 74 c0 9b 3d b1 f1 57 3e
       0.096843995 -0.108391024 0.07605067 0.21088292
0000a0 c4 0e bd 3e 44 4d 87 3d f5 a0 cf 3d 58 09 3d 3b
       0.36925328 0.06606534 0.10138122 0.002884468
0000b0 ef 9b d8 3d f5 29 2b 3c b4 2c 21 bd ba 78 03 3e
       0.10576617 0.010447015 -0.039349273 0.12839022
0000c0 31 48 fa 3c 9d df 04 3e a2 01 16 3e 67 53 78 bd
       0.030552002 0.12975927 0.1464906 -0.060626414
0000d0 35 99 a8 3d 84 e9 af 3c 25 4f b7 3d a3 c3 d5 3c
       0.08232347 0.021473654 0.089506425 0.026094263
0000e0 ce 52 ed 3e 22 92 29 bd 5f a2 b0 bd aa 5a 65 3e
       0.46352237 -0.04139913 -0.0862472 0.22397867
0000f0 e0 e6 a3 bd 00 9e 61 3e d7 21 ad 3c b6 38 02 bd
       -0.0800302 0.22032928 0.0211343 -0.031792365
000100 15 56 41 3c 87 7d 86 3c f6 12 3a 3d 26 4d 35 3d
       0.011800309 0.016417278 0.04542824 0.044263028
000110 e6 35 93 3d 55 df d3 bd 3d 5f 0a be 9a d9 04 be
       0.07188015 -0.103453316 -0.13512893 -0.12973633
000120 47 0d 6b 3d 4f 4a 87 3d 45 5d db 3d ee 81 d6 bd
       0.05738571 0.0660597 0.10711149 -0.10474001
000130 21 80 61 3d bc 79 58 bd 6c d2 a4 3d 9f ce 24 bd
       0.055053834 -0.05285047 0.08047947 -0.04023611
000140 8d 7a b3 bd 8a 24 01 3e 1d 2d 3d bd d8 fc b1 bc
       -0.08763609 0.12611595 -0.0461856 -0.02172701
000150 1b a6 0e bd 07 6b da bd 4e c1 49 bd b8 28 c5 bd
       -0.03482638 -0.10664945 -0.049256615 -0.09626907
000160 c6 43 a7 3d f3 fb 16 3d 17 80 ac bc 8b 26 06 bd
       0.08167224 0.03686137 -0.021057172 -0.0327516
000170 db 46 93 bd 73 6b 12 3d bb b1 f5 3d ba 06 65 bc
       -0.07191249 0.035747003 0.1199679 -0.0139786545
000180 7f ec f7 3c 3e 29 f4 bd 1b d4 a4 3d 10 98 44 3c
       0.030264137 -0.11921929 0.080482684 0.011999145
000190 c7 65 67 bd 8c 76 96 3d f3 d8 9a bd 85 89 d6 bd
       -0.056493547 0.0734683 -0.07560911 -0.104754485
0001a0 ac d0 2d bc 22 2d 78 b9 3f dd d2 bd 54 4f 86 bd
       -0.010608833 -0.00023667936 -0.102961056 -0.065580994
0001b0 3f 0d 8b 3d 41 4a 96 bd ff 72 ab 3d 03 b6 ba bd
       0.06789636 -0.073383816 0.08371543 -0.09116747
0001c0 2b 84 13 be c8 86 c5 3d 21 bd ba bd f4 8d 78 3d
       -0.14405887 0.09644848 -0.09118105 0.060682252
0001d0 6c 88 f6 bd 3f bc b2 3c 2b 50 03 be 6b 74 c1 bd
       -0.12037739 0.021818278 -0.1282355 -0.09446033
0001e0 92 80 a5 bd 86 52 84 3d b0 3b d7 bc 8a 19 55 be
       -0.080811635 0.064610526 -0.026273578 -0.20810524
0001f0 16 3d cd 3d e4 f1 fc bd 59 02 ea bd f9 bb 8a 3d
       0.10021417 -0.123508245 -0.11426229 0.06774134
000200 e1 04 b7 3d 7f e2 fc bc fb 53 a5 bc 83 54 cd bd
       0.089364775 -0.03086972 -0.020181647 -0.10025885
000210 c8 62 02 be 11 8b d2 bd 3e 08 80 3c a5 91 89 3b
       -0.12732995 -0.10280431 0.01562893 0.0041982704
000220 ff 2d c8 3c 11 83 50 3d a7 41 f4 bd ad 64 25 3c
       0.024435995 0.050906245 -0.11926585 0.010094804
000230 6b f2 91 bd e3 7d d6 3d 48 f3 a3 bd a9 05 57 bd
       -0.07126316 0.1047323 -0.080053866 -0.052495632
000240 38 fc 76 bd f3 b2 5d bd b6 98 6b 3d 39 dc f8 bd
       -0.06029913 -0.054125737 0.057518683 -0.12151379
000250 07 15 15 3d ff 25 6e 3c 14 03 ba bd 98 d9 1c bd
       0.036397006 0.014535426 -0.09082618 -0.03829345
000260 68 36 4d 3c 6e 17 06 be be 02 a4 3d f3 2a d0 3d
       0.0125251785 -0.13094875 0.080083355 0.10164442
000270 d5 89 b6 3d 43 9e 9e 3d 67 b5 87 3d 3c 89 16 bd
       0.08913008 0.0774503 0.066263966 -0.03675197
000280 70 32 be 3d 16 78 86 bd a3 84 59 bd 47 63 d4 3d
       0.09286964 -0.06565873 -0.053105008 0.10370498
000290 a3 72 28 3d 0a ad 9a 3d 41 e2 d3 3d 3d 04 ab 3d
       0.04112495 0.07552536 0.10345889 0.08350418
0002a0 b4 57 de bb 89 f2 2a bd b9 88 e0 3d 90 3d e9 bd
       -0.0067853574 -0.041735206 0.10963578 -0.11388695
0002b0 c0 75 6e bd 23 4f c1 bd 9a 57 c9 bd 37 df c2 3d
       -0.058217764 -0.09438922 -0.09831162 0.09515231
0002c0 af a7 80 3c 30 99 bc bd 06 fd 0d bd 66 db 9c 3d
       0.015704958 -0.09208906 -0.03466513 0.076590344
0002d0 01 57 07 3e 27 1e a9 3d 56 85 92 3c 94 7b a6 3d
       0.13216783 0.08257704 0.017885845 0.081290394
0002e0 78 f7 a9 bd 7b 53 06 bc e7 c7 6c bd 60 1d af ba
       -0.08299154 -0.008198614 -0.05780783 -0.0013360195
0002f0 07 0b 8b 3d 60 05 09 bd c0 7b 78 3d 63 ba 6c bd
       0.06789213 -0.03345239 0.060664892 -0.05779494
000300 fc 97 27 3d 47 83 b4 3d d4 bd 0e 3e ba 56 c7 3d
       0.040916428 0.08814102 0.13939601 0.09733339
000310 3e 99 fb 3d f4 5c 3a 3e f6 81 da bd cf 24 8b 3d
       0.12285088 0.18199521 -0.10669319 0.0679413
000320 02 e5 2c 3e 08 16 c2 3d 38 d2 e0 3c c1 4c b9 3e
       0.16884235 0.094768584 0.02744399 0.3619137
000330 0d 19 8a 3c 83 8b f9 3b 64 40 e7 3d 7e ef d9 3d
       0.016857648 0.007615508 0.112915784 0.10641383
000340 8c 6f 07 3d 32 43 3a 3d a4 ac c1 3d 3f 1e 0a 3e
       0.033065364 0.04547424 0.09456757 0.134881
000350 df 3f 9a 3d df 3c 93 bc 7c b0 67 3d 30 d7 e0 bd
       0.07531714 -0.017973362 0.056564793 -0.10978544
000360 cf 9a 93 3d 08 c1 a1 bd da 9a 05 bd 7c 03 09 bc
       0.07207262 -0.07898146 -0.03261838 -0.008362647
000370 5d fe 5b bd d5 88 d2 3d 3d bf e6 3d a3 69 d7 3c
       -0.053709377 0.10280005 0.112669446 0.026295489
000380 f0 62 15 3e d8 78 02 be fa fc e9 3d e9 1a 66 3c
       0.14588523 -0.1274141 0.114252046 0.014044502
000390 6c b3 03 3e c3 49 bc bd c7 96 2a bd 48 c1 c1 3e
       0.12861413 -0.091937564 -0.0416477 0.37842774
0003a0 13 9e b1 3e d0 28 8e bd 0e ff e9 bd e0 29 44 bc
       0.34690914 -0.06941378 -0.11425601 -0.011972874
0003b0 de 7b a1 3c d1 3b 0a 3e 98 f8 1b 3e 3f 76 0c bd
       0.019712385 0.1349938 0.1523155 -0.034292456
0003c0 0a 99 50 3c 22 46 39 3b a9 21 81 3d 59 4d d5 3d
       0.0127318 0.0028270562 0.06305248 0.104151435
0003d0 15 89 db 3d 6b 86 40 3d 96 90 c0 3d 10 e1 69 bd
       0.10719506 0.04700319 0.094025776 -0.057099402
0003e0 b6 fe e3 3e 6b 48 97 bc e6 9f ac 3d 12 30 b6 3e
       0.44530267 -0.018467149 0.08428936 0.3558355
0003f0 3b 53 1b bd b8 72 19 3e 6c fe 4d bd 17 0e 81 bd
       -0.03792117 0.14985168 -0.050291464 -0.063015155
