crypto_models/GBPUSD=X_lstm.pth (torch, 206117 bytes, 9 tensors)

lstm.weight_ih_l0 f4 [256, 1]
0	0x3e20e20e	0.15711233
1	0x3d83e43e	0.06440018
2	0x3cbceeda	0.023063112
3	0x3dbfdca3	0.09368255
4	0x3c588006	0.013214117
5	0x3dcd541c	0.10025808
6	0xbd84e790	-0.064894795
7	0xbd6af348	-0.057360917
8	0xbd8988f2	-0.06715573
9	0x3dc9b19c	0.098483294
10	0x3e1e6dc3	0.15471558
11	0x3e517a58	0.20456827
12	0x3cdf77d2	0.027278814
13	0xbc8ec373	-0.017427182
14	0x3da59b89	0.080863066
15	0x3dae3421	0.085060365
16	0x3be5f215	0.007017384
17	0x3d8aec93	0.06783404
18	0x3d455bcb	0.048183244
19	0xbdc0dcca	-0.09417112
20	0x3e5b646c	0.21425027
21	0xbc8db264	-0.017296977
22	0x3d1d7a53	0.038446736
23	0xbd48faf0	-0.049067438
24	0xbde4f8ce	-0.11180268
25	0xbb084a59	-0.0020796268
26	0x3e449073	0.19195728
27	0x3e6efe8c	0.2333929
28	0xbe06ba75	-0.13157065
29	0x3dbaf22e	0.09128223
30	0x3c91cd04	0.017797954
31	0x3d7cec2c	0.06174867
32	0x3dbe6963	0.09297445
33	0x3e1ae650	0.1512692
34	0x3ddd14dc	0.10794994
35	0x3d4b1853	0.049583744
36	0xbbc7b713	-0.006094822
37	0x3ef727d0	0.48272562
38	0x3dab82f2	0.08374585
39	0x3d69fc74	0.057125524
40	0x3ceb5d94	0.028731145
41	0x3e5426e2	0.20717958
42	0xbcd2921f	-0.025704442
43	0x3da66220	0.081241846
44	0x3dce4815	0.10072342
45	0x3de0b505	0.10972027
46	0xbcfb98ee	-0.030712571
47	0x3e1c78ab	0.15280406
48	0x3d6dce0c	0.05805783
49	0x3e61b240	0.22040653
50	0xbca12048	-0.019668713
51	0x3c311fec	0.010810833
52	0xbe0a46cb	-0.13503568
53	0x3d8cc2a9	0.06873066
54	0x3cc61053	0.024177706
55	0x3e49b178	0.19696605
56	0x3c9c8981	0.019108536
57	0xbdcddc28	-0.10051757
58	0x3db763f5	0.08954612
59	0x3d1c39c4	0.038141027
60	0x3ce5fdb3	0.028075075
61	0x3d854ee4	0.06509188
62	0x3c56e29c	0.013115551
63	0x3b72b30c	0.003703299
64	0x3dc77e9b	0.09740945
65	0x3e0580cb	0.13037412
66	0x3e14eaa1	0.14542629
67	0xbde69138	-0.11258167
68	0x3e516649	0.20449175
69	0x3e0a5722	0.13509801
70	0x3db6baa2	0.08922316
71	0xbe24d381	-0.16096307
72	0x3cf46166	0.0298316
73	0xbd932fa4	-0.07186821
74	0x3db4eb4c	0.08833942
75	0x3e1ca0fa	0.15295783
76	0x3c088452	0.008332329
77	0x3d3121e4	0.04324521
78	0x3c51965c	0.012792196
79	0x3a7d23d6	0.0009656524
80	0xbca7396a	-0.02041312
81	0xbdbd3e3e	-0.092403874
82	0x3d4286bd	0.047491778
83	0x3e11b266	0.1422821
84	0x3e059bd3	0.13047723
85	0x3d4424e0	0.04788673
86	0xbdf1614c	-0.11786136
87	0xba9cfe04	-0.0011977558
88	0xbdfdfb20	-0.12401414
89	0xbd9d350b	-0.07676133
90	0xbdaae1a6	-0.0834382
91	0x3c56aa90	0.013102189
92	0xbcd030c8	-0.025413886
93	0xbd64c269	-0.055849466
94	0x3dbcc385	0.0921698
95	0x3e3b539c	0.18293613
96	0xba348a6b	-0.0006887081
97	0x3c41e64c	0.011834692
98	0x3d8b540a	0.068031386
99	0xbc2ad5f3	-0.010426986
100	0x3e358b31	0.17728879
101	0x3ddcd4e7	0.107827954
102	0xbb9569b7	-0.0045597213
103	0xbd9f6f90	-0.07784951
104	0xbdc71f5b	-0.097227775
105	0xbce517b5	-0.027965406
106	0x3da1a481	0.07892705
107	0xbdda1fd0	-0.10650599
108	0xbe021501	-0.12703325
109	0x3decb4f3	0.11557951
110	0x3e1cd872	0.15316942
111	0x3d5ffd55	0.054684956
112	0x3c73c5a5	0.014878665
113	0x3b35aa2b	0.0027719836
114	0x3d220e3f	0.039564367
115	0x3b559a20	0.0032593086
116	0xbe050c32	-0.12992933
117	0xbe1f89c7	-0.15579902
118	0xbdce0f8d	-0.1006156
119	0x3db9bf68	0.09069711
120	0x3e24d251	0.16095854
121	0xbc41c70f	-0.011827244
122	0xbd9aebe5	-0.075645246
123	0x3d30b002	0.043136604
124	0x3de1b709	0.11021239
125	0x3da27418	0.079322994
126	0xbe6f3ab8	-0.23362243
127	0x3e2f5c12	0.17124966
128	0xbdef41b1	-0.116824515
129	0x3e026ce4	0.12736851
130	0xbe2c0ad0	-0.16801
131	0x3e49cdc6	0.19707403
132	0xbe3f0caa	-0.18657175
133	0xbd7d7f69	-0.061889086
134	0x3da8d2bb	0.08243319
135	0xbddf774e	-0.109114274
136	0x3bb3b2e0	0.00548397
137	0xbe05a310	-0.13050485
138	0x3e53ea9d	0.20694967
139	0x3e51e548	0.2049762
140	0x3e32d92e	0.1746566
141	0xbe11ce59	-0.14238872
142	0x3e3560c4	0.17712694
143	0x3e5f2af5	0.2179373
144	0xbde40330	-0.111334205
145	0x3e318aa3	0.17338042
146	0xba9f19f4	-0.0012138472
147	0x3d1262ed	0.035738874
148	0xbe4be2d4	-0.19910747
149	0xbd23328e	-0.039843135
150	0xbe549837	-0.2076119
151	0x3dce166e	0.10062872
152	0xbd8de78c	-0.0692893
153	0xbdf74477	-0.120736055
154	0xbe1c1f32	-0.15246275
155	0x3e66580e	0.22494528
156	0xbcbe1044	-0.023201115
157	0xbc152c01	-0.00910473
158	0xbdbc970f	-0.092085
159	0x3dee0ed7	0.11623924
160	0xbc9578e7	-0.018246127
161	0xbdea397e	-0.11436747
162	0x3e35487d	0.17703433
163	0xbdf30dbb	-0.11867853
164	0x3e4adf93	0.1981185
165	0x3e9ffcdc	0.31247604
166	0xbdcca62d	-0.09992633
167	0xbe09cccd	-0.13457032
168	0x3d419abc	0.047266707
169	0x3e4faa07	0.20279704
170	0x3d9139e8	0.07091123
171	0xbdfa9bc1	-0.12236739
172	0xbe4e27e7	-0.20132409
173	0xbcafdb15	-0.021466771
174	0xbdc1a9aa	-0.09456189
175	0xbda55fb6	-0.08074896
176	0x3e05da55	0.13071568
177	0xbe65a6de	-0.22426936
178	0xbdb74333	-0.08948364
179	0x3d8da1f0	0.06915653
180	0x3df576d3	0.119855545
181	0xbe4221ee	-0.18958256
182	0x3e13c516	0.14430651
183	0xbe45e275	-0.19324668
184	0x3e07dbc9	0.13267435
185	0x3da697b4	0.08134404
186	0x3c49b85c	0.012312021
187	0x3e2c7c07	0.16844188
188	0xbd461145	-0.048356313
189	0x3d2280ba	0.039673544
190	0xbdbae909	-0.09126479
191	0xbda1a251	-0.078922875
192	0x3d4c1150	0.049821198
193	0x3dae294c	0.085039705
194	0x3e6f4209	0.23365034
195	0x3dc6febe	0.09716557
196	0x3e251788	0.16122258
197	0x3dc26fc1	0.094939716
198	0xbb255aa8	-0.0025231037
199	0xbdc39461	-0.095497854
200	0x3e1360e7	0.14392434
201	0xbd4b6f1f	-0.04966652
202	0x3e07733d	0.13227554
203	0x3e4f894f	0.20267223
204	0x3e6646af	0.22487901
205	0x3d07acde	0.033123843
206	0x3c994087	0.018707527
207	0x3e33e258	0.17566812
208	0x3de34e20	0.110988855
209	0x3e1d2c58	0.15348947
210	0x3d360ca8	0.044445664
211	0x3d2986bc	0.04138826
212	0x3d95a36a	0.073065594
213	0x3d9b3643	0.07578709
214	0x3def2f9f	0.11679005
215	0x3d12c995	0.035836775
216	0xbba05fbb	-0.0048942245
217	0x3d629282	0.055315502
218	0x3e66f51d	0.22554441
219	0x3e226f62	0.15862802
220	0xbcb103fe	-0.021608349
221	0x3e1c0425	0.15235956
222	0x3e0b7575	0.13619025
223	0x3e2af1f7	0.16693865
224	0xbcded757	-0.027202291
225	0x3e069317	0.13142048
226	0x3dc429a7	0.09578257
227	0x3e213324	0.15742165
228	0x3d1a1307	0.037615802
229	0x3f02ba83	0.51065844
230	0x3e05a75b	0.13052122
231	0x3d999916	0.07499902
232	0xbd43c9dd	-0.047799934
233	0x3deba65a	0.115063384
234	0x3e00e176	0.12586007
235	0xbdb230ae	-0.08700691
236	0x3d99ffdf	0.07519507
237	0xbd467110	-0.04844767
238	0x3e44f3f1	0.19233681
239	0xbd2746ca	-0.040838994
240	0x3e0ed132	0.13946989
241	0x3e309a9f	0.17246483
242	0x3dcdbb98	0.10045546
243	0xbc9eabc0	-0.019369006
244	0x3d471776	0.04860636
245	0x3c8d0d1c	0.017218165
246	0xbcbee031	-0.023300262
247	0x3e0ccc61	0.1374984
248	0x3e40da69	0.18833317
249	0x3dc73b79	0.097281404
250	0xbd28aa07	-0.041177776
251	0x3e255e89	0.16149344
252	0x3e67beee	0.22631428
253	0x3e2420f6	0.16028199
254	0xbe07a4a8	-0.13246405
255	0x3e05977b	0.13046066

lstm.weight_hh_l0 f4 [256, 64]
0	0xbc18bd35	-0.009322454
1	0xbdca17fa	-0.098678544
2	0xbd67c39c	-0.056583032
3	0xbe14264e	-0.14467737
4	0xbc2c4156	-0.010513624
5	0xbcf634fd	-0.030054564
6	0x3de0fbd1	0.1098553
7	0x3d420fc4	0.047378317
8	0xbde320a6	-0.110902116
9	0x3d44a426	0.048008107
10	0xbcc76742	-0.02434123
11	0x3be698ff	0.0070372815
12	0x3db6f2e2	0.08933045
13	0xbde411ff	-0.11136245
14	0xbd8b9165	-0.06814841
15	0x3cc1bb3c	0.02364885
16	0x3d742195	0.05960234
17	0x3d13aaf5	0.03605171
18	0x3ce7449b	0.028230956
19	0xbc979c43	-0.018507129
20	0xbde17dc8	-0.11010319
21	0xbdf88976	-0.121355936
22	0xbd6409cf	-0.055673417
23	0xbcc91cf8	-0.024549946
24	0x3ddb6e77	0.10714429
25	0x3b6e6807	0.0036377923
26	0x3d31a6c2	0.043371923
27	0x3c566688	0.013085969
28	0xbddcd2d0	-0.10782397
29	0x3daa0c99	0.08303184
30	0x3c3837ff	0.011243819
31	0x3da0bdc1	0.07848693
32	0x3e03edf8	0.12883747
33	0x3cbe2679	0.023211705
34	0x3dc70507	0.09717756
35	0xbdae2755	-0.08503596
36	0x3df2dc27	0.11858397
37	0xbe15363e	-0.14571473
38	0xbd865971	-0.06560028
39	0x3d95e1a9	0.07318432
40	0x3d829d34	0.0637764
41	0xbd44eca2	-0.048077233
42	0x3cbccd20	0.02304703
43	0xbcc41abc	-0.02393853
44	0x3cc08643	0.023501521
45	0xbd78c1fd	-0.060731877
46	0x3de1bd65	0.11022452
47	0xbdc3df44	-0.09564069
48	0xbd2a3e07	-0.04156306
49	0x3d6a2918	0.057168096
50	0xbddb2213	-0.106998585
51	0xbc00711e	-0.007839469
52	0xbdc9c1dc	-0.09851429
53	0x3e20efbe	0.15716454
54	0xbbf955a1	-0.0076090847
55	0xbcd90ccb	-0.026495358
56	0xbce8291e	-0.028339919
57	0xbd724fff	-0.05915832
58	0x3d7a0403	0.061038982
59	0xbd815b2c	-0.06316218
60	0xbd50b5a8	-0.05095449
61	0xbd0246da	-0.03180585
62	0x3e011536	0.12605748
63	0xbd5bf68f	-0.053701933
64	0xbd399051	-0.045303646
65	0x3d1cc688	0.03827527
66	0x3d3c83d8	0.046024173
67	0x3d6d8909	0.057992015
68	0xbd54d322	-0.051959164
69	0x3d0b5e4c	0.034025475
70	0xbbe73389	-0.007055704
71	0x3dcebdc1	0.100947864
72	0xbd082bbd	-0.033244837
73	0xbd4613e8	-0.048358828
74	0xbd981afb	-0.07427021
75	0xbd3bae35	-0.045820434
76	0x3dc0b3a5	0.094092645
77	0x3d72aebc	0.05924867
78	0xbd2f454d	-0.0427907
79	0x3df2314b	0.11825808
80	0xbdf49f8b	-0.11944493
81	0xbe0ac250	-0.13550687
82	0xbc19223c	-0.009346541
83	0xbd2d3142	-0.042283304
84	0xbd622969	-0.055215273
85	0x3dd6f9c8	0.10496861
86	0xbdaa5b94	-0.083182484
87	0xbc87ad3e	-0.0165621
88	0xbc8913f9	-0.016733157
89	0xbdc62454	-0.09674898
90	0xbd5fb336	-0.05461427
91	0x3d70c429	0.058780823
92	0x3d36b5af	0.04460686
93	0x3dd0a612	0.101879254
94	0xbd97ac61	-0.074059255
95	0x3d867f02	0.065671936
96	0xbdb78006	-0.089599654
97	0xbc57345a	-0.01313504
98	0x3ded2df5	0.11581031
99	0xbd9e5218	-0.07730502
100	0x3cc2fb7a	0.023801554
101	0x3d99fe76	0.07519238
102	0x3df5d21a	0.12002964
103	0xbde9200b	-0.11383065
104	0xbd10a93e	-0.035317652
105	0x3dbce665	0.09223632
106	0xbe116f59	-0.14202632
107	0x3d0eb6af	0.03484219
108	0x3d0d5579	0.03450534
109	0xbd8c7806	-0.0685883
110	0xbd83655a	-0.06415816
111	0x3b824fa1	0.0039767777
112	0x3da8bf74	0.08239642
113	0xbdd27aa8	-0.10277301
114	0x3d946c1d	0.072471835
115	0x3ca57f53	0.020202314
116	0xbd5d9282	-0.0540948
117	0x3e0ac66c	0.13552254
118	0x3d90b962	0.07066609
119	0x3d855bc7	0.06511646
120	0x3df20b0e	0.11818515
121	0x3dc84532	0.09778823
122	0xbdae4a40	-0.08510256
123	0x3d313f0e	0.043273024
124	0xbd418a63	-0.047251116
125	0xbd3a56a4	-0.045492783
126	0x3ccedd93	0.02525214
127	0xbdbe7c89	-0.09301097
128	0xbe180c5d	-0.14848466
129	0x3def28cf	0.116777055
130	0x3ba19b0a	0.004931812
131	0x3dcb8b70	0.09938705
132	0x3d5ae2a3	0.053438794
133	0xbdda5664	-0.10661009
134	0xbd8d576b	-0.06901439
135	0x3d1e2543	0.038609754
136	0xbdaa956b	-0.083292805
137	0x3d7c0bdf	0.06153476
138	0x3d345c23	0.04403318
139	0x3d0fb876	0.035088025
140	0xbd4301c8	-0.04760912
141	0xbd992f70	-0.07479751
142	0x3cfbfdf7	0.030760748
143	0x3d135ed9	0.035979126
144	0x3d83a3a0	0.06427693
145	0x3cecc990	0.028904706
146	0xbcab1619	-0.02088456
147	0xbe0f9a65	-0.1402374
148	0xbe0a125e	-0.13483569
149	0x3b370a5b	0.0027929756
150	0x3b453822	0.0030093272
151	0xbdc24d4e	-0.09487401
152	0x3e103a20	0.14084673
153	0xbdc05952	-0.093920365
154	0x3d8af633	0.0678524
155	0xbd68122b	-0.05665795
156	0xbc34f956	-0.011045774
157	0xbdfc9833	-0.12333717
158	0xbe029aa6	-0.12754306
159	0x3b61c85a	0.0034451694
160	0xbcd24ac7	-0.025670422
161	0x3c745cb8	0.014914684
162	0x3d9f018b	0.07763966
163	0xbe09480f	-0.13406394
164	0x3d1c3fda	0.03814683
165	0xbc54c09c	-0.012985375
166	0x3cef1758	0.029185936
167	0x3d1ec46e	0.03876155
168	0xbd2e2904	-0.042519584
169	0xbd1535d1	-0.036428276
170	0x3cb055ba	0.021525253
171	0xbd396220	-0.045259595
172	0xbdee544b	-0.11637171
173	0xbd8d626e	-0.069035396
174	0x3ce459f0	0.027874917
175	0xbd8f6856	-0.070023224
176	0xbca112ad	-0.019662226
177	0xbe1c010a	-0.15234771
178	0xbe2403b5	-0.16017039
179	0xbdca7f5a	-0.09887572
180	0x3d8fff88	0.070311606
181	0xbc0322bf	-0.00800389
182	0xbcb63220	-0.022240698
183	0xbe0e3a47	-0.13889419
184	0xbc893a9d	-0.016751582
185	0xbdc939b6	-0.098254606
186	0xbd709719	-0.058737848
187	0xbda056e4	-0.07829073
188	0xbe02ac15	-0.12760957
189	0x3d84234e	0.06452046
190	0x3c0ddad9	0.008658134
191	0xbe17dae5	-0.14829595
192	0x3cf067c4	0.029346354
193	0xbdb9fc60	-0.0908134
194	0x3c1ab8a7	0.009443439
195	0xbd440ca1	-0.047863606
196	0xbcfe2c1c	-0.031026892
197	0x3d99514c	0.07486209
198	0xbe03259a	-0.12807313
199	0x3e101688	0.14071095
200	0x3da8e0d0	0.082460046
201	0x3e1816f1	0.14852501
202	0xbe041ebf	-0.12902354
203	0xbd6e1fbf	-0.058135744
204	0xbda031a6	-0.0782197
205	0x3dc9ac4d	0.09847317
206	0x3da390fc	0.07986638
207	0x3d3f8ba1	0.04676402
208	0xbe1e75b4	-0.15474588
209	0x3d388925	0.045052666
210	0x3e1581e2	0.14600328
211	0xbd9f1201	-0.07767106
212	0xbd08e85d	-0.033424724
213	0x3dd74f51	0.10513175
214	0x3e157a68	0.14597476
215	0xbd3b0960	-0.045663238
216	0x3dbd1109	0.09231765
217	0x3e12b47d	0.14326663
218	0x3d803dae	0.062617645
219	0xbce9c527	-0.028536392
220	0xbe1eef4c	-0.15520972
221	0x3b003c1d	0.001956708
222	0xbd2474a7	-0.04015031
223	0x3c6a13ea	0.014286974
224	0x3e01b430	0.12666392
225	0x3e2da115	0.16955979
226	0xbd516389	-0.051120315
227	0x3cda4155	0.02664248
228	0xbdb71249	-0.089390345
229	0xbe4f4b2d	-0.20243521
230	0x3da18a02	0.07887651
231	0x3d844dd5	0.06460158
232	0x3e1c6976	0.15274605
233	0x3ddff1f9	0.109348245
234	0xbe026897	-0.1273521
235	0x3e24ee97	0.1610664
236	0xbdc4a2ca	-0.09601362
237	0x3c851c8e	0.016248967
238	0xbd9f5a74	-0.077809244
239	0xbd797c3c	-0.060909495
240	0x3d95e669	0.07319338
241	0xbdb438f8	-0.087999284
242	0xbcbb5576	-0.0228679
243	0xbd4e1ac3	-0.05031849
244	0x3db81f99	0.08990402
245	0x3e14238f	0.1446669
246	0xbcf6b1d2	-0.030114088
247	0x3dc9cece	0.09853898
248	0xbc9b35ff	-0.018946646
249	0x3d471189	0.048600707
250	0x3d5fd13a	0.054642893
251	0xbdb12797	-0.08650129
252	0x3bba24ca	0.005680655
253	0xbdc41369	-0.09574015
254	0x3e7c77e2	0.24655107
255	0xbdff1fd5	-0.12457243

lstm.bias_ih_l0 f4 [256]
0	0x3dcc8da0	0.0998795
1	0x3dd99838	0.106247365
2	0xbd8377ef	-0.0641936
3	0x3e16d0b1	0.14728047
4	0xbcf0fb7d	-0.029416794
5	0xbc66d9b5	-0.014089991
6	0x3df486bd	0.11939762
7	0xbd83bb7b	-0.064322434
8	0x3dc59a07	0.09648519
9	0x3ce940a2	0.028473202
10	0x3eb46ddb	0.35240063
11	0xbdd56f9b	-0.10421678
12	0x3d92a8d1	0.071611054
13	0x3cc267fb	0.023731222
14	0xbbccbd8f	-0.006248183
15	0xbd8320c3	-0.06402733
16	0x3d1f5682	0.03890086
17	0x3dd2cdd1	0.102931626
18	0x3d9d71b3	0.07687702
19	0xbbee0ee5	-0.007264959
20	0x3e05b78b	0.13058297
21	0x3d17b46c	0.037037298
22	0x3c7a23d6	0.015267333
23	0x3e18b11a	0.14911309
24	0x3de97856	0.113999054
25	0x3da95c45	0.08269552
26	0x3dae9846	0.085251376
27	0x3d6bd809	0.057579074
28	0xbd96e29b	-0.0736744
29	0x3d8fdc59	0.0702445
30	0x3d1884c3	0.037235986
31	0xbcfb5034	-0.030677892
32	0xbb6b30ce	-0.0035887244
33	0xbd172c14	-0.03690727
34	0x3dafbad7	0.08580559
35	0x3beb7826	0.0071859537
36	0x3de647ce	0.112441644
37	0x3f0f68aa	0.5601908
38	0xbdcb1303	-0.099157356
39	0xbdf0d8fe	-0.11760138
40	0x3cb59cb3	0.022169447
41	0x3dbb3d43	0.09142544
42	0x3d147a60	0.03624952
43	0x3db2d616	0.0873224
44	0x3e30840d	0.17237873
45	0xbd03f4fb	-0.032216053
46	0xbdccf367	-0.10007363
47	0x3d4afb9c	0.04955636
48	0xbdc7b4a7	-0.097512536
49	0x3dbc460b	0.09193047
50	0x3cb5fc6a	0.022215087
51	0xbbeaf515	-0.0071703293
52	0x3c8f6cec	0.017507993
53	0x3e3d8206	0.18506631
54	0xbd72b77b	-0.05925701
55	0x3e751fe7	0.23937951
56	0x3cd9c390	0.02658251
57	0x3d0d9011	0.03456122
58	0xbd516c6d	-0.051128794
59	0x3e2b0c26	0.16703853
60	0x3dca1fb6	0.0986933
61	0x3d3ec090	0.04657036
62	0x3e247352	0.16059616
63	0xbdb4dfbd	-0.08831737
64	0x3ae2b310	0.0017295796
65	0x3d894283	0.06702139
66	0xbdc0fa11	-0.094226964
67	0xbdd4fd4b	-0.10399874
68	0x3d1c59b3	0.03817148
69	0x3db720a9	0.08941776
70	0xbcddf8d2	-0.027096186
71	0x3d73d785	0.059531707
72	0x3cd1571d	0.025554234
73	0xbdc6df10	-0.097105145
74	0xbdc6d0fb	-0.097078286
75	0xbdcc7c04	-0.099845916
76	0x3ba908c5	0.005158516
77	0x3d883890	0.066514134
78	0xbd8ac48f	-0.06775772
79	0xbd614579	-0.054997895
80	0xbc02c9c8	-0.007982679
81	0xbe25c671	-0.1618898
82	0xbdeb1ce8	-0.11480123
83	0xbd0c867f	-0.034307953
84	0x3d8e618a	0.06952198
85	0x3d9b0271	0.07568825
86	0xbd23ee49	-0.04002217
87	0xbdf8b4a0	-0.121438265
88	0xbdb20e6a	-0.086941555
89	0xbdd2cbf6	-0.10292809
90	0xbdf3913e	-0.11892937
91	0x3d2e32d2	0.042528935
92	0xbe02b4dd	-0.12764306
93	0xbde13555	-0.109965004
94	0x3dc8e613	0.09809508
95	0x3d8fea8f	0.070271604
96	0x3d0d6327	0.034518387
97	0x3d8ffc41	0.070305355
98	0x3da613e6	0.08109264
99	0x3d48e1d2	0.049043484
100	0xbbc6410c	-0.0060502347
101	0xbbb1ecbb	-0.005429832
102	0xbd562d8a	-0.052289523
103	0xbdba7abb	-0.0910544
104	0x3ce7945d	0.028268987
105	0x3e07317d	0.13202472
106	0xbbdb1c89	-0.0066867513
107	0x3b3d8f88	0.0028924663
108	0xbdf98dd8	-0.12185258
109	0xbd76ccda	-0.060253955
110	0xbd989362	-0.07449986
111	0x3c0a1aeb	0.008429269
112	0xbd3b6116	-0.045746885
113	0x3d64f2e0	0.055895686
114	0xbd90bdfb	-0.07067486
115	0xbbd6565f	-0.006541058
116	0xbd81fdde	-0.063472494
117	0x39ac437d	0.0003285668
118	0xbd9ff959	-0.07811231
119	0xbd940c54	-0.07228914
120	0x3d7f770f	0.062369402
121	0xbd629508	-0.05531791
122	0xbdaf6eca	-0.08566053
123	0x3d550f35	0.052016456
124	0x3d71cf7b	0.05903576
125	0x3b8bbfa0	0.004264787
126	0xbd8436c4	-0.06455758
127	0x3d3367b8	0.043800086
128	0x3cd40c2b	0.025884708
129	0xbb4b41a2	-0.0031014462
130	0xbd30300b	-0.043014567
131	0xbddb172f	-0.10697781
132	0x3cb453a6	0.022012543
133	0xbdec1429	-0.11527283
134	0xbcb950a3	-0.022621458
135	0x3da9cb60	0.08290744
136	0x3d36912e	0.044572048
137	0xbc10b6ee	-0.008832676
138	0x3d28d690	0.041220248
139	0x3c6ae2a7	0.014336265
140	0x3ccd276f	0.025043217
141	0xbd0beaf6	-0.034159623
142	0xbc8bb0c1	-0.017052056
143	0x3def99d7	0.116992645
144	0xbd923ff9	-0.07141108
145	0xbd964fc8	-0.07339436
146	0x3dd61060	0.10452342
147	0xbdbd24bf	-0.092355244
148	0x3d5112c9	0.051043306
149	0x3d166a3a	0.0367224
150	0xbba00445	-0.0048833215
151	0xbd460df8	-0.048353165
152	0x3c4d88a9	0.012544789
153	0xbdaab10a	-0.08334549
154	0xbcb0f01e	-0.021598872
155	0x3d8902c6	0.06689982
156	0xbd1784fc	-0.03699206
157	0xbdcd18b5	-0.10014478
158	0xbdae7286	-0.08517937
159	0xbd85fa1b	-0.065418445
160	0x3c4771ee	0.012173159
161	0xbc75053c	-0.014954861
162	0xbd8ca68d	-0.068677045
163	0x3c2bbd40	0.010482132
164	0xbc39b3ed	-0.011334402
165	0xbd993700	-0.074811935
166	0xbd34b13f	-0.044114348
167	0x3c54504d	0.012958598
168	0x3d4f651a	0.050633527
169	0xbb20e43d	-0.0024550103
170	0xbd320d21	-0.043469552
171	0x3bd86afc	0.0066045504
172	0xbd4e7452	-0.0504039
173	0xbdb33cbd	-0.08751819
174	0xbc965c9f	-0.018354712
175	0xbd7a5508	-0.06111625
176	0x3daa0a5b	0.083027564
177	0x3dec62da	0.11542292
178	0xbddcedcd	-0.107875444
179	0xbcdc2ea6	-0.026877712
180	0xbdcfba7d	-0.10142992
181	0x3e069797	0.13143764
182	0xbdaf8d5c	-0.08571884
183	0xbd6b394e	-0.057427697
184	0x3dcc6c64	0.09981611
185	0xbd77585c	-0.060387
186	0x3dc90803	0.09815981
187	0xbd74323d	-0.059618223
188	0xbdc826d4	-0.09773031
189	0xbdf3dfce	-0.11907922
190	0x3da8f2e0	0.0824945
191	0x3d1ec8b0	0.03876561
192	0x3d845832	0.064621344
193	0x3b298443	0.0025866188
194	0xbd1844b1	-0.037174884
195	0xbb959d50	-0.0045658723
196	0x3cdcd3e6	0.02695651
197	0x3df8fd8b	0.121577345
198	0x3da62caf	0.081139915
199	0x3cf68e38	0.030097112
200	0x3d9567f5	0.07295219
201	0x3e4648df	0.19363736
202	0x3e664181	0.22485925
203	0x3e0fbbe8	0.14036524
204	0x3da91836	0.08256571
205	0xbd9fbf97	-0.07800215
206	0xbc1fec6f	-0.00976096
207	0xbd316305	-0.043307323
208	0xbc9c074f	-0.019046454
209	0x3de383cf	0.11109125
210	0xbd5a3497	-0.05327281
211	0x3d24d705	0.04024412
212	0x3b456add	0.003012351
213	0xbd913eb0	-0.07092035
214	0x3e012e4f	0.12615322
215	0x3dafad05	0.08577923
216	0xbd5dfd17	-0.054196443
217	0xbdda8123	-0.10669162
218	0x3e9cb34e	0.3060555
219	0x3e1c8d16	0.15288195
220	0xbb472a66	-0.0030390262
221	0xbd8e55e8	-0.06949979
222	0x3cd622ce	0.026139643
223	0x3d5090f1	0.050919477
224	0x3d04969f	0.032370206
225	0x3ce45b05	0.027875433
226	0x3e246d67	0.16057359
227	0x3e00193c	0.12509626
228	0x3e083a9d	0.13303609
229	0x3ec6efd1	0.3885484
230	0x3df1aaab	0.118001305
231	0xbdea4659	-0.11439199
232	0x3c48e610	0.012261882
233	0x3e4378a8	0.19088995
234	0x3c4d4b3a	0.012530142
235	0xbc445acf	-0.011984541
236	0x3e19d486	0.15022478
237	0xbd77bc75	-0.06048246
238	0x3c9c9aa4	0.019116707
239	0xbd7e8287	-0.0621362
240	0x3d1b4aa9	0.037913
241	0x3e22b815	0.15890534
242	0x3ddb120c	0.106968015
243	0x3d33727c	0.043810353
244	0xbd50bd49	-0.050961766
245	0x3e81d36c	0.25356615
246	0xbd9603ad	-0.0732492
247	0x3d8e5503	0.069498084
248	0x3ce77eea	0.02825876
249	0xbd05ac3c	-0.03263496
250	0x3a3f00fd	0.0007286219
251	0x3ca00451	0.019533308
252	0xbde5f5e7	-0.11228543
253	0xbd982ded	-0.07430635
254	0x3ded01f4	0.11572638
255	0xbdce0d7f	-0.10061168

lstm.bias_hh_l0 f4 [256]
0	0xbd927626	-0.07151441
1	0x3c472d52	0.012156801
2	0x3d1ff1c2	0.039048918
3	0xbcadbce0	-0.021208227
4	0xbd8a5c2e	-0.06755863
5	0x3d9ec26e	0.07751928
6	0xbdbe1adb	-0.09282466
7	0x3e0ece8c	0.13945979
8	0x3d47d283	0.048784744
9	0x3dc8ee1c	0.09811041
10	0x3e889336	0.26674813
11	0xbd74fb29	-0.059809837
12	0xbc64ebbf	-0.013972222
13	0xbc853bef	-0.01626393
14	0x3e0b4a8c	0.13602656
15	0xbd9b3d4b	-0.0758005
16	0x3da2244b	0.079170786
17	0x3e289a8f	0.1646521
18	0xbdd1e8c3	-0.10249474
19	0xbdb66c4c	-0.08907375
20	0x3d6fe0c4	0.058563963
21	0xbbcce79b	-0.0062531955
22	0x3e4fd760	0.20297003
23	0x3dd67fae	0.10473572
24	0xbd8c92d4	-0.06863943
25	0xbd83baa5	-0.06432084
26	0x3dac3e99	0.08410377
27	0x3dfa9479	0.1223535
28	0xbe19e739	-0.1502961
29	0xbd565b8c	-0.0523334
30	0x3c10c367	0.00883565
31	0x3d458d1a	0.048230268
32	0x3ddd0494	0.10791889
33	0x3e01f07f	0.12689398
34	0xbc99a1fa	-0.018753994
35	0xbcfa5d3a	-0.030562032
36	0xbd8bdaba	-0.06828828
37	0x3eed91a7	0.46400186
38	0xbd1c1b8f	-0.03811222
39	0xbdcf9b4c	-0.101370424
40	0x3d5ac0e9	0.05340663
41	0x3dcdce51	0.10049117
42	0xbdb8e4b7	-0.09027999
43	0x3e074e28	0.13213408
44	0x3e3511c0	0.17682552
45	0xbc8f66ac	-0.017505012
46	0xbd092f4a	-0.033492364
47	0x3d36effa	0.044662453
48	0xbd7612d7	-0.06007656
49	0x3e623d48	0.2209369
50	0xbd602cb5	-0.054730136
51	0xbd672772	-0.056434102
52	0x3db5810d	0.08862505
53	0x3e672ce4	0.22575718
54	0x3d8060e1	0.06268478
55	0x3e01a7bc	0.12661642
56	0x3dcd5c0e	0.10027324
57	0xbd2bf17f	-0.041978355
58	0x3d0c6251	0.03427345
59	0x3dc24337	0.094854765
60	0x3de64196	0.11242978
61	0x3d6f191a	0.058373548
62	0xbd7c4630	-0.061590374
63	0xbcff6fcb	-0.031181237
64	0x3d941bd5	0.07231871
65	0x3dea8c35	0.114525236
66	0xbd000140	-0.031251192
67	0x3cefffea	0.029296834
68	0x3dd7f807	0.10545354
69	0xbc5cd12d	-0.013477606
70	0x3d932ed0	0.07186663
71	0xbce48671	-0.027896138
72	0x3d41f127	0.04734912
73	0x3da2af6c	0.07943615
74	0xbda93e3f	-0.082638256
75	0x3d796c85	0.060894508
76	0xbdda36bf	-0.10654973
77	0x3b9dc823	0.004815118
78	0xbd8678b1	-0.06565989
79	0xbdac761b	-0.08420964
80	0x3d292bc9	0.041301522
81	0xbdda8b8d	-0.106711484
82	0x3da1c604	0.078990966
83	0x3d4995a7	0.049214985
84	0x3d82218e	0.06354056
85	0x3d5e42a3	0.05426277
86	0x3da3755f	0.07981371
87	0x3b004379	0.0019571467
88	0xbd0f469f	-0.03497946
89	0x3d678bfa	0.056529976
90	0xbd3ce76d	-0.046119142
91	0x3cc72832	0.024311159
92	0x3cd0790d	0.025448347
93	0xb8f967e8	-0.00011892599
94	0xbdf1e0f5	-0.11810485
95	0xbda54a55	-0.08070818
96	0xbd02b06d	-0.031906534
97	0xbe1f635e	-0.1556525
98	0xbd55aa21	-0.0521642
99	0xbe1dfcef	-0.15428518
100	0x3d73815b	0.059449535
101	0xbda4d97a	-0.08049293
102	0x3cf37392	0.029718194
103	0x3da56565	0.0807598
104	0x3d995584	0.07487014
105	0xb9da7a97	-0.00041671537
106	0xbdd602cf	-0.104497544
107	0xbd4718a9	-0.048607502
108	0x3cc21ee9	0.02369638
109	0x3d730bd4	0.059337452
110	0xbd07b3f7	-0.033130612
111	0x3de0703e	0.109589085
112	0xbb9256ae	-0.0044658994
113	0x3d43f604	0.04784204
114	0x3cba3c1a	0.022733737
115	0xbe0be9b1	-0.13663365
116	0x3d69b8c5	0.057060976
117	0xbda7cd4b	-0.081934534
118	0x3c0b389a	0.008497382
119	0x3da442b4	0.08020535
120	0xba35604c	-0.00069189514
121	0x3b66e241	0.0035230073
122	0xbdbecae2	-0.093160406
123	0xbbd1ebeb	-0.0064062974
124	0xbb9ae83a	-0.0047273906
125	0x3d9d9ffe	0.07696532
126	0x3dabd415	0.08390061
127	0x3ca3803d	0.01995861
128	0x3b284fa4	0.0025682235
129	0x3cfdf638	0.031001195
130	0xbd694e73	-0.05695958
131	0x3b9f63a2	0.004864172
132	0x3a06c0c9	0.00051404216
133	0x3df25ce1	0.118341215
134	0xbdb81e46	-0.08990149
135	0xbd41dad9	-0.04732785
136	0x3d827406	0.06369786
137	0x3c1e7a4c	0.009672713
138	0xbd0bdd86	-0.034146808
139	0x3dd07723	0.101789735
140	0xbc8295bb	-0.015940538
141	0xbd2f3928	-0.042779118
142	0x3d8301f1	0.06396855
143	0xbd48708f	-0.04893547
144	0xbc957863	-0.018245881
145	0xbcc9f159	-0.024651216
146	0x3d0f2147	0.034943845
147	0x3c20be4c	0.009810995
148	0x3c8b26a6	0.016986202
149	0x3b031f4e	0.0020007673
150	0x3da44026	0.08020048
151	0x3db0c452	0.08631195
152	0x3db36bb1	0.08760775
153	0x3decf8f2	0.1157092
154	0xbc386c22	-0.01125625
155	0xbd7248b9	-0.059151385
156	0xbd52db14	-0.05147846
157	0xbdbe3989	-0.09288318
158	0xbc66fa71	-0.014097796
159	0x3dcd5aaf	0.10027062
160	0x3df081fb	0.11743542
161	0x3d805e19	0.06267948
162	0xbd56517b	-0.0523238
163	0xbd99bc47	-0.07506614
164	0xbc00b49f	-0.007855563
165	0xba1f7b18	-0.0006083711
166	0xbd5080f5	-0.050904233
167	0x3d957712	0.072981015
168	0xba7eb093	-0.00097156427
169	0x3ccfa110	0.025345355
170	0x3d124421	0.035709504
171	0x3c4e671f	0.012597828
172	0x3cfa1e62	0.030532066
173	0xbda7ef47	-0.081999354
174	0xbde122da	-0.109929755
175	0x3c555f9a	0.0130232815
176	0x3d5b4c31	0.05353946
177	0xbd77f996	-0.060540758
178	0x3d3ecc58	0.046581596
179	0x3b20fc4c	0.0024564443
180	0xbd04479f	-0.032294866
181	0xbd4660ac	-0.048432037
182	0xbd77646a	-0.060398497
183	0x3d4919de	0.049096934
184	0xbcac294f	-0.021015791
185	0x3c4341ec	0.0119175725
186	0xbc741cd1	-0.0148994485
187	0x3c815bc6	0.015790831
188	0xbd933366	-0.07187538
189	0xbdf1ff13	-0.1181623
190	0xbdcaf1f0	-0.09909427
191	0xbda6c72b	-0.08143457
192	0xbb390fdc	-0.0028238213
193	0x3defd0ec	0.117097706
194	0xbd9832e7	-0.07431584
195	0x3d3484ac	0.04407184
196	0x3e07d1b8	0.13263595
197	0x3ddcfb93	0.107901715
198	0x3ce1c61b	0.027560284
199	0x3e17c627	0.14821683
200	0xbd35aa2e	-0.04435175
201	0x3db30ae4	0.087423116
202	0x3e1c7657	0.15279518
203	0xbd70d7c1	-0.05879951
204	0xbd58c8e2	-0.05292595
205	0xbdc7d891	-0.09758104
206	0x3dd4dee5	0.10394076
207	0x3dc2be73	0.095089816
208	0xbdf1c976	-0.11806004
209	0x3db3e051	0.08783019
210	0xbcbccbee	-0.02304646
211	0xbdbd6272	-0.092472926
212	0x3e234a70	0.15946364
213	0x3d95fd82	0.073237434
214	0x3ddf2053	0.10894837
215	0x3e14a07f	0.1451435
216	0x3a05d2af	0.00051049417
217	0x3de255a9	0.11051495
218	0x3e83d78b	0.25750384
219	0xbc83adc7	-0.016074074
220	0xbe01602a	-0.1263434
221	0xbcae30da	-0.021263529
222	0x3cd7ac38	0.026327237
223	0xbdd2b8b9	-0.10289139
224	0x3d72f6d6	0.059317432
225	0x3e1a7694	0.15084296
226	0xbc0ea1a8	-0.008705534
227	0x3ce83930	0.028347582
228	0x3cec5119	0.028847264
229	0x3ee2195a	0.44159967
230	0x3c69ea1e	0.014277009
231	0x3da49241	0.08035708
232	0xbdd0d6d0	-0.10197222
233	0x3e747e3c	0.2387628
234	0xbbd2cf3f	-0.006433397
235	0x3e139c2b	0.14415042
236	0x3d1a32b5	0.037646014
237	0xbd8f0ef3	-0.06985273
238	0xbd99d26f	-0.0751084
239	0xbc62f3cc	-0.013852071
240	0x3e094fa3	0.13409285
241	0x3e07497f	0.1321163
242	0x3d328b7a	0.043590046
243	0x3da3cbf8	0.07997888
244	0xbe012653	-0.12612276
245	0x3e783ffb	0.24243157
246	0x3d30f58d	0.043202925
247	0x3e384ec6	0.179988
248	0x3d94ab46	0.0725923
249	0x3cc64517	0.024202866
250	0x3c975a04	0.01847554
251	0x3dbb8701	0.09156609
252	0xbd1618c9	-0.03664473
253	0xbdfeb757	-0.12437313
254	0x3c0f6505	0.008752112
255	0xbd81ad14	-0.0633184

lstm.weight_ih_l1 f4 [256, 64]
0	0xbac98a16	-0.0015376236
1	0xbc82bcd6	-0.015959185
2	0xbe0b4912	-0.13602093
3	0x3dcffce1	0.10155655
4	0xbc9c902d	-0.019111717
5	0xbd41c740	-0.04730916
6	0xbd48f03e	-0.049057238
7	0xbb4bd551	-0.0031102488
8	0xbd874a3b	-0.06605955
9	0xbd0b54ba	-0.03401635
10	0x3e05fe64	0.13085324
11	0xbd93382e	-0.0718845
12	0xbdc59b8d	-0.096488096
13	0xbddfd243	-0.10928776
14	0xbc73b014	-0.014873523
15	0xbdbb0ac3	-0.09132912
16	0x3dc40795	0.09571759
17	0x3cd23d40	0.025663972
18	0x3cf4eb46	0.029897343
19	0x3d9d4b82	0.076804176
20	0xbd8ddc46	-0.069267794
21	0x3e0ec51e	0.13942382
22	0xbde31cd7	-0.11089485
23	0x3d1976f7	0.03746697
24	0x3d74eecb	0.059798043
25	0x3daae9d0	0.083453774
26	0xbe183dda	-0.14867344
27	0x3b6797dc	0.0035338318
28	0x3d9b04b9	0.0756926
29	0xbdf6c179	-0.12048621
30	0xbc96a9cb	-0.01839151
31	0xbdc880b0	-0.0979017
32	0x3db47da8	0.088130295
33	0xbe00012c	-0.12500447
34	0xbb5a5ace	-0.0033318284
35	0xbe0cc2f2	-0.1374624
36	0xbcaefd23	-0.02136094
37	0xbcac4caf	-0.02103266
38	0xbd1d6fdf	-0.038436767
39	0xbdafafe6	-0.08578472
40	0xbc20030d	-0.009766352
41	0x3e0986e3	0.13430361
42	0x3dc11d92	0.09429468
43	0x3c9ea33a	0.019364942
44	0x3db21f65	0.08697394
45	0x3bb530a8	0.005529482
46	0x3d17b7fb	0.03704069
47	0xbd778c90	-0.060436785
48	0xbca694b3	-0.020334577
49	0xbe6095ec	-0.2193219
50	0xbaec4d74	-0.0018028454
51	0xbd5136b9	-0.05107758
52	0x3d20b3d4	0.039233997
53	0xbe384c5c	-0.17997879
54	0x3dc0e692	0.09418978
55	0xbdd40a9f	-0.10353588
56	0x3df1bb38	0.11803287
57	0xbd9057ca	-0.070479944
58	0xbde2cb94	-0.11073986
59	0xbd664eab	-0.056227367
60	0xbdd16c90	-0.10225785
61	0x3dfa8762	0.122328535
62	0xbddd608c	-0.108094305
63	0x3d72181b	0.05910502
64	0x3d8b8111	0.06811727
65	0x3d0ea639	0.03482649
66	0x3dfa25fc	0.12214276
67	0xbd48cbc0	-0.049022436
68	0xbcfc7445	-0.03081716
69	0x3e0d8ee6	0.13824043
70	0x3d91cf68	0.07119638
71	0xbcbfc8ed	-0.023411239
72	0xbd1fa58d	-0.03897624
73	0x3daaa070	0.08331382
74	0x3da7c427	0.0819171
75	0x3cf9744e	0.030450966
76	0xbd51f459	-0.05125842
77	0x3d839648	0.06425148
78	0xbe112fd6	-0.14178404
79	0x3d2b7bf3	0.041866254
80	0x3dc75f57	0.097349815
81	0x3d9ee8e5	0.07759265
82	0xbe0647ad	-0.1311328
83	0xbc3951e3	-0.011311027
84	0x3db61470	0.08890617
85	0x3d623461	0.055225734
86	0xbcb73983	-0.02236629
87	0xbd47edf5	-0.048810918
88	0x3db0876e	0.08619581
89	0xbe1b2b4a	-0.15153232
90	0x3d3ecdf7	0.046583142
91	0xbdcf8822	-0.10133387
92	0x3b098c20	0.0020988062
93	0xbd99a9fe	-0.075031266
94	0x3db6ef83	0.08932402
95	0xbe0bb51d	-0.13643308
96	0xbd9a63e2	-0.075385824
97	0x3cf5dd67	0.0300128
98	0x3d92d3c7	0.071692996
99	0xbdcca716	-0.099928066
100	0xbe13dae7	-0.14438973
101	0xbdebbea6	-0.11510973
102	0x3da2181a	0.07914753
103	0xbd88b637	-0.0667538
104	0x3c1fb186	0.009746915
105	0x3dba5c1a	0.09099598
106	0xbdb993b9	-0.09061379
107	0xbdb26548	-0.08710724
108	0x3dff05af	0.12452256
109	0xbd4b4f1b	-0.049635988
110	0xbd92303f	-0.071381085
111	0xbcc18abd	-0.023625726
112	0xbe018290	-0.12647462
113	0x3dca8837	0.09889262
114	0xbc74eaf2	-0.014948593
115	0x3d8c8fdb	0.06863376
116	0xbd8c9537	-0.06864398
117	0x3c89ea66	0.016835403
118	0xbd02a2da	-0.03189359
119	0xbd91963a	-0.071087316
120	0xbca15e88	-0.019698396
121	0xbcfc9020	-0.030830443
122	0x3b62a8b1	0.0034585411
123	0xbc8294bc	-0.015940063
124	0x3b9a7906	0.004714134
125	0x3dd2c577	0.1029157
126	0xbdc9f6df	-0.0986154
127	0x3de1e372	0.1102971
128	0xbb18a821	-0.0023293572
129	0x3d69c520	0.05707276
130	0x3d06a5b6	0.032872878
131	0x3de9ac21	0.11409784
132	0x3d2930bf	0.041306254
133	0x3d28ba96	0.041193567
134	0x3c635801	0.013875962
135	0xbd9e4e77	-0.0772981
136	0xbd4df774	-0.050284818
137	0xbda0cc01	-0.07851411
138	0x3e099d57	0.13438927
139	0x3be72a58	0.0070546083
140	0xbd740311	-0.059573237
141	0x3ce83172	0.02834389
142	0x3d0f77af	0.03502625
143	0x3cc897cd	0.024486447
144	0xbe11357b	-0.14180557
145	0x3e25569c	0.1614632
146	0x3de1cae9	0.1102503
147	0xbd733fe8	-0.059387118
148	0xbdde5886	-0.10856728
149	0xbd30e5c0	-0.043187857
150	0xbdba81be	-0.091067776
151	0xbd19d303	-0.037554752
152	0xbc48990e	-0.012243522
153	0x3c81ef28	0.015861109
154	0xbe12f6ca	-0.14351955
155	0x3e0a593b	0.13510601
156	0xbdc8dadf	-0.09807371
157	0xbdada9b1	-0.08479632
158	0xbb30275c	-0.0026878929
159	0x3c845c2c	0.016157232
160	0x3d5d7f2d	0.054076362
161	0xbe0a96f9	-0.13534154
162	0xbd7cd5cd	-0.061727334
163	0x3d558f31	0.05213851
164	0x3c37176d	0.011175019
165	0x3e2d705e	0.16937396
166	0x3b62ea5e	0.0034624557
167	0xbc622189	-0.013801941
168	0xbd8c84ca	-0.06861265
169	0xbcf2241b	-0.029558232
170	0x3d49e6bf	0.049292322
171	0xbdbbfe2d	-0.091793396
172	0xbdc47218	-0.09592074
173	0x3d52276e	0.051307134
174	0x3ba597a6	0.0050534783
175	0x3da4adfb	0.08040997
176	0xbd73a010	-0.05947882
177	0xbe04e0d6	-0.12976393
178	0xbdfc751d	-0.12327025
179	0x3e07de95	0.13268502
180	0xbd26654f	-0.04062396
181	0xbe4f6f62	-0.20257333
182	0x3dfd28b5	0.1236128
183	0xbe0d1b24	-0.13779885
184	0x3e164aed	0.1467702
185	0xbd98f877	-0.07469266
186	0xbc78ebc3	-0.015192929
187	0x3c68b0d2	0.0142023135
188	0xbc9d0e42	-0.019171838
189	0x3dc221e4	0.094791204
190	0x3d845517	0.06461542
191	0xbda81aae	-0.08208214
192	0x3bdab076	0.006673868
193	0x3e05ee76	0.13079247
194	0xbdf1252c	-0.11774668
195	0x3e2aa855	0.16665776
196	0xbe011c9d	-0.12608571
197	0xbdd9d7c6	-0.10636859
198	0xbd938f1d	-0.07205031
199	0xbd7502ed	-0.059817243
200	0xbdcfa552	-0.10138954
201	0xbdd5561a	-0.10416813
202	0x3e892fe8	0.26794362
203	0xbd8ecc46	-0.06972556
204	0x3daa05e6	0.08301906
205	0xbd0611de	-0.032731883
206	0x3ddafa93	0.106923245
207	0x3d711ca1	0.058865193
208	0xbdd42ca0	-0.10360074
209	0xbcd10bec	-0.02551838
210	0x3d14c3a2	0.036319382
211	0x3db81366	0.08988075
212	0xbdc6affc	-0.09701535
213	0x3dc55506	0.096353576
214	0xbd227c50	-0.039669335
215	0xbcfbafa5	-0.030723402
216	0xbd886b9e	-0.06661151
217	0xbd277d1b	-0.040890794
218	0xbe37dc4e	-0.17955133
219	0x3d4f9668	0.050680548
220	0xbdda1e49	-0.10650308
221	0x3ce6d270	0.028176516
222	0xbd6e7f1c	-0.05822669
223	0x3cdcda74	0.026959635
224	0xbd9e5fa6	-0.07733087
225	0xbdfddf37	-0.123960905
226	0x3dc4e123	0.09613254
227	0xbd988499	-0.07447166
228	0x3e0e933d	0.13923354
229	0x3e1687b2	0.14700201
230	0xbdc6b5d9	-0.097026534
231	0xbdb7ffd2	-0.08984341
232	0x3d524805	0.051338214
233	0xbcf3726e	-0.02971765
234	0x3d6a7dec	0.057248995
235	0xbe0e698f	-0.13907455
236	0xbd5e2d17	-0.05424222
237	0x3da57898	0.08079642
238	0xbceace6d	-0.028662885
239	0xbd356ab2	-0.044291206
240	0xbdbb8c54	-0.09157625
241	0xbda40d0b	-0.080103
242	0x3d8b41a8	0.06799632
243	0xbde49251	-0.1116072
244	0x3d9cacb5	0.07650129
245	0xbe10a967	-0.14127122
246	0x3d2f8648	0.04285267
247	0xbdba05d1	-0.09083141
248	0x3de10b08	0.10988432
249	0xbd8a794c	-0.06761417
250	0x3a092912	0.0005232255
251	0x3c86a666	0.016436767
252	0xbdd44a83	-0.103657745
253	0x3d4aa388	0.04947236
254	0xbdca5b66	-0.09880714
255	0xbc4b7ab8	-0.012419395

lstm.weight_hh_l1 f4 [256, 64]
0	0x3d0b4c1a	0.034008123
1	0xbd6995e3	-0.05702771
2	0xbd9d3aa4	-0.076772004
3	0xbde0726c	-0.10959324
4	0xbd3516b2	-0.044211097
5	0xbd973bf5	-0.07384483
6	0x3cb8e216	0.022568744
7	0xbe12e115	-0.14343674
8	0x3e15d0ae	0.14630386
9	0x3dc26cae	0.09493385
10	0x3ccb6193	0.0248268
11	0x3cc887fa	0.024478901
12	0xbdf170ba	-0.11789079
13	0x3d81a814	0.063308865
14	0x3ce7757f	0.028254269
15	0x3e2d5239	0.16925897
16	0xbbfed392	-0.007776686
17	0xbc2fd997	-0.01073303
18	0xbd3a6bd7	-0.045513
19	0xbd6b143f	-0.057392355
20	0xbd953a05	-0.07286457
21	0x3d90f850	0.07078612
22	0xbb6be95d	-0.003599725
23	0x3e086fb2	0.13323858
24	0xbd574ebe	-0.05256533
25	0x3c93aa99	0.018025683
26	0x3e0f844c	0.14015311
27	0xbd12b5f6	-0.035818063
28	0xbdcec275	-0.100956835
29	0x3e1f1853	0.15536623
30	0xbd48f44c	-0.049061105
31	0x3dca74e1	0.09885574
32	0xbd207d7f	-0.039182182
33	0xbded8778	-0.11598104
34	0xbdf44668	-0.119274914
35	0x3e04bd4c	0.12962836
36	0xbdbbfd1c	-0.09179136
37	0x3d93ef0d	0.0722333
38	0xbd73ae3c	-0.059492335
39	0xbd20d32a	-0.03926388
40	0x3d493c20	0.049129605
41	0xbc911b1b	-0.01771312
42	0x3c8cc492	0.017183576
43	0xbd90ebd5	-0.070762314
44	0xbc805265	-0.015664289
45	0xbd5939d9	-0.053033683
46	0x3da168c2	0.07881309
47	0xbc71d65a	-0.014760578
48	0x3d80013e	0.06250237
49	0xbd96abf0	-0.07357013
50	0xbda9905e	-0.08279489
51	0xbdc8d46c	-0.09806141
52	0xbbdab697	-0.0066745984
53	0x3d3371b4	0.043809608
54	0x3b031dda	0.0020006807
55	0x3dd21d4c	0.10259494
56	0x3d95cd06	0.07314496
57	0x3cc887f1	0.024478884
58	0xbd6a3af3	-0.057185125
59	0xbddc117b	-0.10745522
60	0x3c648bbf	0.013949334
61	0xbd8ec1dd	-0.0697057
62	0xbd5bc6a1	-0.053656224
63	0xbd084af5	-0.03327461
64	0xbd040809	-0.032234225
65	0xbcb4ee39	-0.02208625
66	0xbce7c2c2	-0.02829111
67	0x3d9db904	0.077013046
68	0xbda8d638	-0.08243984
69	0x3cfbda27	0.030743672
70	0xbd18aac5	-0.037272234
71	0x3dcdcc90	0.10048783
72	0x3dc312df	0.09525084
73	0x3dab1fc9	0.08355672
74	0x3c085e75	0.008323302
75	0xbcd2d689	-0.025737064
76	0x3ded6e44	0.11593297
77	0xbd646f94	-0.05577047
78	0x3d48ce02	0.04902459
79	0xbdb390d3	-0.087678574
80	0x3cdf6bc3	0.027273064
81	0xbd7d61fc	-0.061861023
82	0xbc539af3	-0.012915361
83	0xbda04338	-0.07825321
84	0x3d15774e	0.03649073
85	0xbd1c00b9	-0.038086627
86	0xbc085d85	-0.008323078
87	0xbdc60ac7	-0.09670024
88	0xbdf65f1e	-0.12029861
89	0xbb9ef0fe	-0.004850506
90	0xbdab12f4	-0.083532244
91	0xbcedf736	-0.029048543
92	0x3c0e00f7	0.008667222
93	0xbd074c8b	-0.03303198
94	0x3ddf29a1	0.10896612
95	0x3b0c8beb	0.0021445702
96	0xbdc0190e	-0.09379779
97	0xbe0f0036	-0.13964924
98	0x3dd1b253	0.10239091
99	0x3d857bf9	0.065177865
100	0x3e1b0839	0.15139855
101	0x3c8aeed3	0.016959583
102	0xbdd23de5	-0.10265712
103	0x3d994ff9	0.07485957
104	0x3df8cae8	0.12148076
105	0x3e0d6931	0.13809659
106	0x3d3d4d1b	0.04621611
107	0xbdf56b0b	-0.119833075
108	0xbcdc8db2	-0.026923034
109	0xbd43637c	-0.047702298
110	0x3bbcdc19	0.0057635424
111	0x3d00b4ee	0.031422548
112	0xbbcaaf52	-0.0061854506
113	0x3dad38f8	0.084581316
114	0x3d3baf6a	0.045821585
115	0xbd06a82d	-0.03287523
116	0xbd238525	-0.0399219
117	0xbd28d2c1	-0.041216616
118	0x3da161d0	0.078799844
119	0xbd26a30c	-0.040682837
120	0xbdffcadc	-0.12489864
121	0xbdb7509e	-0.089509234
122	0xbe1c3243	-0.15253548
123	0xbced57a0	-0.028972447
124	0xbd884aa1	-0.06654859
125	0xbccee6eb	-0.025256595
126	0xbd3838b0	-0.044975936
127	0x3d9418d0	0.07231295
128	0x3da897ab	0.08232053
129	0x3b969d08	0.0045963563
130	0xbdf6eb70	-0.12056625
131	0x3d872925	0.065996446
132	0xbae95867	-0.0017802835
133	0x3d2ef3c2	0.042712934
134	0x3d7a0ca0	0.061047196
135	0xbdd5c1c1	-0.10437346
136	0x3dd386ea	0.10328467
137	0x3de398ba	0.11113115
138	0xbd10828b	-0.035280745
139	0xbd3a617f	-0.045503136
140	0xbdcf2894	-0.101151615
141	0x3c7947b0	0.015214846
142	0xbd6a4da4	-0.05720295
143	0x3daa0cec	0.08303246
144	0xbcf8fb92	-0.030393396
145	0xbdfb7df2	-0.122798815
146	0x3d8dae48	0.06918007
147	0x3c4b8beb	0.012423496
148	0x3d5a76de	0.053336017
149	0xbdb3e475	-0.08783809
150	0x3d1c5aa8	0.038172394
151	0xbda961b5	-0.08270589
152	0x3ca06549	0.019579547
153	0xbcb5c417	-0.02218823
154	0x3d1a1967	0.03762188
155	0x3c915ad4	0.017743506
156	0x3d2aff2b	0.041747253
157	0xbd81c09d	-0.06335566
158	0x3d839aea	0.06426032
159	0xbd9acc21	-0.07558466
160	0xbdd3bbed	-0.103385784
161	0x3dcbe721	0.09956194
162	0x3d0617dd	0.0327376
163	0xbba15e58	-0.0049245767
164	0xbc0eccf9	-0.0087158615
165	0xbd2c86bf	-0.04212069
166	0xbdd29823	-0.10282924
167	0x3d7ab2e8	0.061205775
168	0xbdd62c53	-0.10457673
169	0xbd861bdc	-0.065482825
170	0x3cb7b1f4	0.022423722
171	0x3c9b9bc7	0.018995179
172	0xbd9796b6	-0.07401793
173	0x3dd1c865	0.102433
174	0xbdbe5b58	-0.09294766
175	0x3d9e5ce8	0.07732564
176	0x3d864893	0.06556811
177	0x3ddef8b8	0.10887283
178	0xbd31e0d9	-0.043427322
179	0x3dde62d0	0.10858691
180	0xbd89d781	-0.06730557
181	0xbc57397a	-0.013136262
182	0xbd479038	-0.048721522
183	0xbd0aed95	-0.033917982
184	0xbdb66cd5	-0.08907477
185	0x3dcec557	0.10096233
186	0x3bb3348d	0.005468911
187	0x3c895813	0.01676563
188	0x3decd40e	0.11563884
189	0x39c0ec0b	0.0003679696
190	0xbaa9a116	-0.0012941684
191	0xbd829d49	-0.06377656
192	0xbda7f68f	-0.08201324
193	0x3bc32b7e	0.0059561124
194	0xbaa8413a	-0.0012836822
195	0x3dc69083	0.09695532
196	0x3df2947c	0.118447274
197	0x3d94c6e8	0.07264501
198	0x3d1c484e	0.038154893
199	0x3ce7264f	0.02821651
200	0x3da01c28	0.078178704
201	0xbbe89a77	-0.007098492
202	0xbda4dc55	-0.080498375
203	0x3dd65454	0.10465303
204	0xbb92da2c	-0.0044815745
205	0x3aea84a1	0.001789231
206	0xbdc0d6ca	-0.09415968
207	0x3e088a46	0.13333997
208	0xbde22a3e	-0.11043213
209	0xbd9193e2	-0.071082845
210	0xbced0fd9	-0.02893822
211	0xbd1a168c	-0.03761916
212	0x3deb17e4	0.11479166
213	0xbdc51ba7	-0.09624415
214	0xbd796ccf	-0.060894784
215	0x3dc44f8d	0.095854856
216	0xbca52bf7	-0.020162566
217	0x3ad595bc	0.0016295235
218	0xbbbeaf85	-0.0058192634
219	0x3db5f610	0.08884823
220	0xbd4740b4	-0.04864569
221	0x3e27c9b8	0.16385543
222	0xbcbf75f4	-0.023371674
223	0xbd4defe5	-0.05027761
224	0xbdf1026b	-0.11768039
225	0x3d922fd3	0.07138028
226	0xbde60e63	-0.11233213
227	0xbde2e1f6	-0.11078255
228	0xbc9421e6	-0.01808257
229	0x3d610c7c	0.054943547
230	0x3deccd6f	0.11562621
231	0x3dd1e3a9	0.10248501
232	0x3dda0565	0.1064556
233	0xbe071d50	-0.13194776
234	0xbd8c0679	-0.06837172
235	0x3db4fa3f	0.08836793
236	0x3d83d045	0.06436209
237	0x3e03970b	0.12850587
238	0xbc677cbd	-0.014128861
239	0x3ba5a731	0.005055331
240	0x3d65af8a	0.05607561
241	0xbde9f727	-0.11424094
242	0xbdc7bada	-0.09752436
243	0xbdef6908	-0.11689955
244	0x3d88c34c	0.06677875
245	0xbc7eeeb3	-0.01555984
246	0x3df76a34	0.120808035
247	0x3dfe118e	0.12405692
248	0x3d0c8b92	0.034312792
249	0x3b60bb00	0.0034291148
250	0x3c656ad0	0.014002517
251	0x3d8fd63f	0.07023286
252	0xbdfc3231	-0.12314261
253	0xbdda4e65	-0.10659484
254	0xbcb31335	-0.021859745
255	0xbda4f2a5	-0.08054093

lstm.bias_ih_l1 f4 [256]
0	0xbc650798	-0.013978861
1	0x3da5e5f6	0.08100502
2	0x3df33e9e	0.11877178
3	0x3de443a5	0.11145715
4	0x3ca51202	0.020150188
5	0x3cdaa386	0.026689302
6	0x3dc29220	0.095005274
7	0x3dad578c	0.08463964
8	0x3ef55c89	0.4792216
9	0xbc475fcd	-0.012168837
10	0xbdac9424	-0.08426693
11	0xbd9823d9	-0.074287124
12	0x3d59ffe6	0.05322256
13	0xbd867cbd	-0.06566761
14	0x3bf208f6	0.007386322
15	0x3ee307f9	0.4434202
16	0xbc1e3817	-0.009656928
17	0xbb5feb39	-0.0034167303
18	0x3e088716	0.13332781
19	0xbdae12d9	-0.08499689
20	0x3d3bd130	0.045853794
21	0xbc22235d	-0.009896127
22	0xbd422e5b	-0.04740749
23	0xbd466adc	-0.048441753
24	0xbd37c155	-0.04486211
25	0xbd8bd72c	-0.0682815
26	0x3dc73f09	0.0972882
27	0x3c8f12ee	0.017465081
28	0x3d75aec2	0.059981115
29	0x3c14f49a	0.009091521
30	0xbd32f12f	-0.04368704
31	0x3d487c28	0.04894653
32	0xbcbf0408	-0.023317352
33	0x3d4b5016	0.049636923
34	0xbdaff74e	-0.085920915
35	0xbc0206df	-0.0079362085
36	0xbd851f1f	-0.065000765
37	0x3dca830e	0.09888278
38	0x3da86c78	0.08223814
39	0xbd14a327	-0.036288407
40	0x3d36c4b6	0.044621192
41	0xbd8874b8	-0.06662887
42	0x3de198ca	0.1101547
43	0xbdacf05f	-0.08444285
44	0xbdcecfdd	-0.100982405
45	0x3d6dc776	0.05805155
46	0xbd6a1c7c	-0.05715607
47	0xbdf3a260	-0.11896205
48	0xbdebcd45	-0.115137614
49	0x3e08fd11	0.13377787
50	0xbda2cbcd	-0.07949028
51	0x3ddaf5b3	0.10691395
52	0x3d3bef4f	0.04588252
53	0x3d541731	0.05177993
54	0xbc28e107	-0.010307557
55	0x3d65e806	0.056129478
56	0x3d16a488	0.036778003
57	0x3de2b199	0.1106903
58	0x3c916d78	0.017752394
59	0x3d6addc8	0.057340413
60	0x3b5146de	0.003193311
61	0xbcb83f37	-0.02249108
62	0xbe006c66	-0.1254135
63	0xbd7683d1	-0.060184304
64	0xbca73b53	-0.02041403
65	0x3d83f630	0.06443441
66	0x3dd77afb	0.105215035
67	0x3d867b16	0.065664455
68	0xbdbe66e3	-0.09296968
69	0x3dae6efb	0.085172616
70	0x39ff182a	0.00048655394
71	0xbb1d4622	-0.0023998101
72	0xbdd009cb	-0.10158118
73	0xbd8312a5	-0.064000405
74	0x3dad928c	0.08475217
75	0x3d9776a4	0.07395676
76	0xbd129bb5	-0.035793025
77	0x3c909a46	0.017651688
78	0xbd9da3e4	-0.07697275
79	0xbe19e89c	-0.1503014
80	0xbdd816e0	-0.10551238
81	0xbd196e32	-0.037458606
82	0xbdf2c909	-0.11854751
83	0x3ccfdeff	0.025374888
84	0xbdc5e16f	-0.09662139
85	0x3d2d8757	0.0423654
86	0xbc22d9b9	-0.009939604
87	0xbe0d5e6f	-0.13805555
88	0xbda297c3	-0.079391025
89	0xbdf0f249	-0.11764962
90	0xba2fe8b0	-0.00067103934
91	0x3d9932ec	0.07480416
92	0x3c7382f3	0.014862764
93	0xbc4170c4	-0.011806671
94	0x3db456f5	0.08805648
95	0xbdf2e926	-0.11860876
96	0x3a46d74b	0.0007585182
97	0xbb8b5ee1	-0.004253254
98	0x3ddbd6dd	0.10734341
99	0xbd8a9a65	-0.0676773
100	0x3dee69b4	0.11641255
101	0x3d80b937	0.06285327
102	0xbbbd2571	-0.0057722856
103	0xbd93c732	-0.07215728
104	0xbe046af8	-0.1293143
105	0xbbb7a85d	-0.0056047873
106	0xbd55da7b	-0.052210312
107	0x3d7394b9	0.059468005
108	0xbbdce65d	-0.0067413286
109	0xbde83469	-0.113381214
110	0x3da12cd0	0.078698754
111	0x3d2cb0c6	0.04216077
112	0xbe17fd68	-0.1484276
113	0xbde71afc	-0.11284444
114	0xbd800d35	-0.06252519
115	0x3d97ee9d	0.07418559
116	0xbc223575	-0.00990044
117	0xbdbe53e5	-0.09293345
118	0xbddb50cf	-0.107087724
119	0x3ca38fc3	0.019966012
120	0xbd937bc7	-0.07201343
121	0x3decfcb1	0.115716346
122	0xbd1ade6b	-0.03780977
123	0xbc694a16	-0.014238855
124	0xbd0776c6	-0.033072256
125	0x3d5dea42	0.054178484
126	0x3cb0ee89	0.021598117
127	0xbdbd8da5	-0.09255532
128	0x3dd1b9ce	0.102405176
129	0x3cb9c30e	0.022676017
130	0x3d7866d8	0.060644954
131	0x3c8bb8f4	0.017055966
132	0x3dc258b1	0.09489573
133	0x3db5e5bc	0.08881709
134	0x3c0fb63f	0.008771478
135	0xbd97a0a6	-0.07403688
136	0x3d3e2c61	0.04642904
137	0x3d9d3f7a	0.07678123
138	0x3d5ffa15	0.054681856
139	0xbb371fc8	-0.0027942527
140	0xbc3c2bf3	-0.011485088
141	0x3d03aec0	0.032149076
142	0x3d539afc	0.051661476
143	0x3db173f1	0.08664692
144	0xbd5e7f2c	-0.0543205
145	0xbe04fb67	-0.12986527
146	0xbdf64672	-0.12025155
147	0x3dd00854	0.101578385
148	0xbde5ca91	-0.11220277
149	0xbd177163	-0.03697337
150	0xbd865a06	-0.06560139
151	0x3db93d92	0.09044947
152	0xbdba47a2	-0.09095694
153	0xbd3efa60	-0.046625495
154	0xbd5e07f2	-0.054206796
155	0x3cf31e4a	0.029677529
156	0x3d994672	0.074841395
157	0x3d891196	0.066928074
158	0xbddd2eef	-0.107999675
159	0xbd4eb02d	-0.050460983
160	0x3c766e9b	0.015041019
161	0x3df00a48	0.11720711
162	0xbcb86a06	-0.022511493
163	0xbcc52925	-0.02406747
164	0xbdb1c09e	-0.08679317
165	0xbda8e907	-0.082475714
166	0x3c555775	0.01302134
167	0x3cc58059	0.024109052
168	0xbd90887c	-0.07057282
169	0x39f3f23b	0.00046529048
170	0x3e0da317	0.13831745
171	0xbdc0df31	-0.094175704
172	0xbcd19fef	-0.025588958
173	0xbcd1ae4b	-0.025595805
174	0x3d9efb15	0.07762734
175	0x3dc6b8ef	0.09703242
176	0x3dd45c24	0.10369137
177	0x3df0d323	0.11759021
178	0x3dfa0622	0.12208201
179	0xbb879f73	-0.004138881
180	0x3a4dae25	0.0007846079
181	0xbcdd6db0	-0.027029842
182	0x3d993865	0.074814595
183	0xbcc74a17	-0.024327321
184	0x3df99477	0.121865205
185	0xbbdb0013	-0.0066833585
186	0x3de7eef2	0.11324872
187	0x3de155c8	0.110026896
188	0xbcdd7ba7	-0.027036501
189	0xbda0de51	-0.078549035
190	0x3d8beb77	0.06832021
191	0xbc9bb9c0	-0.019009471
192	0x3ddab826	0.10679655
193	0xbd292b5b	-0.041301113
194	0x3e01e029	0.12683167
195	0x3d1ccd5c	0.038281783
196	0x3d69d03d	0.057083357
197	0x3d0ef5ec	0.034902498
198	0xbc8bae96	-0.017051022
199	0x3d2a7604	0.041616455
200	0x3ef560b8	0.47925353
201	0x3dbf8da7	0.0935319
202	0x3d3e79a0	0.04650271
203	0x3cd4df59	0.025985407
204	0xbdc8dc37	-0.09807628
205	0x3c1a0313	0.009400147
206	0xbd72bb55	-0.059260685
207	0x3ef9a78f	0.4876065
208	0xbb81c44f	-0.0039601694
209	0x3d62e94f	0.05539828
210	0xbc535437	-0.012898496
211	0xbdc28dfe	-0.09499739
212	0x3c3a9939	0.01138907
213	0xbd3721f9	-0.044710133
214	0x3c90ab45	0.017659793
215	0x3b80efe4	0.003934847
216	0xbd5aabd1	-0.053386513
217	0x3e05399f	0.13010262
218	0x3e4757f8	0.19467151
219	0xbdb11fc4	-0.08648637
220	0x3cb0eeb2	0.021598194
221	0x3c848801	0.016178133
222	0xbdbc42cb	-0.09192427
223	0xbd0678a0	-0.03282988
224	0x3c03bcf6	0.008040657
225	0xbdc6811b	-0.09692594
226	0x3e02e2b2	0.1278179
227	0xbc926947	-0.017872466
228	0x3dfde326	0.12396841
229	0xbaa73f3d	-0.0012759935
230	0x3bd726ba	0.006565896
231	0x3ca4dfcb	0.020126244
232	0xbde3e954	-0.11128488
233	0x3dd2a4f3	0.10285368
234	0x3e11bc19	0.1423191
235	0xbde6c496	-0.112679645
236	0xbd82678b	-0.063674055
237	0x3c951147	0.018196715
238	0xbdbecf55	-0.09316889
239	0xbd361c63	-0.044460665
240	0xbd780cd7	-0.06055912
241	0xbb203d52	-0.0024450612
242	0x3cdee764	0.027209945
243	0x3db21e42	0.086971775
244	0xbe0569b0	-0.13028598
245	0x3d97fb7d	0.074210145
246	0x3dc8f76c	0.09812817
247	0x3d8a1049	0.067413874
248	0x3e00bf43	0.1257296
249	0xbc1a10f1	-0.009403453
250	0x3dd2eca0	0.10299039
251	0xbde2b07c	-0.11068818
252	0xbdd94da7	-0.10610514
253	0x3da68e0d	0.08132563
254	0xbdbd7f9a	-0.09252854
255	0xbdd5cdc4	-0.10439637
