crypto_models/LINK_USD_lstm.pth (torch, 206117 bytes, 9 tensors)

lstm.weight_ih_l0 f4 [256, 1]
000000 06 81 60 bd 00 fe 8c 3c a3 65 b8 3c df aa 87 3d
       -0.054810546 0.01721096 0.022509402 0.06624388
000010 bc d6 fe 3d 31 c5 5f bd 71 e6 1d 3e 4a 30 1d bc
       0.12443301 -0.054631416 0.15419938 -0.009594033
000020 eb a1 7c bc ed 2b b4 bd 13 37 ea 3d e8 1a ee 3c
       -0.015419464 -0.08797441 0.11436286 0.029065564
000030 a6 3f 05 3e 88 7a d7 3c 09 60 9d 3d 53 a4 dd bd
       0.13012561 0.026303545 0.07684333 -0.10822358
000040 35 62 85 3d 8a 75 03 3e ab 3d ff bb 07 cf 26 3e
       0.06512872 0.12837806 -0.007789334 0.16289912
000050 ad e7 81 3d cb f3 b6 bd 88 f0 dd 3c e8 6f a1 3b
       0.06343017 -0.089332186 0.027092233 0.0049266703
000060 9f 36 af bb 24 ab a3 bd 63 f1 d0 bd 79 0f dd 3d
       -0.0053470875 -0.07991627 -0.10202291 0.10793967
000070 41 a6 15 bd eb e6 80 bc a5 f6 9a 3d 31 9b 79 3d
       -0.036535505 -0.01573511 0.07566575 0.060939018
000080 de c3 c8 bc fc 11 05 bd 1c 3a 0c bd f3 0b 1d 3e
       -0.02450746 -0.032487854 -0.034235105 0.1533659
000090 70 b0 a9 bd 3a 2a 00 3d a0 3a 2f 3c c5 0c cb bc
       -0.08285606 0.03129027 0.01069513 -0.024786362
0000a0 9b 4d b6 3d 26 69 72 bc e9 bd 3a bc 4a 06 c1 bb
       0.08901521 -0.014795577 -0.011397817 -0.0058906423
0000b0 a8 a0 88 3b fa 04 81 3d 25 f0 73 3d e7 97 18 be
       0.0041695423 0.06299777 0.05955519 -0.14901696
0000c0 df 85 fc 3d 60 1b 02 3e a1 cf 19 3e 6d e3 a3 bd
       0.123302214 0.12705755 0.1502061 -0.080023624
0000d0 b7 56 8d 3d 83 29 2a 3c 29 53 13 be fe 07 25 3e
       0.06901305 0.010385874 -0.14387192 0.1611633
0000e0 71 46 02 3d 1b 07 e3 3d cf c0 49 bd 8c c6 10 3e
       0.03180546 0.1108534 -0.049256142 0.1413824
0000f0 a5 f6 c0 3d 34 9f 1f bc fd c3 98 bd f3 5e b8 38
       0.09422044 -0.009742547 -0.07459257 8.7914894e-05
000100 96 58 85 bd d2 e1 9c 3c 3e 95 1f bc d4 59 9a bd
       -0.06511037 0.019150648 -0.009740172 -0.075366646
000110 60 02 10 3e 71 f1 e4 bc 16 e4 2c 3c 2c 0f 92 bb
       0.14063406 -0.02794716 0.010552427 -0.004457375
000120 9a 63 1d 3c 83 45 8a 3d 9a 2e ac 3c 5f fc ad bb
       0.009606266 0.067515396 0.021018315 -0.005309626
000130 78 94 3c 3d 8d 8f 47 3e 25 d4 cb 3d f7 4c 85 bd
       0.04604003 0.19488354 0.09952573 -0.065088205
000140 a7 41 25 3e 40 e7 aa bd cd 5a 6d bd d6 bf fa 3d
       0.16138326 -0.08344889 -0.057947922 0.12243621
000150 f5 cb 1d 3e b7 61 d5 bd 9a 58 3e 3d 9e f6 ea 3d
       0.15409835 -0.10419028 0.046471216 0.1147282
000160 1f ff 97 3c 4b 4a be bd 3e 9b 97 bd d8 ea 8a 3b
       0.018554268 -0.09291514 -0.07402657 0.0042394213
000170 76 43 15 bc 93 0f dd 3c e1 1b 28 3e cb 93 bf 3d
       -0.009110322 0.026984965 0.16416885 0.09354361
000180 a7 1b 8f bd f1 3b 05 be a8 ac 64 3d d2 0e f4 bc
       -0.06987696 -0.13011147 0.05582872 -0.029792223
000190 7b dc df bd bd bc dc 3d 2c 7a 82 bd 20 bc 08 3d
       -0.10930725 0.107781865 -0.06370959 0.033382535
0001a0 fa 04 55 bc 6d 14 16 be bc df c8 3d f3 c1 30 3d
       -0.013001675 -0.1465623 0.09808299 0.043153714
0001b0 cb b9 02 3e 73 1f 2c bd 90 c4 90 bd c4 b1 a0 bd
       0.12766187 -0.04202218 -0.07068741 -0.07846406
0001c0 6b cc ca 3d df 6d 22 3e 13 f0 01 3d 72 ee 09 bd
       0.09902271 0.15862225 0.031723093 -0.033674665
0001d0 96 ba 05 3d 30 90 a8 3d 25 a0 18 be 01 fd 87 3d
       0.032648645 0.082306266 -0.1490484 0.066400535
0001e0 b9 d0 b8 3d 3b 31 f4 3d a3 ac 24 3e 53 b6 28 3d
       0.09024186 0.119234525 0.1608148 0.041189503
0001f0 ad 9c ed 3d 33 f2 22 bd 2a 55 f0 3d 49 ce c9 bd
       0.11602149 -0.03978176 0.11734994 -0.09853799
000200 e2 71 15 3e 8b 12 34 be e5 22 d1 bd 95 cb d3 3d
       0.14594224 -0.17585199 -0.10211734 0.103415646
000210 d4 6c 73 bd 52 d6 8a 3c 03 81 f1 3d b5 0c ec bd
       -0.05942996 0.016947899 0.11792185 -0.11525861
000220 16 eb c8 3d 40 42 1c bc 84 0e 9f 3d 8f e8 0d 3e
       0.09810464 -0.00953728 0.077664405 0.13858245
000230 e0 5d 12 be d7 40 17 3e 54 d5 2d 3e 89 b9 12 be
       -0.14293623 0.14770828 0.1697591 -0.14328589
000240 bd 53 c7 bd cd 07 06 3e 1d aa 27 3e 21 ac d3 3d
       -0.09732769 0.13088913 0.16373487 0.10335565
000250 0a 64 c6 bd 43 3c 22 3e 21 d3 81 3d 41 55 be 3d
       -0.0968705 0.158433 0.06339098 0.09293605
000260 f0 5f 58 3c e5 f5 7c bd 2c 25 b2 bd 45 00 23 be
       0.013206467 -0.06175794 -0.08698496 -0.15918072
000270 5b 00 26 be 41 26 91 bd 5f 97 e6 bd a1 d4 02 be
       -0.16211073 -0.070873745 -0.112593405 -0.12776424
000280 78 4c b4 3d 72 e8 6e 3d 83 e2 d0 bd ab 45 e4 bd
       0.08803648 0.058327146 -0.10199454 -0.111461006
000290 76 52 c5 bd 6a b1 df bd 0f 52 29 3e 81 ea aa 3d
       -0.09634869 -0.10922511 0.16535209 0.08345509
0002a0 80 98 e0 bd 2f 4b e3 3d 2e 70 04 3e 5a ca 15 bc
       -0.10966587 0.110983245 0.12933418 -0.009142483
0002b0 a4 13 a8 bd a7 9c fd bd 39 43 15 3d dc d4 e0 bd
       -0.08206871 -0.12383395 0.03644106 -0.109781
0002c0 86 43 9f bd 39 bb 94 bb 06 6b 16 3e 85 cb 04 3e
       -0.07776551 -0.0045389202 0.14689264 0.12968262
0002d0 55 6e ee 3d 6f e1 0c 3d 17 28 fc 3d ec 54 e1 bd
       0.11642138 0.034394678 0.12312334 -0.11002526
0002e0 17 76 2d 3e 8e b6 8b 3d d2 8a 16 bd 6f 5b 31 3e
       0.16939579 0.06821929 -0.036753483 0.17320035
0002f0 73 38 17 bd d9 51 24 3d b4 f5 86 3d 56 9c 35 3d
       -0.03691907 0.04011712 0.06589833 0.044338547
000300 d9 94 17 3e b7 dd 12 bd 06 df f6 bd 42 76 82 3d
       0.14802875 -0.035855975 -0.12054257 0.06370212
000310 f2 63 9f 3d 69 13 01 bc b4 17 2e 3e 39 6a a2 bd
       0.07782735 -0.007878163 0.1700123 -0.079304166
000320 4c 4b 2d 3d 3d 85 8b 3d ad 4a 0c 3e 36 0b 95 bd
       0.042308137 0.068125226 0.13700362 -0.07277529
000330 01 24 56 bd 1d b8 cf 3b f9 03 c7 3d 69 b5 0e be
       -0.05228043 0.0063390867 0.097175546 -0.1393639
000340 cd 14 b3 3d 87 69 60 bc 3b cb da 3d 04 7d 2b 3e
       0.08744202 -0.013697035 0.106832944 0.16746908
000350 37 2c 2b 3d 64 2f f0 bd 56 a3 cc ba 57 f5 ff 3d
       0.041790213 -0.11727789 -0.0015612643 0.12497967
000360 b6 6f 72 bd 0c 45 0f bd 65 59 dc bd 45 a1 ae bc
       -0.059188567 -0.034977958 -0.10759238 -0.021317134
000370 09 1f 15 3e 71 c4 da 3d 04 53 81 3d 31 f1 81 bd
       0.1456262 0.106819995 0.06314662 -0.06344832
000380 79 21 84 3d e1 f8 af 3d 6a 75 af 3d c1 4e 24 3e
       0.06451697 0.08592392 0.08567317 0.16045667
000390 a2 81 84 bc d7 15 bd bd 76 53 28 3d bc 09 f5 3c
       -0.016175095 -0.09232681 0.04109522 0.029911868
0003a0 d7 10 4d 3d af 1d e0 bd 51 f7 f0 3d 40 bb a4 bd
       0.050064888 -0.10943162 0.11765922 -0.080435276
0003b0 a7 35 cb 3d e4 e0 28 3e 62 bb 01 be 90 78 8f bd
       0.09922343 0.16492039 -0.12669137 -0.07005417
0003c0 c2 7b a5 bd 13 b2 18 3d 4f 3f 40 bc 41 e2 85 ba
       -0.080802456 0.0372792 -0.011733844 -0.0010214524
0003d0 9c 53 6a 3d 4e 1c 73 bc b3 28 38 3c ef 9b 55 3c
       0.057208642 -0.014838291 0.011240172 0.013037666
0003e0 07 fc 68 bd f3 b4 98 3d a5 6b 81 3d 77 e8 b8 bc
       -0.056880977 0.07456388 0.0631936 -0.022571785
0003f0 75 93 4e 3d 34 05 ea bc 3b 87 69 bd 14 91 5f 3d
       0.050433595 -0.028566934 -0.05701373 0.054581717

lstm.weight_hh_l0 f4 [256, 64]
000000 e7 97 a1 3d db 13 80 bc d0 58 cf 3c 05 93 85 3c
       0.07890301 -0.015634468 0.025310904 0.016305456
000010 39 6a ba 3d 05 67 99 bd 4c b6 f3 bc 8f 5b 03 be
       0.091022916 -0.074903525 -0.029750012 -0.12827896
000020 98 51 0a 3e db ae 12 3d e1 36 cb 3a 6a f1 c4 bc
       0.13507688 0.035811286 0.0015504026 -0.024040896
000030 c3 11 6e bd a9 fa 0f 3e 96 2a 7c 3d 8d 6b ec bd
       -0.058122408 0.14060463 0.06156405 -0.11543951
000040 ab 5f 39 bd 91 78 59 bd 99 7a f4 3d 49 eb 0a 3e
       -0.04525725 -0.053093497 0.11937446 0.13566317
000050 79 85 0f be d4 1d 0d 3e 62 8b 92 3c 40 6f 98 bd
       -0.1401576 0.1378091 0.017888729 -0.07443094
000060 61 c9 bf bd 8e 65 c2 bd e0 7f 37 bd ae ae 23 3d
       -0.09364582 -0.09492026 -0.044799685 0.03996151
000070 48 6a cf bd fd 48 0b be 5d 8e ec bd a3 3e 90 3d
       -0.101276934 -0.13602062 -0.11550591 0.07043197
000080 1a 31 52 bd c1 8d 08 3e 53 17 a8 3d f5 73 55 3d
       -0.05131636 0.13335325 0.08207574 0.05211254
000090 84 b6 e3 39 f0 94 9b bd 2c ab 19 3e ad ed 77 3c
       0.000434328 -0.07596767 0.15006703 0.01513235
0000a0 17 f1 23 3d bf fe 6f 3d ea 40 0e 3e e3 28 60 bd
       0.040024843 0.058592554 0.1389195 -0.054726493
0000b0 ab 6b d3 3d f5 c5 63 bd 41 3d 8f bd fa 45 4b bd
       0.103232704 -0.05560871 -0.06994105 -0.04962728
0000c0 99 c9 86 3d ef 1b 10 3e b1 a1 fb 3d 1c 50 95 bd
       0.065814205 0.14073156 0.122866996 -0.0729067
0000d0 71 e4 9f 3d a5 40 97 bd 1b f9 a9 3d c7 89 86 3d
       0.078072436 -0.07385377 0.08299466 0.06569248
0000e0 ef 0e c4 bc b2 60 b5 3d 6a e4 d7 bc b2 3d f4 3d
       -0.023932902 0.08856334 -0.026354033 0.1192583
0000f0 fa 0a 6a 3d f3 94 f5 3b 6c 97 66 3d 07 1a c7 ba
       0.057139374 0.007494563 0.05629675 -0.0015190252
000100 68 24 e0 bb 0b 54 a9 bd 79 da 15 3e 84 b3 70 bd
       -0.0068402775 -0.08267983 0.14634122 -0.05876495
000110 e6 5d ab bd 37 dc f0 bd 84 ed 59 3d 82 1f b3 3d
       -0.08367519 -0.11760753 0.05320503 0.08746244
000120 7a cd 93 3d ac 39 62 3d 12 24 0f 3e f6 a4 e5 bd
       0.07216926 0.05523078 0.13978603 -0.112131044
000130 fd f7 aa bd b4 52 93 3d 23 85 d8 ba ce e6 83 3d
       -0.08348081 0.07193509 -0.001651917 0.06440507
000140 18 56 1d be 05 71 0c 3e 16 5c c7 3d 1d fe e4 3d
       -0.15364873 0.13714989 0.09734361 0.11181281
000150 13 48 00 be 17 f8 65 bd 6b 67 ce 3d 7a ea cb 3b
       -0.12527494 -0.0561448 0.10078319 0.00622302
000160 71 e5 3c bd 06 aa 3d 3c 5f ba c7 3d 6e e1 8f bc
       -0.04611725 0.011576181 0.09752344 -0.017563548
000170 ef ad d6 bc fb 92 44 bb 67 fc 99 bd eb a3 5c 3d
       -0.026205985 -0.0029994834 -0.07518845 0.05386726
000180 df 5e 3e 3d b6 21 da bd cb 12 ff bd cd 0a 9c 3d
       0.046477195 -0.10650961 -0.12454756 0.076192476
000190 18 f7 24 3d e2 ab e6 bd 86 94 d8 3d e8 dc 1f 3e
       0.04027471 -0.11263253 0.105752036 0.15611613
0001a0 e5 da d5 bd b8 46 13 be 50 f7 ae bb 52 e7 31 3c
       -0.104421414 -0.14382446 -0.0053395405 0.010858374
0001b0 c6 6f 21 3d de de b6 bc d0 cf a3 bd a2 05 01 bd
       0.039413236 -0.022323068 -0.079986215 -0.031499512
0001c0 66 8f 2b bc 04 d7 aa 3d 94 8f 1b 3e 60 06 8a 3d
       -0.010471201 0.08341792 0.1519149 0.06739497
0001d0 50 a7 00 bd bf b7 16 3d 5e 26 17 bd 5f 10 6e bc
       -0.03140956 0.036796328 -0.036901824 -0.01453027
0001e0 23 2f 22 3d a2 dc aa bc 99 f5 01 3e 32 46 fc 3d
       0.039595734 -0.020857159 0.12691344 0.12318076
0001f0 10 8d 0d be 1d 55 1a 3e 3e 2f 95 3d f9 14 05 be
       -0.13823342 0.1507153 0.07284401 -0.12996282
000200 8c b0 91 3d 1e 74 a4 3d 67 bd 38 bd 24 8a 7b bd
       0.07113752 0.0802996 -0.045102503 -0.061411038
000210 1d 4e 02 be 44 19 52 bd 33 65 c2 3d f7 98 50 bd
       -0.1272511 -0.051293626 0.094919585 -0.05092713
000220 da fb d7 3d de 66 96 bd 2f 53 8d bd 68 3f 92 bd
       0.10546084 -0.07343839 -0.06900632 -0.07141
000230 31 ed de 3d 43 f2 b3 bd 9f ac 92 3b db f9 3f bd
       0.108850844 -0.08786442 0.0044761444 -0.04686914
000240 cd 16 bd bd 9b 29 ce bd 6c e1 ae bd ab 5c 1b 3d
       -0.092328645 -0.10066529 -0.085390896 0.037930172
000250 2a bd 8a 3d 5e fd 8e 3c c1 f0 5e bc 37 49 d9 3d
       0.067743614 0.0174548 -0.013607205 0.10609668
000260 38 f8 ba bd ba 05 e3 bc b4 10 80 bd bb a5 f3 3d
       -0.09129375 -0.027712692 -0.06253186 0.11896845
000270 33 9a 06 bd 5b 9b 77 3d 0a e5 0f 3d 2a 20 35 3d
       -0.0328619 0.060450893 0.035130538 0.044220127
000280 c8 bd 01 3d 10 4b 5e bd cb c2 2a bb 90 41 47 3d
       0.03167513 -0.054270804 -0.0026056047 0.04864651
000290 91 b0 be bd d6 e1 43 bd 77 41 94 bd 48 0d cc bd
       -0.09311021 -0.047822796 -0.07239049 -0.09963471
0002a0 59 32 ef 3d 0e 57 46 bd b0 7f 7a bd 61 26 3b 3d
       0.11679525 -0.048422866 -0.06115693 0.045690898
0002b0 3e b7 b6 bd ee 11 ed bc 7d 81 b9 ba c2 01 b2 bd
       -0.089216694 -0.028939214 -0.001415297 -0.086917415
0002c0 a9 6e e2 bd 6a 54 59 3d f3 08 5b 3d 6c 41 40 bb
       -0.11056263 0.05305902 0.05347533 -0.002933587
0002d0 73 ec a1 bd 5c 29 e4 bc 80 65 6e bd 24 2a 8f bd
       -0.07906427 -0.027851753 -0.058202267 -0.069904596
0002e0 a0 95 4a bc 9f dc 28 bd 9f 5f 84 bd 0a 7c 4f 3d
       -0.012364775 -0.041226026 -0.06463551 0.050655402
0002f0 3a dc 2e bd 59 3b db bd 68 a8 ab bd ce cc e5 bd
       -0.042690493 -0.10704679 -0.0838173 -0.11220704
000300 0c 42 ae bd 1a c3 c7 bc 3f ad e2 bd 58 57 14 bd
       -0.08508691 -0.024385024 -0.110682 -0.03621611
000310 ef 4d 2f bd 20 f0 d7 bd 6e 57 24 3d 1b f6 0e be
       -0.042798933 -0.10543847 0.040122442 -0.1396107
000320 66 37 d8 bd 7f 8b ef 3d 19 06 01 3e f9 53 f6 bc
       -0.105574414 0.11696529 0.12599982 -0.030069338
000330 ac 1c b8 bc 9e 22 99 bd 88 34 41 bd a0 f9 85 bb
       -0.02247461 -0.07477306 -0.04716924 -0.0040885955
000340 7a 3b 28 3d fd 84 cb bc 4b b8 c2 3a 1a b5 34 3d
       0.041072346 -0.024843687 0.0014855949 0.044118024
000350 1f b6 89 3d f5 be 9a bd d5 79 04 3e 7d 65 12 3d
       0.0672419 -0.075559534 0.129371 0.035741318
000360 a8 7d cd bd 0e 8b 8b bc 07 5b 92 bb ca ed f2 bd
       -0.10033733 -0.01703408 -0.0044664177 -0.11861761
000370 dc c6 e6 bd 45 b1 aa bd 51 57 01 3d 27 e5 52 bd
       -0.11268398 -0.08334593 0.031577412 -0.051488068
000380 4e 04 b1 3d a9 3f 06 3d 21 ca 7d 3d a0 f9 41 bd
       0.08643399 0.032775555 0.061960343 -0.0473572
000390 4a db f8 bd a3 90 55 bd d0 40 29 3d 89 2e ea bc
       -0.12151201 -0.05213989 0.041321576 -0.028586643
0003a0 c5 5b 4a bd 8e a6 0a 3e 55 74 cf bd c5 9e 03 3e
       -0.049403924 0.13540098 -0.101296104 0.12853535
0003b0 74 2e 86 3d fb d0 1e 3d 6d c7 d1 3d 95 26 c7 bc
       0.06551829 0.038773518 0.102431156 -0.02431039
0003c0 07 c6 c0 bd 96 52 aa bc 9a eb 3f bd 55 2b 2f 3d
       -0.09412771 -0.020791333 -0.046855547 0.042765934
0003d0 76 12 59 bd 29 37 f2 3b 4f 4b da 3d fa d7 51 bd
       -0.05299612 0.0073918295 0.10658895 -0.051231362
0003e0 a5 1f 3e 3d 97 5c 32 bd 7a aa ed 3c 31 4d 8c bd
       0.046416897 -0.04354533 0.029011954 -0.068506606
0003f0 5b 8e 9a 3c eb 88 f6 3d 01 b5 28 bd 60 cd 0c bd
       0.018866709 0.12037834 -0.041188244 -0.03437555

lstm.bias_ih_l0 f4 [256]
000000 98 c5 48 bc df 81 5b bd dc aa f4 bd 00 69 d4 bd
       -0.012254141 -0.05359065 -0.11946651 -0.1037159
000010 f7 47 fb bc c8 81 81 bd 72 81 1e bc be 38 57 3c
       -0.030673964 -0.06323582 -0.009674417 0.013136087
000020 75 4c 69 3c 9d 14 fb bd 37 a4 37 bd 57 60 2c 3d
       0.01423942 -0.12259791 -0.04483434 0.042084064
000030 82 8d e6 3d e2 12 59 3b 82 08 98 3d cd 10 20 bc
       0.11257459 0.0033122827 0.07423498 -0.009769631
000040 2f 9d 97 bd 21 ec 22 3d 89 ad f2 ba d8 f4 c1 3d
       -0.07403027 0.03977597 -0.0018514852 0.09470528
000050 57 e7 85 bd c1 51 8f 3d fc 7c 9d 3d 79 78 57 3b
       -0.06538265 0.06998015 0.076898545 0.0032878204
000060 8b 9d 75 3d ec 27 a9 bd 66 b7 e2 bd c6 5b fc 3d
       0.059964698 -0.082595676 -0.11070137 0.12322192
000070 0d 25 8e 3c da 0d c1 3d b4 81 0c 3d 9b dd 01 3e
       0.017351652 0.0942647 0.034303382 0.12682192
000080 8a 2d 45 3d c9 99 a4 bc 5c 24 ee 3d c5 12 fd 3d
       0.048139133 -0.020092862 0.11628029 0.12357096
000090 6c bb 8d 3c c2 b2 3c 3d 42 5e 8d 3d 53 27 03 bc
       0.017301284 0.046068914 0.06902744 -0.008004981
0000a0 06 91 7d 3d df 03 a5 bd 75 79 49 bd 65 f8 8c 3d
       0.061905883 -0.08057379 -0.049188096 0.06883315
0000b0 3f 60 2f 3d 82 d7 ef 3d f8 1b b1 bd f1 31 3b 3d
       0.042816397 0.11711027 -0.08647913 0.045701925
0000c0 f6 8e 75 bd 9e 4b db 3d 72 c1 ac 3c 9d a3 d6 3c
       -0.05995079 0.10707782 0.021088336 0.026201064
0000d0 74 06 19 bd a3 5a 1e ba 15 e0 7e bb 59 68 f8 3c
       -0.03735967 -0.00060407276 -0.0038890888 0.030323194
0000e0 ca e5 2f ba b9 d2 40 bb 00 ab c8 bd 26 06 10 3d
       -0.00067099615 -0.0029422475 -0.09798241 0.035162114
0000f0 8c 97 7f 3d bf 5b f9 bd 02 67 1b bd b6 f6 9e 3c
       0.062400386 -0.12175702 -0.037940033 0.01940475
000100 bc 32 e5 3c bd 92 92 3d 78 38 36 bd 98 a7 cd bd
       0.027978294 0.07156894 -0.044487447 -0.100417316
000110 90 14 8b 3d 0c 1b 44 bd ab 80 97 3c 4f 41 60 3d
       0.06791031 -0.047877356 0.01849397 0.054749783
000120 64 7a 79 3d 7c 7a a4 bd 0a 7a d7 bd 2e 18 51 3d
       0.060907736 -0.080311745 -0.10521324 0.05104845
000130 c1 8f 78 3d 33 c0 4e 3d 4a 4d c3 bd a4 a5 97 bb
       0.06068397 0.050476264 -0.09536226 -0.0046279
000140 f8 37 a5 bd 84 ca 18 3d 01 ae ea 3c 6d e8 89 bc
       -0.08067316 0.03730251 0.028647425 -0.016834462
000150 22 d4 b0 bc e6 99 2c 3d e0 28 4f 3d 56 c2 ab bd
       -0.021585528 0.042138956 0.05057609 -0.08386676
000160 6f d7 89 bd 87 ac ae bc 4e 85 8b bd 58 61 03 3e
       -0.06730544 -0.021322502 -0.06812535 0.12830102
000170 d9 9d b5 3b bf f3 20 3c 56 c9 49 bd 5c 48 50 3d
       0.0055424985 0.009823739 -0.049264275 0.050850257
000180 f1 64 c6 bd 27 ed c4 3d 21 20 e3 3d c3 12 cd bd
       -0.09687222 0.09615546 0.110901125 -0.10013344
000190 e7 39 5e 3d a7 07 8c 3d 5c 86 e9 3d 16 71 d6 3d
       0.05425444 0.06837397 0.1140258 0.10470788
0001a0 d0 38 dd bd 21 88 b6 bd 63 a2 83 3d ed 69 95 3c
       -0.10801852 -0.08912683 0.06427457 0.018238986
0001b0 19 ba 77 3d 4f ee 77 bd 7d 8c 77 3c 14 fc 3e bd
       0.06048021 -0.060530003 0.015109179 -0.04662712
0001c0 48 c5 8b 3d 94 8c e0 3d 96 cc ad bc 40 cc 54 3c
       0.06824738 0.10964313 -0.021215718 0.01298815
0001d0 21 9c af bc 30 ec ab bd 2c 2f d2 3d 31 fb eb 3d
       -0.021436753 -0.083946586 0.102629036 0.1152252
0001e0 de 64 14 3d 23 6b 2b bc b0 8a 36 bd f2 bc c8 3a
       0.036229007 -0.010462555 -0.044565856 0.0015315099
0001f0 34 0b 65 3d 34 20 5a 3c b5 25 9f 3d 5f 52 9c 3d
       0.055918887 0.013313342 0.07770864 0.076328985
000200 c4 b1 5c bd 5b 77 ef bd f0 ef ce 3d d6 71 01 3e
       -0.053880468 -0.11692687 0.10104358 0.12641081
000210 b8 9d 4b 3c 90 ed 02 be 16 d5 8c 3d 5e 5e 28 bd
       0.01242774 -0.12785935 0.068765804 -0.04110562
000220 e8 d2 0d 3d 32 73 80 bd 69 7f 15 bb 3f ef dd bd
       0.034624964 -0.06271972 -0.0022811538 -0.10836648
000230 32 df 0a 3e 9a d5 1b bd a4 24 92 3c 4b 55 79 bd
       0.13561705 -0.038045503 0.017839737 -0.060872357
000240 51 0f c9 bd b5 aa 11 3d 73 8c d3 bd 09 d2 eb bc
       -0.098173745 0.03556319 -0.10329523 -0.028786676
000250 06 d9 a7 3d 51 c1 9c 3d 91 c5 8e 3c 3d ac ba 3d
       0.08195691 0.0765406 0.017428191 0.09114883
000260 78 9f d2 3d bb ce f3 3d 4b 19 ed 3d d7 15 d5 bd
       0.102843225 0.11904665 0.1157709 -0.10404556
000270 75 96 9f 3d 33 1c fa 3c 2e 62 dc bc e2 de 9b bd
       0.07792369 0.030531025 -0.026902284 -0.07610871
000280 ea 1f ae 3d dc 94 a5 3c 43 ca ca 3c 6d 2a c4 3d
       0.08502181 0.020212583 0.024754649 0.095784046
000290 80 1e bf bd 31 31 df 3d 56 db 05 be a8 e8 bb 3d
       -0.09331989 0.108980544 -0.13071951 0.09175235
0002a0 b3 0e f4 3c 4c 7b 4b 3d a7 ac 4a bd e2 73 1c 3d
       0.029792165 0.049678132 -0.04948106 0.038196452
0002b0 21 23 31 bc 9d bd aa bd b5 69 ee bd e9 62 a4 bd
       -0.010811598 -0.08336947 -0.11641256 -0.08026678
0002c0 a2 7d c8 3d 60 9b c7 3d ed dc b3 bd 8b 8b ec bb
       0.097895876 0.09746432 -0.087823726 -0.0072187833
0002d0 7f 84 dd bc f9 9e 14 3d aa 89 a6 bd 62 01 a3 bd
       -0.027040718 0.03628442 -0.08131726 -0.07959248
0002e0 70 15 90 3d bf a3 82 3d 95 9f cb 3d 07 82 0d bd
       0.07035339 0.06378888 0.09942547 -0.034547832
0002f0 f6 c0 bd ba 54 3f 4e 3d 16 49 a3 bd 58 da a1 bd
       -0.0014477063 0.050353363 -0.079729244 -0.07902974
000300 a6 fe c0 bd 42 e1 9f 3c bd f7 57 3c 05 ca a2 bc
       -0.0942357 0.019516591 0.013181624 -0.019871721
000310 9a 80 f7 3d 99 54 44 3d e7 f2 4d bd 34 a3 16 3d
       0.12085076 0.04793224 -0.050280478 0.036776736
000320 6c de de bc 38 02 81 bd 52 76 ca 3b 6a f4 db bc
       -0.027205668 -0.06299251 0.0061786557 -0.026849944
000330 c3 97 bf 3d 00 7a 73 3d 49 fe 0e bd 24 d8 16 3d
       0.09355118 0.05944252 -0.034910474 0.03682722
000340 32 2c 0a 3d 41 44 85 3d 34 f0 a4 3d c5 ff aa bd
       0.033733554 0.06507159 0.080536276 -0.083495654
000350 fe 52 fb 3d b2 d3 95 3d 05 c5 b7 bd 67 dc 01 bd
       0.12271689 0.07315768 -0.08973125 -0.031704333
000360 cd c1 ef bd 13 93 96 3d 60 82 d4 bd 51 f1 a2 bc
       -0.117068864 0.07352271 -0.103764296 -0.01989046
000370 a4 42 11 3d 6d 44 0c bc 79 a5 65 3d 02 e5 11 bd
       0.035463944 -0.008561236 0.05606601 -0.03561879
000380 a0 c9 ca bc 02 d5 e3 3c 46 ac a7 bd dd d5 d3 3d
       -0.024754345 0.027811531 -0.081871554 0.103435256
000390 3b e8 0f 3e 25 d9 4e 3d 69 a1 69 bc e1 af 9c bc
       0.14053433 0.050500054 -0.014259675 -0.019126834
0003a0 30 92 cc bd 43 eb a3 bc f8 08 ed bc fc e2 95 bd
       -0.099888206 -0.020009642 -0.02893494 -0.073186845
0003b0 16 74 c7 3d 6f 17 b4 bd 51 4c 11 bd 48 f8 31 bd
       0.097389385 -0.08793532 -0.03547317 -0.04344967
0003c0 1f 41 1a 3d 8f 0b c3 3d 44 04 ae 3c 7b 68 c9 3d
       0.03765976 0.09523689 0.021242268 0.09834381
0003d0 91 c2 ef 3c fb bf c6 bb 97 d4 f7 3d 1e 98 28 bd
       0.029267581 -0.0060653663 0.12101095 -0.041160695
0003e0 a9 3d 02 3e b3 b0 9c 3d a5 80 ae 3d fd 09 12 3d
       0.12718834 0.0765089 0.08520631 0.035654057
0003f0 fc 72 69 3b 27 4c 19 3c 83 e8 45 bc ed fa 93 3d
       0.0035621515 0.009356535 -0.012079361 0.07225595

lstm.bias_hh_l0 f4 [256]
000000 91 74 88 3d d0 33 16 3e 0c 0e e4 3d de e8 b8 3d
       0.06662858 0.14668202 0.11135492 0.09028791
000010 99 81 af 3c 3c 9c 0f bd fb b7 8f bc ad 00 de 3b
       0.021424102 -0.035061106 -0.017543783 0.006774983
000020 46 13 b2 3d 1f fd c9 bd 02 5f 9a bd c1 f8 5b bd
       0.08695082 -0.09862732 -0.075376526 -0.053704027
000030 6c 3a 4f bd 05 6e cb bb c0 a2 dd 3d 6a 14 f0 bd
       -0.050592825 -0.0062081837 0.10822058 -0.11722644
000040 29 c9 b4 3c 97 58 ac 3d ff ac 08 3e 6c bf a9 3d
       0.022068577 0.08415335 0.13347243 0.08288464
000050 bd f8 96 bb d9 16 76 3e d4 68 1e 3d 7b 6b 9c bd
       -0.0046072886 0.24032153 0.03867419 -0.07637688
000060 90 6a e9 bd 9c fe 00 3b 08 4b d7 bd 1a 42 e4 3d
       -0.11397278 0.001968301 -0.10512358 0.1114542
000070 eb 39 33 bd 9a cc 9b bd fc c7 1a bd 40 1b 48 3c
       -0.043756407 -0.07607384 -0.037788376 0.012213528
000080 a5 73 cc 3d 70 20 bc 3d 7f d9 16 3d 1a 57 8b 3d
       0.09982995 0.091858745 0.036828514 0.06803723
000090 bf 78 02 3d 05 aa 90 3c 92 57 dd 3d 91 6f ae bd
       0.031853434 0.017659197 0.10807718 -0.08517373
0000a0 a8 04 86 bd a1 eb a6 bb 3d 87 58 bd 1b 53 f7 bd
       -0.06543857 -0.005094007 -0.05286335 -0.12076398
0000b0 d4 f6 18 bc c2 d4 84 bd c9 f8 21 3d 33 c0 ba bd
       -0.009336192 -0.06485893 0.0395439 -0.0911869
0000c0 dc fb ed 3d 92 a6 c7 3d 60 4e ab 3d e1 8d 97 bd
       0.11620304 0.09748568 0.08364558 -0.07400108
0000d0 39 99 f3 bc 83 9a a0 3d dc fd 31 3d bd 53 05 3d
       -0.029736148 0.07841971 0.04345499 0.032550562
0000e0 19 70 92 bc 00 d6 59 3d f3 2d 38 3d be b2 85 3d
       -0.017875718 0.053182602 0.044965696 0.06528233
0000f0 3f 34 3d 3d 5f 5d 53 bc c8 69 ee 3d 6e 24 66 bc
       0.046192404 -0.012900679 0.1164127 -0.014046771
000100 f6 35 b4 3d c5 c2 d1 3c 23 66 b7 bd 91 c3 1c bd
       0.08799355 0.025605569 -0.08955028 -0.038272444
000110 dd 5b d6 bc 78 91 93 3d 4f 44 c2 3d cb d2 83 3d
       -0.02616685 0.0720548 0.09485685 0.0643669
000120 ae 80 70 bd 3a e7 f3 bd 9f 4e 04 bd be ea 03 bd
       -0.05871647 -0.11909337 -0.03230154 -0.03220629
000130 c4 7b 8e bd af fb 06 3b 70 cc 34 3c 48 18 b9 3c
       -0.069572 0.0020596792 0.01103507 0.022594586
000140 fb dc 8e 3c ba de fd bc f8 5a e6 3d 01 d3 40 bd
       0.017439356 -0.030989993 0.1124782 -0.04707623
000150 15 af 2e 3d 01 ef fe 3d 60 17 3a 3d 14 a1 e3 3c
       0.04264744 0.1244793 0.04543245 0.027786769
000160 82 cd 75 bd 88 bc 37 bd 0e e7 91 3d 23 d0 9a bd
       -0.06001044 -0.04485753 0.07124148 -0.0755923
000170 8a 16 8a bd 79 db ca bd a2 af 93 3d b3 b4 c0 3d
       -0.0674258 -0.09905142 0.07211234 0.09409466
000180 c1 a9 cc 3d 9c 42 1b bd b5 9d 91 bc a0 e7 1b 3c
       0.099933155 -0.03790532 -0.017775396 0.009515673
000190 a5 a3 43 3d a3 dc 97 bc c0 89 cc bd 78 f1 d2 3d
       0.047763485 -0.018537825 -0.09987211 0.10299963
0001a0 98 5e 35 bd 1b 4c e0 3d b5 de 0f 3d 59 34 80 bd
       -0.044279665 0.10952016 0.0351245 -0.062599845
0001b0 ed 3d 58 3d 75 8e ee bd 72 36 c1 bd 80 98 5f bd
       0.052793432 -0.11648265 -0.09434213 -0.054588795
0001c0 3a 5b 72 bd 12 41 e7 3c 51 28 19 3e d7 62 c0 3d
       -0.05916903 0.02822927 0.14956786 0.09393852
0001d0 79 50 c7 bc 4a 27 f8 3d dc 2f a2 3c bf 80 05 bd
       -0.024330365 0.12116869 0.019798212 -0.032593485
0001e0 7e 0e 0b bd 60 a0 d4 ba 96 6c dd bd 67 a7 23 bd
       -0.033949368 -0.0016222112 -0.10811727 -0.03995457
0001f0 30 25 91 bc cd 8d ec 3d ce 53 d2 3c 49 e2 d1 3d
       -0.017717928 0.11550484 0.025674727 0.102482386
000200 df 00 99 3d d0 ef f5 3d 10 e1 20 bd 6b 2a b1 3d
       0.07470869 0.12008631 -0.039277136 0.08650669
000210 2a 67 98 bd 50 95 bb 3d 48 aa b0 bd b6 63 2a bd
       -0.07441552 0.091593385 -0.086262286 -0.041598998
000220 a4 26 23 3c 23 fb 2e 3d 7a b2 53 3c d4 d9 85 3c
       0.009957943 0.04271997 0.01292097 0.01633922
000230 14 c3 c8 bd 20 a2 89 3d c0 7b 9a bd 04 d6 a0 3d
       -0.09802833 0.06720376 -0.07543135 0.0785332
000240 af fc 6d bd d3 99 3f 3d 7f 7d cd 3d c4 fc 14 bd
       -0.058102306 0.046777558 0.10033702 -0.03637387
000250 42 f7 d5 bd 03 5a 06 be ce a1 fb 3d 73 35 d8 bd
       -0.10447551 -0.13120274 0.12286721 -0.1055707
000260 9d 00 a9 3c 29 f1 e6 3d 03 30 57 3d 3b 8a 34 bb
       0.020630175 0.112764664 0.052536022 -0.0027548212
000270 df 6b b3 bd b3 e5 42 bd 5d 02 66 bd f2 e7 b9 3d
       -0.08760809 -0.04758234 -0.056154598 0.09077443
000280 45 7c 16 bd fa 8d 48 bc e7 ae cd bd 95 e8 fc bd
       -0.036739606 -0.012240881 -0.100431256 -0.12349049
000290 cb 4a 24 3d 0f 4e 90 3c 47 cb c1 3d d6 4e b3 3c
       0.04011039 0.017615346 0.094626 0.021888178
0002a0 8a 60 56 bd c7 4e eb bd aa 69 17 3b 8e 6e 3b 3c
       -0.05233816 -0.11489635 0.0023103752 0.0114399325
0002b0 4c 88 e7 3c cb 60 ba bd 09 c2 01 3d 23 9e 85 3d
       0.028263234 -0.09100493 0.031679187 0.06524303
0002c0 32 6a 59 3d 74 10 80 3d 6f f4 af 3d 1f 9d 50 3d
       0.05307979 0.06253138 0.08591544 0.050931092
0002d0 e0 ed cb bd 58 f0 d8 3c ac 4f ae bc f8 1f 11 bd
       -0.099574804 0.026481792 -0.021278225 -0.03543088
0002e0 ee b2 c8 3b 31 2c bf bd 59 a7 45 3d 07 e8 5b bd
       0.0061248457 -0.09334601 0.0482553 -0.053688075
0002f0 46 60 b2 bd 32 5a 28 3d bd e7 35 bd 98 9f a5 bc
       -0.08709769 0.041101642 -0.044410456 -0.020217702
000300 e6 8f 6c 3d f3 53 d6 3d 11 8d 68 3c 4a 71 ac bd
       0.05775442 0.10465231 0.014193789 -0.08420046
000310 fc 00 a5 3d 9b 2c 83 3d 7d c8 43 bd 58 0c bf bd
       0.080568284 0.06404992 -0.047798622 -0.09328526
000320 59 b4 84 bd 48 f3 c2 bd 79 28 48 bd a5 fa a3 bd
       -0.06479711 -0.095190585 -0.048866723 -0.08006791
000330 5f 22 e6 bc 63 15 fc 3b 35 cf 67 bd 1e 03 ae bd
       -0.028092561 0.007692979 -0.056594092 -0.08496688
000340 29 d9 43 bc 65 24 c2 3c d8 f9 96 3c 54 35 07 3d
       -0.0119536305 0.023698995 0.018429682 0.033009842
000350 fa 3e 4b 3d 8c d5 01 3e f1 71 fa 3c 3a 54 a3 bd
       0.049620606 0.12679118 0.03057191 -0.07975049
000360 15 0d b5 3d db 6a b3 3d d2 c2 db 3c 67 69 52 3d
       0.08840386 0.087606154 0.026826296 0.05137005
000370 80 02 96 3d 29 5b 3a 3c d2 b3 36 bc f0 42 1c 3d
       0.073246956 0.011374273 -0.011151271 0.038149774
000380 2a 08 d7 3d 6d c3 f6 3d f5 10 bc bb f9 8d c0 3d
       0.10499604 0.12048993 -0.005739326 0.09402079
000390 b9 f7 35 3e b9 2e 66 3c e4 c9 14 bd 9f 8f dd bd
       0.1777028 0.0140492255 -0.03632535 -0.10818409
0003a0 1f b2 70 bd a9 3a 52 3d 6a df 25 bd c0 73 3c bd
       -0.05876362 0.051325474 -0.040496267 -0.046008825
0003b0 40 4e 4a 3d a7 54 7f bd 49 42 1c bd 57 35 86 3d
       0.04939103 -0.06233659 -0.038149152 0.065531425
0003c0 f5 1f 4a bd 6f d3 d5 bd 68 f6 d9 3d a9 75 30 bd
       -0.049346883 -0.104407184 0.106427014 -0.04308096
0003d0 f0 b0 cc 3d 8e 0a f4 bd 19 36 03 3e 56 5d 6d bb
       0.09994686 -0.11916076 0.12813605 -0.0036218963
0003e0 be 7f 6a 3d 82 fc 95 bc f1 b6 ae 3d 64 d3 e9 3b
       0.05725073 -0.018308882 0.08530987 0.0071357954
0003f0 bc 05 e3 bd 61 f6 e3 bd 67 cd 62 3d 43 3c a9 3d
       -0.11085078 -0.111309774 0.05537167 0.08263447

lstm.weight_ih_l1 f4 [256, 64]
000000 06 95 e6 3d a7 6f 0a be f9 4f c3 3d 42 53 42 3c
       0.11258893 -0.13519154 0.09536738 0.0118606705
000010 99 3b 92 bc 00 7c 00 be 85 8a bb 3d 78 29 c4 bd
       -0.017850684 -0.12547302 0.0915728 -0.09578222
000020 3e 87 1d bd 07 16 5a bd 31 2d e8 3d 9c 22 8b 3d
       -0.038459055 -0.053243663 0.113367446 0.067937106
000030 e1 18 ec bd 16 5e 91 3a 8e c7 86 3d 02 c0 12 bd
       -0.11528183 0.0011090662 0.06581031 -0.035827644
000040 ce a9 65 bd af 14 75 bc 6d d4 14 bd 90 5f 2b bd
       -0.05607014 -0.014958545 -0.036335398 -0.041839182
000050 c5 cb b0 3d 1c 81 17 3d 84 f3 84 bd 61 98 78 3d
       0.08632616 0.036988363 -0.064917594 0.060692195
000060 c9 f5 87 bd f1 e5 77 bd 48 57 9f bc 13 fc ef bb
       -0.06638677 -0.060522024 -0.019450799 -0.0073237508
000070 b4 7c a0 bd 74 da f0 bc 5a df 45 3d f7 99 07 be
       -0.07836285 -0.029401042 0.048308708 -0.13242327
000080 69 50 c3 bd e6 77 32 bd d1 22 03 be 0e aa 5b bc
       -0.095368214 -0.043571375 -0.1280625 -0.013407243
000090 62 b1 9d 3b 2e 57 c8 3d 8e 52 23 bc a0 21 ab 3d
       0.0048124054 0.09782253 -0.009968413 0.08356023
0000a0 8d fc 85 3d 23 5c d2 3d a8 18 a4 bd 86 79 86 3b
       0.06542311 0.1027148 -0.08012515 0.004103842
0000b0 82 6c f3 bc c5 0d b1 3d ed b9 2c bc 4d e4 b3 3c
       -0.029714826 0.086452045 -0.010542375 0.021959448
0000c0 95 19 2d 3c c4 56 50 bd 74 d3 c0 3c f0 a2 2b 3d
       0.010565181 -0.050863996 0.023538329 0.041903436
0000d0 6b 3f af bd 25 fb c0 bd c6 d7 89 bd 2f 60 de bc
       -0.08557018 -0.09422902 -0.06730609 -0.027145473
0000e0 5a 6e 5f bd fc 80 69 bd 12 a6 ea bc 6e f1 8e bd
       -0.0545486 -0.057007775 -0.028643642 -0.06979643
0000f0 4e ec 48 bd 54 17 4c 3d b6 dd 64 3c f4 4c bc bd
       -0.049053483 0.049826935 0.013968876 -0.09194365
000100 55 a7 bf 3d 67 ea fa bd ce 96 b3 ba 0f 5e 81 3c
       0.09358088 -0.1225174 -0.001370156 0.015791921
000110 21 68 e1 bd 64 e0 81 3d ba c9 96 bd 91 4f cb bd
       -0.11006189 0.06341627 -0.07362695 -0.099272855
000120 26 8d 00 bd 8b 3d d8 bd 64 cb 04 3e 3f 5c 84 3d
       -0.03138461 -0.105586134 0.12968212 0.06462907
000130 3c b1 76 3d f2 ee 12 3e 04 4c 8c bd 67 c0 b3 3d
       0.060227618 0.14348963 -0.06850436 0.08776932
000140 76 43 05 be 15 70 1e 3c 29 64 ea 3d d6 27 ad 3d
       -0.13014016 0.009670277 0.11444885 0.08454864
000150 ad 04 0b be a8 32 24 3e ed 91 8c bd dc 16 28 ba
       -0.13576002 0.16034949 -0.06863771 -0.0006412098
000160 82 41 81 3d d2 f7 a1 bd c4 f5 93 3d d3 6a 03 be
       0.06311323 -0.07908596 0.072246104 -0.12833719
000170 3a b6 02 be e0 7f 9e bd 5d e9 97 3d 04 40 63 bd
       -0.12764826 -0.07739234 0.074175574 -0.055480972
000180 37 7d f4 3d c4 e3 07 3e 85 3f 95 3d b7 10 17 be
       0.11937945 0.1327048 0.07287506 -0.1475247
000190 b3 24 ea bd d4 48 23 bd a3 15 85 3d b7 78 3e 3b
       -0.11432781 -0.039864376 0.064982675 0.002906365
0001a0 00 c2 cb bc 34 fe 02 3e 75 9d aa bd fc a7 ee 3d
       -0.02487278 0.12792283 -0.08330814 0.11653134
0001b0 31 e3 8d bd 0b 6c ec bd 71 23 3f 3d 97 f7 1b be
       -0.06928099 -0.11544045 0.04666466 -0.15231167
0001c0 c4 26 c4 bd e5 a9 ae 3d c9 c3 8c 3d 1e d6 bc bc
       -0.095777065 0.085284986 0.068732806 -0.023051318
0001d0 14 17 ff 3d de f9 58 3d e5 2f fb bc 38 88 b0 bd
       0.12455574 0.052972667 -0.030662486 -0.08619732
0001e0 0e 10 b0 bd 3f a6 52 3c 71 89 41 bd 9a 5f 11 3e
       -0.08596812 0.012857019 -0.047250215 0.14196625
0001f0 11 65 2d 3c b2 cb 6a 3d 0d e5 e1 bc 6e 31 f3 bc
       0.010583178 0.057323165 -0.02757504 -0.029686656
000200 1e 95 c4 3d 74 51 19 bd 76 de ef bd 08 bb 04 3e
       0.09598754 -0.037431195 -0.11712353 0.12961972
000210 2d de a8 3c 31 3d cc 3d a6 cc 19 3c 4d 61 24 bc
       0.020613754 0.09972609 0.009387171 -0.010032964
000220 e6 9c ab bd 0e 82 da 3c 24 af 8d bd a1 8f 4f bd
       -0.083795354 0.026673343 -0.06918171 -0.050674085
000230 c9 03 6b bd 3a 32 14 bd 5a 31 40 bc e7 ae 9d bc
       -0.057376657 -0.036180712 -0.011730516 -0.019248439
000240 62 94 29 bb 05 82 a7 bd e5 d0 5c 3d a4 66 84 3d
       -0.0025875797 -0.08179096 0.053910155 0.0646489
000250 cf c7 04 3d c7 99 04 3e 31 9d 11 3e 6d 10 ab bd
       0.032417115 0.12949286 0.1422012 -0.08352742
000260 fa 28 67 3d 5c de 37 3d 43 09 a3 3d bf 20 ae 3d
       0.056435563 0.044889793 0.07960751 0.085023396
000270 48 39 8e bd 9c 9f 7f 3d 03 15 d0 3d 18 45 b5 3d
       -0.06944519 0.062408075 0.10160258 0.08851069
000280 1d 9d 72 3d 81 17 e1 3d 36 af 88 3c 5c 2f a2 bd
       0.059231866 0.10990811 0.01668511 -0.07919189
000290 84 7d c0 3c 55 a2 af 3d 87 40 59 bd 6e 53 f7 3d
       0.02349735 0.08575884 -0.053040054 0.1207646
0002a0 5d 14 22 be ac 16 ab bd 22 a1 98 bd 41 f8 51 3d
       -0.1582808 -0.08353934 -0.07452609 0.051262144
0002b0 26 50 8c bc 45 e6 12 be 85 b2 f0 3a ff 60 34 3c
       -0.017128062 -0.14345653 0.001836375 0.011009454
0002c0 98 67 dc bd 95 ee 08 3e 09 86 1a 3d 10 63 7f 3d
       -0.107619464 0.13372262 0.037725482 0.062350333
0002d0 b1 31 dd 3d 88 5c e8 3c 73 14 a5 3d b5 f6 5a 3d
       0.108004935 0.028364435 0.08060541 0.053457934
0002e0 5e b3 8f 3d 27 02 19 3d 45 29 5a bd aa 6b aa 3d
       0.070166335 0.03735557 -0.053262014 0.083213165
0002f0 be 47 d8 3d 73 5b f9 3d 7b ae e3 bc e7 91 b8 bd
       0.10560559 0.12175646 -0.02779316 -0.09012204
000300 7f 3f 0d 3e 36 0f 57 3d 9e 8b 97 3d 0c b7 9e bd
       0.13793753 0.05250474 0.07399677 -0.07749757
000310 00 42 1a bd 95 b8 ac 3d ed c5 e8 3b 18 bb df bd
       -0.0376606 0.08433644 0.0071036727 -0.10924357
000320 19 ff 89 3d 91 aa f4 3b 72 79 03 3e 3b 3a 0d 3e
       0.06738109 0.007466622 0.12839296 0.13791744
000330 a1 dc 94 bd c5 f5 3f 3c 07 b0 bb 3d 4b 3a 98 3d
       -0.07268644 0.011716311 0.09164434 0.074329935
000340 ea 5e 25 3d de d2 9c bc 58 57 f2 3c b7 2b 28 bb
       0.04037372 -0.019143518 0.029582664 -0.0025660822
000350 59 75 0a be 47 ba 8a 3d 50 ac 8a bd 81 4e 5a bd
       -0.13521327 0.06773811 -0.06771147 -0.053297523
000360 c5 da 07 bc 78 c0 45 bc 1d e9 e5 3d 08 0e 99 bd
       -0.008291905 -0.012069814 0.112261035 -0.074733794
000370 53 e5 e7 bc b4 21 f4 bc d5 5c 32 bd e6 b1 70 3d
       -0.028307592 -0.029801227 -0.043545563 0.058763407
000380 fa 46 c3 bd 7d 91 03 bd f3 f0 96 3c df 25 59 bc
       -0.09535022 -0.03212117 0.01842544 -0.013253658
000390 f1 80 f3 bd ac 84 6a 3d d6 d1 c2 3d 7a 90 c6 bd
       -0.11889828 0.057255432 0.09512679 -0.096955255
0003a0 87 8a 4d 3d 09 de 97 3c b7 f6 a6 bd 13 f7 f6 3c
       0.050180938 0.018538492 -0.08152526 0.030147111
0003b0 f2 31 ea bc cc 2f 39 bc 2b 68 01 be d1 52 c5 3c
       -0.028588269 -0.0113029 -0.12637393 0.024087342
0003c0 54 9a bf 3d 10 42 ba 3d c9 c3 f0 3c e7 33 26 bc
       0.09355608 0.09094632 0.029390233 -0.01014421
0003d0 f5 68 9e 3d b7 0a 84 bd 80 13 ae 3d 9b 8a d5 bd
       0.07734863 -0.06447356 0.08499813 -0.104268275
0003e0 5d 22 87 bd 7f 03 da bd 46 52 5b 3c e2 52 26 3e
       -0.06598351 -0.10645198 0.013386315 0.16242555
0003f0 fb bb 64 bd c5 14 64 bc 49 85 c8 bd 57 46 bd bd
       -0.055843335 -0.0139209675 -0.09791047 -0.09241932

lstm.weight_hh_l1 f4 [256, 64]
000000 53 79 c0 bd dc 23 2b bc 07 fe 81 3c ac 97 96 3c
       -0.09398141 -0.010445561 0.0158682 0.01838287
000010 4b a9 e5 3d cb e3 0c be 78 d7 98 3d 8d d6 9e 3d
       0.11213931 -0.13758771 0.074629724 0.07755766
000020 14 60 b7 bd 6f b5 85 bd 64 34 aa 3c f8 7f 19 3d
       -0.08953872 -0.06528746 0.020776935 0.037475556
000030 44 e2 cd bb f5 4c b5 3d 73 f0 b3 3d 3c 00 df 3d
       -0.0062830765 0.08852569 0.087860964 0.108887166
000040 90 8a 0f bd 03 ff e5 bd 3f 01 82 bd 33 6f 3e bd
       -0.035044253 -0.1123028 -0.06347894 -0.046492767
000050 58 d5 ac 3d 4c ca 67 3d 39 1a ae bd db 5a c7 bd
       0.084391296 0.05658941 -0.08501095 -0.09734126
000060 e1 10 07 3e 22 20 28 bc 8f ae 3a 3d a4 ea cd 3c
       0.13190033 -0.010261567 0.04557663 0.0251363
000070 7f 02 12 3d 00 f7 02 be fa be c0 bc 38 15 27 bd
       0.03564691 -0.12789536 -0.023528565 -0.04079172
000080 d9 dc 63 bd e8 a7 2b bd de eb 97 bd f2 ec d8 3d
       -0.05563054 -0.041908175 -0.07418035 0.10592069
000090 be 07 64 bd de a1 e5 3c c6 88 16 bd 89 43 77 3d
       -0.055671446 0.028031286 -0.03675153 0.06036714
0000a0 66 53 9c bb a7 ca cd bd 36 bc 88 bd 6c 97 1c 3d
       -0.004770684 -0.100484185 -0.066765234 0.038230345
0000b0 65 ba 34 3d 45 d7 18 3d eb 87 2a 3d c9 1d a6 bd
       0.044123072 0.037314672 0.041633528 -0.0811115
0000c0 49 54 16 3e 19 e6 f3 bc ac 4e ee 3d cb 4d 5b 3d
       0.1468059 -0.029772805 0.11636099 0.053540986
0000d0 38 8e 26 3c 34 af 8d bd 72 8f 99 bd cd ff b0 3c
       0.0101657435 -0.06918183 -0.07498063 0.02160635
0000e0 60 b5 26 bd 8f 2c 0c 3d f4 4e 88 3d 1e 3c cc bd
       -0.040700316 0.034222182 0.06655684 -0.09972404
0000f0 05 66 6e 3c 8d f2 04 3d 9a 61 b6 bd c8 c7 62 3d
       0.014550691 0.032457877 -0.08905335 0.055366307
000100 aa c5 18 3b b9 80 2f bc e3 fd da 3d 2e 52 62 bc
       0.0023311176 -0.010711842 0.10692956 -0.0138135385
000110 95 aa 84 bd 22 65 4a 3d 91 65 c6 3d 90 76 7b bd
       -0.064778484 0.049412854 0.09687341 -0.061392367
000120 28 3d 4d 3a ec f2 4b 3c 68 d3 c4 bd a9 22 9e bd
       0.00078292424 0.012448054 -0.09610635 -0.07721455
000130 a0 d7 03 3d 13 f5 65 bd ba c0 98 3d 25 5f 8e bb
       0.032188058 -0.056141924 0.07458635 -0.004344838
000140 65 50 5a 3d f1 36 2d 3d 51 73 8c 3d 9f 2a 7a bd
       0.053299326 0.042288724 0.06857932 -0.061075803
000150 f0 b3 1e bd 46 10 02 3e a4 d4 63 bb cc c6 bb bb
       -0.03874582 0.1270152 -0.0034764195 -0.0057304855
000160 fb e6 41 bd 74 33 35 3d 5d 8c ca 3d bb e5 56 3d
       -0.04733942 0.044238523 0.098900534 0.05246518
000170 77 6b b5 bd 55 0b 91 3d e9 0c 60 bd b1 d0 f2 bd
       -0.08858388 0.070822395 -0.054699812 -0.11856211
000180 f7 4e 7a 3d b5 90 9e bd 7d f3 e9 3c 5e 56 c1 3d
       0.061110463 -0.077424444 0.028558487 0.09440301
000190 6f c8 98 3d c4 d9 64 bd 2f 25 5e bd bd 3c 2f 3d
       0.07460105 -0.05587174 -0.05423468 0.042782534
0001a0 c0 cb 90 b9 ec d2 a3 bd c5 1f 10 3e 45 5b 64 bd
       -0.00027617626 -0.079992145 0.14074619 -0.055751104
0001b0 fe 83 05 be 0a 4c de 3d e7 0e af bd 70 9a 00 be
       -0.13038632 0.10854347 -0.08547764 -0.12558913
0001c0 7b 9c 8d 3d 7b 17 3b bd c7 eb 60 3d 0b 18 e6 3d
       0.06914612 -0.04567669 0.054912355 0.112350546
0001d0 b3 fd e9 bb 2a 53 43 bd 43 b4 d1 3d fe 7d d7 bc
       -0.007140839 -0.047686733 0.1023946 -0.026305195
0001e0 db 69 c9 3c b1 8d e9 bd 7a cf 8b 3d bc 0e 36 3c
       0.024586609 -0.114039786 0.068266824 0.011111911
0001f0 9c 5d b9 3d d8 35 ef 3d a7 03 a9 3d b9 8c 47 3c
       0.09051058 0.11680192 0.0825265 0.012179547
000200 80 41 0d bd de 26 8e 3d 61 a8 ab bd e4 19 64 3d
       -0.034486294 0.06941007 -0.08381725 0.055688754
000210 68 d6 a1 bd d2 35 e5 3d 2c 74 f5 bd ff 95 09 bd
       -0.07902223 0.11191906 -0.11985049 -0.033590313
000220 0b 86 a2 bd 7a bb 98 3d eb ed 91 bd f6 06 98 3d
       -0.07935723 0.07457633 -0.071254574 0.07423203
000230 07 77 de bb 3a 9d 00 3d a2 7d 83 3d d8 03 f0 bb
       -0.0067890915 0.031399943 0.06420447 -0.007324677
000240 be b7 c6 3c 88 17 02 3e 19 70 00 be 2d 49 c2 3c
       0.024257537 0.12704289 -0.12542762 0.023716534
000250 d6 e7 b1 3d 8f 3d aa bd 79 d0 de 3c 2c 67 ee bd
       0.08686797 -0.083125226 0.027199017 -0.11640772
000260 e7 91 bb 3d d6 c7 db bd 3e 20 9b bc 1d 97 83 bd
       0.09158688 -0.10731475 -0.018936273 -0.06425307
000270 cd 08 0c 3d d8 d9 ba bd f6 1b 37 bd 2c e8 92 bc
       0.03418808 -0.09123582 -0.0447044 -0.017932974
000280 9f 7d f2 3d 4c de b9 3d 8f 64 fc 3d 0b ef 08 be
       0.118403666 0.09075603 0.123238675 -0.13372438
000290 c0 60 dd bd 7b e5 28 bd 3d 41 53 bd e1 d8 d6 bc
       -0.10809469 -0.041234475 -0.051575888 -0.026226463
0002a0 fb 9a 92 bd 8e 1f 90 bd f8 d6 0c 3e e6 61 e4 3d
       -0.071584664 -0.070372686 0.13753879 0.11151485
0002b0 dc 7b a5 3d 31 67 d1 3d a9 10 8c bc bc dc d8 bd
       0.08080265 0.1022476 -0.017097788 -0.10588977
0002c0 1c 29 82 bd b4 25 fb 3d c5 40 8a 3c e4 4b 82 3d
       -0.06355497 0.12263051 0.016876588 0.06362131
0002d0 39 74 05 3e b8 65 7e 3d f7 91 a1 3d 68 b8 05 bd
       0.13032617 0.062108725 0.07889169 -0.032646567
0002e0 04 2c c2 3d a6 50 8c 3c f9 32 14 bd 60 b8 6d 3d
       0.094810516 0.0171283 -0.036181424 0.05803716
0002f0 2a 34 fc 3c 3b 17 d0 3d fd be e6 3d e4 d1 59 3c
       0.030786593 0.10160681 0.11266897 0.013294671
000300 02 b4 b8 3d 67 a8 d0 bd f1 c0 8c bd 95 3b d2 3d
       0.09018709 -0.1018837 -0.06872738 0.102652706
000310 e7 eb 1c 3d 7c 92 b6 bc 45 2c a6 bd f7 0f 8d bd
       0.03831091 -0.022286646 -0.081139125 -0.06887811
000320 ce 8d a8 bc e7 82 0f bb 5f 88 83 3c bf 78 67 3d
       -0.02057543 -0.0021898092 0.016056238 0.056511637
000330 36 42 46 bd a3 43 31 3d 33 b6 61 bc dc a7 b7 3b
       -0.048402987 0.043277394 -0.01377635 0.005604727
000340 6b bb 28 bd 92 0e 27 3d d8 ad 82 3d 32 72 dc bd
       -0.04119436 0.04078538 0.06380814 -0.107639685
000350 8a be 94 bd ac 66 92 3d e2 0f d2 3d 90 97 d2 bd
       -0.07262905 0.07148489 0.10256936 -0.102828145
000360 94 74 a5 bd 81 b6 04 bd d3 87 a6 bc 26 51 5d bd
       -0.08078876 -0.03240061 -0.020328438 -0.054032467
000370 64 a1 fc 3d 89 1e 06 be 32 a7 e4 bc 40 01 3d bc
       0.1233547 -0.13097586 -0.027911756 -0.011535943
000380 b7 77 c1 3d 7a 39 48 3d 7e 42 ef 3d e1 20 36 3d
       0.09446662 0.04888294 0.11682604 0.04446495
000390 07 19 60 3c f1 83 dc 3d 7a 93 61 bd 35 32 f6 bc
       0.013677842 0.10767353 -0.055072285 -0.030053237
0003a0 4b 49 b7 3c 3e 28 80 bd de 50 2a 3d 66 dd 4e bd
       0.022373816 -0.062576756 0.041581027 -0.05050411
0003b0 8b 23 5b 3c c2 20 51 bd 6f 34 ad 3d 25 26 dc bc
       0.013375173 -0.05105663 0.084572665 -0.026873657
0003c0 06 6a ff bc 54 16 d6 bc 08 84 8f 3d 26 33 3f 3c
       -0.031178486 -0.026133694 0.07007605 0.01166991
0003d0 21 d5 3e bb 17 74 3c bd 50 b9 8f 3d c8 46 90 bd
       -0.0029118734 -0.04600915 0.070177674 -0.070447505
0003e0 b4 8f de 3c f2 94 4a 3d c6 c5 8c 3b e3 4c 41 bd
       0.027168132 0.04945845 0.0042960374 -0.047192466
0003f0 8b d2 a1 bd c9 c7 f8 bc 19 1e 84 3d 67 3b 42 3d
       -0.07901486 -0.030368702 0.06451053 0.04741993

lstm.bias_ih_l1 f4 [256]
000000 19 3e d4 3d 5c 01 7a bd ad 13 58 3d cd 61 89 3d
       0.10363407 -0.061036453 0.05275314 0.06708107
000010 71 c3 7b bd 02 2d 5d 3e cc f6 4a 3d 69 a2 d3 3d
       -0.061465684 0.215992 0.04955177 0.10333712
000020 ec a9 d3 3d 1a a0 2e bd 18 ed a6 bb 30 50 ae bd
       0.103351444 -0.042633153 -0.0050941817 -0.08511388
000030 7b b3 d0 bd 53 89 0a bd d3 64 c3 bc bd 3a 4f bd
       -0.10190483 -0.03382237 -0.023851788 -0.050593127
000040 c9 de ae 3d 68 95 d9 3b 99 d6 27 3d 5b a3 f5 bc
       0.08538587 0.006640125 0.04097614 -0.02998512
000050 11 9f f0 bd 69 87 d5 bd 05 74 b2 3d cc 42 bb bd
       -0.117490895 -0.10426218 0.08713535 -0.091436
000060 2f d6 51 bd 8d 55 b9 bd 88 da e6 bc d1 13 c4 bc
       -0.051229652 -0.09049521 -0.028180376 -0.02393523
000070 ef 1d 01 3e 2d 55 98 3d c8 c7 f6 3d ae bd 79 3d
       0.12609075 0.07438121 0.12049824 0.06097191
000080 f9 b3 ab 3d 28 d1 83 bd fa 7c 84 3c 5a a6 c9 bb
       0.083839364 -0.06436378 0.016172875 -0.006153864
000090 61 21 30 3d 4c 3d e2 3c d5 9d a9 bb 44 fb 10 3e
       0.043000583 0.02761712 -0.0051762857 0.1415835
0000a0 ad 51 bd 3d c5 5d a3 bd 6c 7f cb 3d d8 fb c0 bb
       0.09244094 -0.079768695 0.09936413 -0.005889397
0000b0 85 3e 89 3d 39 3d 6e bd ef d3 4d 3d 2f cf 0f 3d
       0.06701378 -0.058163855 0.050250944 0.035109695
0000c0 ea e8 9f 3d 77 01 90 bd 5e e2 a2 3d 59 08 6f 3d
       0.07808097 -0.070315294 0.07953332 0.05835757
0000d0 d7 cc 05 bd 54 ee 9d 3d 98 ae ee bd 2c 41 0a be
       -0.032666054 0.07711473 -0.11654395 -0.13501424
0000e0 0e 34 1a 3d f8 d4 ed bc 11 f2 01 be 89 21 c8 bd
       0.0376473 -0.029032215 -0.12689997 -0.09772021
0000f0 ae f5 00 3e 69 bc a8 3d b0 1f c3 bd ed 46 80 bd
       0.1259372 0.082390614 -0.09527528 -0.06263528
000100 32 3c cd bd 02 3d 65 bd 7f 4f c1 3d 29 0c b1 bd
       -0.10021247 -0.055966385 0.09438991 -0.086448975
000110 3a 95 d0 3d 2d 8b 09 3d 1a a0 34 bd 93 4d 73 3d
       0.10184713 0.033579994 -0.044097997 0.059400152
000120 42 09 32 3d 1a 09 09 3e d1 6c 92 bd 3f fb db bd
       0.04346586 0.13382378 -0.07149661 -0.10741281
000130 65 a5 d6 3d 25 99 0b bc 54 a7 92 3d e0 f8 8f bd
       0.10480765 -0.008520399 0.071608216 -0.07029891
000140 18 e5 eb 3d 37 af e4 bd 34 27 ce bc 72 82 de 3c
       0.115183055 -0.11166232 -0.025165178 0.02716181
000150 91 35 6e 3b 6d 6a c0 3d cd 11 77 bd fa cf f1 bd
       0.0036347846 0.09395299 -0.06031971 -0.118072465
000160 7a 3c 35 3d a0 8f 9f 3d f8 d4 1a 3d 0b b0 bd bd
       0.044247128 0.07791066 0.03780076 -0.09262093
000170 5d d9 f7 3d 1a a3 b7 3d b9 bc 37 3d ea fd 6a bd
       0.12102006 0.08966656 0.044857714 -0.057371058
000180 81 50 48 3c 53 12 a9 3d 11 11 0a 3d ff fb c5 3d
       0.012226225 0.08255448 0.033707682 0.09667205
000190 94 14 b6 bd 27 53 42 bd df c7 14 3c a0 07 8e 3d
       -0.08890644 -0.04744258 0.009080856 0.06935048
0001a0 0a 14 67 bd cc 1b 43 bd d4 51 0c be 76 ca 32 3d
       -0.056415595 -0.04763393 -0.1370309 0.043650113
0001b0 53 c4 0a 3e 63 07 6a bd 7e 34 b7 bb c0 76 6b bd
       0.13551454 -0.05713595 -0.0055909744 -0.057486296
0001c0 46 99 d8 3d 90 34 f8 3d da 20 a1 bd 60 a2 2e 3d
       0.105761096 0.121194005 -0.07867594 0.04263532
0001d0 f2 c9 8d ba f0 18 31 bd 08 8f 69 bd 72 28 1b bc
       -0.0010817631 -0.043236673 -0.05702117 -0.009470092
0001e0 b0 2b 28 bd 78 20 00 3d fe be 02 be b2 d7 09 be
       -0.04105729 0.031280965 -0.1276817 -0.13461187
0001f0 d5 6b 5b bd 6f 90 0a bd fb a6 1b bd 92 7c 46 bc
       -0.053569634 -0.03382915 -0.03800104 -0.012114661
000200 97 b0 96 bb f7 3f a0 bc 3e f0 fe bc 77 07 b3 bd
       -0.004598688 -0.01956175 -0.031120416 -0.08741658
000210 be d4 c6 3d 3b 71 cf bd 6d 8b 70 3c cf 55 23 bd
       0.09708546 -0.10129019 0.014681679 -0.039876755
000220 1a ec 34 3c 7e cf ba 3c 10 14 ca 3d 51 4d 52 3d
       0.011042619 0.022804018 0.09867108 0.051343266
000230 b8 b3 35 3d a0 e4 0c bd 09 62 a5 bd f2 f0 4c 3d
       0.044360846 -0.03439772 -0.08075339 0.05003447
000240 82 ac 13 bb ee b3 90 bd 68 a2 ee bd 0c 57 ef bc
       -0.0022533243 -0.07065569 -0.1165207 -0.029216312
000250 eb d0 c5 3d 18 02 de 3b 04 e0 cc 3c 33 97 9c bd
       0.096589886 0.006775152 0.025009163 -0.076460265
000260 de 98 18 bc 39 c4 89 bd 81 88 f1 bd f3 e6 cf bd
       -0.00931379 -0.067268796 -0.11793614 -0.10151472
000270 7c 1f 86 3c 55 02 43 ba 8b 46 b4 bd 6d 74 81 bd
       0.016372435 -0.0007439007 -0.088025175 -0.063210346
000280 6b 24 91 bc ef f8 e5 3d 7c c7 fa 3d 04 57 e5 bc
       -0.01771756 0.11229121 0.1224508 -0.027995594
000290 b3 80 98 bd 3b 85 84 3d 87 59 83 bd f3 85 8a 3d
       -0.074464224 0.06470724 -0.0641356 0.0676383
0002a0 ee 6c ca 3d 9f 71 d5 3d c3 3b d9 3d 95 ea 12 bd
       0.09884058 0.10422062 0.10607102 -0.035868246
0002b0 94 5d 8c bd 70 e2 fb bc d1 0e 72 3d 4a 44 07 bd
       -0.06853786 -0.030747622 0.05909616 -0.03302411
0002c0 0d 3d a0 3d 61 99 7b bd 19 15 bf bd 89 a6 78 bc
       0.078241445 -0.06142557 -0.09330196 -0.015176424
0002d0 fd 57 fb 3d 14 b0 b5 bd f1 f5 2c bd 70 b2 9c bd
       0.12272642 -0.08871475 -0.042226736 -0.07651222
0002e0 19 83 3f 3d f9 cf 81 bd 8b e0 6e bd 15 e4 c1 3a
       0.046755884 -0.06338496 -0.05831961 0.0014792705
0002f0 ac f4 00 bc b9 a1 a0 bd 6a 33 0c 3e 28 49 07 3c
       -0.007870834 -0.07843346 0.13691488 0.008257188
000300 de b2 0f 3e 86 be 87 bc 70 61 ef 3c 1d cb c4 bd
       0.14033076 -0.01657034 0.029221267 -0.09609053
000310 af dd f8 bc 4e 72 77 bc d3 d5 19 bd 64 d2 37 3c
       -0.030379144 -0.015102936 -0.037557434 0.011219595
000320 ba 85 5b bd 3f fa b3 3c 53 fd 64 3a 7c db 9d bd
       -0.05359433 0.021969913 0.0008735258 -0.07707879
000330 2d dc db bd 86 dc 83 bd 47 92 06 3d 9a 45 61 bd
       -0.107353546 -0.06438546 0.032854345 -0.054998018
000340 4e 1b 42 bd a2 62 1c 3b c5 69 e2 3d 4c e4 81 3d
       -0.04738932 0.00238625 0.1105533 0.06342372
000350 5e 3c 16 bd 0d 6e be bd a9 98 60 3d 8b 1f 66 3d
       -0.036678664 -0.09298334 0.054833088 0.056182425
000360 cd 1f 65 bd 97 b3 ae bd 43 08 86 bd 84 f1 fa 3d
       -0.05593853 -0.08530348 -0.065445445 0.12253097
000370 06 23 01 3d 8b 2a d9 3c a8 11 ab 3d 37 a9 fb bd
       0.03152754 0.026509544 0.08352977 -0.122881345
000380 0e 36 08 3e c0 f3 d7 bd c7 58 96 bd 54 79 e9 3d
       0.1330187 -0.105445385 -0.07341152 0.11400095
000390 84 96 c6 bd 25 69 78 bd e6 cb 8e 3c 74 aa 14 3d
       -0.09696677 -0.06064715 0.01743121 0.03629537
0003a0 af 07 d7 3d 4d 8e b6 3d cc dd 2b 3d 64 f0 34 3d
       0.104995124 0.089138605 0.04195957 0.044174567
0003b0 ad d8 34 bd 36 ce 6c bc 2d d5 0c 3e bc 31 d8 3c
       -0.04415195 -0.014453461 0.13753195 0.026390903
0003c0 91 42 8f bd cd a7 d1 3d c0 09 0d be fd 6b a4 bc
       -0.069951184 0.102370836 -0.1377325 -0.020071024
0003d0 89 74 6d bd e2 8c c1 bd b8 ef be 3c 07 6b bc bc
       -0.057972465 -0.094506994 0.023307666 -0.023000253
0003e0 e8 3a 37 bd 82 6c bb bd b8 6b 97 bc 22 fe d9 bd
       -0.04473391 -0.091515556 -0.018483981 -0.10644175
0003f0 ae 42 f7 3d 8f 0a d2 3c 2a d3 bf bc 7b ec cd bd
       0.12073265 0.0256398 -0.02341612 -0.10054871
