crypto_models/LTC_USD_lstm.pth (torch, 206101 bytes, 9 tensors)

lstm.weight_ih_l0 f4 [256, 1]
000000 6c a7 6d 3d ff f8 47 3d 6e 76 77 3d cd 74 11 3d
       0.058020994 0.048821446 0.060415678 0.03551178
000010 0b 59 bd 3d fa 44 bd 3d 90 8e df bd ff f3 77 ba
       0.09245499 0.09241672 -0.109158635 -0.00094586605
000020 da 5a 97 3d f3 d3 c0 bd 90 85 43 3d 00 ff 76 3d
       0.073903754 -0.09415426 0.047734797 0.06030178
000030 af 9e 0e be ab 3a f7 3d ab a0 c3 3d 54 e6 66 3d
       -0.1392772 0.12071737 0.09552129 0.056372
000040 48 ae 77 3d 91 a6 a8 3d 00 ac 05 3e ad ba 46 3c
       0.060468942 0.08234895 0.13053894 0.012129468
000050 82 d8 b0 3d a5 b9 22 be fc 74 41 bd 5a 01 79 bd
       0.086350456 -0.1589113 -0.047230706 -0.060792305
000060 92 33 32 3d e6 32 0e 3d 14 5d 18 bd cb 7c b8 3d
       0.043506213 0.03471651 -0.03719814 0.09008177
000070 71 1a 82 3c cd 7b d7 3d 0b 2b dd 3d 53 c0 a3 3c
       0.015881749 0.1052166 0.107992254 0.019989168
000080 c7 20 a9 3d 8a bf df 3d 9a 4f f6 bc 56 39 06 be
       0.08258205 0.10925205 -0.030067254 -0.1310781
000090 e3 1c b3 bc f5 d4 e8 3d 44 e5 d0 bd 19 d2 8b bd
       -0.02186436 0.11368743 -0.10199979 -0.06827182
0000a0 9a c6 26 bc 14 c0 d8 3d 72 99 36 3e 35 47 14 3d
       -0.010179186 0.10583511 0.17831972 0.03620072
0000b0 ba 5f da 3c 3a 8e 7e 3c bc 49 2c 3d 0d 9d 4f 3d
       0.026656974 0.015536839 0.042062506 0.050686885
0000c0 01 4c 7a bc 3a b2 fb 3d d1 3f 85 bc b0 e5 07 3e
       -0.01527691 0.122898534 -0.016265782 0.13271213
0000d0 9f 47 db 3d ba b8 30 3e 2a c3 98 bc f1 59 2d bd
       0.1070702 0.17257968 -0.018647749 -0.042322103
0000e0 37 15 e7 bd 04 65 0d bd 42 3a 79 bd 2d a8 88 bd
       -0.11283343 -0.034520164 -0.060846575 -0.06672702
0000f0 73 82 13 bc f6 36 7c 3d 66 00 85 3d 8e c1 27 3e
       -0.0090032695 0.061575852 0.064942166 0.16382429
000100 49 fd 42 3e 7b 05 ab 3d 1f d3 64 3d 59 26 8d bd
       0.19041933 0.08350655 0.055865403 -0.0689208
000110 fe a2 ac 3d 97 f6 cb bc 8b b7 17 be 70 61 da bd
       0.08429526 -0.024897857 -0.1481611 -0.10663116
000120 34 cd be 3d 35 e6 bd 3d de fc 0c bb 22 5d 1d bd
       0.09316483 0.09272424 -0.0021513025 -0.038418896
000130 e5 9f fe bd 22 d4 a5 3d 22 b6 59 bc 79 f6 64 bd
       -0.12432841 0.08097102 -0.013288053 -0.055899117
000140 bb 10 89 3d 3d 2b 16 3e f4 53 f0 3d c7 72 7a bd
       0.06692644 0.14664932 0.11734763 -0.061144616
000150 db d7 87 bd f5 49 1e 3d 83 3a 28 3e 97 46 cf 3c
       -0.06632968 0.03864475 0.1642857 0.025302215
000160 08 9e 1e 3e cf 87 94 3c da 13 bc 3d 46 e5 04 bc
       0.15489972 0.018131165 0.09183474 -0.008111304
000170 8c af bc 3c 42 b0 8c bb 69 8a b2 bc 6d af c2 bc
       0.023032926 -0.0042934725 -0.021794515 -0.02376529
000180 af 8c 47 3d 6a f2 13 38 55 e1 3c 3d 09 d0 b2 bd
       0.04871815 3.5273297e-05 0.04611333 -0.08731086
000190 78 38 c9 3b 2c 0f 16 3e b0 d0 3b 3d 72 27 da 3c
       0.006140765 0.14654225 0.045853317 0.026630137
0001a0 4f cb b0 bd 00 01 70 bc 46 f6 3f 3e 6b 03 ad 3d
       -0.08632528 -0.014648676 0.1874629 0.084479176
0001b0 3b 1c ed 3d 7f da 3f bc de 1f f8 3d f7 20 28 3d
       0.1157765 -0.011709808 0.12115453 0.041047063
0001c0 af 1e e8 3d 72 12 a3 38 5d 3b a8 3d 66 82 0a 3e
       0.113339774 7.7758814e-05 0.08214448 0.13526306
0001d0 61 0a 1b bb 6e db b1 3d ae 23 62 bd b9 00 81 3c
       -0.002365731 0.08684431 -0.055209808 0.015747415
0001e0 4f f7 50 3d 87 95 0c 3e de 3d c9 bd b5 a0 a9 bd
       0.0510171 0.13728915 -0.09826253 -0.082826056
0001f0 75 07 8f bd df c5 dd bc f6 86 3e 3d 4d 8c 97 bd
       -0.06983844 -0.027071891 0.046515428 -0.07399807
000200 40 91 4e 3d a6 c8 58 3d 11 5e 87 3d f0 2c 96 3d
       0.05043149 0.05292573 0.066097386 0.0733279
000210 9f b4 3b 3e 64 a4 1e be c3 50 bd bd b0 b5 ad bd
       0.1833062 -0.15492398 -0.0924392 -0.0848192
000220 ab a6 26 be cf 7e 66 3d 8d d2 22 3e 7c 2f 85 3d
       -0.16274516 0.056273278 0.15900631 0.065031976
000230 54 6c c9 3d fc 70 2d be 15 d0 ef 3d a1 e4 31 be
       0.09835115 -0.16937631 0.117096104 -0.17372371
000240 c3 c3 e9 3d 06 6c c4 bd e6 58 97 bd 1b db 2d 3d
       0.11414292 -0.09590916 -0.07390003 0.042445283
000250 06 0b 14 be c1 78 d3 3d a3 4a 17 be ad bd 38 bd
       -0.1445733 0.10325766 -0.14774565 -0.045102764
000260 16 28 ec 3d 48 8d 89 bd b8 a3 23 3e 9e d1 04 be
       0.11531083 -0.067164004 0.15980422 -0.12970588
000270 2f b4 7a bb a4 23 1c be 6f 03 86 bd 5c 86 c5 bd
       -0.003825437 -0.15247971 -0.06543624 -0.09644768
000280 ab 60 22 be a3 98 df bd c3 0a 3e 3e 46 c0 94 bd
       -0.15857188 -0.10917785 0.18558793 -0.07263236
000290 1f cc f2 bd 72 f4 3a 3e 08 08 15 3d 97 c0 a1 bc
       -0.11855339 0.18257311 0.036384612 -0.019745154
0002a0 36 f1 a3 bd e9 61 fc bd 18 49 10 be 6e ca 22 be
       -0.08004992 -0.123233624 -0.14090383 -0.15897533
0002b0 c7 d8 19 3e 63 e4 3f be 20 ca c8 3b e1 1d 1f 3d
       0.150241 -0.18739466 0.006127611 0.038846854
0002c0 3b 52 1c bd aa 6a 33 3d 71 60 a6 bd 8c b1 8c 3d
       -0.03816436 0.043802895 -0.081238635 0.06869802
0002d0 29 b0 01 be 29 b2 f6 3d 4e 98 0e bc 9d f1 5c 3d
       -0.12664856 0.120457 -0.008703304 0.053941358
0002e0 7b 50 5a 3d 34 71 87 bb 94 3c de 3d e0 8a 4c 3d
       0.05329941 -0.004133368 0.10851398 0.04993713
0002f0 9b 37 b4 3b a3 07 2e 3e 0c 98 de 3d f2 c9 a2 3d
       0.0054997928 0.169951 0.108688444 0.07948674
000300 d0 9a 58 3d 67 c1 65 3c 1c cb ad 3d aa 20 21 3d
       0.052882016 0.0140231615 0.08486006 0.03933779
000310 68 64 02 3e 73 16 64 3c f4 12 7a 3d c8 bc 0f 3d
       0.12733614 0.013921368 0.06105323 0.035092145
000320 02 af 82 3c ed b9 ca 3b f4 85 54 3e 76 fe f1 3d
       0.01595259 0.006186715 0.20754224 0.11816113
000330 52 e0 2d 3b 90 98 52 3d 36 6f 1e 3e fd 98 50 3b
       0.002653141 0.051415026 0.15472111 0.003182947
000340 81 f2 43 3d 4c ef 4f 3e 82 13 43 3d 69 b2 11 3e
       0.04783869 0.20306128 0.047626026 0.14228214
000350 ef 8f db 3c fc 3c 84 3d 70 8f a1 bc 0b a3 08 3d
       0.026802031 0.06456944 -0.019721717 0.033358615
000360 73 89 fc 3d fd fa 6f bd 09 25 09 3e 29 89 1d 3e
       0.12330904 -0.05858897 0.13393034 0.15384354
000370 43 3a 87 3d 2f 14 a7 bd e2 37 d6 3d 41 17 36 3e
       0.066029094 -0.081581466 0.104598776 0.17782308
000380 4a 69 0d 3e f6 bc c1 3d 23 78 9e 3c 32 19 8e bd
       0.13809696 0.094598696 0.019344395 -0.069383994
000390 49 8b 8f 3c d9 01 4b 3e 85 02 ab ba 11 be 33 3c
       0.017522471 0.19824924 -0.0013047016 0.010970608
0003a0 72 87 b7 3c d6 ff 26 bd fb 08 0d 3e 1f 4f 09 3e
       0.022403453 -0.040771328 0.13772957 0.13409089
0003b0 57 c0 1f 3e 97 a1 e7 3b 79 0b a1 bd 96 06 0a be
       0.15600716 0.0070688236 -0.07863516 -0.13479075
0003c0 07 ad 2f 3b 4e 2f a5 3d 4f 97 a6 3d c3 c9 d8 3d
       0.0026806013 0.08065663 0.081343286 0.10585358
0003d0 26 21 a5 3b a2 72 97 3d 61 79 94 3d 70 fd bc bc
       0.005039352 0.07394911 0.07249714 -0.023070067
0003e0 49 23 f7 bd fb 3d c0 3b 0c 68 9a bd 58 15 20 3e
       -0.12067277 0.0058667636 -0.075393766 0.15633142
0003f0 35 3d a1 3d 81 8f 24 3d 26 7d 27 3e b3 e1 36 3e
       0.078730024 0.04017592 0.16356334 0.17859535

lstm.weight_hh_l0 f4 [256, 64]
000000 e9 b3 27 bc 8e 8d 6c 3d 83 67 8e 3d ee 67 b9 3d
       -0.010235765 0.057752185 0.06953337 0.09053026
000010 41 e5 69 bd c2 eb 8b bc d4 da 81 3c c5 e3 99 3d
       -0.0571034 -0.017080192 0.015851416 0.07514147
000020 ad 3e 12 be 04 2e 62 bd 65 b6 80 3d 36 ae c0 3c
       -0.14281721 -0.055219665 0.06284789 0.02352057
000030 89 f8 ab bd 01 19 86 ba 1c d4 9c bd 8b 52 8f bd
       -0.08397014 -0.001023084 -0.07657644 -0.06998166
000040 ca 37 34 3d 4d 9e b8 bd 23 b0 e5 bd 18 f1 b4 bd
       0.043998517 -0.090145685 -0.11215236 -0.088350475
000050 70 00 2a 3d c1 6a d7 3d cc 94 d1 bd b6 81 1f 3d
       0.041504323 0.105184086 -0.10233459 0.03894206
000060 f1 6c 1f 3e 32 f0 43 3d eb 08 e3 3d 3d bb 06 bb
       0.15568902 0.04783649 0.11085685 -0.002055838
000070 e1 66 5c bb 86 9f 27 3c 98 2a 2e 3d be 70 b9 3c
       -0.0033630657 0.010230904 0.04252109 0.022636767
000080 d7 64 4d 3d 3c ed b8 3d d9 c2 09 3e 15 9e 07 bc
       0.050144996 0.09029624 0.13453235 -0.008277436
000090 18 e9 a5 3d 3c 2b 55 3c e6 86 79 bd a2 ff 8c 3d
       0.081011 0.013010796 -0.060919665 0.068846956
0000a0 53 1e a7 bd 4d b3 bb 3c f3 56 66 3d 2d f4 a3 bd
       -0.08160081 0.022912646 0.056235265 -0.08005557
0000b0 f4 b1 f4 3d 33 8c 05 be 95 6c ac bd 1e cb ee 3d
       0.11948004 -0.13041763 -0.08419148 0.11659835
0000c0 09 a8 1c bd 18 15 ec bc 61 ee 12 be c2 8d 6d bd
       -0.03824619 -0.028818652 -0.14348747 -0.05799652
0000d0 52 d4 81 bd 6f b9 1b 3d 20 50 cc 3d e6 95 ed bd
       -0.06339325 0.03801864 0.0997622 -0.116008565
0000e0 a3 94 e0 bd 7e b3 62 3d 1c c8 92 bd b0 ee a0 3c
       -0.1096585 0.05534696 -0.07167074 0.019645065
0000f0 3f 5b 92 bc 07 de 1e 3d 0f ae 92 bd 20 54 bc bd
       -0.017865775 0.03878596 -0.07162105 -0.09195733
000100 5d 94 04 3c 29 45 b8 3d 39 dc df bd 19 b3 0f 3d
       0.008092013 0.08997566 -0.10930676 0.03508291
000110 71 fd 65 3d 7f 96 e2 bd 62 9f c1 bc 0b df a4 3d
       0.056149904 -0.11063861 -0.02363557 0.080503546
000120 90 c0 dd bc f3 db a8 bd 40 9a e0 3d f5 ee 9b 3d
       -0.02706936 -0.08245077 0.10966921 0.07613937
000130 f8 a2 d3 3d 67 aa e8 bd 01 33 af bd 6a 94 3b bd
       0.10333818 -0.11360627 -0.0855465 -0.045795836
000140 62 cf 5b 3d e1 b5 cb 3d e4 e1 c0 bd 17 b8 88 bd
       0.053664573 0.099468 -0.09418085 -0.06675737
000150 e1 ab 9c 3d 16 b1 7e bd 96 8d b8 b8 20 cc e7 bd
       0.07649971 -0.0621806 -8.800176e-05 -0.11318231
000160 08 16 f0 ba a9 5d f3 3d 2e 70 bd bd 99 dc ac bd
       -0.0018317113 0.11883099 -0.09249912 -0.08440513
000170 34 c3 3d 3d a3 bb 47 bc 03 a2 15 bd dd 1e 8e bc
       0.04632874 -0.012190732 -0.03653146 -0.017348701
000180 12 43 ca bd f8 4d bb 3d 1b ac 19 bd 7e e5 eb 3c
       -0.09876074 0.09145731 -0.03751765 0.028795954
000190 36 8a 96 3c 4a f4 96 bd 3c 19 cf bd cc 33 23 bd
       0.018376451 -0.07370813 -0.10112235 -0.03984432
0001a0 35 84 e5 3d d6 d2 91 3d c8 d3 c1 3d 33 b7 b7 3d
       0.11206857 0.07120292 0.09464222 0.08970489
0001b0 e5 57 0a 3e bc 23 7c 3d c9 ec 77 3c fa 35 dd 3d
       0.13510092 0.061557516 0.015132138 0.10801311
0001c0 d3 78 00 bd 26 45 fe bc ea bd ca bd df d2 5d bd
       -0.031365227 -0.031038832 -0.098995045 -0.05415618
0001d0 5c a1 0f be 7e 03 47 bc dc d4 7b bd 2f cb 18 3d
       -0.14026397 -0.012146829 -0.061482295 0.037303146
0001e0 b9 95 27 bd 0e f8 91 3c df 3f f0 3c fd 78 16 3c
       -0.04091427 0.017818477 0.029327331 0.009184119
0001f0 8d 7f cf bc 7e 95 c9 bd ac 2f 4b bc e2 6a 81 3d
       -0.025329376 -0.098429665 -0.012401503 0.063192144
000200 3b 99 45 3d 03 f9 00 3d 4d 9c 3d 3d 5b 2e c1 bc
       0.048241835 0.031487476 0.04629164 -0.023581674
000210 be 96 a1 3d 69 7e d1 bc a1 d7 c4 bd d6 7b ac bd
       0.0789008 -0.025572972 -0.096114404 -0.08422057
000220 fe b4 20 3d 92 4c 38 3c 79 75 09 3e c9 2d 89 3d
       0.039235108 0.011248725 0.13423719 0.06698186
000230 44 ff 7c 3d 7c 80 95 3d 2f 57 07 3e ae 87 d4 bd
       0.061766878 0.07299897 0.13216852 -0.10377441
000240 37 fc 46 3d 0f 54 86 3d 10 e4 6c bd a1 c8 b9 3d
       0.048580375 0.06559002 -0.057834685 0.0907147
000250 bc d2 01 be a6 3e 21 bd f1 60 80 3d 9c 99 5b 3d
       -0.12678045 -0.039366387 0.0626849 0.05361329
000260 ea 7b 03 3e 28 a3 8b 3d e8 25 c6 bb 82 70 57 3d
       0.12840238 0.06818229 -0.0060469992 0.05259753
000270 71 4c f0 bc 90 eb 08 bc a3 e1 d5 bd a9 cc a4 bd
       -0.029333325 -0.008356944 -0.104434274 -0.08046848
000280 f8 0d 24 bd 36 e1 0e bd c7 21 91 bd 2e 8d 3a bd
       -0.040052384 -0.034882747 -0.07086521 -0.045544796
000290 bd d2 ae 3d 55 94 8f bd 05 95 10 3d e3 98 53 bd
       0.08536289 -0.07010714 0.035298366 -0.051659476
0002a0 c7 c6 80 3d 7c b3 aa 3d 34 a5 94 bd b1 b7 c4 3a
       0.06287914 0.08335015 -0.072580725 0.0015008358
0002b0 94 ed 46 bd 76 36 b7 bc e1 d1 01 3d 10 63 b8 bd
       -0.048566416 -0.022364836 0.031694297 -0.0900327
0002c0 c1 56 a9 bd 21 57 8b bd 6c 48 a4 bc 9f aa af bb
       -0.082685 -0.06803728 -0.020054065 -0.005360916
0002d0 53 24 03 be 23 8b 15 bd b8 ad bd bd b1 9d dc 3d
       -0.12806825 -0.036509644 -0.0926165 0.10772265
0002e0 84 5c 55 3c 77 f2 82 bd 70 82 a5 bc a0 f6 ac bc
       0.013022546 -0.06393903 -0.020203799 -0.021113694
0002f0 49 94 cb 3d 80 b1 bb bd 72 f0 16 3e f9 47 c9 3d
       0.099403925 -0.09164715 0.1474016 0.09828181
000300 cc 21 8c bd 14 89 74 3b 6c 5f 6f bb c9 2b 62 bc
       -0.06842384 0.003731315 -0.0036525382 -0.0138043845
000310 a3 34 cf 3b f2 12 6d 3d 43 0f 61 bc 56 03 29 bc
       0.0063234135 0.057879396 -0.013736549 -0.010315737
000320 16 78 27 bd 4b a3 ae bd 6e e1 58 bc d5 ec ce bc
       -0.040886007 -0.085272394 -0.01323734 -0.025259415
000330 2e 7b e0 3d a9 97 0f bb 15 97 de 3d 0a c5 cb 3c
       0.10960995 -0.0021910465 0.1086866 0.024874229
000340 5d d6 ac 3d d9 b4 01 bd db ac b2 bd 4e ff da 3d
       0.08439324 -0.03166661 -0.08724376 0.10693227
000350 64 6b c3 3d 74 ca f8 3d db 3f f8 bd f8 b4 4a 3c
       0.095419675 0.1214799 -0.121215545 0.012372248
000360 d0 c2 38 bb 9e 3f 51 bd e0 b4 08 b6 44 a0 dc bd
       -0.002819229 -0.05108606 -2.0370862e-06 -0.10772756
000370 16 52 ba bd ee 3c 00 3c e7 9a 89 3d 70 a1 6e bd
       -0.09097688 0.007827027 0.067189984 -0.058259428
000380 17 cf db bc 36 0e 67 3d 72 fc 94 3d c5 16 d6 bd
       -0.026832147 0.056410037 0.072747126 -0.10453562
000390 d4 46 d7 3d f3 97 ab bd d3 be f7 bc 39 27 30 3b
       0.10511556 -0.083785914 -0.03024236 0.0026878847
0003a0 91 4b dd 3d d6 a0 16 be f8 f8 b7 bc 48 dd ae bd
       0.10805429 -0.14709792 -0.022457585 -0.085383
0003b0 86 99 b3 3d 2a 69 bb bd 52 80 c8 bd 75 cf a0 3b
       0.08769517 -0.09150918 -0.097901 0.0049075433
0003c0 03 20 f6 3d 67 86 de bd f5 3f bc 3d 63 08 72 3d
       0.120178245 -0.10865479 0.09191886 0.05909003
0003d0 20 14 90 bd 9b bb 32 bd 88 7d f3 bd 61 fe 4d bd
       -0.070350885 -0.043635946 -0.118891776 -0.050291423
0003e0 cd 46 d7 3d 6f dd aa bd 10 35 de bd ca ed b4 bd
       0.10511551 -0.08343016 -0.108499646 -0.08834417
0003f0 c4 4b a1 3d d0 48 87 3d cf 43 01 bd a9 b2 8d bd
       0.07875779 0.06605685 -0.031558808 -0.06918842

lstm.bias_ih_l0 f4 [256]
000000 19 e3 86 3d 39 76 0d bc 15 8c fc 3c 1a cc 90 bd
       0.06586284 -0.0086341435 0.030828515 -0.07070179
000010 9d 2a 0c 3e ee 37 65 bd 62 46 f7 bd 1e 2a e3 3c
       0.1368813 -0.05596154 -0.12073971 0.027730044
000020 70 a7 d7 3d 2e 47 ec ba 0e cc ca bc 88 d3 0b bc
       0.10529983 -0.0018026584 -0.024755504 -0.00853432
000030 34 77 d4 3d e7 86 26 bc a5 8e 58 3d f0 72 b9 3d
       0.10374299 -0.010163999 0.05287041 0.09055126
000040 2d 1f a5 3d 9d a5 5c bd 99 df 88 bd 07 ad 53 3b
       0.08062587 -0.05386888 -0.06683273 0.0032299177
000050 ad 7c 6c 3d 31 43 a2 3d b1 90 cd bd f1 d7 a2 3d
       0.057736088 0.07922972 -0.10037363 0.07951344
000060 19 ac 94 3d 7c eb 2d bd f9 cb 1b 3d f8 10 cb bc
       0.072593875 -0.042460904 0.03803632 -0.024788365
000070 af 20 59 3d 5b 3e c1 3c b4 84 77 bd b7 e2 21 3e
       0.053009685 0.023589304 -0.06042929 0.15809141
000080 34 05 a9 3c 03 c6 2d bd 5b 3f 5c 3e 56 39 91 bd
       0.020632364 -0.042425167 0.21508543 -0.07091014
000090 af e3 d1 3d c4 3b 25 bd fd df 32 bc 52 74 e6 3d
       0.10248505 -0.0403402 -0.010917661 0.11252655
0000a0 50 13 8a 3d c7 3f 7d 3d a9 b0 5c 3d da f8 f3 3d
       0.06741965 0.0618284 0.053879414 0.11912699
0000b0 af bd a3 3d 96 82 9c 3d ad 67 80 bd 90 e8 7d 3d
       0.07995164 0.07642095 -0.062697746 0.061989367
0000c0 a9 d8 79 bb e0 a9 8b bd be 2f 7f bd 33 65 48 bd
       -0.0038123524 -0.068195105 -0.06230139 -0.048924636
0000d0 7b a6 14 3d 52 22 2a bc c4 7a 7a 3c dd 14 b8 bd
       0.03629158 -0.010384159 0.015288059 -0.08988354
0000e0 5e 81 32 3c 83 96 3c 3d e6 a7 dc bb c9 29 06 3d
       0.010895101 0.046041977 -0.0067338822 0.032754693
0000f0 4c 25 3c 3d 8d c5 78 3e 5a 66 0f 3e b3 99 c4 bd
       0.045934007 0.2429411 0.14003888 -0.09599628
000100 26 2f 0c bd e9 1e e1 3d 5d 56 c5 3d c5 91 e5 3d
       -0.03422465 0.10992224 0.09635613 0.11209444
000110 1a 1c 86 3d 5c 80 ee 3d c1 14 d3 bd 1e df f9 3d
       0.06548329 0.11645576 -0.10306693 0.12200759
000120 14 a7 b4 bd 41 74 30 bc c8 c4 08 3e bd 11 e5 bd
       -0.0882093 -0.010769905 0.13356316 -0.11185024
000130 91 a7 ae bb 17 a3 ba 3c 81 2e 2c bd 15 83 ef 3d
       -0.005330034 0.022782845 -0.042036537 0.11694924
000140 63 a5 8d 3d c0 97 c0 3d bb 5b a6 3d af 4b 83 3d
       0.06916311 0.09403944 0.08122965 0.0641092
000150 af fe c8 bd c0 a4 3c 3d c5 d7 b9 bd 9d bf b7 3d
       -0.09814202 0.046055555 -0.09074358 0.08972094
000160 e1 0b 00 3c 1d ab 6d bd f3 36 b6 bd b5 9f 12 3e
       0.007815332 -0.058024514 -0.088971995 0.14318736
000170 ac 6e 08 be 70 6f 95 bd 3e 43 c6 3d 1c 19 61 bd
       -0.13323468 -0.07296646 0.09680794 -0.054955587
000180 3d 48 a6 bc 27 00 bc bc 8a 8e 29 3e aa fc d7 3d
       -0.020298118 -0.022949291 0.1655828 0.10546239
000190 95 a5 ed 3d ca 6a c9 3d 9a ce 90 3d 56 d2 f0 3d
       0.11603848 0.098348215 0.07070656 0.117588684
0001a0 af fe 90 3d 1e 16 03 3e f0 99 aa 3d 11 27 0a 3d
       0.07079827 0.12801406 0.083301425 0.033728663
0001b0 20 35 87 3c 8b 64 d2 3d c8 d4 a0 3d f1 d8 9a 3d
       0.016504824 0.10273083 0.07853085 0.075609095
0001c0 9b a1 02 be bf 25 9e 3d f6 7d 9a bd 88 69 50 bd
       -0.1275696 0.07722043 -0.075435564 -0.050881892
0001d0 bc 52 42 3c a9 f7 c5 3c 38 4f 9c bd 00 6e 2e bc
       0.011860546 0.024165945 -0.07632297 -0.010646343
0001e0 b5 93 67 bd 27 6c ad 3c cd 9e 32 bc 31 15 d5 3d
       -0.05653735 0.021169735 -0.010902119 0.104044326
0001f0 e6 5c a4 bd 35 62 f5 3c 5f 93 e8 bd 58 7f 69 bd
       -0.080255315 0.029954055 -0.11356234 -0.05700621
000200 38 09 e2 3d f7 dc fb 3d 00 25 55 3d ef df 72 3d
       0.110369146 0.12298005 0.05203724 0.05929559
000210 94 0f 84 3d 38 04 db 3c b9 17 d9 3d 4d e3 05 3e
       0.06448284 0.02673541 0.10600228 0.1307499
000220 2d 2d 94 bd 40 90 09 3d a1 8f 43 bd ca b7 e0 bd
       -0.07235179 0.033584833 -0.047744397 -0.10972555
000230 54 95 b0 bd bc cc 6f bd 64 c1 ea 3c 27 7b be bd
       -0.08622232 -0.05854486 0.028656669 -0.09300833
000240 46 af 15 3d 68 4b 53 3d f3 00 73 bd 48 a2 ec 3d
       0.036544107 0.051585585 -0.059327077 0.1155439
000250 11 6d cd bd d4 5d bd 3c 17 65 2c bd 43 5a 89 bb
       -0.100305684 0.02311603 -0.042088594 -0.0041916682
000260 ee 6c 08 3e 10 f8 75 3d 7b bd 97 3d ee f1 a3 3d
       0.13322803 0.060051024 0.074091874 0.08005129
000270 f5 0a 9f 3d 72 28 c0 3d 88 63 f5 bd e7 83 89 3d
       0.07765762 0.09382714 -0.11981875 0.067146115
000280 9f 7b 8a bd 54 48 b4 bd af 9e 60 3c b2 c0 bd 3c
       -0.0676186 -0.08802858 0.013709708 0.023163173
000290 a2 9a be bd 97 ef 95 3d 4e dd 60 bd bb b0 97 3d
       -0.093068376 0.07321089 -0.054898553 0.074067555
0002a0 0a 17 2a 3c 4d 73 bd bc c1 84 e6 bd 08 cd 9f 3c
       0.0103814695 -0.023126269 -0.112557895 0.019506946
0002b0 87 dd 9a 3d 85 c1 99 3c 92 a6 7b 3d 4d 0c ee bd
       0.07561784 0.018769035 0.06143815 -0.1162344
0002c0 d1 73 56 3d 8f d3 30 bd 7b 94 a0 bd 92 12 cc 3d
       0.052356545 -0.043170508 -0.078408204 0.099644795
0002d0 f1 ea 9e bd 80 82 f1 3d 61 60 33 bd ea 33 17 3d
       -0.07759655 0.11792469 -0.043793086 0.036914743
0002e0 90 fe d6 bb 44 00 31 bc aa 06 fe bd 4d 7b 0b 3b
       -0.006561108 -0.010803286 -0.12403615 0.002128321
0002f0 90 0f ba 3d bd a0 d6 bd 7d 97 da 3c 32 7e ff 3c
       0.090849996 -0.10479877 0.026683563 0.031188104
000300 b0 77 13 3e bc 38 0d 3c ea 5f 5a bd 0e b0 5c bb
       0.14401126 0.008619484 -0.053314127 -0.0033674273
000310 55 f5 32 3d b8 d3 da 3d d9 17 eb bd ed 77 71 bd
       0.043690998 0.106849134 -0.11479158 -0.05895226
000320 0e c1 b7 bd d1 cc d5 bd e4 5e 10 bd 14 9f ba bd
       -0.08972369 -0.10439456 -0.035246745 -0.09112373
000330 43 01 a4 bc da fb 8e 3d 45 e8 ea 3b 8a 0d 82 bd
       -0.020020133 0.069816306 0.007168802 -0.063502386
000340 66 de 17 3e 7d 60 6c bc 0a 9c 08 3b 95 10 be 3a
       0.14830932 -0.0144273015 0.002084496 0.0014500791
000350 6e 52 96 bd 9e 00 3b 3c b0 a9 af 3c 0b 25 6d 3d
       -0.07339941 0.011413721 0.021443218 0.057896655
000360 b3 e5 0c 3c 54 c1 99 3d 4b e4 c6 bc 4f 7d bb 3d
       0.008599686 0.075075775 -0.02427878 0.0915476
000370 28 61 b9 3d eb 0a 32 3e 14 7d d0 3d cb 1c 2b 3e
       0.09051734 0.17386977 0.10180107 0.16710202
000380 19 ef e4 3c 50 28 a9 3d 15 18 11 3e a0 da e2 bd
       0.027946042 0.08259642 0.14169343 -0.11076856
000390 d5 9f ea 3d 59 64 03 3d 2b 2a 68 3c 2f 93 ab 3d
       0.11456267 0.03207812 0.01417021 0.083776824
0003a0 8f bd 55 3c 50 3e 4f 3d 14 7f 0d 3e 6c 25 f4 3c
       0.013045683 0.050596535 0.13818008 0.029803
0003b0 50 75 8a 3d f6 f6 fb 3d bf 34 08 bd 68 49 d4 bd
       0.06760657 0.123029634 -0.033253428 -0.10365564
0003c0 fc 18 98 bd 63 d5 a2 bd e5 bb a4 bd 95 b8 6c bd
       -0.074266404 -0.079508565 -0.080436505 -0.05779322
0003d0 e6 ff 2b bd bd 53 d7 3d d4 c7 8f 3d 70 dc dd 3d
       -0.04199209 0.10514019 0.07020536 0.10833061
0003e0 4a a7 0d bd 13 55 d3 bb e9 9b ae bd e3 88 cc 3d
       -0.034583367 -0.0064493506 -0.08525831 0.099870466
0003f0 91 79 90 3c 6c 33 29 3e 5f 01 d7 3c 28 6c bf 3d
       0.017636092 0.16523522 0.026245771 0.09346801

lstm.bias_hh_l0 f4 [256]
000000 96 68 a2 3d 6a 1b c0 bd b1 4a 75 3c 49 82 45 3b
       0.079301044 -0.09380229 0.014971421 0.003013747
000010 8d 9b ef 3c a2 7d 02 bd c2 10 25 bc 12 f2 ae bd
       0.029248977 -0.031858094 -0.010074796 -0.08542265
000020 96 81 f4 3d 59 82 de 3d 24 6b e8 bc c5 41 fe 3d
       0.11938779 0.108647056 -0.028371401 0.12414888
000030 1a 68 87 bd 5a 2b 94 3d f1 20 7a bd 8e 36 ea 3d
       -0.06611653 0.07234831 -0.06106657 0.11436187
000040 39 b8 d2 3c 0d 1c 25 3d 0b ed 1c bd 5d 7d 81 3d
       0.02572261 0.040309954 -0.038312 0.06322739
000050 25 61 2a 3c dd a5 09 3e 83 17 86 bd 70 04 71 3d
       0.010399138 0.13442178 -0.06547453 0.058842123
000060 38 29 87 3c 80 51 3a 3d 8c e3 dc 3d c2 97 3d 3d
       0.016499147 0.04548788 0.107855886 0.046287306
000070 44 14 f7 bc 8d e1 31 bc 2e 85 5b 3d 34 5c 5f 3e
       -0.03016103 -0.010856998 0.053593807 0.21812516
000080 fe fd 7e 3d 70 2f e2 bd a6 3c 10 3e 3e c7 98 bd
       0.062253945 -0.11044204 0.14085636 -0.074598774
000090 8a 6b 62 bd 1e 46 03 bd fb 82 e9 3b 64 c2 b2 bd
       -0.05527834 -0.03204929 0.00712621 -0.08728483
0000a0 76 d9 85 3b 91 1b 2d 3e 04 c5 dc bd b6 20 15 3e
       0.0040847613 0.16905047 -0.10779765 0.1456326
0000b0 fc f6 39 3d e5 c9 25 3d b6 9e c1 bc b6 6f e5 3c
       0.04540156 0.040475745 -0.02363525 0.02800737
0000c0 9e 73 b5 bd f0 26 f1 3d 9c d7 90 bd 6e 2e 8a 3d
       -0.08859943 0.11775005 -0.07072374 0.06747137
0000d0 2d 8e 31 3e 40 78 7a 3d 58 2b d3 bd 4f e2 a0 bd
       0.17339392 0.061149836 -0.103110015 -0.07855665
0000e0 31 d1 9b bd eb 75 2e 3d 0e f1 61 3b 07 d1 c0 3c
       -0.076082595 0.042592924 0.0034475955 0.023537172
0000f0 f4 b8 25 3d 83 f4 24 3e a3 de d1 b9 25 26 ea 3d
       0.04045959 0.16108899 -0.00040029464 0.11433057
000100 e4 3d da 3b 43 ea dd bd 01 50 ac bc 91 da b1 3d
       0.00666021 -0.108356975 -0.021034243 0.08684266
000110 68 b5 53 3c ab 82 eb 3c af 00 8b bc cb 25 8d 3d
       0.012921669 0.02874883 -0.0169681 0.06891974
000120 3a 90 c5 3d 57 bf 00 be cd 22 14 bd 1a 52 37 3d
       0.0964665 -0.1257299 -0.036166 0.044756033
000130 82 ec 2f 3d 53 c9 2b ba cd df 35 bd 43 82 b0 3d
       0.04295016 -0.0006553132 -0.044402886 0.086185955
000140 a1 58 0f bd de a9 f5 bc 8e 65 04 3d 83 03 77 bc
       -0.034996632 -0.029988226 0.032323413 -0.015076521
000150 4b a6 aa bd d3 8f ef 3d 6a 88 61 bd 37 de 9d bd
       -0.08332499 0.11697354 -0.055061735 -0.077084
000160 58 d6 29 bd 31 30 dc 3d 54 52 77 bd 1e e7 1d bd
       -0.04146418 0.10751379 -0.06038125 -0.03855049
000170 3f ae bf 3d af db 92 bd 70 a6 ae 3c 3c 3e 9a 3d
       0.09359407 -0.071708076 0.021319598 0.075314015
000180 f6 eb 6c bd d1 c2 8e 3d 2c 28 0b 3e b5 ea 4b 3d
       -0.057842217 0.06970752 0.13589543 0.04978438
000190 d3 f8 58 bd 2e 40 b0 3d 18 34 77 bd 32 9c eb 3b
       -0.052971672 0.08605991 -0.060352415 0.007190251
0001a0 b5 2f c6 bd 05 cd 6e 3d 48 4d 79 3d ee f6 0b 3e
       -0.09677068 0.05830099 0.060864717 0.13668415
0001b0 df 81 77 bd 0a d3 12 3e a2 06 f4 3d 89 a3 a4 3d
       -0.06042659 0.14338318 0.119153276 0.08039004
0001c0 63 15 21 3c 17 27 2a 3d 26 c6 db bd 59 95 d8 3d
       0.009831759 0.041541185 -0.10731153 0.10575361
0001d0 fb 9f b2 bd c5 4b d5 3d 20 d6 6d 3c c5 f5 c9 bc
       -0.0872192 0.104148425 0.014516383 -0.024653325
0001e0 3e 21 89 bd 93 c3 ab bc 26 7a 2d 3d c9 e5 69 bd
       -0.066957936 -0.02096728 0.042352818 -0.057103906
0001f0 3c 67 75 3c a9 c1 eb bc 23 7d f3 3d 00 bf af 3d
       0.014978226 -0.028778868 0.11889102 0.08581352
000200 b2 be 1a 3d f6 8a a6 3d c8 c3 45 3d 90 46 91 b8
       0.037779517 0.081319734 0.048282415 -6.927282e-05
000210 95 ba cb 3b 21 21 00 3c f7 9f e1 3d 39 04 dc 3d
       0.0062173107 0.007820399 0.11016839 0.10742993
000220 1f 6f 1c bc 10 39 25 bd 93 40 81 3d 25 da 58 bd
       -0.009547978 -0.040337622 0.06311145 -0.052942414
000230 ac 26 87 bd e6 d2 f1 bd 72 bf 19 3d f3 af a5 3d
       -0.06599173 -0.11807804 0.037536092 0.080902
000240 89 10 8f bd dc b6 76 3c 51 35 e5 bd 7e 62 9c 3c
       -0.06985576 0.0150582455 -0.1119181 0.019089933
000250 9b c1 be bd bd 30 ae bd 85 02 79 bd 21 89 d8 bd
       -0.09314271 -0.0850539 -0.06079342 -0.1057303
000260 34 e8 af bd 25 6d 9a 3d 9b b1 e6 3d 8c 72 5f 3a
       -0.08589211 0.07540349 0.11264344 0.0008523844
000270 74 47 4a bd 48 27 22 bd 74 0e f8 bc 74 78 27 bd
       -0.04938455 -0.039588243 -0.03028033 -0.040886357
000280 5d df be 3d a5 ad 90 bc f4 9d 00 be dd ff cf 3d
       0.09319947 -0.017660925 -0.12560254 0.10156224
000290 5c 22 02 bc 42 26 8d 3c a1 57 aa 3d 59 16 8d 3d
       -0.007942762 0.017230157 0.08317495 0.06889028
0002a0 68 09 ad bd cc 43 6c 3c 2f 4b 9e bd fe 40 90 bc
       -0.0844906 0.014420461 -0.07729184 -0.017609116
0002b0 4b cb 96 bd e3 8c 2f bd 2c d0 3b 3d 39 c6 dc 3d
       -0.07362994 -0.04285897 0.045852825 0.107799955
0002c0 51 a6 34 3d 7d 73 e6 3d bc a0 59 3c b8 cd 8d bd
       0.044103924 0.112524964 0.013282951 -0.06924003
0002d0 a4 e4 08 3e a4 a3 85 3d b9 9c 1b 3d 20 4d f6 bd
       0.1336847 0.065253526 0.03799126 -0.12026429
0002e0 a2 eb 5e bd cc 46 ed bd 18 22 6a 3c 4d ad e3 3d
       -0.054423936 -0.11585769 0.014290355 0.11117039
0002f0 7e 5a fa 3c 9f 32 51 bc ad 02 56 3d db f1 48 bd
       0.030560728 -0.012768417 0.052248646 -0.049058776
000300 44 b1 cc 3b ea 62 fc 3d d9 92 89 bd 24 0b 3e 3c
       0.0062467176 0.12323554 -0.06717462 0.011599336
000310 df 19 f0 3d bc 1f e8 3d 76 a2 53 3c cc 2e 87 bd
       0.117236845 0.11334178 0.012917152 -0.06600723
000320 a3 3c 0a 3e 89 ce b4 bd ac 7f 3e 3c e4 2c a1 bd
       0.13499694 -0.08828456 0.011627119 -0.0786989
000330 84 5a 63 bb 74 15 d5 3d d4 d7 9e bd 1c 34 be bc
       -0.0034691403 0.104044825 -0.0775601 -0.023218207
000340 b0 8f fb 3d 66 41 09 3e d9 7d d8 bd c5 b1 6c bd
       0.122832656 0.13403854 -0.105708785 -0.05778672
000350 2d fd 6c bd e0 04 f5 3c 91 38 02 3e da a9 b9 bd
       -0.057858635 0.029909551 0.12716891 -0.090656
000360 67 2c c3 3a 55 08 58 3d 69 15 71 bd 92 7c df 3c
       0.0014890552 0.05274232 -0.05885831 0.02728108
000370 33 76 d3 bc ef 06 0b 3d 98 a2 b2 3c 40 c1 ba 3d
       -0.025813198 0.03394216 0.021806046 0.09118891
000380 cd ba d6 bc ca 7c 95 bd ce 42 8a 3d 92 96 74 3d
       -0.02621212 -0.07299192 0.06751023 0.059713908
000390 c5 10 d2 3d 93 d4 0c 3e f9 b0 07 be 82 4f 59 bc
       0.10257105 0.13752966 -0.13251103 -0.013263585
0003a0 42 a8 b8 3b b7 b9 32 3e 3f df 8a bd ac d2 92 bd
       0.0056352923 0.17453657 -0.06780862 -0.07169089
0003b0 33 11 8d bd ed 10 a5 3d 17 8a 19 3c a4 3b 71 3c
       -0.06888046 0.08059869 0.009371302 0.014723692
0003c0 84 14 28 bd a7 5c 1e 3d 59 7a 9e 3d cd 0d 64 bc
       -0.04103519 0.03866258 0.0773818 -0.013919306
0003d0 f2 52 9a 3d 2f 82 72 3d dc c0 e6 3d 00 b0 09 be
       0.07535352 0.059206184 0.11267254 -0.13446045
0003e0 57 14 b5 3b 2b ec 14 bd b0 b0 69 3b 22 7d bd bc
       0.0055261063 -0.03635804 0.0035658292 -0.023130957
0003f0 64 d5 a6 3d c2 d4 7e 3d d1 74 84 bd 54 a6 37 bd
       0.0814617 0.06221462 -0.064675935 -0.044836357

lstm.weight_ih_l1 f4 [256, 64]
000000 51 61 cf 3d a0 a9 82 bc 84 59 8d 3d 8e 71 de bd
       0.101259835 -0.015950024 0.069018394 -0.108615026
000010 84 b7 0f 3e 18 04 cc 3d d1 6b be bc 9c 2c 60 ba
       0.1403485 0.09961718 -0.02324477 -0.0008551569
000020 ad a7 da bd d8 7d 4c bd 77 3f a1 bb 51 cc 21 3d
       -0.10676513 -0.0499247 -0.0049208957 0.039501492
000030 3a cc ab bd 75 bc bd bd 96 22 91 bd ce 76 4b bd
       -0.083885625 -0.09264461 -0.07086675 -0.049673848
000040 76 82 91 bd bf 4d bc bc 00 ef 1a 3d bd 3e 9d 3d
       -0.071049616 -0.022986291 0.037825584 0.07677982
000050 e8 61 0c bd 0c b5 39 bd 7b 21 21 3d dc f7 9b bc
       -0.03427306 -0.045338675 0.03933857 -0.019039087
000060 ec 29 45 bd 18 8e 98 bd 38 9d a2 3d eb 20 d4 bc
       -0.048135683 -0.07448977 0.07940143 -0.025894603
000070 46 d5 9c bd 7f 44 81 bd fc 75 af 3d 3e 78 ab bd
       -0.07657866 -0.06311893 0.085674256 -0.08372544
000080 98 4d 0d 3b c2 ee fe bd 6f 33 ec 3d d4 12 ae 39
       0.0021561142 -0.12447883 0.11533248 0.00033201894
000090 f4 33 b7 bd c7 c8 0c 3d 04 ff 8e bd bc 46 30 3d
       -0.08945456 0.034371164 -0.06982234 0.043036208
0000a0 5e 79 3a 3c d2 38 ca bc 68 d7 8f bd 48 77 9b bd
       0.011381475 -0.024685297 -0.07023507 -0.075911105
0000b0 02 86 66 3d bc b7 15 bd 68 b3 bc 3d fe bd 9a 3d
       0.056280144 -0.036552176 0.092139065 0.075557694
0000c0 f9 6b 99 bd 9c db c2 3d f2 bc 9e 3c 2a 75 3a 3d
       -0.07491297 0.095145434 0.019377206 0.045521893
0000d0 90 f6 87 bd 2a 18 34 bd 53 7e 64 3c 56 87 e4 3d
       -0.06638825 -0.043968357 0.013946134 0.11158626
0000e0 b5 8d 9f bd 81 cb bb bd 17 72 1a 3d 94 12 c2 3c
       -0.077907 -0.09169675 0.03770646 0.0236905
0000f0 1a 3f 58 bd 58 2d 77 3d 4f 00 1d bc 63 72 df 3d
       -0.052794553 0.060345978 -0.009582593 0.109104894
000100 e3 bb bc bd a4 b1 00 bd dc 7c b2 bd 24 24 36 bd
       -0.09215524 -0.03141941 -0.08715221 -0.04446806
000110 b3 e1 ce bb 66 0d 0e 3d 5c ea a9 bd f5 e8 96 3d
       -0.0063135265 0.034680746 -0.08296654 0.07368652
000120 96 14 c3 3d 4b ed 4d bd 17 28 23 bd ee 99 ef bd
       0.09525411 -0.05027513 -0.039833155 -0.11699282
000130 b0 82 76 3d 3c 84 1a bd 12 b1 25 3d 65 d9 20 3d
       0.060183227 -0.037723765 0.04045207 0.039269824
000140 71 7a 26 bd 7d 70 a0 3d f7 d7 7a bd 0d c3 99 3d
       -0.040644113 0.078339554 -0.061241116 0.07507906
000150 78 58 c1 3d cb d9 0c 3e dc 56 90 3a 66 57 4b bd
       0.09440702 0.13754956 0.0011012214 -0.049643897
000160 e6 93 ba bd ad e0 85 3c c1 23 06 3c bd 3b a1 bd
       -0.09110241 0.016342485 0.008187235 -0.07872722
000170 12 4d 01 be 3d 0b 94 bd bf 4c a7 bb 8d ab 4d 3d
       -0.12627056 -0.07228706 -0.0051055844 0.05021243
000180 f3 a5 5a 3d c9 3c d1 bd 1c 81 19 3e 68 0c b9 3d
       0.053380918 -0.10216672 0.14990658 0.090355694
000190 dd e1 a7 bd 98 d9 c5 bd 48 0d 85 3d 73 f1 26 bd
       -0.08197377 -0.09660643 0.06496674 -0.040757608
0001a0 ee a2 c0 3d 90 35 05 3d 4a 0b 9d 3d 03 02 cc 3d
       0.09406076 0.032521784 0.07668169 0.09961321
0001b0 df 80 64 bc 57 b7 19 bd 56 b9 d6 bc 35 d0 87 3d
       -0.013946741 -0.037528362 -0.026211422 0.06631509
0001c0 ba 33 93 bd 70 91 7b 39 2c 69 21 bd d5 38 96 bd
       -0.071876004 0.00023991405 -0.03940694 -0.073350586
0001d0 a9 52 16 bd cb 69 e0 bd 46 bd f2 3d 84 81 d9 bc
       -0.036699925 -0.109576784 0.11852507 -0.026551016
0001e0 43 da 4c 3d 30 1a 8e bc b8 0c fc 3c 8a 91 ac 3c
       0.050012838 -0.017346472 0.030767784 0.021065492
0001f0 76 b4 da 3d 66 21 32 3d 2f 08 ca 3d 5e 86 bf bd
       0.106789514 0.043488882 0.09864842 -0.093518004
000200 3c 8e e8 3c 74 20 d4 bd a2 03 f4 bc 53 0f c3 3d
       0.028388135 -0.103577524 -0.029786889 0.09524407
000210 96 25 ac bc f5 a4 1a bd 53 a4 c6 3d ac d5 9f 3d
       -0.021014016 -0.03775497 0.09699311 0.078044266
000220 0f 7a 5d 3d 42 ea d5 3d 5a 68 e3 bd 18 ca 38 3c
       0.054071482 0.10445072 -0.11103888 0.011278652
000230 27 f7 01 3d 63 83 b6 3d 46 74 33 bd bd 70 df bd
       0.031729843 0.08911779 -0.04381206 -0.10910175
000240 f8 57 3c 3d 96 ea b8 bc 25 17 bc bd e2 9e e2 3d
       0.04598233 -0.022572797 -0.09184102 0.11065461
000250 3f 6f be bb 2b 93 68 bc 62 aa 20 bd 09 26 5d bd
       -0.0058116014 -0.014195244 -0.03922499 -0.05399135
000260 25 18 82 3d fa af 7c 3d 2c 79 0a be b9 ac 3c bd
       0.063522615 0.06169126 -0.13522786 -0.04606316
000270 f0 70 d7 bb 77 b1 a0 bd d1 0b 7b 3d 4f ab 9a 3d
       -0.0065747425 -0.07846349 0.061290566 0.07552206
000280 45 3b b0 3d 00 9e 29 3d 76 be b9 bd f0 04 cf 3d
       0.08605055 0.041410446 -0.09069531 0.10108364
000290 71 49 fd 3d 52 e0 8e bd 5c c1 cf 3d df 3c dd 3b
       0.123675235 -0.069763795 0.10144302 0.006751641
0002a0 20 96 41 bd bb e9 c5 3d 10 c5 71 bd 9d cf 9d bd
       -0.04726231 0.09663721 -0.059025824 -0.07705615
0002b0 41 20 23 3c 06 3b bd bd 4f f7 83 bd 6b b8 49 bd
       0.00995642 -0.092397735 -0.06443655 -0.04924814
0002c0 80 22 6c bd 72 ed 36 3c 51 51 0c bd 31 a6 ce 3d
       -0.05765009 0.01116501 -0.034257237 0.10090292
0002d0 d7 2e d7 3d 88 bf 6f 3b a4 15 ac 3d d3 1b 96 bd
       0.10506981 0.0036582667 0.08402565 -0.07329526
0002e0 6a 80 77 bd f7 5e d2 3d cc db 82 bc 3a ef b0 bd
       -0.0604252 0.10272019 -0.015973948 -0.08639379
0002f0 d5 ab eb bd 28 58 ba bc 2c fc 9f bd e6 c7 34 bd
       -0.11507384 -0.022747114 -0.0781177 -0.04413595
000300 7b 2a 61 3c db 45 a3 bd 85 af 6b 3d be 04 99 3d
       0.013743038 -0.07972308 0.057540435 0.074716076
000310 d8 22 a5 bc 1e b0 46 3c 2d 94 85 bd ef 83 42 bd
       -0.020158216 0.012126951 -0.06522403 -0.047489103
000320 b9 13 27 3d 59 84 91 bd e3 9f 8f bc 3a 74 ae 3c
       0.040790293 -0.071053214 -0.017532295 0.021295656
000330 1a 92 7f 3c d4 a1 7f bd f3 03 db bd c2 c3 c0 bd
       0.015598798 -0.06241019 -0.10694113 -0.09412338
000340 82 cb 5f 3d 77 4d cb bd 34 1f c2 3d 68 84 07 3d
       0.05463744 -0.099268846 0.09478608 0.033085257
000350 33 0b f5 bc 24 bc c6 3c 94 43 71 3d 6f 1d bd 3c
       -0.029912567 0.024259634 0.05890234 0.023085324
000360 36 a8 bb bd 16 ff 35 3d 03 6d 13 bd a5 1a 06 be
       -0.09162943 0.044432722 -0.035992634 -0.13096102
000370 bf 5e 0b be bb 57 9f bc d9 55 25 bd 6c 9a d8 3d
       -0.13610362 -0.019451013 -0.040365074 0.10576329
000380 8a f7 e0 bc 81 0d e5 3d af 71 40 bd 61 3f f4 bc
       -0.027461786 0.11184216 -0.046983417 -0.029815378
000390 fd fe d9 bd 9c a1 ca 3d e6 c9 23 bd 65 62 27 bd
       -0.10644338 0.09894106 -0.039987467 -0.04086532
0003a0 74 2a 36 3d 11 d2 20 3d 6d a5 98 3d 73 2a ad 3c
       0.04447408 0.039262835 0.074534275 0.021138405
0003b0 b5 69 8b 3d 5e 30 44 3d 7d 27 6f 3c 1a 52 41 3d
       0.068072714 0.04789769 0.014596817 0.04719744
0003c0 35 61 84 3d e9 e1 e5 3c a5 c9 ae bc 9d ba 29 bd
       0.06463853 0.028061824 -0.021336386 -0.041437734
0003d0 2d 57 bf 3c 9a 93 d1 3d e7 07 4b bd 38 dc ff 3d
       0.023356998 0.10233231 -0.049568083 0.12493175
0003e0 cb bc e8 3d c3 73 fd 3d 14 ef 4c 3d 68 81 24 bd
       0.113641344 0.123755954 0.05003269 -0.040162474
0003f0 f1 88 cd bd 81 97 b0 bd a3 73 03 3d 5b 2b e2 3d
       -0.10035885 -0.08622647 0.0320927 0.11043426

lstm.weight_hh_l1 f4 [256, 64]
000000 8f 21 c4 3d 0b ec 2a bd 69 1e 28 3a 46 6a e5 3d
       0.09576713 -0.041729014 0.0006413223 0.11201911
000010 86 94 c4 3c ed 98 bb bd 75 0b a0 bd 55 83 6c 3d
       0.023996603 -0.09160028 -0.07814685 0.057742435
000020 2f d4 ae 3d 23 15 a8 3c 6b 07 82 3a 86 4d bd bd
       0.085365646 0.020517891 0.0009920424 -0.09243302
000030 3d 83 85 bd a9 8f d5 bd 9f 4a 46 bc 57 8f 22 3d
       -0.06519172 -0.104277916 -0.012102752 0.03968748
000040 7b 04 45 bb 6f fe 51 bd 8f c5 fc bd 2a ac 6d bd
       -0.0030062485 -0.051268037 -0.12342369 -0.058025517
000050 f6 e5 a9 3d bb 8c f1 bd b4 a2 b3 3d 85 c8 05 bd
       0.08295815 -0.1179442 0.087712675 -0.032661933
000060 ea 20 40 bd e3 e6 54 bc d4 c1 a2 bd 2f de fc bb
       -0.04690639 -0.012994501 -0.07947126 -0.007716916
000070 89 89 de 3d da 96 02 3e 05 8a f4 bd bc 82 e6 3d
       0.108660765 0.12752858 -0.11940388 0.11255404
000080 f6 54 04 be a5 fa a0 bd e4 d4 7a bd b9 40 a8 bd
       -0.12923035 -0.07860307 -0.061238185 -0.0821547
000090 f2 46 35 ba bd a2 c7 bd a6 05 26 bd 2a b7 e6 bd
       -0.0006915174 -0.09747837 -0.04053273 -0.112654045
0000a0 24 5f fa ba df 34 e9 3b 45 ce 95 3d 15 f2 f6 bd
       -0.001910184 0.0071168984 0.073147334 -0.12057892
0000b0 18 60 15 3d b7 22 e7 bd 92 24 db b9 5b 6a 61 bd
       0.036468595 -0.11285918 -0.00041798182 -0.05503307
0000c0 03 ed 77 3d b9 1e 1a bd 11 fe 6d bd ff 80 eb 3d
       0.060528766 -0.037626956 -0.058103625 0.114992134
0000d0 f9 aa 1a bd 3c 18 9d 3d 49 43 07 bd 1f 10 b3 3d
       -0.03776071 0.07670638 -0.033023153 0.08743309
0000e0 e4 e2 d9 bd 4d 63 b1 bd 3a a7 4e bd e1 7e 84 3d
       -0.10638979 -0.08661518 -0.05045245 0.06469513
0000f0 6a 03 df 3d 67 94 60 3d d5 19 58 3a a1 3f 6d bd
       0.10889323 0.054829028 0.00082435954 -0.05792201
000100 c5 d6 a5 3b 0e b5 45 3c 39 5c bb bd 8a c7 9d 3c
       0.005061003 0.012067093 -0.091484495 0.019260187
000110 5b 4a 93 bd 75 4d c6 bd 46 54 dc bc 87 43 f7 bb
       -0.071919166 -0.096827425 -0.026895653 -0.0075458917
000120 66 a6 c6 3d a8 a4 ad 3d 8e 4a bc bd 69 3c f5 bd
       0.09699707 0.08478671 -0.09193908 -0.11974413
000130 22 f5 76 bd e0 df 80 bd 1b 44 ed bd 4f 7f f1 bd
       -0.06029237 -0.06292701 -0.11585256 -0.1179186
000140 fe 4c b6 bc b7 0f 8a bd 30 37 d5 3d 9b 06 a6 3c
       -0.02225351 -0.067412786 0.10410917 0.020266822
000150 82 70 04 be b3 e7 92 3b 27 9d 6c 3d 17 1d 36 3d
       -0.12933543 0.004483187 0.05776706 0.044461336
000160 c4 69 07 3e 09 4c 32 3d 2e 9c 85 bd 2f 14 53 3c
       0.1322394 0.043529544 -0.065239295 0.01288323
000170 f8 35 48 bc 70 38 52 bd a1 52 9a 3d c1 5a 62 3d
       -0.012219898 -0.051323354 0.075352915 0.05526233
000180 d6 bf e5 bd 0c 3f 8f 3d f1 36 df 3c 75 22 c4 bd
       -0.112182304 0.06994447 0.027247878 -0.09576885
000190 88 fb 87 bc 00 16 ed bd e0 23 18 bd 94 f1 42 3d
       -0.016599432 -0.11576462 -0.037143588 0.047593668
0001a0 05 5c cb bc df f8 7c bd 8a 1c bc 3d 13 23 22 3d
       -0.024824152 -0.06176078 0.09185131 0.03958423
0001b0 17 81 75 bd 5c 9b 8d 3d 78 33 90 bd 98 1d ae bd
       -0.059937563 0.06914398 -0.07041067 -0.08501738
0001c0 cb f1 88 3c 35 f1 d8 bd c0 85 d8 bd df 77 e4 3c
       0.016716858 -0.105928816 -0.10572386 0.02788919
0001d0 a1 d4 61 3c 6f 49 0b 3c 67 19 aa 3c 9d 29 69 ba
       0.013783605 0.008501395 0.020764066 -0.00088944455
0001e0 7a 7a 04 bd 17 0e f6 3d 82 1f fa 3b a6 80 a0 bd
       -0.032343365 0.12014406 0.0076331506 -0.07837038
0001f0 db 24 86 bd dc 04 df bc 07 c3 dc bd 17 03 25 3d
       -0.065499984 -0.027223997 -0.10779386 0.04028615
000200 11 68 b9 bc 73 bc b2 bd 03 10 7e bd f8 2b 57 bd
       -0.02263263 -0.0872735 -0.06202699 -0.052532166
000210 8e 44 2a bd 55 a2 87 bc 56 2b ff 3d 22 45 af bd
       -0.041569285 -0.016556898 0.124594375 -0.08558108
000220 39 52 ae 3d c3 61 75 bd 0a 16 d5 bd ee 99 c3 bd
       0.085117765 -0.059907686 -0.10404594 -0.09550844
000230 d5 72 2a bc 0d c9 3e 3d 3e c3 ce bd 77 f8 a1 3d
       -0.010403355 0.046578456 -0.10095833 0.07908719
000240 a2 b6 ab 3d 6a b3 a4 3d 92 10 a3 3c 30 ec 41 bd
       0.08384444 0.08042033 0.019905362 -0.047344387
000250 d4 bb e7 3d ed e9 ca 3c 6e c5 a6 3d 2c c0 dc 3c
       0.11315122 0.024769748 0.081431255 0.026947103
000260 e4 c1 ca bc 60 4f a0 3c e4 6a de bd 2a 5e 9b bd
       -0.024750657 0.019569099 -0.108602315 -0.0758632
000270 d6 0a 29 b9 23 6a 31 bc 93 f8 d9 bc 05 4e 02 bd
       -0.00016121133 -0.010828528 -0.026607787 -0.031812686
000280 dc b9 17 3d c6 0f 09 be 73 4f ae 3d 59 cc b7 3c
       0.037042484 -0.13384923 0.085112475 0.022436308
000290 2e 56 d7 bd e6 37 d0 3d 3e 50 0a be e5 bf a8 3d
       -0.10514484 0.10166912 -0.13507172 0.08239726
0002a0 78 61 0d 3d 89 a8 db bd 2d 1e f8 3d 87 2a 5e 3d
       0.03451678 -0.10725505 0.121151306 0.054239776
0002b0 bf 24 cb 3d 2e ba b1 3d af 10 8a 3d e2 56 59 bd
       0.09919118 0.08678089 0.067414634 -0.053061374
0002c0 00 dd b3 3d 6a 6b 2e bd eb 4e 6e bc 32 c7 fb 3c
       0.08782387 -0.042582907 -0.014545183 0.030734632
0002d0 51 23 cc bc c1 25 d4 3d bd f1 84 bd 36 06 79 3c
       -0.024919184 0.103587635 -0.064914204 0.015199235
0002e0 b4 95 1c 3e 7f a9 1a bd 3c c5 2b bd 18 ad d5 3d
       0.15291482 -0.0377593 -0.041936144 0.10433406
0002f0 a9 27 8e 3d b2 4b 4d 3d 4c 76 99 bd cd b4 46 bd
       0.06941158 0.050121017 -0.074932665 -0.04851227
000300 09 26 82 bd f1 f2 a7 3d e8 59 76 3d a8 74 28 3d
       -0.06354911 0.08200634 0.060144335 0.041126877
000310 e5 d3 84 3d 54 27 5d 3d ef ee f2 3d 2b d4 9e bd
       0.06485728 0.053992584 0.11861979 -0.077553116
000320 5f 9b 91 bc 0d e1 95 3d 6f 01 2b bd f8 4b dc 3b
       -0.017774282 0.07318316 -0.041749414 0.0067229234
000330 26 e0 b6 3d a5 81 a3 bd 4c d5 41 bd 55 9e 49 bd
       0.08929472 -0.07983712 -0.047322556 -0.049223263
000340 a4 26 cc 3d 1b d7 12 3e 80 51 a3 bc 80 91 83 3c
       0.099683076 0.14339869 -0.019936323 0.01606059
000350 24 e8 91 3d 9f 4c 92 bd 4b c5 13 be 5d 14 aa 3b
       0.071243554 -0.071435206 -0.1443073 0.005190416
000360 0b 39 0a be 05 21 43 3d 2f 79 bf bd ad 07 73 3d
       -0.13498323 0.04763891 -0.09349286 0.059333492
000370 fc cb 77 bd 82 2c 5d bd 45 d9 0e 3d e1 00 1d 3d
       -0.06049727 -0.053997524 0.034875173 0.038330916
000380 bc ee d0 3d 4e de d7 bd 51 e8 bd bc a5 fb 16 3e
       0.10201785 -0.10540448 -0.023182066 0.14744432
000390 22 47 e5 bd 6d 99 2f 3d d8 af aa bc 63 79 8f 3d
       -0.11195208 0.042870928 -0.020835802 0.070055746
0003a0 1b dc e3 bd 1b 90 de bd 28 e4 34 3d 68 38 d9 3c
       -0.11125966 -0.1086733 0.0441629 0.026516154
0003b0 9a 27 fa 3c 27 65 f4 3d d8 06 88 bd 13 12 34 bd
       0.030536462 0.11933356 -0.0664193 -0.04396255
0003c0 f5 37 a6 3c 56 c3 47 bc 8f 0c e0 3d 52 e8 0e 3e
       0.020290354 -0.012192568 0.10939895 0.1395581
0003d0 16 f1 7b 3d 85 5a e7 bc b4 61 7c 3d 8b 98 d4 3d
       0.061509214 -0.028241405 0.061616614 0.10380658
0003e0 35 dc 55 bd 84 66 26 3d f7 da 27 bc 90 9b a4 bd
       -0.05221196 0.04062511 -0.010245076 -0.08037484
0003f0 0f ba d5 bd 9e bb 08 be 4b b0 25 3d cf 88 84 bd
       -0.104358785 -0.1335282 0.04045133 -0.06471407

lstm.bias_ih_l1 f4 [256]
000000 bf 89 c2 3d da ae 5f 3d f3 1d f0 bc 38 d9 a9 bd
       0.09498929 0.05461011 -0.029311156 -0.08293384
000010 e6 03 4a 3d 19 09 81 bc c2 41 ee bd de 49 07 be
       0.049320124 -0.015751408 -0.11633636 -0.13211772
000020 ca 86 d9 3d ec 81 a2 bc 06 7a 59 3c ad 45 ae 3c
       0.10621412 -0.019837342 0.013273722 0.021273458
000030 07 14 e5 bd 57 8a d5 3d 1e 33 e6 3d 3e 56 0f 3e
       -0.111854605 0.10426777 0.112402186 0.13997743
000040 c4 ee 02 3d 18 26 98 3b f4 37 7d bd e0 45 4d 3d
       0.031965986 0.004643213 -0.06182094 0.050115466
000050 f2 7a 4e bd 31 77 d2 bb 32 f4 d3 3c ce d3 b8 bd
       -0.05041022 -0.0064229 0.025873277 -0.090247735
000060 d6 36 eb 3d c5 53 85 3c b4 be 97 3d c9 9d a7 bd
       0.114850685 0.016275296 0.074094206 -0.08184392
000070 bf 62 b4 3d ff a2 21 3c 1a 1c 0d 3e dd 47 02 3e
       0.08807897 0.009865521 0.13780251 0.12722726
000080 17 4f 2b bd 90 03 2f bd 05 a3 95 3d a5 a0 95 bd
       -0.041823473 -0.042728007 0.07306484 -0.07306031
000090 32 0e 0a 3d 0d 82 c7 bd b1 ce 3c 3d 9e 13 2a 3d
       0.033704944 -0.09741602 0.046095554 0.041522615
0000a0 fe 55 9d 3d 4f 8f 95 bd 91 fb 50 bc 7a a8 7f 3d
       0.07682417 -0.073027246 -0.012755291 0.06241653
0000b0 6e e9 13 3d 21 fa e4 bd 2b d1 5c 3d d7 1a d0 3d
       0.036111288 -0.11180521 0.053910416 0.10161369
0000c0 e8 2e e8 3c 42 bb e1 3d 97 86 dc 3d f4 47 62 bd
       0.02834268 0.11022045 0.107678585 -0.0552444
0000d0 8a 56 d4 3d e5 47 c6 bd 18 14 07 be f0 c4 c4 3d
       0.103680685 -0.096816815 -0.13191259 0.09607875
0000e0 a4 bb 8f bc e4 aa e9 3d 28 45 df bd 54 11 89 bb
       -0.017545529 0.11409548 -0.109018624 -0.004182974
0000f0 7e e3 8c 3c c1 c0 a6 3c 67 de 99 bd 30 b9 da bc
       0.01719832 0.020355584 -0.07513123 -0.026699632
000100 dc bb 19 bc 61 aa 7e bd da 37 81 3d e8 d4 8d bb
       -0.009383168 -0.062174205 0.06309481 -0.004328359
000110 df 00 93 bd de 33 a9 3d 40 cf f9 bd b4 7f 30 3c
       -0.071779005 0.08261846 -0.12197733 0.010772634
000120 1b 82 93 3c 16 fd 1a 3d 18 09 ad bd 98 43 b1 3d
       0.018006375 0.037839018 -0.08449 0.086554706
000130 51 e7 71 3d ee 3d 07 3e ec 74 1b bd f7 c3 71 bd
       0.05905849 0.13207218 -0.037953302 -0.059024777
000140 fe b1 cf 3d 03 f0 36 3c 1e 57 6a bd f2 ac db 3d
       0.10141371 0.011165622 -0.057211988 0.10726346
000150 f8 6a 97 bd 0f 7c 9f 3d 6e 39 9c bd d8 dc a9 3d
       -0.073934495 0.07787334 -0.07628141 0.08294076
000160 42 7f b6 3d a8 f4 6f bc f4 2e af 3d f2 1b e8 3c
       0.08910991 -0.014645733 0.085538775 0.028333638
000170 f2 b9 ef bd 73 a9 3f 3d 5c c6 d4 bd 8a db c8 3d
       -0.11705388 0.04679246 -0.103893965 0.09807499
000180 23 72 ba bd 36 b2 7a bb aa 48 aa bd da 89 34 bd
       -0.09103801 -0.0038253195 -0.08314641 -0.044076778
000190 c6 88 cf 3d 11 e1 dc bd 34 65 62 bc 07 f6 bd bd
       0.10133509 -0.107851155 -0.013818074 -0.092754416
0001a0 55 d1 c9 bd f5 7f 9b bd cf b2 51 3d 0d 89 db bd
       -0.0985438 -0.07592765 0.051195916 -0.107195
0001b0 f2 f7 94 3d 1f 8b 09 be 3b 5a 87 3d e6 ff 0c 3d
       0.07273854 -0.13431977 0.06609007 0.03442373
0001c0 94 fd ce bd a0 4b 1f 3d 22 40 04 3e bd fe 41 bd
       -0.1010696 0.03889048 0.1291509 -0.047362078
0001d0 81 34 f5 3d 93 b8 32 3d e3 37 a8 3c 6e 70 7f bc
       0.11972905 0.043633055 0.020534461 -0.01559077
0001e0 c6 18 fc bc cb 4b b0 bd 92 d0 b2 bd 7f c5 74 bd
       -0.030773532 -0.08608206 -0.08731188 -0.05975866
0001f0 dc 6c 0a 3e 1b 47 88 bd 27 1d e3 3c 71 2e c1 bd
       0.13518089 -0.06654187 0.027723862 -0.09432686
000200 a7 a4 13 3d 48 2e ef bd 18 95 17 bd ff 64 78 bd
       0.036045697 -0.11678749 -0.03700742 -0.060643192
000210 b1 1b 88 bd 4e 7e 78 3d ba 71 ba bd 56 e6 c8 bd
       -0.06645907 0.06066733 -0.09103723 -0.09809558
000220 f2 50 f0 3d 22 3a 79 3d b1 dc 83 3d 5e 8f 78 bd
       0.11734189 0.060846455 0.06438578 -0.0606836
000230 d1 41 58 3d 71 f1 80 3d 17 14 07 3d a9 6d ef bd
       0.052797142 0.06296051 0.032978144 -0.11690838
000240 d3 9c 44 bc 12 dc b2 bd 8b 90 f1 3d dd 10 9a bd
       -0.01200028 -0.08733381 0.117951475 -0.07522748
000250 08 88 0b bd f9 8e b4 bd 86 57 a6 3d 7d 98 0d 3d
       -0.034065276 -0.08816332 0.081221625 0.034569252
000260 8a d9 c5 3d ba 16 ff 3b a7 46 a5 3d a7 04 7b 3d
       0.09660633 0.0077846916 0.080701165 0.061283734
000270 61 5a fe 3c 42 7d da 3d 05 0c d0 bd df 21 b8 3b
       0.031048955 0.10668422 -0.101585425 0.005619272
000280 28 2d a3 3c e2 03 81 3d 27 40 90 3d ed 01 17 3c
       0.019918993 0.06299569 0.07043486 0.009216768
000290 67 99 9d bc bc fd 87 bd b5 6f 73 bd b8 56 74 3d
       -0.019238187 -0.06640193 -0.059432704 0.059653014
0002a0 bc 23 ea bd 5f 82 c8 3c 85 27 76 3d 43 6b 4e 3d
       -0.11432597 0.024476228 0.060096283 0.05039526
0002b0 c0 97 bd bd 04 f5 cb 3d 28 b6 bc bb 24 73 f9 bc
       -0.0925746 0.099588424 -0.0057590194 -0.030450411
0002c0 7b 55 8c 3d e5 a5 c5 bd b0 a6 19 bd a8 99 cf 3c
       0.068522416 -0.096507825 -0.03751248 0.025341824
0002d0 ed 23 a8 3c b8 2a 06 3c 22 98 84 bd b1 cc 07 be
       0.020524943 0.008188896 -0.064743295 -0.13261677
0002e0 ba 98 76 bd 91 6c 98 bd f8 91 b0 bd af 9b 51 3d
       -0.060204245 -0.074425824 -0.08621591 0.051173862
0002f0 11 d3 cc 3d 4e 14 d4 3d 8d 31 9c bd fd 21 70 bd
       0.10001195 0.10355435 -0.076266386 -0.058626164
000300 42 63 51 3d 2b f3 ad 3d 30 2f 90 bd 84 e9 58 bd
       0.05112005 0.08493646 -0.0704025 -0.052957073
000310 b3 f3 3d 3d 3d f1 c5 bd 76 40 e2 bd 40 d1 4e bb
       0.046374988 -0.09665153 -0.11047451 -0.0031557828
000320 d3 65 0d 3e 1e 86 ff 3d c2 f0 d2 bd 90 0c 1f 3d
       0.13808374 0.12476753 -0.10299827 0.03883034
000330 df f2 9f 3d 58 fc 64 bc 97 ab a2 3b 47 84 50 3c
       0.07809996 -0.013976179 0.0049643028 0.01272685
000340 62 7d 83 3d 3b cd b4 3b 47 4d 06 3e d7 4f a5 ba
       0.06420399 0.0055176294 0.13115416 -0.0012612295
000350 15 5a 94 3d fc d5 e7 3d 4e b1 c4 3d e1 c3 a8 3d
       0.07243744 0.11320111 0.09604131 0.08240486
000360 55 94 f5 3d b8 00 ed 3d bc df b4 bc 80 1f a7 bd
       0.11991183 0.11572403 -0.022079341 -0.08160305
000370 4c ce d8 3d 2f fa e3 3c fd 84 e4 bd 0f fd 4d bb
       0.10586223 0.027829258 -0.11158178 -0.0031431352
000380 7b 9d b9 39 5c 62 a6 bd 57 a3 8c bc b9 b5 48 bd
       0.00035403282 -0.08124229 -0.01716773 -0.04900143
000390 7f ec d9 3a 15 dd 95 bd b4 f8 1a 3d 56 93 a0 3c
       0.0016626267 -0.07317559 0.037834838 0.019601505
0003a0 e1 ad 69 3d 30 f1 29 3c 04 2d c4 3c 1e 62 23 bc
       0.05705059 0.010372445 0.023947246 -0.009972123
0003b0 46 95 5a bd f5 49 9f ba 27 4d ea 3d 99 5a cb 3d
       -0.053365014 -0.0012152778 0.11440497 0.099293895
0003c0 64 03 ce bd 09 fc 96 bc 78 49 9c bc b8 37 20 bd
       -0.100592405 -0.018430727 -0.019078001 -0.039115638
0003d0 1c ac f7 bd a3 66 b5 bd 4a 83 94 bc ec 92 47 bd
       -0.12093374 -0.08857467 -0.01812901 -0.0487241
0003e0 12 2a b6 bc 2a 69 dd bd 88 dc 93 bd 60 98 f2 3d
       -0.022236858 -0.10811074 -0.072197974 0.118454695
0003f0 b7 17 02 bd d4 e2 67 3b 0d be b9 bb 15 d1 cb 3d
       -0.031760897 0.0035383003 -0.005668408 0.099519886
