crypto_models/SOL_USD_lstm.pth (torch, 206101 bytes, 9 tensors)

lstm.weight_ih_l0 f4 [256, 1]
000000 48 1e 28 bd 25 42 b4 bc b6 aa 85 bd bc 4c 04 3e
       -0.041044503 -0.022004196 -0.06526701 0.12919897
000010 60 17 b0 3d e8 80 37 bd 4d 9a 66 3d 26 1a 2e 3d
       0.085982084 -0.04480067 0.056299496 0.042505406
000020 ae 76 f0 3c ba 70 4c bd d8 4f 39 bd 73 2a 08 3e
       0.029353466 -0.049912192 -0.04524216 0.13297443
000030 e2 e6 ff 3d a6 e6 08 3e e6 23 c7 bc dd de df bd
       0.12495209 0.13369235 -0.02430911 -0.1093118
000040 cf 75 1f 3e 91 8a f2 3d f2 7b 66 bd 51 5a b0 bd
       0.15572284 0.11842836 -0.056270547 -0.086109765
000050 80 a5 9b bc bb 5e 90 bd 1a 65 0f 3d fa d3 05 3e
       -0.018999815 -0.070493184 0.035008527 0.13069144
000060 a2 74 c8 bc 57 7d 51 3d 61 3d cc bd 59 13 4e 3c
       -0.024469677 0.051144924 -0.099726446 0.012577855
000070 52 64 07 3d 3c ba 8a 3d d6 43 2c 3e 26 85 1b 3e
       0.033054657 0.06773803 0.16822752 0.15187511
000080 56 18 1f be c9 cb 54 bd ce f2 d5 3d b6 b2 96 bc
       -0.15536627 -0.051952157 0.10446702 -0.018395763
000090 67 07 d9 bb d9 98 fc 3d 9a cf 5e 3d b7 95 b6 3d
       -0.006623197 0.12333841 0.054397203 0.089152746
0000a0 04 fd 01 bd 43 e5 d4 3d 05 96 2d 3d 51 9a fa b8
       -0.031735435 0.10395291 0.042379398 -0.000119496726
0000b0 f3 f6 0a be 78 53 cf 3b bb e0 0e 3d 23 80 87 3d
       -0.13570766 0.006327089 0.03488229 0.06616237
0000c0 ac 99 dc bc f2 68 92 bd d4 f5 7b bc d5 53 94 bd
       -0.026928745 -0.07148923 -0.015378434 -0.07242552
0000d0 b7 09 a1 bd 27 2d 14 3e ed df e7 bc 56 83 98 3c
       -0.07863181 0.14470349 -0.028305018 0.018617313
0000e0 19 06 6c 3d ed 6e e3 3c d8 fe c5 3d 16 78 19 3e
       0.057623003 0.027762854 0.09667748 0.14987215
0000f0 1d 50 4c 3d 81 e2 5d bd b6 0c a0 3d dd c8 3b 3e
       0.04988109 -0.05417109 0.078149244 0.18338342
000100 e3 07 c5 bd f7 5f 2b bd fb 79 b0 3c fc cd 51 bc
       -0.09620645 -0.041839566 0.02154254 -0.012805458
000110 c1 32 7c 3d 52 98 18 3e da ec fa 3d 8c 53 62 3d
       0.06157184 0.14901856 0.12252207 0.055255458
000120 33 99 d4 3c 40 9c 0b 3e fd 27 7e bd 00 39 02 bc
       0.025951957 0.13633823 -0.062049855 -0.00794816
000130 40 1e dd 3d 20 b8 89 3d a7 a6 49 be bc 03 b8 bc
       0.10796785 0.06724572 -0.19692479 -0.022462718
000140 9a 6d 1e 3e fd 00 7c 3d 5a 0b 01 be 36 37 66 bd
       0.15471497 0.06152438 -0.12601987 -0.056204997
000150 48 88 2e bd fb 04 43 bd ef d6 8a 3d a9 8e 0f bd
       -0.042610437 -0.04761217 0.067792766 -0.03504816
000160 1f 83 51 bc cf 59 9b 3d 42 18 9c 3c 94 da a5 bd
       -0.012787609 0.07585489 0.019054536 -0.08098331
000170 ce be e2 bd 9c b8 14 3d 72 b2 af 3d 76 57 f2 3d
       -0.11071549 0.03630887 0.085789576 0.11833088
000180 b3 f2 1c 3d 72 68 a7 3c c1 84 28 bd 2e d8 01 3c
       0.038317394 0.020435546 -0.04114223 0.007925076
000190 5e 69 b4 bd b1 ee 32 3d f9 5b 15 3e 9e c3 2c 3e
       -0.0880916 0.043684665 0.14585866 0.16871497
0001a0 7f 27 86 bd 6b 7a 16 bd fd b8 53 3d ec 46 31 be
       -0.06550502 -0.03673784 0.05169009 -0.17312211
0001b0 10 eb 09 be 67 21 81 3d db c6 54 be c8 d3 e2 bc
       -0.13468575 0.06305199 -0.20778982 -0.027688876
0001c0 31 25 e4 3d 1e 23 a4 3d 91 66 d6 3d e7 cd 5e bd
       0.11139906 0.080145106 0.10468782 -0.054395583
0001d0 a3 03 f6 bd fb b2 cc 3d d9 5f c2 bd 62 62 e6 bd
       -0.120124124 0.09995075 -0.09490938 -0.11249234
0001e0 2f 46 06 3d 5e 96 18 be 39 12 36 3e 97 16 1c 3c
       0.032781776 -0.1490111 0.17780389 0.00952687
0001f0 be cb 11 bc 13 47 90 3d e2 29 37 bd d0 6d 9d 3d
       -0.008898674 0.07044806 -0.044717677 0.07686961
000200 ad 75 08 be c1 82 da bd 58 86 0e be 56 8b 9a bd
       -0.1332614 -0.106694706 -0.13918436 -0.075461075
000210 30 63 29 bc cd 28 e0 3d fc b2 28 be 4e 61 36 3d
       -0.01033859 0.10945282 -0.16474527 0.04452639
000220 ca 9c b5 bd bd 16 35 be 40 18 46 3d 75 88 a2 3c
       -0.08867796 -0.17684455 0.04836297 0.019840458
000230 0d a6 13 3d 09 56 81 bd 73 7e be bd 16 50 19 be
       0.03604703 -0.06315238 -0.09301462 -0.14971957
000240 86 a9 3d 3e 09 ba 08 3e 1b e4 14 be 65 25 f2 bd
       0.185217 0.13352217 -0.1454014 -0.11823539
000250 2a 25 e2 3c e1 19 a2 3d 6e 51 1a be 48 18 04 be
       0.027605612 0.07915092 -0.15070125 -0.12899888
000260 4e cf 40 3e db ff 90 3d 80 d9 01 3e d2 85 e7 bd
       0.1882908 0.070800506 0.12680626 -0.11304821
000270 f2 79 93 3d bf 3e ec 3d d2 a9 24 be 9c 98 ee 3d
       0.072009936 0.11535405 -0.16080406 0.11650202
000280 77 57 3a 3d b7 98 b7 bd 67 48 00 3e a8 54 7b bd
       0.04549357 -0.08964675 0.1252762 -0.06136003
000290 d7 55 ff bd 34 f3 77 bd 89 c1 fe bd 57 4f e9 bd
       -0.124675445 -0.06053467 -0.12439258 -0.11392086
0002a0 bb da 60 3d e4 4c 0f be 24 8d 09 3e 2a d2 82 bd
       0.054896098 -0.13994175 0.13432747 -0.06387742
0002b0 16 68 32 3e b2 51 25 be 70 f3 07 be a1 ec b5 3d
       0.17422518 -0.16144446 -0.13276458 0.08883024
0002c0 d1 e0 1a be d6 c7 1d be d7 70 94 bd 16 00 c6 3d
       -0.15124823 -0.15408263 -0.07248085 0.09667985
0002d0 99 a1 9b bc bf 54 5e bc 41 e5 2e 3e b0 0d 89 bd
       -0.018997954 -0.01357001 0.17079641 -0.06692064
0002e0 ce 90 e6 bc a4 19 f6 bb 9e 7a 07 be 44 6d 36 3e
       -0.02814522 -0.007510381 -0.13230368 0.17815119
0002f0 05 00 b1 bd 34 d1 8f bd a1 7f 40 be 24 d9 1b 3e
       -0.08642582 -0.07022324 -0.18798687 0.15219551
000300 dc ea 06 bd 92 cc b8 3d 08 e4 84 3d 53 c3 10 bd
       -0.032938823 0.09023394 0.06488806 -0.035342526
000310 4f 1c 86 3d 5c 53 20 3e 90 c1 31 bd 72 df 48 3b
       0.06548368 0.15656799 -0.043397486 0.0030650762
000320 6b 92 9f bd 24 e0 ed 3d 72 1e 16 bd e3 c4 82 3d
       -0.07791599 0.11615017 -0.03665013 0.063852094
000330 02 d2 22 bd 3f ef 85 3d 12 77 16 be d0 d6 5d be
       -0.03975106 0.06539773 -0.14693859 -0.21663976
000340 33 94 3d 3d 03 66 05 3e 47 65 44 be 6f d3 36 3d
       0.046283912 0.13027196 -0.19179259 0.044635233
000350 d1 f1 c4 3d ed 04 23 bd c2 56 2c 3e c2 ea be bc
       0.09616435 -0.03979962 0.1682997 -0.0233053
000360 4f 57 10 3d 3b 14 c4 3d 5c 7d ea 3a 19 02 02 3e
       0.035239514 0.09574171 0.0017890143 0.12696113
000370 ba b2 3a bd 54 6f 32 3e a3 77 97 3a 1d d8 3f bd
       -0.045580603 0.17425281 0.001155604 -0.04683696
000380 6a 5e 4f 3b fa ec 33 bd 07 5f 1a bd 6b c3 10 3d
       0.0031641969 -0.04392717 -0.03768828 0.035342615
000390 31 ac f9 bd d8 21 c3 bc 7c ec 84 bd dd 5e 08 3e
       -0.12191046 -0.023819849 -0.06490418 0.13317437
0003a0 63 47 05 3e a5 b1 f1 3d 39 49 b3 3d ae 6a c2 bd
       0.13015513 0.11801461 0.087542005 -0.09493004
0003b0 15 03 04 be 73 24 fb 3d 84 49 75 bd 75 a5 2b 3e
       -0.128918 0.122628115 -0.059884563 0.16762336
0003c0 e2 9b 29 3e a1 85 20 3e cd 91 ea bc da dd 85 bc
       0.16563371 0.15675975 -0.028633976 -0.016341139
0003d0 16 57 7c 3d 6c 0b 85 3c ab 14 a1 bd a5 67 3b bc
       0.06160649 0.016240798 -0.0786527 -0.011438285
0003e0 1f bd 2f bd 3c 5d 0c be dd 70 bc 3d 4b 67 30 3e
       -0.04290497 -0.13707441 0.092012145 0.17226903
0003f0 17 9e a5 bc f9 4e 0c 3e 59 82 91 3c 35 74 ac 3d
       -0.020216985 0.13702 0.01776235 0.08420602

lstm.weight_hh_l0 f4 [256, 64]
000000 14 9a 93 3d 03 6c eb 3c dd d9 7d 3d cb 69 83 3d
       0.072071224 0.028738027 0.06197535 0.06416663
000010 7e 23 aa 3d 87 1e 04 3d fa bc 00 3e 4f f4 13 be
       0.08307551 0.032255676 0.12572089 -0.14448665
000020 90 ca 82 3d 37 d9 a2 bd 69 56 f7 bd ed 40 f7 3d
       0.06386292 -0.07951587 -0.12077028 0.120729305
000030 1a 19 a5 3d 77 14 cf bd c7 4b 10 3c 6c 0d 55 3e
       0.08061428 -0.10111325 0.008807129 0.20805901
000040 17 b0 9e bd b2 fb ed 3d 14 52 9a 3d 32 4d 21 bb
       -0.0774843 0.11620273 0.075351864 -0.0024612662
000050 ec 8d a2 bd 27 37 54 bd 69 01 df 3d d2 7c b2 3c
       -0.07937226 -0.05181041 0.10888941 0.021788035
000060 ef a1 82 bd af 1d 0c be 82 f8 9f bd 29 f2 4a 3d
       -0.06378543 -0.13683198 -0.07811071 0.04954735
000070 bb 28 75 bc 10 f7 b1 bd 29 42 b9 bd cf b0 d4 bd
       -0.014963324 -0.086897016 -0.09045822 -0.10385286
000080 a9 49 9d 3d b1 fc ec bc ce b7 6c 3d b7 e1 b1 bb
       0.07680065 -0.028929086 0.057792477 -0.0054285186
000090 a5 e5 10 3b 70 2f f0 bd 6f 91 66 bd 86 c5 ad bd
       0.0022109535 -0.11727798 -0.05629104 -0.0848494
0000a0 6b 2c 54 3d de b5 d1 bd 24 f1 5a 3d 5f 49 27 3d
       0.051800173 -0.102397665 0.053452626 0.040841457
0000b0 d1 91 c0 3c 5c 96 de 3d cb 18 dd 3d 9e e4 84 bd
       0.02350703 0.108685225 0.107957445 -0.06488918
0000c0 7b 15 49 3d 01 da d0 3d cd 52 82 3c bd 75 b5 3d
       0.04909275 0.10197831 0.015908623 0.088603474
0000d0 3c 97 d4 3d 73 58 6b 3d f8 0c 7d 3d 90 c3 b2 bd
       0.10380408 0.0574574 0.061779946 -0.08728707
0000e0 fe 43 c0 3c 51 1a fe 3d 80 08 54 bd e2 45 92 3d
       0.023469921 0.12407363 -0.05176592 0.07142235
0000f0 59 e0 1d 3e 22 6a 19 3e 0f 51 e0 3d d4 a7 aa bd
       0.15417613 0.14981893 0.10952961 -0.08332792
000100 c7 00 06 3b 19 4d 5e bd a5 c0 0a bb bc db b8 ba
       0.002044724 -0.054272745 -0.0021171954 -0.0014103572
000110 1e 45 26 3e 3f 86 8f 3d 61 b0 cb 3c 03 ee 4f 3c
       0.16237304 0.07008027 0.024864377 0.012691024
000120 e8 0a 11 3e 0e 67 b3 bb 95 44 0b be 75 65 1f 3b
       0.14164317 -0.0054749316 -0.1360038 0.0024321948
000130 e9 aa 0e be b0 af 86 bc 72 1d 00 bd 87 c1 4f 3e
       -0.13932385 -0.016441196 -0.03127808 0.20288669
000140 71 f7 b4 bd 4e 0e 0e 3e 13 a3 03 3e 8e e6 84 3c
       -0.08836258 0.13872644 0.12855177 0.016223218
000150 54 17 69 3d f8 4e 38 3d fe f7 08 be 0f ae 8a bd
       0.056907013 0.044997185 -0.13375852 -0.0677148
000160 12 83 e7 3d d2 74 0a bc c2 8b af 3d df 4a a6 bd
       0.113042966 -0.008450704 0.085715786 -0.08119749
000170 e5 3f f3 bc 53 b9 99 3d 85 7f f2 bc 26 be 43 bd
       -0.029693553 0.07506051 -0.029601822 -0.04778876
000180 0e 82 ab bb e2 10 56 bd e0 04 4e 3b 60 20 ab 3d
       -0.0052340096 -0.052262194 0.0031436011 0.083557844
000190 42 33 8b bd 85 63 76 3d 90 e1 0c be 88 70 9e bd
       -0.06796886 0.060153503 -0.1375792 -0.077363074
0001a0 69 c4 ad 3d 49 50 51 3d 03 6f b7 3d 40 30 d6 bc
       0.08484728 0.051101957 0.08956721 -0.026146054
0001b0 9b f7 4f 3c 1a a5 c0 bd f4 32 27 3d 87 6d 15 3e
       0.012693311 -0.094064906 0.040820077 0.14592563
0001c0 b5 40 14 be 8e 1d db bd 99 7f 32 3d da e9 59 3c
       -0.14477809 -0.106989965 0.043578718 0.013300383
0001d0 cb 7a bf bd d2 e9 ab bd 42 2b b4 bb 3b e8 e8 3d
       -0.09349593 -0.08394207 -0.005498321 0.113724194
0001e0 a3 ef 9b 3d 96 83 c5 3c e4 d5 7b 3d e2 8f 08 3e
       0.076140665 0.024110597 0.06148328 0.13336137
0001f0 75 7f eb 3d 19 f8 a7 3b 3a 7e 0a ba f0 b0 f8 3d
       0.1149892 0.005126011 -0.00052830915 0.12143123
000200 82 bc c1 3d 51 fe 1f 3d 4f c9 87 bd 2f 33 ad bd
       0.09459783 0.039060894 -0.066301934 -0.08457028
000210 bd ae 1a 3e 25 17 ad bd 04 1b 8e 3d dd 47 e1 3d
       0.1510572 -0.0845168 0.069387466 0.11000035
000220 fa b8 94 bd ba 2c bc 3c c7 f9 05 3d 13 4d f1 3d
       -0.07261844 0.022970546 0.03270891 0.11782279
000230 26 05 c5 3d 85 79 ec 3a aa e8 28 3e 0b 25 2c 3e
       0.096201226 0.0018041587 0.16495004 0.16811006
000240 62 bf 04 3d 74 c4 ae bd a9 2a 96 bd 8d bb 0a 3e
       0.03240908 -0.08533564 -0.073323555 0.13548107
000250 90 ae f6 3c 0d 04 c4 bb f5 57 5d bd 6b 34 ed 3c
       0.030112535 -0.005981928 -0.05403896 0.028955659
000260 a5 36 2c bd c5 1d d7 3c 71 36 c2 3d 68 5c 14 be
       -0.0420443 0.026259312 0.0948304 -0.14488375
000270 40 fc 7b 3d 3c 73 f3 bc de d3 16 3d 0a ac 50 b9
       0.06151986 -0.029718034 0.036823146 -0.00019900515
000280 5c d0 f4 bb f6 fd 16 3d 24 25 b5 bd 94 e2 74 3c
       -0.0074711274 0.03686329 -0.08844975 0.014946599
000290 b7 c6 99 3d d5 aa d4 bd 44 7e 84 3d a4 a2 5d bd
       0.07508605 -0.10384146 0.06469396 -0.054110184
0002a0 8c e4 a4 bc b1 53 e6 bc a9 83 ae bd 78 03 9d 3d
       -0.02012851 -0.028116079 -0.08521206 0.07666677
0002b0 41 2e 92 bd b2 5d 03 be 02 a8 b9 3d be 50 fb 3c
       -0.071377285 -0.1282871 0.09065248 0.03067815
0002c0 98 a1 ad 3c 6d 95 da bc db cf e6 3c e0 3c ad 3b
       0.021195218 -0.02668258 0.028175285 0.005286798
0002d0 f6 47 3c bd 9e eb 04 3e d0 0f ea bd 09 fa 59 bd
       -0.045967065 0.12980506 -0.11428797 -0.053216968
0002e0 a1 5b 00 be 65 bc 8b 3d 3b 54 b7 3d 52 3b 4c bd
       -0.12534954 0.06823043 0.089516126 -0.04986126
0002f0 87 a1 15 3e 47 aa 41 bd 39 ea 00 3d eb 0c 25 3e
       0.14612399 -0.04728153 0.031473372 0.16118209
000300 55 dd ee 3c 1d c5 9c 3d 39 8a c7 3d ab 55 44 bc
       0.029158274 0.07654784 0.09743161 -0.011983315
000310 fe 0e 71 3c 54 ab 02 3b d7 73 10 bb 0c 31 23 3d
       0.014713047 0.0019938545 -0.0022041702 0.039841697
000320 f0 28 e4 bc e5 50 71 3c 61 3a 64 bd e2 0e df bc
       -0.027851552 0.014728759 -0.055719737 -0.027228776
000330 33 28 84 bd 01 03 a3 bd 44 0a a9 3d f3 65 00 be
       -0.0645298 -0.07959557 0.08253911 -0.1253889
000340 0d e1 39 3d 88 14 07 bd 2b 86 82 bd 6f 58 ac 3d
       0.04538064 -0.032978565 -0.06373247 0.08415305
000350 6d 82 94 3d f8 8f 00 3e b2 07 68 bc 8a 51 9b bd
       0.07251439 0.1255492 -0.014161991 -0.07583912
000360 1d 71 8b ba 96 ff d9 3d 8e a4 b3 3d 83 67 40 3d
       -0.0010638569 0.10644452 0.08771621 0.046973716
000370 6a 79 25 bd 73 01 f4 bc 01 e0 2a bd 48 1a 6d bb
       -0.040398993 -0.029785847 -0.041717533 -0.0036178995
000380 66 5e 89 3d 49 c8 e9 3d da d0 98 3d ce a7 b8 3c
       0.06707458 0.114151545 0.0746171 0.022540953
000390 81 18 07 bd 91 7c db bd 78 86 6a bd 8c 98 8c bd
       -0.032982353 -0.107171185 -0.057257146 -0.068650335
0003a0 a5 5d c5 bd 30 97 4b bb a2 02 fb 3d d9 45 cf 3c
       -0.09637002 -0.0031065457 0.122563615 0.02530186
0003b0 7d 03 f1 bc a3 0c d3 3d c7 cd eb 3b ca 0c 7b 3d
       -0.029420609 0.10305145 0.0071961614 0.061291493
0003c0 0e 6f 89 bd 33 d5 b7 bd b9 73 3b 3d b7 32 d3 3c
       -0.06710635 -0.089762114 0.04576466 0.025781019
0003d0 93 45 25 bd fd f8 80 3d 4a a1 23 3e d1 68 06 3d
       -0.040349554 0.06297491 0.15979496 0.032814804
0003e0 39 3b e5 bd 03 5b c5 3d 35 d0 b5 bd 21 67 90 3d
       -0.111929365 0.096365 -0.08877603 0.0705092
0003f0 50 9f eb bd a1 70 f0 bc 0d eb c3 3d 79 62 b7 3c
       -0.11504996 -0.02935058 0.09566317 0.022385823

lstm.bias_ih_l0 f4 [256]
000000 01 aa 41 bd 57 33 b6 b9 76 26 e2 3b c4 1b 03 bd
       -0.04728127 -0.00034751996 0.0069015576 -0.0320089
000010 8f 57 a7 3d 4e a9 bc 3d 0c 59 f4 3d 8f 40 94 bd
       0.08170997 0.0921198 0.11931047 -0.07238876
000020 47 5e b8 3c 8c d1 12 3e 5f 3f e6 bd be 1b d5 bc
       0.022505892 0.14337748 -0.11242556 -0.026014205
000030 cc f3 53 bc 0f a6 36 bd 73 0e d9 3c 5b 60 b9 3d
       -0.012936544 -0.04459196 0.026496148 0.090515815
000040 d6 51 f1 3d ca 86 16 3e 1c a2 0f 3d eb ae d3 3d
       0.11783187 0.14699855 0.03506671 0.10336097
000050 54 61 a8 3d 6e b3 a2 3b e7 4b d2 3d 98 89 79 bd
       0.08221689 0.0049652373 0.102683835 -0.060922235
000060 bb 01 de 3d 0b bf 45 bd 7a 9f d7 bc 58 16 e0 bd
       0.10840174 -0.048277896 -0.026321162 -0.10941762
000070 d7 42 29 3c e5 1f 00 3e ed ce 5f bd 06 e4 00 bd
       0.010330877 0.12512167 -0.0546407 -0.03146746
000080 d8 6d 3e bc ea c5 53 bd d7 d4 a4 3d e2 a5 f9 3d
       -0.0116228685 -0.051702417 0.080484085 0.12189843
000090 88 dc 00 3d ca 03 3c bd 0d 0d 9b 3d af 09 f0 bc
       0.031460315 -0.04590205 0.075708486 -0.029301492
0000a0 01 a9 51 3d e5 45 1f 3e 88 5b bd 3d 90 2b 3b 3c
       0.051186565 0.15554006 0.09245974 0.01142396
0000b0 3e 6a 18 b9 fd 88 b7 3c 5d 8c 1b 3e 2c 8a d5 bc
       -0.00014535428 0.022404188 0.15190263 -0.026066862
0000c0 05 4a 09 bd 0b 0c 67 bd f1 4d 1d 3d 34 54 55 3d
       -0.033517856 -0.05640797 0.03840441 0.052082255
0000d0 07 3f b5 3d 40 2b 8d 3d e0 7c 8c bd e8 36 9c 3d
       0.08849912 0.06893015 -0.068597555 0.0762766
0000e0 77 fa e6 3d bf 90 20 3d f2 dc 37 bd 5b 8f 08 bd
       0.11278241 0.03920054 -0.044888444 -0.03333984
0000f0 27 9a 4f bb 59 b2 a1 3d cd d8 ac 3b 61 31 f5 3d
       -0.0031677575 0.07895345 0.005274868 0.11972309
000100 91 54 05 3c e8 52 49 3d e2 a0 dd 3d 94 1d f4 3b
       0.008137838 0.04915133 0.108217016 0.007449815
000110 8e 0c 00 bd 26 d3 d5 3d ea 49 92 3d 49 ae 35 3d
       -0.031261973 0.10440664 0.07143004 0.044355664
000120 32 cd 90 ba 33 47 80 bd 08 7e ee bd 90 1a e7 3d
       -0.0011047481 -0.0626358 -0.11645132 0.11284363
000130 6c 67 e0 3d c8 6b 94 bc ad 4a 17 bc d9 8a c9 bd
       0.10957226 -0.0181178 -0.009234113 -0.09840936
000140 f5 7f bf 3d 3f a8 7d bd f0 c2 9c 3c 6b 83 c6 bd
       0.09350578 -0.06192803 0.019135922 -0.09693035
000150 e2 f3 ee bd d9 79 8b 3d fb d1 b0 3d 27 d1 a0 3d
       -0.11667611 0.0681035 0.086338006 0.07852393
000160 37 2b 42 bc 4f 8b 93 3d 6b 24 37 bc c9 5e 1a bd
       -0.0118511235 0.072043054 -0.011178116 -0.03768805
000170 40 68 06 be af f6 d1 3c 2c 57 8b bc 3f d3 e0 3d
       -0.13125706 0.025630323 -0.01700934 0.10977792
000180 18 eb 6d 3d 06 6f ab bd 19 e6 9f 3d 9d 1a 06 3d
       0.05808553 -0.083707854 0.078075595 0.032740224
000190 c0 6f d6 bd ab 18 92 bd 94 f1 a0 bd 85 66 08 3e
       -0.10470533 -0.07133611 -0.07858577 0.13320358
0001a0 e0 94 bb 3c 0c 77 b4 3d da 0a 2d 3d 8b 74 b4 bd
       0.022898138 0.08811769 0.042246677 -0.08811291
0001b0 15 60 07 3c 8e b3 7f 3d 10 b6 8d 3d 4a d1 a1 bd
       0.008262654 0.062427096 0.06919491 -0.07901247
0001c0 74 43 fc bc f3 5a 9d 3d 60 dd a8 3d aa c9 ab 3d
       -0.030793883 0.07683363 0.08245349 0.08388074
0001d0 34 a0 95 bd d2 5a a1 bd 8e 9e 90 bb d0 f6 92 3c
       -0.07305947 -0.07878651 -0.0044134324 0.017939955
0001e0 03 64 91 bc 9c de 59 bc 5e 48 71 bd a4 35 11 3e
       -0.017747885 -0.013297703 -0.058906905 0.14180619
0001f0 da 63 d3 bd 5b 85 d9 3d 00 ae 1c bc 29 a2 a9 bd
       -0.103217795 0.10621139 -0.009562969 -0.08282883
000200 7a 3b 97 3d 0e 59 b7 3d c3 9e b7 bd bf fd 3a bc
       0.07384391 0.08952533 -0.08965828 -0.011413037
000210 20 dc 7c 3d c9 99 e3 3d 70 f6 e0 bd 8a 26 f1 3c
       0.061733365 0.111133166 -0.10984504 0.029437322
000220 88 bc ba 3d e8 1e d9 3d f3 6d c6 bd 00 28 95 3d
       0.09117991 0.10601598 -0.0968894 0.0728302
000230 3a cd 45 bd 58 79 0b bc e9 5f 56 3c 4e bc 92 3d
       -0.048291422 -0.008512817 0.01308439 0.071648225
000240 03 2d ec 3d 86 1b e8 3c 55 ca a3 3d fc d9 8e bc
       0.11532023 0.028333437 0.07997576 -0.017437927
000250 ee 59 d5 bc 1e e0 44 bd 79 ca d5 bd 0d 80 8a bd
       -0.026043858 -0.048065297 -0.10439009 -0.06762705
000260 08 1a 11 3d 69 39 c1 bd da 85 a5 bd e8 ab ee 3c
       0.035425216 -0.09434778 -0.08082171 0.029134706
000270 44 9b 18 3d 86 67 b5 bb d2 55 b2 bd 0c 29 31 b8
       0.037257448 -0.0055360226 -0.08707775 -4.2238316e-05
000280 c5 d5 7c bd 0b eb 3b 3d 2f fa a2 38 ef 38 81 bd
       -0.061727304 0.04587845 7.771362e-05 -0.06309687
000290 1c 9f b8 3d 0e 31 c4 bd 0a 53 e8 bd 9e 88 ba 3d
       0.09014723 -0.09579669 -0.113439634 0.09108089
0002a0 04 f3 93 bd 98 d3 02 3d d5 49 51 bd c9 53 53 3d
       -0.07224086 0.031940073 -0.051095802 0.051593576
0002b0 95 da d9 bd d1 91 c1 bd ab 5b 5b 3d e0 66 e4 3d
       -0.10637394 -0.094516404 0.05355422 0.11152434
0002c0 52 48 61 bd 61 61 89 bd bf 6f b5 bd 70 92 67 3d
       -0.05500061 -0.06708027 -0.088592045 0.056536138
0002d0 e9 f7 88 bd 41 6c 82 3c c3 8a cb bb a9 18 0b 3d
       -0.0668791 0.01592076 -0.00621161 0.033959065
0002e0 c0 81 db bd 0f f8 83 3c d3 4e 9c bd 2a 41 68 bd
       -0.10718107 0.016109494 -0.07632222 -0.05670277
0002f0 f1 4c 23 3c 03 16 a5 3d 21 69 11 3d 3a 43 a2 3d
       0.009967075 0.08060839 0.03550065 0.07922979
000300 c6 28 d2 3c 53 52 5f bd ae cb 57 3d f1 ff ec bc
       0.025654208 -0.05452187 0.05268448 -0.028930636
000310 f3 90 f8 3c d2 2f a9 bd ca 70 67 bd 33 d5 d3 3d
       0.030342555 -0.08261074 -0.05650405 0.10343399
000320 30 43 10 bc f0 0a 25 3e d9 08 01 bd 14 10 a2 3d
       -0.008805081 0.16117454 -0.03150258 0.07913223
000330 6f cd bf 3d d6 96 76 bd 1a 14 da bd c7 3f 87 3d
       0.09365355 -0.060202442 -0.10648365 0.066039614
000340 7d de a1 bb 2d 51 ba bc e9 9e 10 3e 9d 17 b0 bd
       -0.0049398527 -0.022743786 0.1412312 -0.08598254
000350 94 d7 1c 3c 7e ab be bd c4 ad 94 bd 1e c7 2c 3d
       0.009572882 -0.09310053 -0.07259706 0.04218208
000360 6a 87 b9 bc 01 69 f0 3d 57 77 03 3e d4 13 fd 3c
       -0.022647578 0.11738778 0.12838493 0.030893244
000370 82 c7 f0 bd 52 c4 6d 3d 68 b0 54 3d 2c 9f 5a 3d
       -0.11756803 0.058048554 0.051926047 0.053374454
000380 f8 81 57 bd 54 12 07 be 06 fc 56 3d ea 5b e1 3c
       -0.052614182 -0.13190585 0.052486442 0.027509648
000390 f7 ff ef bd 57 e7 fb 3d 5b 8c c2 3c 5c c6 f7 3d
       -0.11718743 0.12299984 0.023748567 0.12098381
0003a0 ca 9f 93 3d a2 e7 d4 3d d7 c4 96 3d 9f d6 c4 bd
       0.07208212 0.10395743 0.07361763 -0.09611248
0003b0 c4 cb 5e 3d e6 8f a3 bd 29 95 71 3c 42 f6 c1 3d
       0.054393545 -0.07986431 0.014745035 0.09470798
0003c0 08 40 a8 3d b7 4a 8d bd f1 ec ee bd 3b 60 53 3d
       0.08215338 -0.06899016 -0.11666287 0.051605444
0003d0 af d1 dd 3d d0 e4 a4 bd b1 1b 30 3e 25 99 e4 3d
       0.108310096 -0.08051455 0.17198063 0.111620225
0003e0 09 a6 b4 bb e2 8d bf 3d 02 a1 22 3c cd 68 5e bd
       -0.005512957 0.09353234 0.009926083 -0.054299165
0003f0 dc a5 c9 bc 4d 47 b3 3d 8a d5 25 bd 23 c8 8c 3d
       -0.02461522 0.08753834 -0.04048685 0.068741105

lstm.bias_hh_l0 f4 [256]
000000 d9 1f f2 bc da 5e ec 3d 1c fb ca bc 0b 58 c2 3d
       -0.029556202 0.11541529 -0.024777941 0.09489449
000010 83 72 a0 bd 46 70 20 3d 33 43 35 3d 23 60 bf 3b
       -0.078343414 0.039169572 0.04425354 0.005840318
000020 4a 17 bd bd e6 14 d5 bc 65 02 78 bd e5 ac 35 3d
       -0.09232958 -0.026010942 -0.06054916 0.04435434
000030 d6 10 01 be 13 50 ae 3d db 0e 43 bc 3b f4 b3 bc
       -0.12604079 0.08511367 -0.011905397 -0.021967044
000040 b7 26 6e bb 5d 05 b2 bd 4f be 23 3d 71 4e 92 3d
       -0.0036338994 -0.08692429 0.039976414 0.07143868
000050 a6 15 ff bd 54 a2 73 3c 2f 26 6c bc a1 4f 83 3d
       -0.12455301 0.014870245 -0.014413401 0.064116724
000060 c3 43 c7 bd 18 f2 bf bc 02 69 f4 3d 90 04 75 bb
       -0.097297214 -0.023430869 0.11934091 -0.0037386753
000070 69 d3 fb bd 70 3f 59 3d ad ea c8 3d b3 65 a0 bd
       -0.12296183 0.053039014 0.09810386 -0.078318976
000080 76 c2 97 bd df e9 8c bd 17 ef 42 bd 94 e9 b0 3d
       -0.07410137 -0.06880545 -0.047591295 0.086383015
000090 89 e4 0d bd d9 1f 87 bd 30 33 91 bc 5d 47 0f 3e
       -0.034641776 -0.06597871 -0.017724603 0.13992067
0000a0 ab d0 ae bd 11 5d dc 3d 00 df bd 3d cb 27 8c bd
       -0.08535894 0.107599385 0.092710495 -0.068435274
0000b0 8c 9e c6 bb 1e 9a 16 bd d4 08 aa 3d e5 de c1 3d
       -0.0060613807 -0.03676807 0.08302465 0.09466342
0000c0 33 9f 0f 3e 8b 89 ae 3d a8 4e b8 bd c3 5a 9f 3d
       0.14025573 0.08522328 -0.089993775 0.07780983
0000d0 66 9f 4e bd 9a 2a bf 3d 6f 4e 07 3e 7e 25 7f 3d
       -0.050444983 0.093342975 0.13213514 0.062291615
0000e0 fc 0f 46 3d 82 11 b2 3d fe a2 37 bd 03 b4 6f bd
       0.048355088 0.086947456 -0.044833176 -0.058521282
0000f0 13 de 84 3b 5b 53 23 bd 64 3a 69 bd ad ba df bd
       0.0040547936 -0.039874416 -0.05694045 -0.109242775
000100 f1 f6 e6 bd 0e 3c c8 3d 2e e2 1a 3d 35 a9 c6 bd
       -0.11277569 0.097770795 0.037813358 -0.097002424
000110 58 a3 c9 bd 6f 46 40 3c 24 11 d0 3d 5b 88 16 bb
       -0.098456085 0.011735543 0.10159519 -0.0022969458
000120 d7 75 5f 3d 3e cf 74 3c 89 18 e7 3a 58 6d cd 3c
       0.05455574 0.0149419885 0.0017631213 0.025076553
000130 fa 85 55 3d a7 06 ec bd f0 5e 8f 3d af 36 a2 3c
       0.052129723 -0.11524706 0.0700053 0.019801466
000140 55 d5 f5 3d 13 af 4b bc 01 6c 92 bd 39 3d 87 bc
       0.120035805 -0.012431878 -0.07149506 -0.016508685
000150 2a 1b c4 3d f1 42 62 bd e1 7f f3 3c 09 b6 b8 bd
       0.09575494 -0.05523962 0.029724063 -0.090190955
000160 53 53 e4 bc 1d 6f 0b bc 36 f9 8d bb e6 76 ee 3a
       -0.027871763 -0.008510378 -0.004332687 0.0018193393
000170 c8 12 7b 3d f5 91 a7 bd 29 58 08 3d 10 69 7d 3c
       0.061297208 -0.08182136 0.0332872 0.015466943
000180 e0 a9 e2 b9 0f d0 56 ba 9b 0b f6 bc 99 60 ac 3b
       -0.00043232646 -0.00081944553 -0.03003483 0.005260539
000190 00 32 aa bd 1b 1a e5 3d 5a 23 ea bd a6 c6 2f 3d
       -0.08310318 0.1118662 -0.11432524 0.042914055
0001a0 23 19 84 3d ca 84 e6 bc fd 4f e1 3d 1f f8 bb 3d
       0.06450107 -0.02813949 0.11001585 0.09178185
0001b0 46 ab 1b 3e a1 d5 96 3d cb a9 51 3d bc c2 c7 3d
       0.15202054 0.07364965 0.051187318 0.097539395
0001c0 ba ae a0 3d 4e 1a 75 3d bc 4b df 3d 82 75 c6 bd
       0.078458264 0.05983954 0.10903117 -0.096903816
0001d0 98 43 f7 bc 87 2f 63 bd ba c6 a7 3d 09 9b 35 bd
       -0.030183598 -0.055465247 0.08192201 -0.044337306
0001e0 c3 88 f8 bd 58 4f d0 bc 43 c6 d4 3d a0 59 fe bb
       -0.1213546 -0.025428459 0.10389378 -0.007762149
0001f0 fc 6d e0 3d 57 53 3d 3d 58 8d 87 bd 89 3f bd bd
       0.10958478 0.046222057 -0.06618756 -0.09240634
000200 ae e9 47 bd 43 98 59 bd a5 15 fb 3d 04 e3 db 3d
       -0.04880684 -0.053123724 0.12259988 0.10736659
000210 d5 9d 45 3d 31 ae 84 3d 48 9f ad 3d b6 dc 97 3d
       0.048246223 0.06478537 0.08477646 0.07415144
000220 1d 4f 48 3d 0c 57 8e bd c2 e3 d6 ba d0 b6 d9 3d
       0.048903573 -0.069501966 -0.0016394781 0.10630572
000230 22 f7 40 bd 76 06 86 bd 3f 68 65 bc 2d e4 1f 3d
       -0.047110684 -0.06544201 -0.014001905 0.039035965
000240 20 05 19 bd 14 9e 8e 3d 97 db 6f 3c 20 d2 03 3e
       -0.037358403 0.06963745 0.014639757 0.12873125
000250 cb 19 33 bc a8 38 96 bd 3d 28 c1 bc a3 54 17 bd
       -0.0109314425 -0.07335025 -0.023578757 -0.03694595
000260 08 49 88 bd cb fb b6 3d f7 2c 36 bd f5 30 0d bd
       -0.066545546 0.089347444 -0.044476476 -0.034470517
000270 42 c8 f4 bd 88 dc 56 3d d4 2c 88 bd 58 54 91 bc
       -0.11952259 0.05245641 -0.06649175 -0.017740414
000280 2b 1e d9 bd ed 84 14 bc 54 21 ad 3d 1d 4f a1 3d
       -0.10601457 -0.009064895 0.084536225 0.07876418
000290 89 f5 87 3c 2c 2b bd 3d f7 f5 27 bd 5c c5 7b bd
       0.016596572 0.0923675 -0.041006055 -0.061467513
0002a0 32 6d b3 3d ff 47 f2 3b 93 fb c7 3d bd fb 44 bd
       0.08761062 0.0073938365 0.09764781 -0.04809164
0002b0 52 04 34 3d a7 d5 ed bd 0b a0 1a 3c 22 76 f0 3d
       0.043949433 -0.116130166 0.009437571 0.11741282
0002c0 51 a9 8f bc 07 a2 75 bd ad 11 cb bd 12 c9 2b bd
       -0.017536791 -0.059968974 -0.09915481 -0.041939802
0002d0 a8 85 8c 3d 30 0a 3d 3c 29 0c d5 bd e6 97 a2 bd
       0.068614304 0.011538073 -0.1040271 -0.079391286
0002e0 bb 6b bf bb 27 84 26 bd 6f 14 63 bc f6 c5 b3 3d
       -0.0058417 -0.040653374 -0.013859852 0.087779924
0002f0 42 86 bc 3d 18 66 05 3d bd b3 99 bd f8 4b 60 3d
       0.09205295 0.032568067 -0.075049855 0.05475995
000300 83 cd f6 bc f0 c2 62 3c 00 b4 d1 bb a1 c5 f2 bc
       -0.030127292 0.013840422 -0.0063996315 -0.029635252
000310 37 cf b6 bc 20 d3 21 3b 20 18 cf 3d 85 66 a9 bd
       -0.022315605 0.002469249 0.10112023 -0.08271507
000320 ec 18 a6 bc 9c 7f 06 3d 1d d8 85 bd e4 2b c3 bd
       -0.020275556 0.03283654 -0.06535361 -0.09529856
000330 51 e1 dd 3d f6 c8 7e 3d 36 6d c5 bd 8a af 5e bc
       0.10833991 0.06220337 -0.09639971 -0.013591656
000340 b7 b1 b5 bd 5d 0e fc bc fc 9c 78 bc ed 3c 61 3d
       -0.08871787 -0.030768568 -0.015174147 0.054989744
000350 7a 63 ae bd 3e ff eb 3b 68 fd 86 bc 16 3c f1 3d
       -0.085150674 0.007202058 -0.016478255 0.117790386
000360 77 58 17 3e f9 7b 63 3d 43 a7 de 3c ee 69 ac 3d
       0.1477984 0.05553815 0.027179366 0.08418642
000370 12 63 99 bd e8 08 a6 3d b2 db f2 3d 4d bf 8e bd
       -0.07489599 0.081071675 0.1185831 -0.069700815
000380 bd f3 eb bd bf 52 f2 bd 7b e9 ad bd fe 5f e5 3d
       -0.11521099 -0.11832189 -0.084917985 0.1119995
000390 f9 2d fe 3d 71 06 f5 3d 32 ed 0c 3e 2a 20 96 bd
       0.12411112 0.11964119 0.13762358 -0.073303536
0003a0 02 6a dc bd b0 18 f5 3d f6 cf 25 bd af a9 fa 3b
       -0.10762407 0.119675994 -0.04048153 0.0076496224
0003b0 a2 3f 15 bd ba 5f aa 3d 58 15 7b 3d 65 d2 be 3c
       -0.036437638 0.0831904 0.06129965 0.023293683
0003c0 14 81 93 bd eb de 0e bc c9 ad c0 3d 66 36 ce 3d
       -0.07202354 -0.00872014 0.09408147 0.100689694
0003d0 a2 25 83 3d 05 5c 63 3d 67 fc 36 3e c9 7b ef 3d
       0.06403662 0.05550768 0.17869721 0.11693532
0003e0 9a 09 e4 3d 01 aa 96 bc 61 5b 9b 3d 15 52 ed 3d
       0.11134644 -0.018391611 0.075857885 0.115879215
0003f0 d2 1f c2 bd 9d 92 c5 3d 64 b2 d9 3d 0c e6 e6 3c
       -0.094787255 0.09647105 0.106297284 0.028185867

lstm.weight_ih_l1 f4 [256, 64]
000000 0d 0c 31 bd a1 ba cf 3d 7d 2e e1 3d 1b 06 a6 3d
       -0.043224383 0.101430185 0.10995195 0.08106633
000010 bc 39 67 bb d0 e8 43 bc e5 03 df 3c 27 a6 8a 3d
       -0.0035282215 -0.011957362 0.027223537 0.06769972
000020 39 ae 92 bd 9f a1 a3 bd 9b 9e 18 3d 09 e5 2f 3d
       -0.071621366 -0.07989811 0.037260633 0.042943034
000030 91 f0 fa bc 28 15 91 3d 7b 74 0d 3e 21 a3 94 bc
       -0.03063229 0.07084113 0.13813965 -0.018144192
000040 ae e0 c3 bd e7 7d 83 bd 7e 69 02 bc 9f 5b 2b 3d
       -0.095643386 -0.06420498 -0.007959722 0.041835424
000050 e4 8c 84 3d f8 86 8c bd 85 41 fa bc bc 12 c7 3d
       0.06472185 -0.06861681 -0.03054882 0.0972037
000060 12 2f 08 be 81 05 97 bd c4 aa aa bd a2 87 bb bc
       -0.13299206 -0.07374097 -0.08333352 -0.022891823
000070 bb cf a7 bd 7c ca 62 bd a9 8e 9b 3d d3 81 83 3d
       -0.08193918 -0.055368885 0.0759557 0.064212464
000080 62 1f d1 bc 71 6b ae 3d 60 8b 53 bd c9 83 0e 3d
       -0.02552766 0.085165866 -0.05164659 0.03479365
000090 e9 cc 19 3d f3 80 da bb cd 79 b4 bd 82 74 b4 bc
       0.037548933 -0.006668204 -0.08812294 -0.022028212
0000a0 49 0f d4 bd e1 ec 4b 3d 97 82 5d 3d ee 40 15 bc
       -0.10354478 0.049786452 0.05407962 -0.009109719
0000b0 df 1e 99 bd 92 2f ba 3d e8 ee 91 3b 74 60 ed bd
       -0.07476591 0.090911046 0.0044535287 -0.115906626
0000c0 3f f3 7f 3d a2 e4 8c 3b 07 9f 0b bd d4 c2 0d be
       0.062487837 0.004299716 -0.034087207 -0.13843852
0000d0 5a dc 59 bd 3b cf 98 3d 16 02 1c be 73 4a 8e 3c
       -0.05318866 0.07461401 -0.1523517 0.017369485
0000e0 e6 4f 99 3d 9a e0 16 3b d3 d0 0d 3e a9 56 22 3d
       0.074859425 0.0023022057 0.13849191 0.039633427
0000f0 fa 9a cc bd 6d f0 08 be 7d b0 80 bd 75 ad d4 3d
       -0.09990497 -0.13372965 -0.062836625 0.10384647
000100 d8 69 0e 3e 1f 80 2f 3e 58 c0 0c 3e 02 1d ca 3c
       0.13907564 0.17138718 0.13745248 0.024672035
000110 8a 5b 54 3d b1 f9 04 be 4b 43 e2 3d f3 e9 83 bd
       0.05184511 -0.12985875 0.11047991 -0.06441107
000120 24 d7 b6 3b c3 ce a0 3d 6f ab 7f 3d f9 d8 8d bd
       0.005579846 0.07851937 0.06241935 -0.0692615
000130 08 44 b0 3d d0 5d cf 3d df a4 f3 3d 09 96 82 3d
       0.08606726 0.10125315 0.11896681 0.06376273
000140 14 ff 03 be 26 d5 10 be 64 29 46 bc 12 81 31 bd
       -0.12890273 -0.1414381 -0.012094829 -0.04333598
000150 02 63 5f 3d 9f c1 00 be 50 0c fb 3c bf a0 47 3d
       0.05453778 -0.1257386 0.03064552 0.048737284
000160 dd 67 5f bd 14 21 cc bd 0e be 57 bc 57 2d 02 bd
       -0.05454241 -0.09967247 -0.013167871 -0.03178152
000170 d8 00 9c 3c 25 5c f2 3c 1f b6 c0 bd 87 41 f2 3c
       0.019043371 0.029584954 -0.09409737 0.029572261
000180 dc 03 8f 3d e7 ab 82 bd 22 27 96 bd 31 14 3d bd
       0.06983158 -0.06380444 -0.07331683 -0.046161834
000190 6f 67 ba 3c 54 cf 09 3e fe 10 bb 3d b7 f0 ce 3d
       0.0227544 0.13457996 0.091341004 0.101045065
0001a0 99 f5 d6 bd 2a 4a 15 3d 9d af e2 bd 41 45 48 bd
       -0.10496063 0.03644768 -0.11068652 -0.04889417
0001b0 9b c7 af bb f6 20 13 3e 8f 4c da 3d f8 d7 dd bd
       -0.005364371 0.14368042 0.10659134 -0.108322084
0001c0 38 a3 54 bd d5 d7 f9 3d 27 ff d0 bd 25 43 05 3d
       -0.05191347 0.1219937 -0.102049164 0.032534737
0001d0 42 f8 70 bd 75 e8 12 be 93 eb 7a bd 4f 0e 70 3d
       -0.058830507 -0.14346488 -0.061259817 0.058607396
0001e0 36 ac 03 3e 57 38 ba ba 21 16 af 3d 60 0d e8 bd
       0.12858662 -0.0014207464 0.08549143 -0.11330676
0001f0 33 3f 9d 3d 38 48 a7 3d 08 e7 7c bd 84 09 ae 3d
       0.0767807 0.081680715 -0.061743766 0.08497909
000200 37 8f de bd 2a 78 44 bd 40 eb c9 bc c8 86 3f 3d
       -0.1086716 -0.04796616 -0.024648309 0.046759397
000210 6e f4 51 3c f2 d1 0c bd 26 57 01 be d1 63 a1 3c
       0.012814624 -0.034379907 -0.126309 0.019700916
000220 b7 f1 e2 3d f3 24 bd bd 82 eb 01 be d4 8b ff 3d
       0.1108126 -0.09235563 -0.12687495 0.12477842
000230 6d 00 01 be 6e e7 10 be e0 95 4e bc d2 3f f4 bc
       -0.12597819 -0.14150783 -0.012608975 -0.029815588
000240 0d 75 61 bd 6a 0d 63 3d 87 45 05 be 51 38 41 3b
       -0.05504327 0.055432715 -0.13014804 0.002948303
000250 ce 8c 90 3d 77 17 5a 3d ca 25 1d be 90 6f b2 3c
       0.07058106 0.053245034 -0.15346447 0.021781713
000260 82 95 da 3d 60 e9 97 3d 3e 74 9d bc 9c 0b 01 be
       0.106730476 0.074175596 -0.019220468 -0.12602085
000270 5e 14 f8 3d cb d5 c6 3d ff b0 d9 bd c1 8b 0f 3e
       0.1211326 0.097087465 -0.106294625 0.14018156
000280 79 6f b7 bd c1 c1 ba bc 2b f2 52 bd 74 13 e4 bd
       -0.089568086 -0.022797467 -0.05150048 -0.11136523
000290 27 63 16 3d 33 e0 c8 3d 8b ae ba 3d c2 d6 76 bd
       0.036715653 0.098083876 0.09115323 -0.060263403
0002a0 35 25 16 3d c7 81 8c 3c 73 15 3b bd 65 ec fe 3d
       0.036656577 0.017151726 -0.045674752 0.124474324
0002b0 60 6b b0 bd f7 25 05 bc 60 7d 76 3d a2 bc b4 bd
       -0.0861423 -0.008126727 0.06017816 -0.08825041
0002c0 42 b6 7a bd 1d 09 72 bd 83 7e 76 bd 16 22 a8 3d
       -0.06120897 -0.059090722 -0.060179245 0.082096264
0002d0 82 8c 0d 3d 6d 31 d2 bd 91 a3 11 bc 4c 4c 0f bc
       0.034557827 -0.102633335 -0.008889095 -0.008746218
0002e0 0e 6b ae 3d 4c 33 4c bd e1 7e 71 bc fc 0b 14 3e
       0.08516513 -0.049853608 -0.014739723 0.14457697
0002f0 e8 f8 81 3d 8d a5 9b bd 30 04 14 be c5 85 59 bd
       0.06346303 -0.07599936 -0.14454722 -0.05310609
000300 5c f0 8f 3d 61 94 43 3e 6d 16 aa 3d ed 25 83 3d
       0.07028267 0.19099571 0.08305059 0.06403718
000310 10 26 ef 3d 20 ba f8 3d 25 8a 70 3a 96 77 1c 3d
       0.11677182 0.121448755 0.00091758586 0.038199984
000320 d5 94 17 3d 2f 7e a8 3d 6b 43 9c 3c 20 96 9a 3d
       0.03700717 0.082271926 0.019075116 0.07548165
000330 1b 3e df bc 07 0d 2c bd ed 86 63 3e 7c 39 7a 3e
       -0.027251294 -0.04200461 0.22219439 0.24435991
000340 a2 5e 31 ba 70 46 c2 3d d7 ba 76 3e 6d fe c7 3d
       -0.00067661155 0.09486091 0.24094711 0.09765325
000350 fa b3 21 be f7 4c 0d be d7 33 21 3d 2a 5e 53 bd
       -0.15791312 -0.13798891 0.03935608 -0.051603474
000360 bb 2e f6 bd 3c db 16 be 49 46 7f be e0 41 b3 bc
       -0.12020632 -0.14732069 -0.24929155 -0.021881998
000370 06 ce f3 bd 81 7b 56 bd e9 1c f4 bd 23 f7 15 be
       -0.1190453 -0.052363876 -0.11919577 -0.14645056
000380 a5 bf 83 be 4f 73 8c 3d 7c 09 8f bc 4d 67 8d bc
       -0.2573215 0.06857931 -0.017460577 -0.017261172
000390 98 4f 83 3d 77 91 9d bb f3 c0 31 3d 3b 6d ef 3c
       0.06411666 -0.0048086005 0.0433969 0.02922689
0003a0 b9 2c cd bc c4 f5 43 3e 05 d0 94 3d c8 97 1b 3e
       -0.02504574 0.19136721 0.07266239 0.15194619
0003b0 fd 7f 83 be 94 4d a4 bd 99 38 0d 3e 85 dc 0a bd
       -0.25683585 -0.08022609 0.13791122 -0.03390171
0003c0 d9 21 d1 bc 3e ab d8 ba bd 60 18 bd a4 55 e4 3c
       -0.025528835 -0.0016530526 -0.03720163 0.027872868
0003d0 98 36 a4 bb 91 fa af 3c fb 8e 48 be 8c 66 20 3c
       -0.005011391 0.021481784 -0.19585793 0.009790074
0003e0 c7 41 7a 3d 4a df e0 3c 35 d1 84 bd de a0 86 bc
       0.061097886 0.027450223 -0.064852156 -0.01643413
0003f0 e7 6e bb bc 81 36 eb 3d f8 a2 07 3d 69 f2 2c 3d
       -0.02288003 0.11485005 0.033114403 0.042223368

lstm.weight_hh_l1 f4 [256, 64]
000000 72 89 2a 3d 88 c1 86 bd f3 53 0f 3d 17 68 0a 3e
       0.041634984 -0.06579882 0.03499217 0.1351627
000010 19 15 92 bd ca 6e c2 bb 0a 85 2d bd 5b 9a fa 3d
       -0.0713293 -0.0059336172 -0.042363204 0.12236472
000020 57 02 fa bc 52 54 5c 3c d5 e1 09 be cd 9f ec bc
       -0.030518694 0.013447838 -0.13465054 -0.028884793
000030 9f 73 16 3d 41 dd c5 3d e3 f2 00 be 57 a9 e2 bd
       0.03673136 0.096613415 -0.12592654 -0.11067455
000040 92 cf b3 bc 84 88 cc 3d 16 29 49 3d 2d e2 08 3e
       -0.021949563 0.09986976 0.04911145 0.13367529
000050 6a 05 0f 3e 23 df 33 3d 8d 06 8e 3d c0 f1 06 3d
       0.13966909 0.04391397 0.06934843 0.032945395
000060 1d b4 8a bd 1e 48 82 3d f1 e7 95 bd 0d 03 18 3d
       -0.06772635 0.063614115 -0.0731963 0.037112284
000070 98 25 4b 3c 9c 90 c5 bd 45 fa 8f 3d ed fa c8 3d
       0.0123991 -0.09646723 0.07030157 0.09813485
000080 59 f6 c9 3d a5 5e 83 3d ab b1 66 bd 95 24 f8 3c
       0.0986144 0.064145364 -0.05632178 0.030290881
000090 16 e4 8f 3d ae ab 95 bc c0 c0 03 3e 97 7c 98 bd
       0.07025926 -0.01827034 0.12866497 -0.074456386
0000a0 2b 36 a5 3c b6 77 a1 3d 96 7c 9f 3d d5 c5 fe 3c
       0.02016743 0.07884161 0.07787435 0.031100193
0000b0 09 99 b4 3d 5f a5 9f bd 1e cf 98 bd a6 3e b4 ba
       0.08818252 -0.07795214 -0.074613795 -0.0013751581
0000c0 98 6f ef 3c 1c 27 c7 ba 91 f6 c3 3c 0d 00 ea 3d
       0.029228017 -0.0015194151 0.023921283 0.11425791
0000d0 ff 68 9c bc a9 21 42 3d 4a b3 3f bd 95 29 ae 3c
       -0.019093035 0.047395382 -0.046801843 0.021260062
0000e0 7a 50 d9 3d 7a af 12 3d b0 06 f0 3c e8 bd 44 3d
       0.10611053 0.03581188 0.029300064 0.04803267
0000f0 64 78 1e 3d df 9e fb 3d aa 8b d8 bd 1c a6 d2 bd
       0.038689032 0.12286162 -0.10573514 -0.10285589
000100 2b 73 ef bd 7c 6d a9 3b 84 65 84 3c de 6c ee 3c
       -0.116918884 0.0051705223 0.016161688 0.029104646
000110 55 21 c2 3b c4 af ea bd 89 17 83 3d 94 bb c7 bd
       0.0059243836 -0.11459306 0.06400973 -0.097525746
000120 2d 38 a3 bb 27 2c 87 bd be d0 dc 3d 94 13 85 3d
       -0.004981062 -0.06600218 0.10782002 0.06497875
000130 c7 30 a9 bd 51 d5 73 bd 39 8b d9 bc 35 5c f6 bd
       -0.08261257 -0.059529606 -0.026555644 -0.12029306
000140 03 30 be bd ab be cc 3d 4f 95 0b 3e c6 3c 9a 3d
       -0.09286501 0.099973045 0.13631175 0.07531123
000150 7c 9d f5 3d 18 47 1f 3c c4 a8 e3 3d 23 f1 a3 bd
       0.119929284 0.00972154 0.11116174 -0.080049776
000160 fd 20 4b 3d 7c 26 e8 3d 69 80 1e 3e dd 66 cc 3b
       0.049592007 0.11335465 0.15478672 0.006237848
000170 35 24 5f bc bd b7 8d 3d 6c eb 05 3e 0d 4b c0 3d
       -0.013619472 0.06919811 0.13078088 0.09389315
000180 82 70 2c bd 9b 88 e9 bd 46 9a 2e 3c f1 db 00 be
       -0.042099483 -0.114030086 0.010656899 -0.12583901
000190 68 db 95 3d 26 e0 f1 3d e6 ad b3 bd e5 c1 82 3d
       0.07317239 0.11810331 -0.08773403 0.06384639
0001a0 f6 47 71 3d fb d6 2d bd 5f c0 49 bd 20 a4 b1 bd
       0.058906518 -0.04244135 -0.049255725 -0.086738825
0001b0 8b da 58 3d 76 c8 d9 3d 6a 61 d4 3c 54 f3 a2 3c
       0.052942794 0.10633938 0.025925357 0.019891419
0001c0 09 8a a2 bc 55 ae ed 3d 9d 99 c4 bc 22 1a 9b bd
       -0.01984121 0.11605517 -0.02399903 -0.07573344
0001d0 18 eb dd 3d 69 e8 55 3d 64 6e 65 3c 1b d1 ab 3d
       0.10835856 0.052223597 0.01400337 0.08389493
0001e0 13 f1 01 3e e3 39 c2 3c e1 6f 94 bc 7c 22 6d 3d
       0.12689619 0.023709243 -0.018119754 0.057894215
0001f0 17 be ff bd e3 0d 0a 3e 20 cd 04 3e 69 52 93 3d
       -0.12487429 0.1348186 0.12968874 0.07193453
000200 0a 7e ca bd 0a 6e 14 3e 53 3c e5 3c 6a 02 1e bd
       -0.09887321 0.14495102 0.027982866 -0.03857652
000210 19 42 0a bc 8e 2b 71 bd e0 03 7b bd e3 c8 c0 bc
       -0.0084386105 -0.058879428 -0.061282992 -0.02353329
000220 17 50 f3 bd 04 b0 da bc 0e c1 39 bd c0 b6 51 3a
       -0.1188051 -0.026695259 -0.045350127 0.0007999949
000230 10 29 d2 bd ed a9 5a 3d 75 a4 d6 bd df 02 89 3d
       -0.10261738 0.05338471 -0.104805864 0.06690001
000240 ff fe db 3b b8 71 8e 3d 10 c2 41 bd c1 e4 9e 3b
       0.0067137475 0.06955284 -0.047304213 0.004849047
000250 8b bf 75 3d 48 4b 9b bd b1 da c2 bc ac b3 a4 3c
       0.059997123 -0.07582718 -0.02378592 0.020105205
000260 51 4f a3 3d 63 c5 ce bc c0 d6 0e 3e 54 e6 bb 3d
       0.07974113 -0.025240606 0.13949108 0.09174791
000270 46 07 ae 3c 1d 45 82 3d 6d 6f ef 3b 4e 2c c0 3d
       0.021243703 0.063608386 0.007306984 0.093834504
000280 b9 6f 80 3d 80 78 a5 3c 4c 32 83 bd 08 1a f7 bd
       0.062713094 0.02019906 -0.06406078 -0.12065512
000290 77 75 d2 3c 94 30 26 3c e2 95 dd bd cf 35 dd 3d
       0.025690777 0.010143418 -0.108196035 0.10801279
0002a0 ac b2 c7 bc 13 e7 02 be 6d f7 d3 bd 5a be 81 bd
       -0.02437719 -0.1278346 -0.10349927 -0.06335135
0002b0 25 ff 59 3d 1b 76 c7 3d bb e5 9f 39 a9 7c d3 3d
       0.05322184 0.09739324 0.00030498006 0.103265114
0002c0 98 ba 02 be e0 1f d7 3b cc 2a 3f bd 55 01 88 bd
       -0.12766492 0.006565079 -0.046671674 -0.06640879
0002d0 23 fb cd bd 3d 68 62 3c 6b 35 ca bc 30 1d 91 bd
       -0.10057666 0.013818798 -0.024683675 -0.07085645
0002e0 67 58 7e 3d e1 78 d6 3d 35 e6 cb 3d f6 8a f4 3b
       0.062096026 0.104722746 0.09956018 0.0074628545
0002f0 5a 65 60 bd 93 7a 61 3d 0b c1 35 3c 97 ed e2 3d
       -0.054784156 0.055048537 0.011093388 0.11080473
000300 25 99 51 be c9 30 22 3e 53 f9 36 bd fa 2d 86 3e
       -0.20468576 0.15838923 -0.044671368 0.26206952
000310 6c 39 1c be e9 1d 1e bd ce bc b7 3d 96 64 89 3c
       -0.1525628 -0.038602743 0.089715585 0.016771596
000320 7e ca 28 3b fe f0 56 3d ef d0 62 bd e6 5d f5 bb
       0.002575546 0.05247592 -0.055375036 -0.007488
000330 21 ac aa bd df 31 ee b9 49 20 91 3d d2 67 e2 bd
       -0.08333612 -0.00045432054 0.07086236 -0.110549584
000340 d5 4d 69 bc 2b ce 0d be 9c 7a 89 3e 6d 48 97 bc
       -0.014239748 -0.13848178 0.26851356 -0.018467152
000350 8b 24 96 bd 96 98 8f 3d 7f e5 2e 3e 0b 35 27 be
       -0.07331189 0.07011525 0.17079733 -0.16328828
000360 39 60 00 be 70 74 d6 3b 5e 8b 62 3d 4a b9 b0 bd
       -0.12536706 0.006544642 0.055308692 -0.08629091
000370 18 c8 45 bd ed 46 11 3d 3e 58 b9 3d 42 c9 d3 bb
       -0.048286527 0.03546803 0.09050034 -0.006463201
000380 69 bf b6 bd 78 e8 f9 bb 55 ee 94 ba 13 9e 26 be
       -0.08923227 -0.0076265894 -0.0011362532 -0.16271238
000390 5a 2f 04 3d 81 85 e1 bb c4 d9 b4 bd 06 93 be bc
       0.03227172 -0.00688237 -0.08830598 -0.023263466
0003a0 a5 37 5d bc b6 ab a1 3d 24 9a 0a be 91 7a 2e 3e
       -0.013502036 0.078940794 -0.13535362 0.17038943
0003b0 88 c8 b3 3d be 51 bf 3d 4a a0 37 3d 63 5f 0e 3d
       0.08778483 0.09341763 0.044830598 0.034758937
0003c0 4d 9b fc bd 6a c9 90 bd 37 fb 1e be 95 aa 74 3c
       -0.12334309 -0.07069667 -0.15525518 0.014933248
0003d0 00 d8 82 bd 45 e2 04 3e 48 ea 45 bd 4d 6c f0 ba
       -0.06388855 0.1297694 -0.04831913 -0.0018342823
0003e0 54 c7 6f 3d 90 ef 4a 3d 17 37 1f 3c 1e 39 3a 3d
       0.058539703 0.04954487 0.009717724 0.045464627
0003f0 1a 48 b3 bd 23 45 cf 3d b3 48 35 3e a6 b6 3d 3d
       -0.08753987 0.10120609 0.17703514 0.046316765

lstm.bias_ih_l1 f4 [256]
000000 6b 98 02 3b de 30 06 3e 63 bf e1 3d 64 d3 09 3e
       0.0019927274 0.13104579 0.11022832 0.13459545
000010 69 57 0a be 3b af 3d 3d a7 09 82 3d 21 5f c2 bd
       -0.13509907 0.04630969 0.06349497 -0.09490801
000020 d2 58 00 3e d8 88 82 bd 14 c8 79 3d f4 37 77 bd
       0.12533882 -0.06373757 0.060981825 -0.060356095
000030 d7 26 08 3e 7e b5 f8 3d 24 0e fc 3c cc 4e 84 bd
       0.13296066 0.12143992 0.030768462 -0.06460342
000040 af d2 d5 bc 72 de a5 3d 04 6d b8 3d 5e 83 b3 bd
       -0.026101438 0.08099069 0.09005168 -0.08765291
000050 fb 04 ca 3c d2 ef 2b 3d a4 17 8e bd 66 38 c6 3d
       0.024660578 0.041976757 -0.06938103 0.09678726
000060 ff 1d 83 bd da ad e1 3c 3f ad b6 3c 2d 19 05 bd
       -0.06402206 0.02754872 0.022299407 -0.032494713
000070 5f 9a c5 bd d7 52 6c 3d ee 03 be bd 2b 90 96 3c
       -0.096485846 0.05769619 -0.09278093 0.018379292
000080 8a 75 ad 3d f0 52 c5 bc d7 47 ef 3d f8 88 bd 3d
       0.084696844 -0.0240874 0.11683624 0.0925464
000090 b8 98 b3 3d 83 c7 25 3d 45 8b 93 3d 9f a8 8d bd
       0.08769363 0.040473472 0.07204298 -0.069169275
0000a0 56 21 31 bd ea a7 e7 bc 55 2f bc bc 72 07 19 3d
       -0.043244682 -0.02827831 -0.022971788 0.037360616
0000b0 f4 47 e7 bd 75 d5 61 3d 70 7c 01 3e ae 21 a5 3d
       -0.11293021 0.05513521 0.12645125 0.080630645
0000c0 37 a4 ba 3d 79 9f 8a bd 2a 3a dc bc 76 27 88 bd
       0.09113353 -0.06768698 -0.026883204 -0.066481516
0000d0 ed d3 9e bd 9a 90 ce ba 83 b3 0f 3e 32 68 90 3d
       -0.077552654 -0.0015759647 0.14033322 0.07051124
0000e0 85 2d e5 3d 7e b8 fd 3d 80 16 3d bc ae 13 04 bd
       0.11190323 0.12388705 -0.011541009 -0.03224533
0000f0 75 fe 4a bd 74 86 ed bc d3 e5 68 3d 4a 98 04 be
       -0.049559075 -0.028994776 0.056859802 -0.12948719
000100 2d ef 02 bc 43 fa d4 bd 7f b8 6f bd 9c 7b 89 bd
       -0.007991594 -0.10399296 -0.05852556 -0.0671303
000110 4b ea 88 3d e2 3e 2a bd 33 f3 3e 3d 26 96 71 bd
       0.06685313 -0.041563876 0.04661865 -0.058981083
000120 d8 5d ad 3c b7 81 ae bd 32 4f 6b bc 3e 5c ac 3d
       0.021162912 -0.08520835 -0.014362143 0.08416031
000130 ae 11 62 3d 57 de dc 3d 8c db 37 3c 17 79 c3 bd
       0.055192642 0.107845955 0.011221778 -0.095445804
000140 8e 49 15 3d df 30 e8 bc 51 9e 46 bd 1e ba 49 3c
       0.0364471 -0.028343616 -0.048490826 0.01231244
000150 ce a7 04 be b8 da e7 3d 8e 3f c6 3d 2b 2d 24 3d
       -0.12954637 0.11321014 0.09680091 0.040082138
000160 4b e8 3c bd 99 db bc 3d 2d 0e c6 bd f9 46 85 3d
       -0.04611997 0.092215724 -0.096706726 0.065076776
000170 6c bb a0 3d 95 95 7c bd bd be fa 3d 84 ba f2 bd
       0.07848248 -0.06166609 0.12243412 -0.11851981
000180 f8 ed 95 bd a1 0e b1 bd b5 55 b6 bd 0f 8a 19 3e
       -0.073207796 -0.08645368 -0.08903066 0.14994071
000190 54 17 64 bc a3 4d 49 3d 60 cc 40 bd a6 e1 fa bb
       -0.0139215775 0.049146306 -0.047069907 -0.007656294
0001a0 4c a0 af bd 48 9e 8e bc e6 75 7e 3d 60 99 d7 3d
       -0.08575496 -0.017409459 0.062124155 0.10527301
0001b0 05 2a be bd 7d 0e a8 bd 6d 69 cc 3c 86 66 a8 3d
       -0.09285358 -0.082058884 0.024952615 0.0822268
0001c0 42 c0 39 3d ba cc f7 3c 2f 55 bd 3c a8 14 f3 3b
       0.045349367 0.030248988 0.023111908 0.007418234
0001d0 dc 18 e2 bd b9 d4 98 bd 02 69 39 bd 9a b2 8b bd
       -0.11039898 -0.074624486 -0.04526616 -0.06821175
0001e0 2e c0 72 bd 7a 1a 99 3d 0f 26 d8 3d 21 9f 83 bd
       -0.059265308 0.07475753 0.10554134 -0.06426836
0001f0 48 96 b2 3d 73 0c 5a bd 7e 33 83 3d 1f 42 8a bd
       0.0872007 -0.05323453 0.06406306 -0.06750893
000200 3b f8 59 3d de 7f 99 3d 9d 44 90 3d bc 31 a9 3d
       0.053215247 0.07495092 0.07044337 0.08261439
000210 7f ff c5 bd 46 b3 36 bd 95 c8 0a bc 3b 7a c4 39
       -0.09667873 -0.044604562 -0.008470674 0.00037475102
000220 50 d0 cc 3b dd 1f 8f bd db 5a 9c 3d c2 fc d7 3d
       0.0062504187 -0.06988499 0.07634517 0.105462566
000230 94 3f c5 3d 3a 1e ad 3c 69 60 c3 bd e8 fb 29 bc
       0.09631267 0.021132577 -0.09539873 -0.010375001
000240 27 30 00 be 2d 90 26 bd ef c9 5e 3d 9b 29 31 3d
       -0.12518369 -0.04066484 0.054391798 0.04325257
000250 5e ab 6f 3d 42 71 32 bd 73 d4 e2 bc 1f 9c f6 bd
       0.058513038 -0.043565042 -0.027689194 -0.120414965
000260 ad 6c 1f bd a6 67 9e 3d a2 74 e1 3d 47 a6 d1 3d
       -0.038922 0.07734613 0.11008574 0.10236793
000270 0d 2d e8 3d 31 07 7c bb 29 eb bb bd 72 40 f6 bd
       0.11336718 -0.0038456435 -0.091757126 -0.12024011
000280 db 15 92 bc 70 00 a0 bd 11 9f 19 3c f9 53 54 bc
       -0.017832687 -0.078125834 0.009376303 -0.012959474
000290 d1 10 04 bd 36 eb 1e bd 5f 4d 82 bd 10 f2 a6 3c
       -0.0322426 -0.038798533 -0.063624136 0.020379096
0002a0 97 17 fd bc 82 72 84 bd 11 42 9a bd e1 b5 8d 3d
       -0.030895038 -0.06467153 -0.075321324 0.06919456
0002b0 0e 91 37 bc e9 79 ba bd 95 24 ae bd e9 c0 60 3c
       -0.011204017 -0.09105284 -0.08503071 0.013717868
0002c0 4d e7 f0 bd 89 e7 99 3d ac 4b c2 bc 4d c3 8b bd
       -0.11762867 0.07514865 -0.023717724 -0.0682436
0002d0 99 f5 9e 3c f1 d5 ae 3d 35 44 f4 bd 55 b1 e4 bc
       0.01940422 0.085369 -0.11927072 -0.02791659
0002e0 26 35 c0 bd 7a 23 da 3d 38 d1 f8 bd 40 bf c7 3c
       -0.09385137 0.10651298 -0.1214928 0.024383187
0002f0 a7 b6 e2 bd 2e 3f 03 3d 02 ef 97 bd 56 25 b7 3d
       -0.110699944 0.032042675 -0.07418634 0.08942668
000300 06 a9 1f 3d 21 d0 b1 bd 4f 4d e4 bc 74 d3 2f 3e
       0.038979553 -0.086822756 -0.027868895 0.17170507
000310 f2 68 d3 bd 5c 1c 93 bd 28 70 07 3d 8a 1c 4f bc
       -0.10322751 -0.071831435 0.033065945 -0.012641082
000320 dc d4 d8 bc f0 5b 2f 3b aa 43 2f 3d 33 be 43 3d
       -0.026468687 0.002675768 0.04278914 0.04778881
000330 6e c7 06 3e f4 cd 23 bd f6 8a 09 3e 66 d6 98 3d
       0.13162014 -0.039991334 0.13431916 0.07462768
000340 57 4a aa 3d 3a a1 74 bd 33 f2 a1 3d c8 d0 00 3e
       0.083149604 -0.05972407 0.07907524 0.12579644
000350 94 18 f0 3d e2 04 1f 3c 3f 20 3b 3d 84 5a 9c 3d
       0.11723438 0.009705754 0.04568505 0.07634452
000360 a5 7b 40 bd 72 c3 ab bd 40 19 89 3d 31 a8 9c 3d
       -0.046992917 -0.083868876 0.06694269 0.076492675
000370 3c 99 ae 3d 7d ea a5 bd d7 ae ee 3d cb 00 b5 3d
       0.08525321 -0.08101366 0.11654442 0.08838042
000380 7a ab 71 3d 4c 3e 1c bd 02 8e 85 3d 4d d8 f6 3d
       0.059001423 -0.03814535 0.065212265 0.12052975
000390 20 24 87 bd 37 72 6f 3c 21 84 a2 3d ea b5 68 bd
       -0.06598687 0.014614633 0.07935358 -0.05681411
0003a0 f8 5c dd 3d aa e1 5a 3c 82 b2 e6 bb 35 74 cc bc
       0.10808748 0.013359467 -0.0070403228 -0.024957756
0003b0 f4 7f f7 3d 37 7f 08 3d 81 32 b6 bd 8c 62 9a bd
       0.12084952 0.033324447 -0.088963516 -0.075383276
0003c0 1a 37 b6 3d 01 0a ef bd 33 ad 8e 3d 79 a1 97 bd
       0.088972285 -0.1167183 0.06966629 -0.07403845
0003d0 63 37 c5 bd a8 8a e1 bc f1 e3 b3 3c 68 49 04 be
       -0.09629705 -0.027531937 0.021959277 -0.12918627
0003e0 a0 e6 29 3d 9f d5 be 3c a8 c4 7c 3d 4b e6 35 3d
       0.041479707 0.023295222 0.061710984 0.044409078
0003f0 9f ce b2 bd 81 83 c0 bc 94 76 8e 3d 41 a0 79 3d
       -0.08730816 -0.023500206 0.06956211 0.060943846
