crypto_models/USDJPY=X_lstm.pth (torch, 206117 bytes, 9 tensors)

lstm.weight_ih_l0 f4 [256, 1]
0.035043478 -0.057628643 0.06370984 0.009210209 -0.026280463 -0.06717899 0.029244324 0.03562243
0.17204268 -0.0122172795 -0.06852215 -0.072857015 0.16605686 -0.022358451 0.055398703 0.01745652
0.010698331 -0.10760304 -0.025647085 0.15136206 0.057150107 0.124712594 0.086257495 0.14464167
0.16412158 0.08911336 0.16143152 -0.02759834 0.1812258 -0.13040477 0.1793087 0.12660363
0.18156482 -0.1536502 -0.06203718 0.11493432 0.0053516785 -0.009676533 0.06083705 0.21490745
-0.03117653 0.000922041 0.10077598 0.060832113 -0.019264203 -0.02630324 -0.17613077 -0.029804587
0.040248707 0.0021184296 0.051373884 -0.026735744 -0.08969551 0.12751725 0.07955892 0.11852918
-0.054193463 0.031826437 0.17315826 -0.059962016 0.0851603 0.10154184 0.17545387 0.06816583
0.057578206 -0.0023099913 -0.07274918 0.06611165 0.15354563 -0.017356597 0.04836753 0.035545524
-0.010593055 -0.08643293 -0.038927272 -0.18258376 0.028848242 -0.2208318 0.054514326 0.1342142
0.09974999 0.027284147 -0.014498287 -0.04462801 -0.123713255 -0.07057035 0.108806394 0.012236396
-0.033541597 0.16881439 -0.08290858 -0.007252188 0.16301031 -0.33696774 0.10338042 0.09530006
0.130953 -0.05578365 0.044229873 0.056614537 0.12575135 -0.124414034 -0.04713956 0.010145815
0.08879077 0.12488489 0.15496743 -0.074953124 0.01946606 -0.024955532 -0.2232432 0.04994558
0.0017192475 0.052547965 0.1144793 -0.021891113 -0.06541517 0.0049463874 0.0825137 -0.022710316
-0.16280715 -0.0022927315 0.12947793 -0.3783324 0.009288757 -0.0724002 -0.052628864 0.0798534
-0.0827644 0.051872127 0.19223586 -0.13348287 -0.19218667 -0.092797235 -0.1521152 -0.15525794
-0.13651273 0.15758912 0.046525605 0.12349999 -0.1283621 0.15861478 -0.069940716 0.0426968
-0.04836653 0.14420132 0.15415573 -0.058605693 -0.017471764 0.17952038 -0.17514637 0.07089439
-0.18283562 0.17271121 -0.13871461 0.028879575 0.10811845 0.20058438 0.13657904 0.08393732
-0.18995976 0.03222471 0.17600666 -0.10085582 0.15881594 -0.14880304 -0.10913814 0.17111397
0.08802429 0.19423069 -0.04425701 -0.09718381 -0.0631442 0.17635186 0.15607795 -0.11017821
-0.04286981 0.02262707 0.026793934 -0.069030724 -0.03876435 -0.06385364 -0.19689384 -0.21443929
0.15591682 0.12948455 -0.1559033 0.3197441 -0.1294037 0.17474109 -0.2016699 -0.03237499
-0.13975759 0.13431904 0.15404294 0.0956716 0.18437757 -0.11263399 0.19631112 0.20899773
0.050863817 -0.06057714 0.058761302 -0.026303971 0.025644254 -0.20390244 -0.04285148 -0.008121682
0.13948478 -0.048187155 0.06282353 0.14531347 -0.12554522 -0.08254185 0.11551394 0.037512083
0.19090837 0.08497816 0.029579535 0.03819431 0.17490624 -0.07937719 -0.010660046 0.10380714
0.040633798 -0.045944534 -0.022761682 -0.055170905 0.08319732 0.01724316 0.15525767 0.21225753
-0.008446988 0.069393076 0.02115157 -0.028860008 0.1191071 -0.04200063 -0.16215488 0.07968724
-0.01390378 0.037255414 -0.010471008 0.18792135 -0.038437232 -0.071655534 0.110657565 0.22041754
-0.06232113 0.04910271 0.014184399 -0.19632937 0.1270684 -0.045753356 -0.0056972625 -0.04131998
00000000: c089 0f3d 030c 6cbd 4e7a 823d 6be6 163c
00000010: 204a d7bc 2395 89bd cb91 ef3c d3e8 113d
00000020: f52b 303e fc2a 48bc 5755 8cbd 0f36 95bd
00000030: cf0a 2a3e 1229 b7bc c0e9 623d fa00 8f3c
00000040: 0d48 2f3c fc5e dcbd d619 d2bc a8fe 1a3e
00000050: 3b16 6a3d 5169 ff3d c5a7 b03d f21c 143e
00000060: 7d0f 283e 1181 b63d 4e4e 253e ea15 e2bc
00000070: 4293 393e d488 05be b39c 373e 62a4 013e
00000080: 21ec 393e 7a56 1dbe b31a 7ebd af62 eb3d
00000090: 225d af3b 528a 1ebc 4530 793d b310 5c3e
000000a0: ec65 ffbc 20b5 713a a363 ce3d 182b 793d
000000b0: f6cf 9dbc e479 d7bc a05b 34be c028 f4bc
000000c0: d4db 243d 5ad5 0a3b 6c6d 523d eb04 dbbc
000000d0: 48b2 b7bd e293 023e c9ef a23d 6dbf f23d
000000e0: f7f9 5dbd 705c 023d 6650 313e bb9a 75bd
000000f0: 8668 ae3d 2bf5 cf3d 2eaa 333e 879a 8b3d
00000100: 20d7 6b3d 3963 17bb 86fd 94bd 8b65 873d
00000110: 113b 1d3e 6c2f 8ebc 081d 463d 2f98 113d
00000120: 7e8e 2dbc bf03 b1bd 3472 1fbd 3df7 3abe
00000130: 2653 ec3c bb21 62be 6a4a 5f3d 726f 093e
00000140: b949 cc3d 0183 df3c 398a 6dbc dccb 36bd
00000150: 605d fdbd 3087 90bd e3d5 de3d 2a7b 483c
00000160: ea62 09bd aedd 2c3e f9cb a9bd c3a3 edbb
00000170: 2dec 263e 0987 acbe 1db9 d33d ae2c c33d
00000180: 8b18 063e 667d 64bd 622a 353d a5e4 673d
00000190: f6c4 003e c9cc febd 6915 41bd a23a 263c
000001a0: efd7 b53d a6c3 ff3d c8af 1e3e 0681 99bd
000001b0: 4977 9f3c 8b6f ccbc de99 64be bd93 4c3d
000001c0: 6058 e13a 893c 573d 2074 ea3d fe54 b3bc
000001d0: 63f8 85bd 4e15 a23b f1fc a83d fc0a babc
000001e0: ebb6 26be a741 16bb dd95 043e c9b4 c1be
000001f0: df2f 183c 8e46 94bd 5d91 57bd 2e8a a33d
00000200: 6280 a9bd de77 543d 7ad9 443e bcaf 08be
00000210: 95cc 44be 7a0c bebd 16c4 1bbe f0fb 1ebe
00000220: fec9 0bbe 0b5f 213e a291 3e3d 90ed fc3d
00000230: 5b71 03be ea6b 223e 143d 8fbd d7e2 2e3d
00000240: fc1b 46bd 83a9 133e 00db 1d3e 860c 70bd
00000250: f220 8fbc 31d4 373e 9259 33be 1431 913d
00000260: 4339 3bbe 35db 303e 340b 0ebe dc94 ec3c
00000270: 356d dd3d fe65 4d3e 60db 0b3e 54e7 ab3d
00000280: d084 42be 0ffe 033d 173b 343e 7f8d cebd
00000290: a5a0 223e d35f 18be d183 dfbd 8038 2f3e
000002a0: 1446 b43d 69e4 463e d746 35bd 4e08 c7bd
000002b0: bf51 81bd 9595 343e e6d2 1f3e 1da5 e1bd
000002c0: 4198 2fbd 685c b93c f47e db3c fb5f 8dbd
000002d0: 5ec7 1ebd b2c5 82bd 8a9e 49be f995 5bbe
000002e0: a9a8 1f3e 9997 043e 1da5 1fbe 80b5 a33e
000002f0: 6782 04be 54ef 323e 8e82 4ebe a39b 04bd
00000300: 9d1c 0fbe ee8a 093e 6fbd 1d3e 79ef c33d
00000310: 79cd 3c3e a6ac e6bd c805 493e 8003 563e
00000320: 9456 503d bc1f 78bd b1af 703d 6d7b d7bc
00000330: e613 d23c cdcb 50be 0985 2fbd ce10 05bc
00000340: 19d5 0e3e e55f 45bd 9fa9 803d 0ecd 143e
00000350: ed8e 00be b40b a9bd 9392 ec3d 45a6 193d
00000360: 7c7d 433e 0809 ae3d c850 f23c a371 1c3d
00000370: 9f1a 333e 8290 a2bd 79a7 2ebc d698 d43d
00000380: a06f 263d 5630 3cbd b576 babc e3fa 61bd
00000390: 5b63 aa3d 8741 8d3c defb 1e3e 0a5a 593e
000003a0: 3c65 0abc f51d 8e3d 0f46 ad3c d36b ecbc
000003b0: 6cee f33d da08 2cbd ee0b 26be 1033 a33d
000003c0: aecc 63bc 2299 183d 978e 2bbc 746e 403e
000003d0: 5c70 1dbd 23c0 92bd 6fa0 e23d 23b5 613e
000003e0: 7144 7fbd ec1f 493d ae65 683c 910a 49be
000003f0: 381e 023e df67 3bbd 1ab0 babb 243f 29bd

lstm.weight_hh_l0 f4 [256, 64]
0.12479092 -0.008525644 0.067955926 -0.10056983 -0.087245055 0.13344102 0.13637549 0.01695104
0.039352152 0.064465694 -0.041863248 0.0031987925 0.08105453 -0.050211146 -0.11704967 0.116089806
-0.09611823 0.023592656 0.037312403 -0.041493356 0.024974933 0.07517634 0.00086849637 -0.07782052
-0.001499553 0.038830496 0.006479376 0.07381095 0.112940505 0.0032437053 0.027644534 -0.035075292
-0.02515384 0.033260364 -0.008112639 0.08478982 0.035154987 0.018446488 -0.06488844 0.017637925
0.106471725 0.02739398 0.08321729 0.017623378 0.014175703 0.05202051 -0.0825737 -0.05619824
0.093183756 -0.038259506 -0.06431782 0.033782866 0.007557751 0.028997468 -0.100496165 -0.09809422
0.009380355 -0.041780185 0.10339953 0.033149738 0.13669944 -0.0031942881 0.14388838 -0.117883325
-0.06613089 0.0675107 0.102439955 0.061955374 0.04794791 -0.08509219 0.11023197 0.017582385
-0.07904888 -0.03666194 -0.030088108 0.0044397684 -0.031301092 -0.024502173 0.03746887 -0.122499056
-0.08975188 -0.07153693 -0.010960631 -0.013639404 -0.039715916 0.028920656 0.03343207 -0.060792092
-0.0643645 0.09911925 -0.0564424 0.059666067 -0.01898143 -0.09598873 -0.09920147 0.05225801
0.13455708 0.08811741 0.070485555 -0.007263917 -0.119892955 0.04880511 -0.033473004 -0.054819643
0.063721426 0.057564437 0.09691664 -0.025554612 0.11683905 -0.033531275 0.12733078 -0.036463026
-0.08551897 -0.0688819 -0.046462458 0.07185878 -0.09343303 0.09795992 -0.101635516 -0.06273886
0.06446008 -0.09777844 0.09038081 -0.04407226 -0.020542195 -0.117726296 -0.034550868 -0.022272442
0.016551467 -0.014014422 0.09403522 0.060966957 0.009190225 0.18515676 -0.06496384 0.05956901
-0.11380563 -0.067364514 0.18867105 -0.03687768 -0.07701499 -0.1839811 0.0026231392 -0.06778137
-0.13881847 0.0080833845 -0.017057754 0.036324214 -0.008100614 0.124972336 0.00018862562 0.12473362
-0.15033224 0.099378124 -0.018692793 -0.019356718 0.17376068 -0.23083714 -0.00737047 0.1498704
-0.117915265 0.05093604 -0.014649403 -0.07788006 -0.0018881076 -0.10752177 -0.064124025 0.07611607
0.13794638 -0.054268554 0.036462616 0.08936149 -0.022791492 0.056909095 -0.014580132 -0.07135534
-0.09423088 0.054846823 0.001626947 -0.050514366 0.09824254 0.0134422425 -0.12323885 0.0206036
-0.076791525 0.121307135 0.012178307 -0.14435223 0.049840678 -0.09544975 -0.0016311731 0.021985348
-0.070008725 0.03837135 -0.12011525 0.06795961 -0.12374929 0.10252569 0.071990386 0.060548224
0.022238608 0.10768058 0.017108522 0.04909809 0.0025883925 -0.21534707 0.08350143 -0.0602162
0.080305 -0.011712505 0.13340685 -0.06051279 -0.0005915354 -0.03065668 0.035625596 -0.0051498734
-0.022564886 -0.087534316 -0.11637262 -0.122373626 0.023177894 -0.06160897 -0.013969648 -0.010690701
0.0023542973 0.09556225 0.015645597 0.02051988 0.07092293 -0.0081044445 0.09677121 -0.04742284
0.027152464 0.050877802 0.053936016 0.09192583 -0.12957273 -0.05146807 -0.06848914 0.069677286
-0.259165 -0.07215894 -0.09021385 0.08947906 -0.04929221 -0.12628223 -0.052147802 0.08748293
-0.043722108 0.033416327 0.04787092 -0.2117531 0.06931958 0.056460943 0.093934685 -0.07437784
00000000: 6292 ff3d 25af 0bbc 7a2c 8b3d 8ef7 cdbd
00000010: 89ad b2bd c3a4 083e 04a6 0b3e e8dc 8a3c
00000020: b92f 213d 9706 843d cc78 2bbd d5a2 513b
00000030: ebff a53d 34aa 4dbd bdb7 efbd 7ec0 ed3d
00000040: a2d9 c4bd 6345 c13c e4d4 183d f0f4 29bd
00000050: 3b98 cc3c 0ef6 993d ceab 633a 5d60 9fbd
00000060: a68c c4ba ba0c 1f3d f250 d43b 322a 973d
00000070: 5a4d e73d 5894 543b ca76 e23c 1cab 0fbd
00000080: 6d0f cebc 053c 083d e0ea 04bc 49a6 ad3d
00000090: adfe 0f3d 171d 973c 3be4 84bd 697d 903c
000000a0: d90d da3d 5769 e03c d46d aa3d e75e 903c
000000b0: 3541 683c 7513 553d 661c a9bd 2030 66bd
000000c0: 20d7 be3d 00b6 1cbd 10b9 83bd e75f 0a3d
000000d0: 03a7 f73b 198c ed3c efd0 cdbd 9fe5 c8bd
000000e0: 0fb0 193c b321 2bbd 22c3 d33d 05c8 073d
000000f0: f0fa 0b3e 4357 51bb 7a57 133e d06c f1bd
00000100: a26f 87bd 0d43 8a3d 0acc d13d ebc4 7d3d
00000110: 0765 443d d044 aebd 4dc1 e13d ef08 903c
00000120: 61e4 a1bd d52a 16bd 567b f6bc 7a7b 913b
00000130: 9335 00bd c8b8 c8bc f578 193d c9e0 fabd
00000140: d5cf b7bd f481 92bd 3894 33bc cf77 5fbc
00000150: 28ad 22bd 03eb ec3c 11f0 083d 2101 79bd
00000160: 89d1 83bd 09ff ca3d 2530 67bd 6864 743d
00000170: f27e 9bbc bd95 c4bd 242a cbbd 7f0c 563d
00000180: 55c9 093e e776 b43d bb5a 903d 2706 eebb
00000190: 708a f5bd dee7 473d fd1a 09bd 908a 60bd
000001a0: 6180 823d b0c8 6b3d 3b7c c63d e857 d1bc
000001b0: 5049 ef3d 1758 09bd 0063 023e 415a 15bd
000001c0: 9224 afbd f411 8dbd 6b4f 3ebd b22a 933d
000001d0: d159 bfbd 369f c83d 4826 d0bd 3b7d 80bd
000001e0: a503 843d 1040 c8bd 9319 b93d 1d85 34bd
000001f0: 1b48 a8bc 7c1a f1bd 3685 0dbd b274 b6bc
00000200: f196 873c bf9c 65bc 8a95 c03d 7db8 793d
00000210: 9992 163c bc99 3d3e c30b 85bd a2fe 733d
00000220: ed12 e9bd 68f6 89bd fc32 413e 0d0d 17bd
00000230: 09ba 9dbd 8b65 3cbe f9e8 2b3b f5d0 8abd
00000240: 6e26 0ebe 2c70 043c b4bc 8bbc b3c8 143d
00000250: 70b8 04bc 7ff1 ff3d cec9 4539 5774 ff3d
00000260: b2f0 19be c286 cb3d a121 99bc fb91 9ebc
00000270: 52ee 313e 9260 6cbe fc83 f1bb a077 193e
00000280: 8f7d f1bd 4fa2 503d 0d04 70bc 957f 9fbd
00000290: 617a f7ba 6034 dcbd 7553 83bd bee2 9b3d
000002a0: d141 0d3e b448 5ebd d359 153d 2803 b73d
000002b0: 39b5 babc 8319 693d 82e1 6ebc c022 92bd
000002c0: 1ffc c0bd 10a7 603d 483f d53a 27e8 4ebd
000002d0: 6333 c93d da3c 5c3c a664 fcbd e2c8 a83c
000002e0: e044 9dbd e06f f83d 8687 473c 12d1 13be
000002f0: bd25 4c3d 297b c3bd 16cd d5ba 9e1a b43c
00000300: bc60 8fbd 472b 1d3d fcfe f5bd 682e 8b3d
00000310: 4570 fdbd fdf8 d13d b26f 933d 6a01 783d
00000320: be2d b63c a387 dc3d 2c27 8c3c 141b 493d
00000330: 05a2 293b f183 5cbe cc02 ab3d 43a5 76bd
00000340: f376 a43d cee5 3fbc ce9b 083e 42dc 77bd
00000350: 4511 1bba b823 fbbc 25ec 113d 45c0 a8bb
00000360: ffd9 b8bc 3145 b3bd c554 eebd 069f fabd
00000370: 91df bd3c b059 7cbd f3e0 64bc 0d28 2fbc
00000380: 8e4a 1a3b 24b6 c33d 322b 803c 4f19 a83c
00000390: 0b40 913d 81c8 04bc fc2f c63d 743e 42bd
000003a0: d86e de3c 3e65 503d 03ec 5c3d 9c43 bc3d
000003b0: b7ae 04be 2fd0 52bd 0944 8cbd f7b2 8e3d
000003c0: 46b1 84be 11c8 93bd 0ac2 b8bd cc40 b73d
000003d0: a1e6 49bd 2150 01be ef98 55bd 402a b33d
000003e0: f415 33bd 8fdf 083d 4c14 443d ced5 58be
000003f0: 6df7 8d3d 9743 673d d460 c03d 6953 98bd

lstm.bias_ih_l0 f4 [256]
0.058480218 0.06202454 0.019815885 0.074756116 0.079342745 0.004521164 0.019684017 0.1384637
-0.02192239 0.07295977 -0.11720914 0.02832627 0.115627795 0.1237051 -0.10817924 -0.033038873
-0.03312507 0.05047704 0.016257053 -0.018061362 -0.055754427 0.018865833 0.17437942 -0.019522613
-0.08348351 0.026205992 0.0052278517 -0.029534278 0.084269695 0.09292836 -0.10106559 0.09087239
-0.06266834 -0.057138525 -0.0090903845 0.03767763 0.052154057 0.17144834 0.048588905 0.100094035
-0.059911378 0.04121037 0.053430893 -0.08656164 0.03079641 0.12018664 0.07681074 -0.017551102
-0.12237652 0.056726977 -0.0064004334 -0.09012646 -0.034514133 -0.1072233 0.09517176 0.031377736
0.110383585 0.057200108 0.008871324 0.3737553 0.1338679 0.1474423 0.15504028 0.026155533
-0.15250392 0.008451152 -0.014174057 0.0351275 0.04154494 -0.09810545 -0.078720145 0.06793772
0.11749359 0.11819732 0.0040458613 -0.10969384 -0.018668795 -0.038167812 -0.08023887 0.017718175
-0.11820261 -0.12345331 0.0603347 -0.028983044 0.0857256 -0.08009383 -0.07751871 -0.08277994
-0.012707091 -0.08648296 0.08627219 -0.09921642 0.07169056 -0.14204903 -0.029999325 -0.14742534
0.017503295 -0.060063947 -0.010223635 -0.05908182 -0.053050473 -0.11599553 0.10294315 0.03324016
-0.034427457 -0.03653801 -0.013675367 -0.019641176 -0.03959185 -0.0027515013 -0.115958735 0.11143236
0.044506747 -0.12439737 -0.067331366 0.009695398 0.04899974 0.035358228 0.034042966 0.037939187
-0.024751052 0.028844494 -0.05154936 0.072860666 0.083590105 0.08910481 -0.015260027 -0.07137506
-0.025121037 0.048548836 0.022966938 0.019314392 0.07172287 0.070142336 0.07682982 -0.05235799
-0.072214745 -0.08496405 0.093755916 -0.10813548 -0.01887444 0.0096719945 0.098762505 0.053654842
0.012236139 0.008703257 0.048235804 -0.0029301 -0.053842578 -0.053403426 0.09462402 -0.027587103
-0.037870582 0.024929792 -0.033857647 -0.0866122 0.09529871 -0.04320954 0.09759799 0.08645603
-0.020675018 -0.039715957 0.011064161 -0.017920924 0.097554274 0.08321323 -0.052006364 0.07346442
0.027771652 -0.054338764 -0.089125015 0.027594924 -0.014137457 0.089213975 -0.055037256 0.12855712
-0.066122934 -0.09758726 0.096865706 -0.07394906 0.09878565 -0.027350929 0.03919684 0.041856024
-0.08328911 0.065948196 0.013626271 -0.15170747 0.026030527 -0.12878354 0.10284093 0.037145443
0.079514496 0.036012597 0.16857167 0.13807368 0.042300757 -0.022087308 -0.06800795 0.009662481
-0.057285573 -0.001992703 0.0895115 -0.060080845 -0.10794822 0.15511926 -0.04402206 -0.021283552
-0.10800555 0.14810175 -0.05906502 -0.064979486 -0.06345357 -0.068766594 -0.036575023 -0.06969558
0.15805842 -0.05436937 -0.0052985386 -0.1763608 -0.047022 0.15475231 -0.041469917 0.049786035
0.08466327 -0.09583746 0.08581306 -0.06859781 0.09158256 0.0011212275 0.03872527 0.10896146
0.08804314 0.13124356 0.0025833459 -0.11254375 -0.045060076 -0.018857604 0.12414848 -0.05915767
0.036141634 0.0671808 -0.019048734 -0.07663114 -0.07995562 -0.03893892 0.09802958 0.039739657
-0.09472496 0.036337197 0.11564682 0.23711811 0.09510275 -0.005320494 0.034747873 -0.0441365
00000000: f488 6f3d 720d 7e3d ec54 a23c bc19 993d
00000010: 737e a23d 4626 943b 6040 a13c 6ec9 0d3e
00000020: 9696 b3bc ef6b 953d 580b f0bd 7e0c e83c
00000030: 44ce ec3d 1959 fd3d 148d ddbd c553 07bd
00000040: 27ae 07bd 03c1 4e3d 832d 853c 6cf5 93bc
00000050: c15e 64bd 858c 9a3c 8590 323e e3ed 9fbc
00000060: 67f9 aabd f3ad d63c 664e ab3b dff1 f1bc
00000070: 9795 ac3d 3951 be3d 7afb cebd 4e1b ba3d
00000080: 4258 80bd 160a 6abd d6ef 14bc dc53 1a3d
00000090: 7e9f 553d 2790 2f3e 2905 473d 1afe cc3d
000000a0: a265 75bd 34cc 283d 5ada 5a3d 3b47 b1bd
000000b0: c148 fc3c 6a24 f63d f34e 9d3d 54c7 8fbc
000000c0: 8aa0 fabd 8c5a 683d baba d1bb 3994 b8bd
000000d0: b15e 0dbd e497 dbbd 69e9 c23d f185 003d
000000e0: ca10 e23d a94a 6a3d 0859 113c db5c bf3e
000000f0: ab14 093e 1dfb 163e e1c2 1e3e 2144 d63c
00000100: fd29 1cbe b376 0a3c 4e3a 68bc dae1 0f3d
00000110: 072b 2a3d 83eb c8bd 0738 a1bd ee22 8b3d
00000120: 7ba0 f03d 7011 f23d 2593 843b 2aa7 e0bd
00000130: 4def 98bc da55 1cbd 4754 a4bd b525 913c
00000140: 3614 f2bd 17d5 fcbd 8521 773d d96d edbc
00000150: e790 af3d 3c08 a4bd 21c2 9ebd 8788 a9bd
00000160: 6731 50bc fa1d b1bd 79af b03d fa31 cbbd
00000170: 80d2 923d 4d75 11be 25c1 f5bc abf6 16be
00000180: 1263 8f3c 9d05 76bd 0881 27bc c7ff 71bd
00000190: 744b 59bd 108f edbd dcd3 d23d d626 083d
000001a0: ce03 0dbd e1a8 15bd a60e 60bc 88e6 a0bc
000001b0: 102b 22bd 8852 34bb c67b edbd a636 e43d
000001c0: b54c 363d 0cc4 febd 07e5 89bd 72d9 1e3c
000001d0: f4b3 483d cad3 103d a370 0b3d 1f66 1b3d
000001e0: b8c2 cabc 4a4b ec3c 6c25 53bd f937 953d
000001f0: 4a31 ab3d 957c b63d 3105 7abc 162d 92bd
00000200: a2ca cdbc 25db 463d 2925 bc3c 3739 9e3c
00000210: 71e3 923d c9a6 8f3d f458 9d3d 5575 56bd
00000220: 53e5 93bd a201 aebd 1a03 c03d 2276 ddbd
00000230: 929e 9abc 4977 1e3c ff43 ca3d 2ec5 5b3d
00000240: 167a 483c 1b98 0e3c e892 453d ec06 40bb
00000250: 098a 5cbd 8dbd 5abd 3dca c13d 59fe e1bc
00000260: 2f1e 1bbd 9039 cc3c 51ae 0abd bd61 b1bd
00000270: f82b c33d 7dfc 30bd 74e1 c73d dc0f b13d
00000280: a85e a9bc 33ad 22bd 7446 353c e7ce 92bc
00000290: 89ca c73d b36b aa3d a004 55bd 8474 963d
000002a0: 6081 e33c 5392 5ebd 2d87 b6bd c00e e23c
000002b0: cba0 67bc d1b5 b63d bf6e 61bd 7aa4 033e
000002c0: 766b 87bd d4db c7bd 8761 c63d 9b72 97bd
000002d0: 2250 ca3d 0e0f e0bc de8c 203d 3971 2b3d
000002e0: 7b93 aabd d90f 873d b940 5f3c 3459 1bbe
000002f0: f93d d53c d5df 03be 449e d23d d225 183d
00000300: 7fd8 a23d f281 133d 0d9e 2c3e 3063 0d3e
00000310: 8f43 2d3d 71f0 b4bc c147 8bbd 624f 1e3c
00000320: 47a4 6abd 0298 02bb ce51 b73d 5517 76bd
00000330: f513 ddbd 95d7 1e3e 7a50 34bd d85a aebc
00000340: 0432 ddbd fca7 173e 2aee 71bd f713 85bd
00000350: f2f3 81bd 80d5 8cbd b1cf 15bd 8ebc 8ebd
00000360: 11da 213e 6bb2 5ebd 5d9f adbb ed97 34be
00000370: 249a 40bd 6477 1e3e 5cdc 29bd 71ec 4b3d
00000380: f063 ad3d 6e46 c4bd c2be af3d 027d 8cbd
00000390: a38f bb3d 27f6 923a 649e 1e3d 3027 df3d
000003a0: f64f b43d b664 063e 5a4d 293b 567d e6bd
000003b0: ea90 38bd 437b 9abc 8f41 fe3d 504f 72bd
000003c0: 4009 143d 1696 893d 170c 9cbc caf0 9cbd
000003d0: c6bf a3bd 6b7e 1fbd bcc3 c83d 0dc6 223d
000003e0: 29ff c1bd 50d6 143d 3dd8 ec3d 17cf 723e
000003f0: 3bc5 c23d 8a57 aebb c953 0e3d 7ac8 34bd

lstm.bias_hh_l0 f4 [256]
0.06151309 -0.14087865 0.16244455 -0.032735858 0.075614445 -0.061110403 0.12422401 0.05496758
-0.066181205 0.14304693 0.00051687134 -0.07980602 -0.020496057 0.17667922 0.020194799 0.07580551
0.012340343 0.043634433 -0.024895461 0.018379759 -0.09331974 0.10517181 0.13303985 -0.008651892
0.018092267 -0.05455043 0.1330709 -0.06739967 -0.112543784 0.14937028 -0.002688553 -0.05817969
0.012989158 -0.11999678 0.13132554 0.09043383 0.05041366 0.08717575 -0.0068450025 -0.030563803
0.10677843 0.16790427 -0.04777187 0.044436067 0.079483025 0.009781829 0.15707038 0.08342946
-0.114715844 -0.12948926 0.008552922 0.10438592 0.06512122 0.06932065 0.1584003 0.056572165
0.1035184 -0.10341124 0.10836922 0.39735225 0.10876683 0.0013311799 0.028750371 0.009205715
0.06297395 -0.019644637 -0.054110266 -0.0117194215 -0.08000804 0.08689942 0.082358934 -0.1226124
-0.06802838 0.11509389 0.003287637 0.04024527 0.083015494 0.10486888 -0.11703142 0.060434118
-0.016459638 -0.08625867 -0.094412126 -0.11254987 -0.039404795 0.08028367 0.074336894 -0.039690927
-0.08548204 -0.103998736 -0.005605005 -0.0021808774 0.03134233 -0.060713727 0.029090213 -0.1506796
0.07873319 -0.032151986 0.056484904 -0.102264814 0.049947247 0.08421691 -0.08973767 0.09362465
-0.040646456 -0.075398885 -0.06418072 0.0694426 -0.058845006 -0.067025706 -0.056626078 0.121603385
0.09181358 0.06393932 -0.051486626 -0.12360722 0.0008142716 0.080277175 -0.09610223 -0.07776205
-0.12971862 0.03984716 -0.02938067 0.007622299 -0.081820324 0.117049076 0.0694171 0.09847529
0.09917489 -0.07979159 -0.05558722 0.066055246 -0.031602286 -0.00070729357 -0.042615302 0.041314606
0.08213774 0.07481758 -0.035118654 0.043516178 0.009557135 -0.052773654 0.09465126 0.04755102
-0.07746696 0.06597662 0.021192627 -0.008587665 0.029339172 -0.054900933 -0.011276391 0.09761246
0.07683026 0.056459676 0.012922892 0.10618361 0.116025 -0.027913032 -0.041721914 -0.013189947
-0.083383664 0.047663692 -0.07885723 -0.014416669 0.023665866 0.01727116 0.023980813 -0.050673243
0.055350948 -0.0093530975 -0.08762298 0.07283939 -0.09250144 -0.114290036 -0.07400841 -0.040075596
-0.062262964 0.0140421 -0.103663005 -0.03285751 0.013535245 -0.08125947 -0.05180247 -0.083306216
-0.06728981 0.07660458 -0.02681898 0.043543115 -0.07007714 0.051217716 0.026483264 -0.004688895
0.11774123 -0.13149938 0.1331061 0.15667365 0.13075541 -0.06896553 -0.003820084 0.11950784
0.055005435 -0.015374056 -0.1329698 -0.06712637 -0.019993188 0.077212535 -0.077484205 0.05607617
0.080369756 0.07654763 0.11646595 0.08802041 -0.12316277 0.15347691 0.038081143 0.09533495
0.04939439 0.0067617157 0.1211815 0.01725895 -0.04213828 0.1628599 0.108412124 -0.08467547
-0.054300077 -0.071349815 0.10871577 0.10428968 0.050267745 0.10003548 0.083841845 0.12799335
-0.056933675 0.06854616 0.09186575 -0.04167528 -0.11152961 0.14124721 -0.018128745 0.00912491
0.0033435712 -0.022828016 0.021267964 -0.081385024 -0.046334434 0.04605106 -0.0018849226 -0.016104005
0.050580867 -0.085269265 0.06486187 0.23686425 -0.09167274 -0.071523465 -0.01802766 0.049673155
00000000: 26f5 7b3d 7e42 10be dd57 263e 0916 06bd
00000010: bfdb 9a3d e74e 7abd 2869 fe3d af25 613d
00000020: 038a 87bd e57a 123e a67e 073a 5771 a3bd
00000030: 59e7 a7bc 66eb 343e 906f a53c eb3f 9b3d
00000040: 262f 4a3c 05ba 323d 91f1 cbbc 2691 963c
00000050: 6b1e bfbd 5164 d73d 993b 083e aac0 0dbc
00000060: 3c36 943c 4670 5fbd bd43 083e d708 8abd
00000070: 5b7d e6bd 86f4 183e 6f32 30bb d44d 6ebd
00000080: 7ad0 543c dfc0 f5bd 347a 063e 5f35 b93d
00000090: 8e7e 4e3d 3389 b23d 0b4c e0bb f160 fabc
000000a0: a6ae da3d 19ef 2b3e 70ac 43bd 9802 363d
000000b0: ffc7 a23d f743 203c 0fd7 203e 11dd aa3d
000000c0: 24f0 eabd d598 04be 8e21 0c3c 49c8 d53d
000000d0: 465e 853d fcf7 8d3d b033 223e 37b8 673d
000000e0: 7401 d43d 46c9 d3bd aef0 dd3d c171 cb3e
000000f0: 25c1 de3d fc7a ae3a e685 eb3c 91d3 163c
00000100: 7cf8 803d caed a0bc baa2 5dbd d102 40bc
00000110: 41db a3bd 53f8 b13d cdab a83d 361c fbbd
00000120: 7752 8bbd 58b6 eb3d 6575 573b 39d8 243d
00000130: 0704 aa3d 7fc5 d63d 2bae efbd c489 773d
00000140: 5dd6 86bc 63a8 b0bd 255b c1bd 8c80 e6bd
00000150: ec66 21bd c46b a43d f13d 983d f492 22bd
00000160: 3511 afbd 4afd d4bd 31aa b7bb 0ded 0ebb
00000170: d160 003d f5ae 78bd 994e ee3c c14b 1abe
00000180: de3e a13d cdb1 03bd b75c 673d 3770 d1bd
00000190: 7c95 4c3d ea79 ac3d 62c8 b7bd 48be bf3d
000001a0: e67c 26bd bb6a 9abd 2e71 83bd ec37 8e3d
000001b0: 7607 71bd c644 89bd bff0 67bd 320b f93d
000001c0: c208 bc3d 9ef2 823d a4e3 52bd c825 fdbd
000001d0: d874 553a 5c68 a43d 3fd1 c4bd b641 9fbd
000001e0: f5d4 04be c736 233d bbaf f0bc 7ac4 f93b
000001f0: 6a91 a7bd 6db7 ef3d 8d2a 8e3d 6aad c93d
00000200: 341c cb3d c669 a3bd 6daf 63bd f947 873d
00000210: 6671 01bd ab69 39ba 628d 2ebd 8139 293d
00000220: d537 a83d f639 993d 94d8 0fbd 053e 323d
00000230: 8895 1c3c 3029 58bd 85d8 c13d dcc4 423d
00000240: ffa6 9ebd c01e 873d 299c ad3c 47b3 0cbc
00000250: b458 f03c cddf 60bd 9dc0 38bc 0be9 c73d
00000260: 2f59 9d3d 4342 673d 8aba 533c cb76 d93d
00000270: 849e ed3d dfa9 e4bc 99e4 2abd a61a 58bc
00000280: 0ec5 aabd 013b 433d e67f a1bd e433 6cbc
00000290: ebde c13c 3f7c 8d3c 6973 c43c bf8e 4fbd
000002a0: adb7 623d bc3d 19bc ad73 b3bd d12c 953d
000002b0: 6571 bdbd e510 eabd b991 97bd 4f26 24bd
000002c0: 7307 7fbd d610 663c 454d d4bd 9995 06bd
000002d0: efc2 5d3c 5d6b a6bd d42e 54bd 739c aabd
000002e0: 3dcf 89bd dde2 9c3d 7ab3 dbbc 445a 323d
000002f0: 9b84 8fbd abc9 513d 6ef3 d83c 4da5 99bb
00000300: 5022 f13d c6a7 06be f74c 083e 0f6f 203e
00000310: bfe4 053e cd3d 8dbd 605a 7abb 87c0 f43d
00000320: 614d 613d 77e3 7bbc 3c29 08be 8d79 89bd
00000330: c1c8 a3bc 9b21 9e3d 0ab0 9ebd 20b0 653d
00000340: e698 a43d 01c5 9c3d b385 ee3d 0b44 b43d
00000350: c33c fcbd 0d29 1d3e f9fa 1b3d f83e c33d
00000360: c651 4a3d 6291 dd3b 022e f83d a462 8d3c
00000370: 3099 2cbd bfc4 263e 2d07 de3d 556a adbd
00000380: c269 5ebd da1f 92bd 60a6 de3d d495 d53d
00000390: 8de5 4d3d 67df cc3d 46b5 ab3d b010 033e
000003a0: 4933 69bd ee61 8c3d 1c24 bc3d b3b3 2abd
000003b0: a369 e4bd 1ca3 103e bc82 94bc a680 153c
000003c0: d11f 5b3b d201 bbbc 273a ae3c 31ad a6bd
000003d0: 2dc9 3dbd 09a0 3c3d 820f f7ba 8cec 83bc
000003e0: e22d 4f3d a7a1 aebd 4dd6 843d 8b8c 723e
000003f0: ebbe bbbd e57a 92bd beae 93bc 1476 4b3d

lstm.weight_ih_l1 f4 [256, 64]
-0.08572799 -0.07185456 0.035595722 -0.033143215 -0.01799388 0.02419723 0.07977779 -0.04134696
-0.06430391 -0.1784657 0.1166842 -0.17124511 0.03708909 0.020234717 -0.024766713 0.09309378
-0.053349957 0.09603247 0.021836046 -0.14784428 -0.087197974 -0.014795595 -0.016377611 0.0017170691
-0.12006038 -0.050081324 0.00326194 0.06687776 0.15877096 -0.22430852 0.12976006 0.09544294
-0.10238377 -0.006340045 0.10299451 -0.14222811 -0.032475542 0.12671728 -0.047869753 -0.018432561
0.09513875 -0.072437055 -0.15863743 -0.017076625 -0.038320187 -0.08494959 -0.19225985 -0.0025860546
0.078002006 -0.05083738 -0.03955828 -0.019672658 0.14096886 -0.01823692 0.10532848 -0.040984977
-0.14425115 0.06043371 0.08450258 -0.33730385 -0.09624302 -0.11111005 0.10994075 -0.093467176
-0.08596585 -0.09402517 0.092937745 -0.029428225 0.000620057 0.10256993 -0.08714419 -0.07595312
-0.051647484 0.016441505 -0.062309653 0.06399351 -0.006678323 0.10035332 -0.014372346 0.07654376
-0.08266729 -0.0378079 0.08693178 -0.06061361 0.06266051 0.042716205 -0.019621655 0.1250035
0.03321167 0.13321644 -0.15836108 0.03094858 0.0038421112 -0.03551254 -0.011519145 0.058719452
0.017955385 0.051195946 -0.020867143 -0.07597234 0.019403983 0.014372257 -0.12951837 -0.0147664165
-0.017753763 0.10946902 -0.05892196 -0.107233256 -0.06293232 0.014060098 -0.074476704 0.012942847
-0.08037554 -0.11999418 0.079557896 0.051652614 0.06370083 0.05291836 -0.13372551 0.00022390287
0.07850179 0.13500543 -0.011886678 0.11237632 -0.106090024 -0.052031487 -0.13664682 0.123616554
0.034754913 0.040895622 0.10608861 -0.03575884 -0.051690318 0.010705166 0.07251345 -0.102990195
-0.14207269 -0.0029154543 -0.0197663 -0.09045592 -0.13327749 -0.011939967 -0.07512399 0.02362255
0.021322846 0.0015846172 0.1009719 -0.098228805 -0.03205905 0.06382532 -0.074354835 -0.007637841
-0.07014287 -0.04486159 0.06703699 0.07370179 -0.08570397 -0.081469744 0.13451657 -0.083736256
0.06357841 -0.036044706 0.015884757 0.10417614 -0.08202095 -0.05526495 -0.097294055 -0.07373715
-0.08912057 -0.016255707 0.08329853 -0.05183767 -0.12543444 -0.06898741 -0.0437325 -0.076054014
-0.06806773 0.039124954 0.039084394 0.059135407 -0.08376503 -0.013561767 -0.09027982 -0.12538785
0.10595111 0.108192 -0.054309186 -0.044905145 0.08378166 0.07176276 -0.06630677 0.08417916
0.08815534 0.08987814 -0.19502875 0.062079597 0.114738144 0.01862642 0.1856733 0.12868445
0.0439282 -0.123416476 -0.0691159 -0.032127887 -0.05340798 -0.14804326 -0.08517013 0.0149243
-0.07983622 -0.03475839 -0.0890207 0.08694643 -0.024527986 -0.1034116 0.07489297 -0.03908614
0.19229774 -0.10217425 0.049590476 -0.049041178 0.056427438 -0.016787548 -0.104137026 -0.03911279
0.15523382 -0.0018485594 -0.053749613 0.07231837 -0.13260546 0.050731417 0.0084513035 0.078443445
0.013872858 -0.09407014 0.07121179 0.030254843 0.031079605 -0.15013617 0.035831485 0.11296972
-0.07977407 0.098168395 0.07178344 0.12358277 -0.07096681 0.12179094 0.06620258 -0.052120157
-0.153947 0.050023004 -0.031152232 0.011072314 0.035677902 -0.17678007 -0.0011655985 -0.13098714
00000000: 2892 afbd 7c28 93bd d2cc 113d 2ec1 07bd
00000010: e767 93bc 4539 c63c 8a62 a33d 6e5b 29bd
00000020: c5b1 83bd b6bf 36be 20f8 ee3d e15a 2fbe
00000030: bbea 173d 47c3 a53c 90e3 cabc f4a7 be3d
00000040: 7c85 5abd acac c43d 82e1 b23c 7e64 17be
00000050: da94 b2bd 3969 72bc 572a 86bc 470f e13a
00000060: 37e2 f5bd 1322 4dbd 46c6 553b 35f7 883d
00000070: db94 223e 22b1 65be d2df 043e 9777 c33d
00000080: 95ae d1bd 27c0 cfbb c9ee d23d 3fa4 11be
00000090: 1305 05bd 2dc2 013e 1313 44bd e2ff 96bc
000000a0: 1bd8 c23d e159 94bd da71 22be 47e4 8bbc
000000b0: a1f5 1cbd 0dfa adbd c4df 44be cc7a 29bb
000000c0: 84bf 9f3d db3a 50bd dd07 22bd 8e28 a1bc
000000d0: 245a 103e 9865 95bc 75b6 d73d dddf 27bd
000000e0: 93b6 13be 5789 773d b00f ad3d 17b3 acbe
000000f0: 0f1b c5bd aa8d e3bd 9e28 e13d b86b bfbd
00000100: dd0e b0bd 4590 c0bd 2556 be3d 7613 f1bc
00000110: 528b 223a 2f10 d23d a778 b2bd 4f8d 9bbd
00000120: 508c 53bd 56b0 863c 6838 7fbd 080f 833d
00000130: d5d5 dabb 0b86 cd3d fd79 6bbc fac2 9c3d
00000140: 784d a9bd 75dc 1abd 4a09 b23d fa45 78bd
00000150: 2754 803d 30f7 2e3d 98bd a0bc eb00 003e
00000160: f608 083d e469 083e 6829 22be e087 fd3c
00000170: eecb 7b3b 9975 11bd ccba 3cbc cf83 703d
00000180: 2c17 933c d7b2 513d 92f1 aabc 6397 9bbd
00000190: 1af5 9e3c 9d79 6b3c 77a0 04be d7ee 71bc
000001a0: 5770 91bc 4b31 e03d 2758 71bd 1c9d dbbd
000001b0: a9e2 80bd 535c 663c 3e87 98bd 3c0e 543c
000001c0: ee9b a4bd 82bf f5bd 40ef a23d b191 533d
000001d0: 9575 823d ecc0 583d 57ef 08be 78c7 6a39
000001e0: 8cc5 a03d dd3e 0a3e 57c0 42bc 8e25 e63d
000001f0: ba45 d9bd f81e 55bd 25ed 0bbe ad2a fd3d
00000200: 2b5b 0e3d 2b82 273d fc44 d93d dd77 12bd
00000210: 3ab9 53bd b864 2f3c ef81 943d 86ec d2bd
00000220: 817b 11be 3511 3fbb f0ec a1bc f440 b9bd
00000230: e579 08be da9f 43bc 9bda 99bd 1484 c13c
00000240: 40ad ae3c eeb2 cf3a 5bca ce3d 2f2c c9bd
00000250: 5a50 03bd d9b6 823d 5947 98bd db46 fabb
00000260: 11a7 8fbd c9c0 37bd b04a 893d f7f0 963d
00000270: 9085 afbd 9cd9 a6bd b6be 093e ea7d abbd
00000280: 6635 823d 9da3 13bd c020 823c 4d5a d53d
00000290: 9afa a7bd 805d 62bd 1b42 c7bd 8103 97bd
000002a0: d884 b6bd b02a 85bc 6b98 aa3d bd53 54bd
000002b0: e371 00be 4549 8dbd da20 33bd 35c2 9bbd
000002c0: 1867 8bbd 7d41 203d f516 203d f837 723d
000002d0: 008d abbd 2c32 5ebc a0e4 b8bd ac65 00be
000002e0: e5fc d83d c493 dd3d 4f73 5ebd 75ee 37bd
000002f0: b895 ab3d 5bf8 923d d8cb 87bd 2066 ac3d
00000300: c98a b43d 0812 b83d 9eb5 47be 2d47 7e3d
00000310: d5fb ea3d 6f96 983c 2421 3e3e dbc5 033e
00000320: 0eee 333d c7c1 fcbd a38c 8dbd 8898 03bd
00000330: 53c2 5abd a798 17be ad6d aebd 0d85 743c
00000340: 2c81 a3bd d05e 0ebd 7c50 b6bd f810 b23d
00000350: eaee c8bc 76c9 d3bd 7c61 993d ca18 20bd
00000360: b3e9 443e bc40 d1bd 621f 4b3d 67df 48bd
00000370: 7520 673d 0a86 89bc cb45 d5bd bc34 20bd
00000380: 9df5 1e3e 5c4b f2ba 8e28 5cbd a71b 943d
00000390: bac9 07be bfcb 4f3d 5677 0a3c f5a6 a03d
000003a0: fc4a 633c d8a7 c0bd 7dd7 913d 01d9 f73c
000003b0: a89a fe3c 4cbd 19be 09c4 123d ab5c e73d
000003c0: 9660 a3bd 830c c93d 3203 933d f718 fd3d
000003d0: 0c57 91bd 876d f93d 3895 873d f27b 55bd
000003e0: 48a4 1dbe ece4 4c3d f732 ffbc a768 353c
000003f0: fe22 123d d605 35be ffc6 98ba 7e21 06be

lstm.weight_hh_l1 f4 [256, 64]
-0.0016391175 -0.122344986 0.1672825 -0.06849975 0.12207542 0.012612104 0.095900975 -0.08663522
-0.1070899 -0.012966481 -0.09457127 0.08722055 -0.08331447 -0.059236467 0.06966905 -0.16251294
-0.007163737 -0.030302286 0.09676379 0.025830615 -0.057232868 -0.036459092 0.042414505 -0.15339217
0.02271973 -0.027363215 0.01917893 0.18650095 0.050496154 -0.02986934 -0.16127852 0.023534508
0.33403647 -0.004358825 -0.15329333 -0.116082445 0.036929358 0.04139201 0.0935942 -0.1579071
-0.09013957 -0.053594586 -0.028706262 -0.017609479 -0.026837435 -0.01529371 0.020222506 -0.014561423
0.051687766 0.019711506 0.091181934 -0.08019596 -0.20640336 -0.018128444 -0.08945114 0.1262853
-0.026786998 -0.115249485 0.0054640216 0.23269744 0.059477516 0.18083034 -0.47397536 0.057321798
0.051215954 -0.047525603 0.09047762 0.09742952 -0.06875557 -0.039997518 0.11059638 0.09683829
-0.05344159 0.07226238 0.10101001 -0.14217837 0.03914753 -0.12071404 0.07163865 -0.0779796
-0.025463836 0.17467733 0.15541711 0.0018058969 0.11109463 -0.043879587 0.021275096 0.10907838
-0.093505144 -0.12129631 -0.088186726 0.05087066 0.09083851 -0.10853254 -0.015664227 0.036842454
0.051673863 -0.027349416 0.07061738 0.023629438 -0.10606236 -0.013142851 0.0842473 -0.024949182
0.008835683 -0.031565934 0.10283165 -0.05461792 -0.079443246 0.08898323 -0.12922062 -0.08877867
0.0147871 0.049436595 0.027173959 0.1370656 -0.12335589 0.092281 0.05897107 0.034848195
-0.08927048 0.03055526 0.17296383 -0.048083033 -0.006947877 -0.036289163 0.05551087 -0.05051187
0.11137287 -0.10598331 0.073581435 0.018808017 -0.077658266 -0.06922836 0.03454915 -0.043633554
-0.1373121 -0.024058402 -0.049081925 0.09656703 0.08737088 0.014814966 0.11546371 -0.13580093
-0.011324221 0.09400164 0.051727105 -0.09317905 -0.12331846 -0.011276923 0.11366264 -0.06392525
0.09501375 0.02495277 0.072581775 0.102249354 -0.02319774 0.10895212 -0.01163677 -0.08627882
0.043733872 0.07829384 -0.052398648 0.046292346 0.025067722 -0.029621098 -0.030886853 -0.0027406767
0.113768 0.12878789 -0.026983282 0.072769344 -0.07447724 0.06777132 -0.10979969 0.070783645
0.0039044064 0.11554007 -0.07315176 0.08874553 0.051089033 0.07967154 -0.01578529 0.051587477
0.007350817 -0.10180858 0.16238162 0.1697561 0.06727525 0.11968104 -0.21256979 -0.006221132
0.025193917 -0.07307917 0.026839478 0.034289397 0.016934259 -0.12948453 -0.033591274 0.013254766
-0.11243602 0.0040282668 -0.055794783 -0.021915965 0.09242355 -0.07543678 -0.10239543 0.0043813405
-0.048314225 -0.11026303 0.054328606 -0.0058423653 -0.023714341 0.04191223 -0.09021018 -0.07115514
-0.01987714 -0.03278651 -0.024780935 -0.05266952 -0.08296816 0.052992716 -0.062745854 -0.015769191
0.056753717 -0.09889734 -0.052728113 0.049209718 -0.032832976 -0.07396901 0.08047423 -0.06263516
0.014841538 0.085884355 0.04904943 -0.09891987 -0.10681726 0.05078791 0.13115454 -0.030455058
0.08524539 0.07905445 0.0023534477 -0.060939807 0.046155315 0.024663853 -0.05890516 0.033764075
0.044235095 -0.10444734 0.070463724 0.0316434 0.11449254 0.12133322 -0.026232576 0.11122556
00000000: a8d7 d6ba 0290 fabd 1b4c 2b3e 9949 8cbd
00000010: ae02 fa3d 00a3 4e3c bb67 c43d ce6d b1bd
00000020: f351 dbbd 5d71 54bc 95ae c1bd b0a0 b23d
00000030: c7a0 aabd f0a1 72bd a6ae 8e3d cb69 26be
00000040: c8bd eabb 803c f8bc 182c c63d ba9a d33c
00000050: 036d 6abd 2156 15bd d5ba 2d3d d612 1dbe
00000060: ba1e ba3c d228 e0bc 221d 9d3c 1bfa 3e3e
00000070: 0ed5 4e3d 8cb0 f4bc 3226 25be 71cb c03c
00000080: d406 ab3e 79d4 8ebb edf8 1cbe a2bc edbd
00000090: 3d43 173d ab8a 293d 51ae bf3d 66b2 21be
000000a0: 189b b8bd ff85 5bbd 6529 ebbc c141 90bc
000000b0: 2eda dbbc 7892 7abc aba9 a53c 0993 6ebc
000000c0: 8db6 533d 067a a13c 98bd ba3d c83d a4bd
000000d0: 675b 53be 1a82 94bc 2932 b7bd ef50 013e
000000e0: 6870 dbbc ec07 ecbd 890b b33b 3d48 6e3e
000000f0: b29e 733d 972b 393e e6ac f2be 43ca 6a3d
00000100: d2c7 513d 35aa 42bd 554c b93d 2189 c73d
00000110: b8cf 8cbd 70d4 23bd 5b80 e23d 2753 c63d
00000120: 92e5 5abd 4cfe 933d 56de ce3d 3597 11be
00000130: 2959 203d ec38 f7bd 49b7 923d c5b3 9fbd
00000140: 8999 d0bc 9dde 323e aa25 1f3e d8b3 ec3a
00000150: 9585 e33d 15bb 33bd 1c49 ae3c 7c64 df3d
00000160: a07f bfbd 336a f8bd 3e9b b4bd c15d 503d
00000170: 8a09 ba3d 4f46 debd 4452 80bc 1de8 163d
00000180: f9a7 533d e20b e0bc d89f 903d 8692 c13c
00000190: 3937 d9bd 1d55 57bc d989 ac3d 3a62 ccbc
000001a0: 8ac3 103c 484b 01bd 6699 d23d 0ab7 5fbd
000001b0: 24b3 a2bd d73c b63d 6952 04be 97d1 b5bd
000001c0: 9845 723c 077e 4a3d ec9b de3c ed5a 0c3e
000001d0: 03a2 fcbd d2fd bc3d a68b 713d fbbc 0e3d
000001e0: 71d3 b6bd 064f fa3c 6e1d 313e b7f2 44bd
000001f0: 04ab e3bb f2a3 14bd 5e5f 633d 89e5 4ebd
00000200: 7617 e43d c70d d9bd ddb1 963d 4513 9a3c
00000210: 4c0b 9fbd 99c7 8dbd 6983 0d3d 19b9 32bd
00000220: 8b9b 0cbe 2016 c5bc 210a 49bd efc4 c53d
00000230: 81ef b23d 79ba 723c 3d78 ec3d 660f 0bbe
00000240: 3a89 39bc ef83 c03d cddf 533d a8d4 bebd
00000250: 648e fcbd d8c2 38bc f5c7 e83d 3eeb 82bd
00000260: 9296 c23d c069 cc3c c1a5 943d 1c68 d13d
00000270: 3009 bebc 4a22 df3d 27a8 3ebc f3b2 b0bd
00000280: 4a22 333d 8558 a03d f79f 56bd 0b9d 3d3d
00000290: d35a cd3c f2a7 f2bc 6d06 fdbc ed9c 33bb
000002a0: 32ff e83d f9e0 033e 0b0c ddbc 1808 953d
000002b0: 8687 98bd b1cb 8a3d a9de e0bd 04f7 903d
000002c0: 12e1 7f3b 46a0 ec3d 97d0 95bd 37c0 b53d
000002d0: bc42 513d d52a a33d 2750 81bc 644d 533d
000002e0: 1fdf f03b 0481 d0bd 5e47 263e 8bd4 2d3e
000002f0: 9bc7 893d 551b f53d e5ab 59be a3da cbbb
00000300: 7963 ce3c 88aa 95bd 77de db3c 0a73 0c3d
00000310: b7b9 8a3c 9897 04be 0197 09bd 852a 593c
00000320: db44 e6bd 8dff 833b 1289 64bd 1c89 b3bc
00000330: 8f48 bd3d 997e 9abd b2b4 d1bd 5991 8f3b
00000340: 23e5 45bd 95d1 e1bd ac87 5e3d 5071 bfbb
00000350: 9444 c2bc 29ac 2b3d 1dc0 b8bd c9b9 91bd
00000360: 62d5 a2bc 264b 06bd 6301 cbbc ffbb 57bd
00000370: 36eb a9bd e40e 593d e680 80bd 642e 81bc
00000380: 9676 683d b08a cabd 6ff9 57bd 2190 493d
00000390: df7b 06bd 107d 97bd accf a43d dd46 80bd
000003a0: ec29 733c 23e4 af3d 0ee8 483d 8096 cabd
000003b0: 02c3 dabd fc06 503d 604d 063e e37c f9bc
000003c0: 2395 ae3d 4de7 a13d 4d3c 1a3b 059c 79bd
000003d0: 5b0d 3d3d d90b ca3c 8946 71bd 334c 0a3d
000003e0: dc2f 353d 7de8 d5bd 494f 903d 839c 013d
000003f0: 117b ea3d 8d7d f83d b3e5 d6bc 3aca e33d

lstm.bias_ih_l1 f4 [256]
0.048189364 -0.024938663 -0.0061959736 0.0829103 0.078937784 -0.083390415 0.058358327 0.12542415
-0.035163775 -0.15762557 0.08589094 -0.07260976 0.12267595 0.030760365 -0.08621896 -0.052732445
0.13258372 0.13330024 0.036056828 0.07964086 0.06802121 -0.005374478 0.10057498 0.15183689
0.13044171 0.10424176 0.067521155 -0.069507875 0.08501685 -0.056821264 -0.029379338 -0.13631156
0.002776291 0.08314993 0.08331998 -0.07395356 0.0941325 -0.054537397 -0.016273063 0.07018906
-0.10053861 -0.041804913 0.026278239 0.120292164 0.09037003 0.0026584952 0.027423825 0.10956342
-0.09804059 0.13041939 0.1368628 0.3029358 0.292081 -0.0038120423 0.017873788 0.09293207
0.14210314 0.096294716 -0.05274399 0.10964359 0.05699747 -0.067921646 0.08960108 -0.0892177
-0.052536517 -0.017367588 0.04943336 -0.08643765 -0.052264974 0.038339283 0.020792844 0.024395758
0.07948112 -0.002617794 -0.04319405 -0.13613518 -0.08263084 -0.028777864 0.05333526 -0.1437308
0.043404017 -0.04867725 -0.035166245 -0.017685976 -0.00678747 0.103401825 -0.096435525 0.08560208
-0.019149287 -0.05638164 0.0005561663 -0.070925884 -0.04044072 -0.0049027526 -0.085882455 -0.12563427
-0.11843313 0.014501072 0.06343981 -0.05558511 0.03225686 0.1073276 0.09183025 -0.071602054
0.05052837 -0.0047128596 0.079067506 -0.0038058446 -0.082858734 -0.067012854 -0.12630367 0.07684637
-0.096670456 -0.15594344 0.013407797 -0.060874417 -0.18792386 0.011270793 0.11360258 -0.015694544
0.033218984 -0.014810946 -0.10666318 -0.007395967 -0.11729579 -0.026313536 0.20706373 -0.038979422
0.04500113 -0.038123515 -0.0043230304 0.0010954029 0.008820446 -0.021664161 0.10859442 -0.12165185
0.08271807 -0.07720721 -0.11813566 -0.08595003 -0.10445066 0.010510676 0.085794404 -0.045894068
0.090539396 0.016030323 0.07987045 -0.050998062 -0.015652351 0.06401532 -0.11479691 -0.08245649
-0.110999316 0.124647655 0.09124159 -0.021785134 0.055683587 -0.0008773547 -0.066903986 -0.0270651
-0.029289125 0.002417291 -0.10216169 -0.037898544 -0.00992928 0.021434512 0.084167376 -0.05680773
-0.07293119 -0.05910479 0.12240298 -0.028216945 -0.06773161 -0.12556545 -0.022730364 0.10442817
-0.09814414 0.10065818 0.014270436 0.054988675 -0.08423847 -0.076035015 -0.07685511 -0.049540658
-0.037594978 -0.108009815 0.06255074 -0.033353683 -0.061634347 -0.06604739 0.018101132 0.094040535
0.050058894 -0.029817153 0.12913957 0.06446574 0.060221482 0.07224608 -0.0516249 -0.07335866
0.15093012 -0.14825109 0.03987361 -0.019528022 -0.023523588 0.051086478 -0.09958 0.118153155
0.12023393 -0.07767564 0.124571905 0.009334808 0.10228094 0.07800133 0.01741842 0.12384668
-0.10087064 -0.108588986 0.08285425 0.09226485 -0.10466345 -0.022553777 0.1256069 0.05136396
-0.020676922 0.0996842 0.13304847 -0.054254703 0.15287091 0.013980083 0.005538671 0.13013461
-0.07323074 -0.07011501 -0.035684977 0.059032366 -0.032612167 -0.023873836 -0.036764104 0.13449669
-0.06322611 0.12031199 0.20797303 0.16614008 0.24042986 0.0027989387 -0.09087091 0.13475053
-0.055406332 0.0072938926 0.034634914 0.042516597 0.043406077 -0.036339868 0.095412806 0.05633912
00000000: 3662 453d 2b4c ccbc 9807 cbbb e0cc a93d
00000010: 22aa a13d 98c8 aabd 2409 6f3d 306f 003e
00000020: e407 10bd 9968 21be 97e7 af3d 6db4 94bd
00000030: 873d fb3d 29fd fb3c 9193 b0bd fafd 57bd
00000040: 07c4 073e dc7f 083e 53b0 133d bf1a a33d
00000050: b44e 8b3d 641c b0bb 41fa cd3d 217b 1b3e
00000060: 8392 053e b47c d53d 8848 8a3d 255a 8ebd
00000070: 501d ae3d 6abd 68bd f0ac f0bc 4295 0bbe
00000080: 6ff2 353b 834a aa3d aaa3 aa3d f774 97bd
00000090: 8ac8 c03d 9b62 5fbd 164f 85bc 48bf 8f3d
000000a0: 30e7 cdbd a13b 2bbd 7645 d73c bd5b f63d
000000b0: ec13 b93d 263a 2e3b eea7 e03c c962 e03d
000000c0: 81c9 c8bd a98c 053e c325 0c3e 671a 9b3e
000000d0: a48b 953e 75d3 79bb 0d6c 923c 2b53 be3d
000000e0: 7c83 113e 2a36 c53d 150a 58bd d28c e03d
000000f0: 2e76 693d 811a 8bbd c580 b73d c5b7 b6bd
00000100: 8830 57bd 7946 8ebc a37a 4a3d 3906 b1bd
00000110: cc13 56bd a709 1d3d c155 aa3c 9dd9 c73c
00000120: ffc6 a23d 4c8f 2bbb 3fec 30bd 0567 0bbe
00000130: 5c3a a9bd 8ebf ebbc 1376 5a3d 2b2e 13be
00000140: 69c8 313d cc61 47bd 7b0a 10bd 2ee2 90bc
00000150: 6d69 debb 56c4 d33d fd7f c5bd 2550 af3d
00000160: f7de 9cbc 6ff0 66bd b0cb 113a 9741 91bd
00000170: 2ba5 25bd 45a7 a0bb 24e3 afbd 45a6 00be
00000180: 128d f2bd e795 6d3c bbec 813d 36ad 63bd
00000190: c51f 043d 93ce db3d 8011 bc3d 19a4 92bd
000001a0: d6f6 4e3d 556e 9abb 25ee a13d 7a6b 79bb
000001b0: d7b1 a9bd 093e 89bd c055 01be a161 9d3d
000001c0: 29fb c5bd a3af 1fbe 60ac 5b3c 7457 79bd
000001d0: 1d6f 40be 22a9 383c 78a8 e83d d891 80bc
000001e0: a110 083d 9ca9 72bc 3a72 dabd de59 f2bb
000001f0: c638 f0bd 7c8f d7bc 8408 543e e3a8 1fbd
00000200: 1b53 383d 6727 1cbd 35a8 8dbb 9f93 8f3a
00000210: a283 103c 0a79 b1bc c066 de3d 9b24 f9bd
00000220: 1768 a93d d01e 9ebd 1cf1 f1bd 9206 b0bd
00000230: 3aea d5bd f834 2c3c fab4 af3d 6bfb 3bbd
00000240: b86c b93d 0652 833c 1e93 a33d 58e3 50bd
00000250: 5c39 80bc 771a 833d a41a ebbd f3de a8bd
00000260: 9c53 e3bd 4547 ff3d dfdc ba3d bd76 b2bc
00000270: 7914 643d 47fe 65ba f504 89bd a1b7 ddbc
00000280: bfef efbc 6a6b 1e3b 263a d1bd 813b 1bbd
00000290: 6bae 22bc 6e97 af3c f25f ac3d 39af 68bd
000002a0: f35c 95bd dd17 72bd 6aae fa3d 3927 e7bc
000002b0: dfb6 8abd 3b94 00be 0735 babc 70de d53d
000002c0: cbff c8bd e025 ce3d 8cce 693c ce3b 613d
000002d0: 3885 acbd 3fb8 9bbd 3666 9dbd 25eb 4abd
000002e0: 31fd 19bd 4034 ddbd 9a1a 803d df9d 08bd
000002f0: 4c74 7cbd db43 87bd d348 943c 5398 c03d
00000300: 8e0a 4d3d 1a43 f4bc 2a3d 043e 9d06 843d
00000310: cdaa 763d c1f5 933d a274 53bd 113d 96bd
00000320: 6d8d 1a3e 22cf 17be 8352 233d 3bf9 9fbc
00000330: 8ab4 c0bc 0e40 513d 99f0 cbbd 48fa f13d
00000340: 353d f63d 6814 9fbd 8e1f ff3d 06f1 183c
00000350: ab78 d13d 29bf 9f3d 13b1 8e3c 54a3 fd3d
00000360: 4495 cebd e763 debd 7daf a93d 5bf5 bc3d
00000370: ca59 d6bd b3c2 b8bc 189f 003e 0463 523d
00000380: a662 a9bc 3b27 cc3d dc3d 083e 2e3a 5ebd
00000390: 318a 1c3e b80c 653c bd7d b53b 0242 053e
000003a0: 00fa 95bd 7598 8fbd 692a 12bd eccb 713d
000003b0: 5694 05bd 1093 c3bc f595 16bd 80b9 093e
000003c0: b17c 81bd 2266 f63d e2f6 543e a020 2a3e
000003d0: 3f33 763e 666e 373b 871a babd 0bfc 093e
000003e0: c0f1 62bd 9b01 ef3b 57dd 0d3d e225 2e3d
000003f0: 92ca 313d 1dd9 14bd ca67 c33d d9c3 663d
