crypto_models/XRP_USD_lstm.pth (torch, 206101 bytes, 9 tensors)

lstm.weight_ih_l0 f4 [256, 1]
000000 32 b3 b8 3d 90 5a d1 3d 8d 36 ef bc f9 57 a3 bd
       0.09018554 0.102223516 -0.029200817 -0.07975764
000010 ed 05 d5 3d 91 4c 5e bd ba e3 29 3e fb 41 0c 3d
       0.10401521 -0.05427224 0.16590777 0.03424261
000020 3e 66 fa bd 0d 3f 91 3d fc b2 7c bd 4c e4 19 3d
       -0.122265324 0.07092104 -0.06169413 0.037571236
000030 83 a2 fe 3c bf 46 10 3c 81 f3 38 3d cf e6 20 3e
       0.031083351 0.00880593 0.0451541 0.15713046
000040 2d 57 96 3c 9f ae 66 3d f2 ab c1 bd 53 d9 9d bb
       0.018352116 0.056318875 -0.09456624 -0.004817167
000050 41 51 73 bd e4 1f a1 bd f6 73 b7 bd 66 fe 81 bd
       -0.05940366 -0.07867411 -0.08957665 -0.06347351
000060 ea a8 0d 3b ae b7 9a 3d 96 83 83 bd 18 c2 25 3c
       0.0021615573 0.07554565 -0.064215824 0.010117076
000070 64 31 94 3c 0e bc 18 3e a8 11 b0 3d a9 bc b2 bd
       0.018089958 0.14915487 0.08597118 -0.0872739
000080 2e 73 ce 3d 04 2f 98 bd 57 bd 5a 3d fd c4 0a 3c
       0.100805625 -0.074308425 0.053403225 0.008469817
000090 fd c1 2a 3e 0d 8d 15 3d 4e 66 0c 3d 35 8e 2e bc
       0.16675563 0.03651147 0.034277253 -0.010654022
0000a0 c5 cc 23 3e d9 0e 2e 3e d5 16 a9 3c 4b 1b 88 3d
       0.15996082 0.16997851 0.02064077 0.06645831
0000b0 4e a3 bc bb c4 6d 56 bd 8c 3e e5 3d 00 47 2a 3d
       -0.005756772 -0.052350774 0.111935705 0.041571617
0000c0 b3 09 80 bd 71 59 c8 3d 27 13 96 bd 57 60 2a 3b
       -0.0625185 0.097826846 -0.07327872 0.0025997364
0000d0 19 be ee bc 5e 62 39 bd 20 99 1e 3e 14 01 72 bb
       -0.02914338 -0.045259826 0.154881 -0.0036926912
0000e0 9f 19 e0 3d 17 80 0b 3e a4 9f 12 3e c4 36 86 3d
       0.10942387 0.13623081 0.1431871 0.065534145
0000f0 da b5 00 bd aa e2 ad bd 92 88 a6 bc 63 b2 82 3d
       -0.031423427 -0.08490498 -0.020328794 0.06381681
000100 04 64 47 bd a0 db 6c 3a e3 5f 07 3e b9 19 d0 bd
       -0.048679367 0.0009035412 0.13220172 -0.10161156
000110 00 ef 0a 3e 82 77 3c bd 29 a4 8c bd 5b 05 f7 3d
       0.13567734 -0.04601241 -0.068672486 0.12061568
000120 f6 4f a7 bd 9e 74 9a 3d 5c e7 1a bd 1f 09 1f 3d
       -0.08169548 0.07541774 -0.037818298 0.038827058
000130 96 7d ea 3d 99 74 9b bd 99 36 86 bb 64 77 27 3e
       0.11449735 -0.075905986 -0.004095864 0.16354138
000140 65 08 a2 bc 51 65 26 3d 89 6e 0c bc 14 58 91 bd
       -0.019779393 0.040623967 -0.0085712755 -0.07096878
000150 00 72 bf 3d b5 91 5a 3d 9f 4d 68 bd e0 96 a1 bb
       0.09347916 0.053361613 -0.05671465 -0.004931316
000160 db ce b0 bd 2a 99 11 bc 28 73 05 3e 90 7c b2 3c
       -0.086332045 -0.008886615 0.1303221 0.021787912
000170 e2 f1 9f bd 3e e8 d2 3d 15 5b 35 bd 49 2c ef 3b
       -0.07809807 0.10298203 -0.044276316 0.0072989804
000180 30 4c 6f 3d 6b ad 8b 3d 37 8f c5 3d f5 67 9a bd
       0.058422267 0.06820186 0.09646457 -0.075393595
000190 75 2d 0e bd b5 ea 06 3e 41 f1 8d bd 33 09 f8 3d
       -0.03471132 0.13175471 -0.06930781 0.121111296
0001a0 33 a7 e4 3d de 6a e3 3d ac 4a ba bd 75 42 5d 3d
       0.11164703 0.11104368 -0.09096274 0.054018456
0001b0 a3 50 ab 3d fd e2 a3 3d 94 0b a0 3d 3d 46 ef bc
       0.083649896 0.08002279 0.07814708 -0.029208297
0001c0 83 30 b8 bd 25 64 41 bd c3 40 db bd 83 9a 12 3e
       -0.08993628 -0.047214646 -0.10705712 0.14316754
0001d0 29 ae 2e bd b3 4c 53 3c 68 88 0a 3e b1 fc 8b bd
       -0.04264656 0.0128967045 0.13528597 -0.068353064
0001e0 e8 29 a8 bd 9a cc 1a 3e 47 a5 62 3d 2a 1f 1d 3e
       -0.08211118 0.15117112 0.055333402 0.1534392
0001f0 19 df ba 3c 55 05 e2 3d ad 32 09 3d 41 7a 25 bd
       0.02281146 0.11036173 0.033495594 -0.040399794
000200 a2 af ba 3d 05 ca b7 bd 05 8e 26 3e 00 4e 7f bd
       0.091155306 -0.08974079 0.16265114 -0.062330246
000210 0d 7b 46 3e fb 4d e9 3d 12 9d 47 3d 6f 3a 07 be
       0.19382878 0.11391827 0.04873378 -0.13205884
000220 6d 09 2f be ff e6 4c bc 39 af 9b bb 3e 8c 05 be
       -0.1709344 -0.012506246 -0.004751113 -0.1304178
000230 67 0b fd 3d c4 09 b9 3d b6 bd 05 3e 69 c9 32 3e
       0.123556904 0.09035066 0.1306065 0.17459644
000240 b8 2a 3e bd 88 8d 1c 3c 06 2f cd 3d 3e f8 c5 bc
       -0.04642746 0.009555228 0.10018735 -0.024166223
000250 03 4a f5 3d 5c fc 99 3c f6 de 05 3e 39 10 50 3b
       0.11977007 0.018797092 0.13073334 0.003174795
000260 60 63 82 bc 07 87 ba bd b4 99 66 3d 65 29 7d 3d
       -0.015916526 -0.09107786 0.056298926 0.061807055
000270 22 ec 2e be a3 08 ce 3c 65 12 22 3e 22 26 96 bd
       -0.17082265 0.025150603 0.1582733 -0.07331492
000280 71 b0 62 3d 14 ad e2 3b 42 af 63 3d 2a dd c1 bd
       0.05534405 0.006917605 0.05558706 -0.09466012
000290 18 46 2f be a6 75 5c 3d 58 73 d0 bd 4d 3e ea 3c
       -0.17116582 0.053823136 -0.1017825 0.02859416
0002a0 f1 61 1b 3e 1b 7d a7 bd 4e 2d 8e 3c 0d 0e d8 3d
       0.1517408 -0.08178159 0.017355587 0.10549555
0002b0 9e 1b 9c bd fe 31 7e 3d 6b 27 08 be 73 96 07 be
       -0.07622455 0.062059395 -0.13296287 -0.13240986
0002c0 91 da 50 3d c5 bf 03 bd 35 94 05 3e 92 ad 15 3e
       0.05098969 -0.032165308 0.13044818 0.14616993
0002d0 ab 2d 07 3d 2e ca c4 bd 54 72 41 3d 4a 36 a3 3d
       0.033002537 -0.09608875 0.047228172 0.07969339
0002e0 06 8b b2 bd 99 17 28 3e 1c a3 0b be c0 16 74 bd
       -0.08717923 0.16415252 -0.1363644 -0.05959201
0002f0 10 66 b5 bd b3 b9 da bb 83 73 00 3b 94 af df 3c
       -0.088573575 -0.006674969 0.00196001 0.027305402
000300 b8 e1 86 bd ce 12 fc 3d 5d 39 de bb a8 d6 27 bd
       -0.06586021 0.12308274 -0.0067817406 -0.040976197
000310 32 f1 92 3c 7c e6 d5 3d 69 4c 22 3e 0d 73 78 3d
       0.017937277 0.10444352 0.1584946 0.060656596
000320 85 e1 9b bd 30 87 ae bd 3a ec ad bd 23 c6 b1 bd
       -0.07611374 -0.08521879 -0.08492322 -0.0868037
000330 c5 71 4b bc 36 ea d1 3c 48 e9 9f 3d e9 ff 2a 3e
       -0.0124172615 0.025624376 0.07808167 0.16699184
000340 be 34 16 3d 96 dc 4a 3d 70 9a 24 bc 0a c4 a5 3d
       0.036671393 0.049526773 -0.010046586 0.08094032
000350 50 06 00 3e bd ee d8 bd ca fb d5 3d a5 f5 33 bc
       0.12502408 -0.10592411 0.104484156 -0.010983859
000360 45 90 19 3e cd d3 36 3d 6a 29 22 3c 66 01 dc 3c
       0.1499644 0.044635583 0.009897569 0.026856136
000370 c8 c6 84 bd 7f 50 8d bd 19 2f 3d bd 13 13 9b 3d
       -0.06483227 -0.06900119 -0.046187494 0.075719975
000380 d2 69 ac 3d 35 7a 81 bd 5e ce 17 3d 91 44 e8 3d
       0.08418621 -0.06322137 0.03706204 0.11341203
000390 1d 13 c0 3d 4c 2a 03 3e d8 64 38 3d 28 04 ab bd
       0.093786456 0.12809104 0.045018047 -0.08350402
0003a0 02 21 8a 3d e5 64 e9 3c c6 b0 00 3d 62 00 24 3e
       0.06744577 0.028490493 0.031418584 0.16015771
0003b0 22 e7 18 bd e9 32 81 bd 7e df c7 3c 4b b1 a2 bd
       -0.0373298 -0.063085385 0.024398562 -0.07943972
0003c0 4c e9 a5 3d 37 b2 a3 3d 50 3d f5 bd 6c c8 a4 bc
       0.081011385 0.07992976 -0.11974585 -0.0201151
0003d0 d6 bf 84 3d c2 27 c8 bd f7 20 e6 3d 09 6b aa 3d
       0.06481902 -0.09773208 0.11236756 0.083211966
0003e0 97 0b a9 bd 8a 57 a9 bc 6c 1d 92 3c 45 b8 54 bc
       -0.08254164 -0.020671625 0.017836295 -0.012983386
0003f0 91 6c e0 3a 99 1d 0e 3d 00 76 81 bd 47 99 8c 3b
       0.0017122199 0.034696195 -0.06321335 0.004290733

lstm.weight_hh_l0 f4 [256, 64]
000000 33 fc 0c 3e 3e d6 cf 3d 07 3b ca 3d 87 83 50 3d
       0.13768081 0.10148285 0.0987454 0.050906684
000010 12 da 4a 3d 0e fd 40 3d a2 e4 c3 3c ef 15 67 bc
       0.049524374 0.04711633 0.023912732 -0.0141043505
000020 6b c8 01 be 02 42 6c 3d 32 c7 03 3e 79 e1 99 3c
       -0.1267411 0.057680137 0.12868956 0.018784272
000030 6d be 14 3d 7f b8 14 3e 2f c1 86 3c aa fb 6b 3d
       0.036314417 0.14523505 0.016449539 0.057613052
000040 4c 54 d0 3a 40 24 f5 bd 7a d2 eb bc 0e 18 82 3c
       0.0015894263 -0.11969805 -0.028786886 0.01588061
000050 74 cc de 3d b2 63 68 bd 52 af e4 bc dc f7 0a be
       0.1087884 -0.0567357 -0.02791563 -0.13571113
000060 94 7c 4d 3d 18 50 a7 bb e6 2f 0e bd e1 e0 d5 3d
       0.050167635 -0.0051059835 -0.03471365 0.10443283
000070 91 91 ab 3c 4c ad 0e be 78 63 de 3d d1 71 83 3d
       0.020943435 -0.13933295 0.10858816 0.06418193
000080 b0 d8 72 bc e2 ab d8 3d b7 2c df bc 2a 94 07 bc
       -0.01482217 0.10579659 -0.027243001 -0.008275071
000090 0c c7 5c bd 90 1a b6 bc 1f 6c 04 be 4c d6 a2 bd
       -0.053900763 -0.022229463 -0.1293187 -0.0795103
0000a0 7c 10 44 3c 8e d9 54 3d 4e e9 88 bd 36 ce 6a 3d
       0.011966821 0.05196529 -0.06685124 0.057325564
0000b0 1e 1f 19 3d 3c 09 27 3d d5 d1 11 bd 51 60 10 be
       0.03738319 0.04078029 -0.035600502 -0.14099242
0000c0 bb c9 e2 bd 79 70 a9 3d 8c f0 a3 3d f3 36 e8 bc
       -0.11073633 0.082734056 0.08004865 -0.028346514
0000d0 e7 cf f3 bb 8b 10 d2 3d eb 76 b4 3c ba 1e 2a 3d
       -0.0074405554 0.102570616 0.02202936 0.04153321
0000e0 ed d3 43 bd 40 11 6d 3b a5 95 07 bd d7 a6 e6 bc
       -0.04780953 0.0036173612 -0.033101697 -0.028155727
0000f0 33 a9 96 bd 04 13 79 bc dd 81 ee bc 10 c3 ec bd
       -0.07356491 -0.015202288 -0.029114658 -0.11560643
000100 95 72 9e bd 64 f0 cd b9 b1 fe fb bc 58 9d 82 bd
       -0.077366985 -0.00039279752 -0.030761095 -0.06377667
000110 4b 55 4c bd ad 7d b2 bd 8e c5 bc bd 7a ea 5a 3d
       -0.04988603 -0.08715377 -0.09217368 0.05344627
000120 77 f0 5d 3d af ef 90 3b bd 23 1e 3d 61 2a 1c bb
       0.054184403 0.0044231038 0.0386083 -0.002382897
000130 ed aa a2 bd 44 97 98 bb 8d 31 1f 3d e6 71 75 bd
       -0.07942758 -0.004656704 0.038865615 -0.059923075
000140 05 62 e6 bd 3f 62 b1 3d e5 5a 1f 3d 3b f2 9b 3c
       -0.112491645 0.08661317 0.038905043 0.019036403
000150 60 61 05 bc f1 54 db 3d 60 5d 2f bd 16 4e e0 3d
       -0.008140892 0.10709561 -0.04281366 0.10952394
000160 7c 43 34 bd 7b ac 20 3d 32 e8 93 bd f2 7e 7d 3d
       -0.04400967 0.03922699 -0.07222022 0.061888643
000170 c5 9f 0a be 06 da bf bc ec e9 be 3d 47 8c f4 3d
       -0.1353751 -0.023419391 0.09321961 0.11940818
000180 a7 d6 98 3d 9f 72 08 be 39 e6 d1 bd d5 2f bb 3d
       0.07462817 -0.13324974 -0.102489896 0.091399826
000190 e1 48 fe bc cf f1 8b 3b 88 0d 82 bd 3f d8 ec 3d
       -0.03104061 0.004270769 -0.06350237 0.11564683
0001a0 0e 4c 9d bd dc 39 91 3c b0 d7 7f bc 05 d7 94 bd
       -0.07680522 0.017727785 -0.015615389 -0.07267574
0001b0 7a a4 ee bd 83 18 40 bd 76 ea 47 bc 9b e5 34 bd
       -0.11652465 -0.046898376 -0.012201896 -0.04416428
0001c0 5f 80 6d 3d f9 93 42 bd 54 18 67 3b ac e3 6c bc
       0.057983752 -0.0475044 0.0035262303 -0.014458578
0001d0 f4 00 a4 bd 1b 5b 42 3c fc d7 b8 bd e3 3c b4 bd
       -0.08007994 0.011862542 -0.09025571 -0.08800676
0001e0 78 f4 46 bc f3 9e 79 bd 13 46 e5 bd 74 e0 96 bd
       -0.012143247 -0.0609426 -0.11195006 -0.0736703
0001f0 db 66 60 bd a9 c3 60 3b 7f 37 10 3d 33 f2 d7 3c
       -0.05478559 0.003429631 0.035209175 0.026360607
000200 b4 27 d5 3d 78 57 d4 bd 53 02 8e bd fb 62 d5 3c
       0.104079634 -0.10368246 -0.06934037 0.026048174
000210 e6 0a 02 3e 99 b8 b9 bc 02 69 06 bc 36 6b 77 bd
       0.1269947 -0.02267103 -0.008203747 -0.06040498
000220 90 bf f5 bc 55 89 33 bd 36 bc 3b 3c 8b a6 1a bc
       -0.02999857 -0.043832142 0.011458447 -0.009439121
000230 53 95 2c bd 3b 54 31 3d 9a 00 c1 bc cd 11 19 3d
       -0.042134594 0.04329322 -0.023559857 0.03737049
000240 52 0d 3e 3d 4f 6b 28 3c 25 aa 05 be 60 6a 1c 3d
       0.046399422 0.010279491 -0.13053186 0.038187385
000250 72 c5 b8 3d df 6a 48 bd a4 c1 cc 3d 8d 07 a6 3c
       0.09022035 -0.048930045 0.099978715 0.020267272
000260 06 1e 1f 3d 70 f5 2a bd 80 59 00 be be 48 4c bd
       0.038846992 -0.041737974 -0.12534142 -0.04987406
000270 f7 26 e5 3d 57 f8 85 bd cd e6 ae bd 42 ce 16 3d
       0.111890726 -0.06541508 -0.085401155 0.036817797
000280 1f e1 4a bd c5 31 1f bd 4a 30 d1 3d e1 b5 a7 bd
       -0.0495311 -0.038865823 0.102142885 -0.081889875
000290 12 2d cf bd e3 21 e2 bd 37 ee 0f bd 81 88 6a bc
       -0.10116018 -0.1104162 -0.03513929 -0.014314772
0002a0 86 16 ac 3d 79 32 bd bd f7 75 8c 3d ec 84 be 3c
       0.084027335 -0.092381425 0.068584375 0.023256741
0002b0 ba b4 a8 3d 6a 66 73 bd 06 a4 09 3a c3 19 08 be
       0.08237596 -0.05942384 0.00052505767 -0.13291077
0002c0 49 41 d5 3d 33 52 9a bd fc 78 58 be 07 c4 af 3d
       0.10412843 -0.075352095 -0.21139902 0.08582311
0002d0 cb 3e c4 bd 51 ee 61 3d cf 39 71 bd f6 95 fb 3d
       -0.09582289 0.055158917 -0.05889302 0.12284462
0002e0 af 12 56 bb cd ca e3 bc c3 99 8a 3c 1e d3 19 3d
       -0.0032664945 -0.027806664 0.016919022 0.037554853
0002f0 12 7c ac 3b 62 3d 4a 3d da f7 9d bd dd 7c 39 3d
       0.005263814 0.049374945 -0.077132896 0.045285095
000300 31 ed f1 bd 1c bb 81 3b 08 24 9c bb 9d b5 e1 3d
       -0.11812819 0.0039590728 -0.0047650374 0.11020968
000310 17 00 ad bd 95 00 df 3c 0b 4d 9f 3d 8a fb fc 3d
       -0.08447283 0.027221957 0.07778367 0.12352665
000320 9c b7 cf bd 2f aa 13 3d d4 e9 2a 3c e7 96 34 3c
       -0.101424426 0.03605097 0.0104317255 0.011022306
000330 99 60 ad 3c 2c e1 bc bd 47 d4 ae bc bc b5 26 3d
       0.021164225 -0.092226356 -0.021341456 0.04070066
000340 8f 2e b0 bd e6 6d a0 bc 02 a1 5b 3c b9 64 4e bd
       -0.0860263 -0.019583654 0.0134050865 -0.050389025
000350 63 34 b4 bd 17 e8 96 3b fe 30 2e 3d d5 d6 48 bd
       -0.087990545 0.004605304 0.04252719 -0.049033005
000360 4f ac ef 3d dd 9f aa bc af fa 81 3d 2e b2 85 3d
       0.11702787 -0.020828182 0.06346642 0.06528126
000370 04 a2 a5 bc 6a cf c0 3d 71 8d 96 3c 7d 15 0e 3c
       -0.020218857 0.09414561 0.018377991 0.008672115
000380 31 40 6c bd 49 b3 1b bd 4b 65 fb bd 29 2e d7 3d
       -0.057678405 -0.038012777 -0.122751795 0.10506851
000390 b4 27 74 3d cc 9e 9a bd 06 80 86 bd c8 a8 ab bd
       0.059608176 -0.07549819 -0.06567387 -0.08381802
0003a0 9b 35 ad bd 0a 43 52 3d fa f5 c1 bc 1e 74 fd 3d
       -0.0845749 0.051333465 -0.023676861 0.12375663
0003b0 17 ff f0 3d d8 fa e0 bc 5f de 8b bc 7e 41 e0 bd
       0.117674045 -0.027463362 -0.017073808 -0.10949992
0003c0 64 1c c7 3d c7 dd 84 3d 9a 05 02 be 74 59 c6 3d
       0.09722212 0.06487613 -0.1269745 0.096850306
0003d0 ee d5 97 3d ad 0d 30 bd 27 a6 b4 3c d1 2a 9a bd
       0.07413851 -0.042981792 0.022051884 -0.07527698
0003e0 c3 9d c4 3d 89 e9 ff bd 16 b8 20 bd 11 18 46 3d
       0.09600403 -0.12495715 -0.039238058 0.048362795
0003f0 52 f0 bf bd 6e 35 b1 bd 77 6b e2 bc 9a 1e 54 bd
       -0.09372009 -0.08652769 -0.027639134 -0.051786996

lstm.bias_ih_l0 f4 [256]
000000 13 6d c8 3d 47 2e c6 3d ba 1e 08 3e bb 76 f0 bb
       0.09786429 0.096767955 0.13292971 -0.0073383725
000010 0b 32 c2 3c 88 ff a1 bd 03 14 0b 3e 62 ab 9f bd
       0.023705503 -0.07910067 0.13581853 -0.077963606
000020 7f ba 98 3d a3 ca 99 3d 83 3b 90 3d 22 b5 ec bd
       0.07457446 0.07509353 0.07042601 -0.11557986
000030 9e df d7 3d 86 0f ad 3d fc ac 03 3d 9d 57 58 bd
       0.105406985 0.084502265 0.032147393 -0.05281793
000040 3b 75 e3 bd fb 85 cc 3c 14 3d 04 bd bf 5b d4 3c
       -0.11106344 0.02496623 -0.03228481 0.025922654
000050 60 ec dd bd 93 a3 11 be e1 4b 4f bd ba 09 48 3d
       -0.108361006 -0.14222555 -0.050609473 0.0488374
000060 93 bb 8e 3d 9e 0b d4 3d f4 f5 30 bd db d8 13 bd
       0.06969371 0.10353778 -0.04320331 -0.03609548
000070 ce 34 4e 3d 63 fa fa 3c 72 90 47 3c c9 49 81 bd
       0.050343327 0.030636972 0.012180435 -0.063129015
000080 5a 13 26 3d 12 7b e2 3d 76 74 08 3e 03 d7 c9 bd
       0.0405458 0.1105863 0.13325676 -0.09855463
000090 3c 0b 75 3d 7e 41 e7 bd a1 68 c8 bd 72 1b 84 3d
       0.059825167 -0.112917885 -0.097855814 0.06450547
0000a0 29 b0 b1 ba d2 b0 69 bd 10 13 b4 3d 16 07 c8 ba
       -0.0013556528 -0.057053395 0.087926984 -0.0015260901
0000b0 30 83 a4 3d dd 32 ac bd 24 98 0d bb d6 80 4c bd
       0.080328345 -0.08408139 -0.0021605575 -0.049927555
0000c0 9c 3f 15 bd e1 e1 a7 3d 99 83 37 3d c8 be dc 3d
       -0.036437616 0.0819738 0.044803236 0.10778576
0000d0 e6 8d 57 3d f5 25 2b 3d 42 2d 55 bd e3 bc e9 3c
       0.05262556 0.041784246 -0.052045114 0.028532451
0000e0 9e f5 37 3d 16 54 a1 bd 9d a4 c2 3d f4 c9 b2 bd
       0.044911973 -0.07877366 0.09504054 -0.08729926
0000f0 33 b2 c4 bd 59 53 1a bd b7 65 c5 bd 1f 42 ab 3d
       -0.09604301 -0.037677143 -0.09638541 0.08362221
000100 94 a6 b0 3d 5b b3 c3 bd 89 87 1a bd c5 7a 04 be
       0.08625522 -0.09555694 -0.037726913 -0.12937458
000110 3e 90 26 3e 26 ce 04 3e 9e bf 2a 3d 11 2d cf 3d
       0.16265962 0.12969264 0.041686647 0.101160176
000120 ba 35 25 bd 54 c8 fb bd be 0a 0a 3e a0 ab 0e 3c
       -0.04033444 -0.12294069 0.1348066 0.008707911
000130 d0 91 0e 3d fd c8 a1 bd 33 ab 85 bd fa 43 cd 3b
       0.034807026 -0.078996636 -0.06526794 0.006264207
000140 da 9c 7b bd df 2f b6 bd 60 a9 0e bd c3 db b2 3d
       -0.061428882 -0.088958494 -0.034829497 0.087333225
000150 bd ac 78 bc 54 6b c7 bc b3 44 9b 3d 48 ce ee 3d
       -0.015177903 -0.02434317 0.07581463 0.11660439
000160 a2 01 af bc 20 e5 a3 bd 97 b0 c4 3d 7c e8 02 be
       -0.021363083 -0.080026865 0.09603994 -0.12783998
000170 75 6b d0 bc e5 82 11 3d d3 3d 9a bd aa a3 bf 3d
       -0.025441865 0.03552522 -0.07531323 0.09357388
000180 dd 20 f3 3d 1e 39 06 bd 42 1e 1f bd de 84 eb bd
       0.118715025 -0.032769315 -0.038847215 -0.11499952
000190 d3 c3 63 bd b1 08 12 bd 6a 4d 5c 3d a2 8b e7 3d
       -0.055606674 -0.03565282 0.053784765 0.1130593
0001a0 96 af a9 bc 7e 8d 02 3e c8 f2 8e bd ba 41 da bd
       -0.020713609 0.12749287 -0.069799006 -0.106570676
0001b0 41 93 df bd ed 32 00 3e da a8 d3 bc 43 cb ca bb
       -0.10916758 0.12519427 -0.02583735 -0.0061887815
0001c0 aa a9 8b bd 69 46 b0 3d 1d 96 ed 3d bb 81 b7 bd
       -0.0681947 0.0860718 0.116008975 -0.08960291
0001d0 42 cf 07 bd 4f 72 82 3d e2 f9 b7 bd a7 48 92 bd
       -0.03315664 0.06369459 -0.08983208 -0.071427636
0001e0 5e 2c ce 3c 4c 22 04 3e a4 67 80 3d 44 74 de bd
       0.02516764 0.12903708 0.06269768 -0.1086202
0001f0 20 3f 78 bd c4 f4 79 3c be 31 04 3e 4e 2a 9a 3d
       -0.060607076 0.015256111 0.129096 0.075276
000200 58 79 95 3d b4 13 6c bb 0a 0b 9f bd 30 3e 9e 3d
       0.07298535 -0.0036022486 -0.077657774 0.07726705
000210 07 33 aa bd b5 ef b3 3d 76 a5 82 3d 2c 46 ba 3c
       -0.08310514 0.08785955 0.063792154 0.022738539
000220 df b6 7b 3d 72 73 d1 bd 77 91 74 3d 10 b1 b3 bd
       0.061453696 -0.102270976 0.05970904 -0.08774006
000230 68 8f 0c 3d 20 45 59 3d b1 17 46 3d e7 e7 73 bd
       0.03431645 0.05304444 0.048362438 -0.05954733
000240 ba 8f f3 3c c9 2c b6 bd 93 f0 e6 bd 53 80 a9 bc
       0.02973162 -0.08895261 -0.11276355 -0.020691073
000250 83 78 c9 bb 86 31 0d bd 25 59 7f 3c f9 3b 9e bd
       -0.0061483993 -0.034471057 0.015585219 -0.077262826
000260 8c 25 0d b8 06 0a e9 3c 99 31 c1 bd e1 74 b5 bc
       -3.3651988e-05 0.028447162 -0.09433288 -0.022150459
000270 5e 59 47 3c 80 a6 b0 bd b8 f1 30 3c 36 95 a9 3d
       0.012167303 -0.08625507 0.010799818 0.08280413
000280 27 03 63 3d 8a 62 9a bd 95 68 b3 3d ac df d2 bd
       0.05542293 -0.07538326 0.08760182 -0.10296568
000290 70 ef 9c 3d ae bf 4f 3d a9 09 c5 bc c0 80 b1 bd
       0.076628566 0.05071991 -0.024052458 -0.08667135
0002a0 51 44 b6 3d f5 58 08 be 6f 8c d9 3d 04 c3 25 3c
       0.08899749 -0.13315184 0.10622489 0.010117296
0002b0 e3 ea 7d 3d d9 42 b3 bd 1f 89 be bd 07 75 20 bb
       0.061991584 -0.087529846 -0.093034975 -0.0024483816
0002c0 ec 58 db 3c e6 07 07 be 21 13 91 bd 50 73 20 3d
       0.0267758 -0.13186607 -0.07083727 0.03917247
0002d0 9b 82 9c bc 8b 10 d4 3d e9 e7 e0 bb ae fa 51 3d
       -0.019105246 0.10354718 -0.0068635833 0.051264457
0002e0 74 96 5c 3d f0 54 84 bd af fb 6d bd 4c bd 97 3d
       0.05385442 -0.06461513 -0.058101352 0.074091524
0002f0 f8 12 0f 3d a0 d8 06 3e 85 34 c2 bc 22 8c d5 bd
       0.0349302 0.13168573 -0.023706684 -0.10427119
000300 dd 19 d9 3d a6 17 dc bd a4 e5 ae bc 0f b0 8b bd
       0.10600636 -0.10746698 -0.021349736 -0.0682069
000310 bc db 6e 3d 24 d7 b3 bd e7 66 29 bd 20 20 30 3d
       0.058315024 -0.08781269 -0.0413579 0.042999387
000320 62 58 f5 ba 90 af ad 3d 9b bf 8b 3d 04 9c c3 3d
       -0.0018718357 0.084807515 0.06823655 0.09551242
000330 23 d9 98 bd 36 36 01 3c 2e 88 13 3d fe a7 a9 3d
       -0.074632905 0.00788646 0.036018543 0.08283995
000340 a1 fc 19 bc d2 70 02 bd 11 1c 01 3e 74 9c 79 3d
       -0.00939861 -0.031845875 0.12608363 0.06094022
000350 f2 e3 ca bb 68 04 5c 3d 93 7b b5 bd c5 c8 bf bc
       -0.006191724 0.05371514 -0.088614605 -0.023411164
000360 9a da 87 3d 55 99 17 bd 5c 8f 54 3d 4d b7 cd 3d
       0.06633492 -0.037011463 0.05189453 0.100447275
000370 3f b7 32 bc b2 7a f7 3c 98 91 8c 3c 75 27 1b 3d
       -0.010907947 0.030209873 0.017159268 0.037879426
000380 0e 01 f0 3d 58 b7 ec bc 9c 05 c5 3d 72 75 e1 3d
       0.11718951 -0.028896019 0.096202105 0.11008729
000390 44 7f 1d 3e bd 2b f2 bd 63 ee 56 bb 9c f1 92 3c
       0.15380579 -0.11824749 -0.0032795898 0.017937474
0003a0 59 4c ed 3b 53 f4 ab 3d 4a b8 a2 3d 2d 45 e7 3d
       0.0072417674 0.083962105 0.079453066 0.11292491
0003b0 bf 75 e1 3d ec 1a c3 3d 47 7e de bd 19 1a e5 3d
       0.110087864 0.09526619 -0.10863929 0.11186618
0003c0 fa 53 e4 bd 6f b2 81 3c 20 cd 7d 3e 62 e9 57 3c
       -0.1114883 0.015832154 0.2478528 0.013178201
0003d0 68 b7 a6 3d 9a 2b e2 3d a2 c7 b9 3c e0 26 97 3d
       0.08140451 0.110434726 0.0226782 0.07380462
0003e0 84 a9 42 3d 33 c0 bb bd 48 a1 aa bd ec 5f d4 3d
       0.047524944 -0.091675185 -0.08331543 0.10369858
0003f0 95 7d 05 3e a4 e4 e3 bc 41 da a1 3d db ac c9 bd
       0.13036187 -0.027818985 0.07902957 -0.09847423

lstm.bias_hh_l0 f4 [256]
000000 20 34 83 3d 62 d4 2f 3d 3a f4 8c bd f1 67 be bd
       0.064064264 0.042927153 -0.0688252 -0.09297169
000010 b4 a4 40 3e 97 f4 1f 3e bb 26 09 3e 97 06 47 3c
       0.1881283 0.15620647 0.13393681 0.012147567
000020 2a b1 30 bc 51 40 b9 bd ca 23 9e 3d 8d a1 16 3d
       -0.010784427 -0.090454705 0.0772167 0.03677516
000030 ae 84 0e 3e a4 5d ab bd 69 9c 3a bb 6c c3 12 3e
       0.13917801 -0.0836747 -0.0028474575 0.1433236
000040 82 40 6b bd c3 ac 3f bd 64 bf 64 bc 80 c3 7a bd
       -0.057434566 -0.046795618 -0.013961647 -0.0612216
000050 74 fa b9 bd e1 0e cf bc ef ce 55 3d c4 a0 97 bd
       -0.09080973 -0.02527565 0.0521993 -0.074037105
000060 7b 21 91 bd 8d b7 4a bc 42 02 dd 3c 3a 80 db 3d
       -0.07086464 -0.0123728635 0.026978616 0.10717817
000070 04 d1 a3 bc b5 b1 05 3e b0 df 45 3c db 10 05 3c
       -0.019997127 0.13056071 0.012077257 0.008121694
000080 77 ed 8b 3c 67 27 76 3b 34 28 8b 3d 72 d2 02 3e
       0.017081005 0.0037560107 0.067947775 0.12775591
000090 c8 dd 05 3e e6 d5 8f bd 95 d5 99 3d a9 28 b7 3d
       0.13072884 -0.0702322 0.07511441 0.08943302
0000a0 6d ad 18 3c 0c f8 30 3d 78 db 06 bd c2 7d 98 3c
       0.009318692 0.043205306 -0.032924145 0.018614653
0000b0 ca 34 83 bd bf 3f d3 3d 06 b8 87 3d 54 94 aa 3d
       -0.06406553 0.10314893 0.066268966 0.083290726
0000c0 f4 90 4b 3d aa 62 53 bc 9f 71 28 3e 63 58 3c 3d
       0.049698785 -0.012901941 0.16449593 0.04598273
0000d0 97 22 b5 bd 38 b0 94 bc 28 f8 10 3e cd 45 c5 bd
       -0.08844488 -0.018150434 0.14157164 -0.09632454
0000e0 b3 4d bb 3d fc 70 3f 3d a2 dc 5b bd 50 78 8b 3c
       0.09145679 0.04673861 -0.05367721 0.017025143
0000f0 25 ec aa 3d 56 9b 12 3c bd 65 ad bc ca c5 2a 38
       0.08345822 0.008948168 -0.021166677 4.0715364e-05
000100 27 4b bc bc a3 c0 de bd 82 59 e0 bc 34 e1 6e 3d
       -0.022985054 -0.10876586 -0.02738643 0.05832024
000110 a5 5d cc 3c 79 fe e6 3d 03 8a e1 bb 65 5d 69 3d
       0.024946997 0.112790056 -0.0068829074 0.056973834
000120 30 c5 17 3b ca 1f 0a 3d cf 34 9e bd 41 61 dc bd
       0.0023158304 0.033721723 -0.07724916 -0.10760737
000130 7b 56 9d 3c 15 3b c3 bd 88 6a ec bd 37 0f bc 3d
       0.019206276 -0.095327534 -0.11543757 0.091825895
000140 74 81 04 bd ab 9b 84 3d 7c 7b 7b bd 57 e7 aa bc
       -0.03235002 0.06475004 -0.06139706 -0.020862265
000150 44 0a d0 bd f5 fd 84 bd 11 e6 ce bd fb ff 14 bd
       -0.10158208 -0.06493751 -0.101024754 -0.036376934
000160 15 e8 37 bc 62 72 00 bc 3e ed 1d bd 67 26 1f bc
       -0.011224766 -0.007839771 -0.03855633 -0.009713746
000170 b2 64 31 bd 39 46 e9 3a aa e1 85 3d 4e c4 ce bd
       -0.04330892 0.0017797417 0.06537183 -0.10096036
000180 f3 e1 a3 bd 92 13 4f bd 78 6e 9d 3c 0c 8a 66 3d
       -0.08002081 -0.050555773 0.019217715 0.056283996
000190 5e 99 37 bd 53 96 c7 3d b8 d8 26 bd f1 84 01 3e
       -0.044823997 0.09745469 -0.040734023 0.1264837
0001a0 21 82 43 3d 08 1b bc bd 16 79 b5 bd 6e 40 c9 3c
       0.047731522 -0.09184843 -0.08860986 0.024566855
0001b0 2e ff 7e bd 16 6a c8 bb 51 9d 61 bd 69 28 bd bd
       -0.062255077 -0.006116162 -0.05508167 -0.09236223
0001c0 fc 22 ac 3d 7a d0 02 3e 45 66 8f 3d 92 d9 02 bd
       0.0840511 0.1277484 0.07001928 -0.031945772
0001d0 01 c6 a4 3d f6 78 ce bd c1 67 71 3d 12 0d ea bc
       0.08045579 -0.10081665 0.058936838 -0.028570686
0001e0 4e 85 ce 3c 72 9f a9 3d 81 90 02 3e d6 fb 2e 3d
       0.025210049 0.08282365 0.12750436 0.04272064
0001f0 57 ee 93 3d 8c 25 8d bd a6 07 cf 3d c7 05 88 3c
       0.07223194 -0.06891927 0.10108881 0.016604317
000200 d6 a4 29 3d 6d 4f 08 be 6e be 5e 3d 1a 21 96 bd
       0.041416965 -0.13311549 0.054380827 -0.07330532
000210 55 d4 f0 3b 0f 5d b1 ba 87 d3 1f 3d 8a 10 ad bc
       0.0073495307 -0.0013531762 0.039020088 -0.02112605
000220 e6 0b a5 3d bd 40 b8 3c 30 3e ca bc 7c 64 99 3d
       0.0805891 0.022491807 -0.024687856 0.07489869
000230 4c 70 71 bc 7b 0c fd 3d 33 f3 0a bd 88 51 f1 bc
       -0.014736246 0.12355896 -0.03392334 -0.029457822
000240 f4 99 98 3d de 06 36 bd 1e b6 75 bd 13 17 f7 3d
       0.07451239 -0.044440143 -0.059988134 0.12064948
000250 55 7e e6 3d fa 6c 69 3d 2e 3d da 3d fd 49 02 3c
       0.11254565 0.056988694 0.106562 0.0079522105
000260 18 9d 4f bd 24 06 04 be 76 9e 6a bb e1 93 63 3d
       -0.050686926 -0.12892967 -0.0035800016 0.05556095
000270 c6 96 b0 3d 02 bd 00 be 30 22 8a 3d 40 09 2b 3d
       0.08622508 -0.12572101 0.06744802 0.04175687
000280 79 eb ab 3d 6e 3f a6 bd 09 72 b5 3d 74 d3 0f 3e
       0.08394522 -0.08117567 0.08859641 0.14045507
000290 29 3e 2d bd de 25 bc bd 0b 2a 37 bb ee 8e d3 3d
       -0.04229561 -0.0918691 -0.0027948644 0.10329996
0002a0 5d 51 53 3b b6 88 8f bc c3 1d 5d bb e5 26 02 3c
       0.0032244541 -0.017521244 -0.0033739663 0.0079438435
0002b0 d9 e4 bd 3d ff c6 d7 3d ec d6 29 3d 79 2a c3 bd
       0.09272165 0.10536002 0.04146473 -0.095295854
0002c0 d9 0b 0d be 39 c2 03 bd 0f ce a7 bd b6 05 91 3d
       -0.13774051 -0.032167647 -0.081935994 0.070811674
0002d0 65 c0 0a 3c c7 50 1a 3d ee 0d 07 3e a4 8a 55 bd
       0.008468722 0.03767469 0.13188908 -0.05213417
0002e0 c5 67 96 3b a4 f8 8e 3c 65 62 bf bd e6 12 f0 bd
       0.004590007 0.017452545 -0.09344939 -0.117223546
0002f0 36 6a 48 3d ee 0a c5 bc 18 80 c1 bd ea 19 88 bc
       0.048929416 -0.024053063 -0.0944826 -0.01661392
000300 3d 9f 32 3d ca 21 21 bc 4d 26 5f 3c b2 1c 4f 3d
       0.043608893 -0.009834716 0.013619971 0.050564475
000310 56 bf 0e 3d 41 08 0d 3e 0f 5c 87 bd c4 bf a4 3c
       0.03485044 0.1377268 -0.06609356 0.020110972
000320 26 cf 97 bc db 01 43 bd 54 3e f5 3d e8 5d 91 bd
       -0.018531393 -0.04760919 0.11974779 -0.07097989
000330 67 03 90 3d 32 0f 3e bd 93 f9 fd 3d 0f 1f 0d 3e
       0.07031899 -0.04640121 0.12401118 0.13781379
000340 7b 33 00 3d 6c 01 c0 3d 66 99 bd 3c d1 bb d5 3d
       0.031299096 0.09375271 0.023144435 0.10436214
000350 90 47 87 3d ff 1a ba 3d f9 23 f9 3d c6 a5 32 bd
       0.06605446 0.0908718 0.12165064 -0.043615125
000360 dc 29 85 bd f3 46 cd 3d 49 f1 88 bd 4a 3a d7 bc
       -0.06502125 0.10023298 -0.066866465 -0.026272912
000370 26 63 37 3e ba cd d4 3d 3e b8 b9 3d 6c a6 e0 bd
       0.17908916 0.10390802 0.090683445 -0.109692425
000380 a0 38 ad bc a6 79 70 b8 34 4e 68 3d 54 72 ab 3c
       -0.021145165 -5.7333753e-05 0.056715205 0.02092854
000390 b9 1e 2a 3e b2 5b c4 3c 40 1f c5 bd fc cf dd bc
       0.16613282 0.023969505 -0.09625101 -0.027076714
0003a0 e7 22 c9 bd 10 16 16 3d ea 24 dc 3d df 4d 5d 3c
       -0.0982111 0.036642134 0.10749228 0.013507335
0003b0 95 83 b2 bd 02 bc 47 bd 77 5a 60 bd 73 5b 80 3a
       -0.087165035 -0.048763283 -0.054773774 0.0009792879
0003c0 d9 d2 42 bd 79 0f b2 bc aa 59 31 3d 44 9e 5a 3d
       -0.04756436 -0.021735894 0.0432984 0.05337359
0003d0 34 24 dc 3d 52 3a b0 3d 2c 10 42 3d 48 bd 1d 3d
       0.10749093 0.08604874 0.047378704 0.03851059
0003e0 f7 2a 7c bc 30 89 99 3d 42 7c 80 bc 90 6e b0 3c
       -0.015391103 0.074968696 -0.01568425 0.021537095
0003f0 66 2e 9e bd 0b 43 66 3d 15 4f d3 3d da 5a 39 bd
       -0.077236935 0.05621628 0.10317818 -0.04525266

lstm.weight_ih_l1 f4 [256, 64]
000000 74 60 03 bc 32 da 1a bd a6 67 85 bd b9 85 a0 bc
       -0.008018602 -0.037805744 -0.0651391 -0.019595014
000010 22 fb 0c 3e 4b 76 06 bd 63 d9 8b 3d ff e1 4f 3d
       0.13767675 -0.032827657 0.068285726 0.050752636
000020 ef e3 24 3c 32 de 18 3e 56 47 9d bc 93 98 9c 3d
       0.010064109 0.14928511 -0.019199055 0.07646289
000030 49 5e 62 3d a4 8c 01 3d df 60 41 bd e4 39 3c 3c
       0.0552657 0.031628266 -0.047211524 0.011488412
000040 91 47 2a bc 3e e1 40 3d ea 12 ce 3d 25 1d 38 3d
       -0.010393039 0.047089808 0.10062201 0.04494967
000050 14 dc cd bd 29 63 7c 3d b8 cd eb bd 78 a5 69 3d
       -0.10051742 0.061618004 -0.11513847 0.05704257
000060 60 02 e5 3d f3 da 17 3c b1 da 16 bd 8e f8 8c 3d
       0.111820936 0.00926851 -0.036829654 0.068833455
000070 97 f2 6c bd 19 72 9f 3c 9d f1 88 bd ec 48 3c 3d
       -0.05784854 0.019463586 -0.06686709 0.04596798
000080 81 04 a4 bc 67 95 00 3c 99 96 ab bc a5 8a bd 3c
       -0.020021679 0.00784812 -0.020945834 0.0231374
000090 c7 e6 dc bd ad 12 88 3d 8e 5f ca bd 8c a6 16 3d
       -0.10786205 0.06644187 -0.09881507 0.036779925
0000a0 9a b1 17 bd 93 c0 ae bd 36 73 1d bc 30 6e 90 bc
       -0.03703461 -0.08532824 -0.009609988 -0.017630666
0000b0 32 c8 82 bd 71 b1 0a be 0c aa 92 3d c3 c3 84 3d
       -0.063858405 -0.13544251 0.0716134 0.06482651
0000c0 ab 8f c2 3d be 42 d2 3c 5c 63 7b 3d 44 34 00 bd
       0.09500059 0.02566659 0.061374053 -0.031299844
0000d0 9b d6 cc bd c0 e2 00 bd 45 39 25 3d 4a 15 2d 3d
       -0.1000187 -0.031466246 0.04033782 0.04225663
0000e0 5a 35 7e bd cb 44 4b 3c 6e eb 84 3d f8 a1 b1 3d
       -0.0620626 0.012406538 0.06490217 0.08673471
0000f0 53 e6 a4 bd a5 5f e3 bd f0 fd e6 3d 3d 3e a8 bd
       -0.08051743 -0.11102227 0.112789035 -0.08214996
000100 39 83 38 3c 4d e8 e7 bd 20 9e ef 3d 88 0a 7c bc
       0.011261755 -0.11323605 0.11700082 -0.01538337
000110 21 98 0b 3e be f4 b3 3d 89 fa be bd 41 c8 6b 3d
       0.13632251 0.08786915 -0.093251295 0.057564024
000120 e0 98 4c 3d 06 c8 c4 3d 2c 49 38 bc 66 7d 60 3d
       0.04995048 0.09608464 -0.011247914 0.05480709
000130 34 9a 29 3a 98 e4 ff bd 8d ac ea 3d 38 72 a8 bd
       0.00064698164 -0.12494773 0.11458693 -0.082249105
000140 6a a6 b3 bd 3b 73 c8 3c 8a ff 82 bd c9 b1 ae bb
       -0.08771975 0.024469009 -0.063963965 -0.0053312522
000150 bd b8 27 3d 62 7c dd bc 3b f0 e8 bd c5 27 a9 bd
       0.040947665 -0.02703685 -0.11373945 -0.082595386
000160 21 8a 14 3d 55 6d cc 3d fc b3 3a 3d ac b5 db 3d
       0.036264542 0.09981791 0.045581803 0.107280105
000170 77 cc c4 bc dd f3 06 3b e0 c6 51 bd ef a1 19 3d
       -0.024023278 0.0020592131 -0.051215053 0.037507948
000180 a6 f5 a0 3d 96 34 05 bc 21 15 01 be de 6b ce 3d
       0.07859354 -0.008130213 -0.12605716 0.10079168
000190 f6 fa e9 3c 79 7d fe bc a1 4c d5 3c bc dd db bd
       0.02856205 -0.03106569 0.026037516 -0.10735652
0001a0 91 aa a9 3d af 86 b2 bc 71 c7 9a 3d 3b 7a 35 bd
       0.08284486 -0.021792738 0.07557572 -0.04430602
0001b0 18 34 16 3d ef 8d dd bd 21 93 e9 3d 4d cb c8 bd
       0.036670774 -0.10818087 0.11405016 -0.098044015
0001c0 a9 39 84 bd b5 eb c3 bd 3a 13 1a 3e 3b e1 f3 bd
       -0.0645631 -0.09566442 0.15046397 -0.11908194
0001d0 6d d3 bb 3c 1c 6d 0c bb c6 ee 92 bd 61 c3 85 3d
       0.022927964 -0.002142734 -0.07174449 0.06531406
0001e0 6c d9 b1 bb bb 92 db 3d f2 78 73 3d 54 1a 63 b9
       -0.00542753 0.10721346 0.059441514 -0.00021658215
0001f0 28 b5 e5 bc 43 6c bb 3d 33 95 6b 3d 48 1f 54 3d
       -0.028040484 0.09151509 0.057515334 0.051787645
000200 bc 50 c7 3d e2 8e 92 3d d9 24 ce ba 22 d8 dd bc
       0.09732196 0.07156159 -0.0015727534 -0.0270806
000210 44 78 3b 3e 34 8b 35 bd 81 9d 75 bd 0e f2 09 be
       0.18307596 -0.044322208 -0.05996466 -0.13471243
000220 f2 48 3c bd d7 66 c8 bc fa 5b a4 bc b4 54 0e bd
       -0.045968004 -0.0244631 -0.02006339 -0.034748748
000230 aa 23 f9 bc 4f c7 d4 3b 09 3b 02 3e ba 42 93 3d
       -0.030412514 0.006493486 0.12717833 0.071904615
000240 b4 c0 10 3d 18 60 50 3b 3b f4 8b bd f1 c3 b2 bc
       0.035340026 0.0031795558 -0.06833693 -0.021821948
000250 24 c1 13 3c 81 f9 ce bd b8 b0 e5 bb 27 0a 35 3c
       0.009018216 -0.10106183 -0.007009592 0.011049784
000260 a8 6c d7 bc 5e ac 9b bd 9a 36 f6 bd 2c 0d da bc
       -0.026296929 -0.07601236 -0.12022133 -0.026617609
000270 ad 91 ff bd e3 dd 9b bd 89 bb 24 bd 06 6f ad bd
       -0.12478957 -0.07610681 -0.04021791 -0.08468442
000280 88 da 10 bc 51 e9 bc 3d 15 9e 0d 3e 79 09 87 3d
       -0.008841164 0.09224189 0.13829835 0.06593604
000290 93 43 3d 3d 6d 6e c3 bb a7 f4 a3 3d 99 05 39 bc
       0.046207022 -0.0059640915 0.08005648 -0.0112928385
0002a0 b0 32 a1 bd 37 30 32 bd 49 20 ce ba 20 e9 a4 bd
       -0.07870996 -0.043503013 -0.0015726174 -0.080522776
0002b0 15 7d 04 3e 40 fc a5 3d 19 12 ef bd 26 78 bd 3d
       0.1293834 0.081047535 -0.11673374 0.09251432
0002c0 d8 0a 0f 3b 3f 27 8c bc b0 9d 55 3d 8a 26 15 bd
       0.0021826532 -0.017108558 0.052152336 -0.036413707
0002d0 70 54 9c 3c a0 53 8c 3c e5 12 9d bd 8e ff fa 3d
       0.019083232 0.01712972 -0.076696195 0.122557744
0002e0 0a 59 ba bd 51 61 96 bd 41 b6 fc bc 26 75 7c 3b
       -0.09099014 -0.073427804 -0.030848624 0.0038521974
0002f0 45 d4 41 bd 91 6e a5 bd 54 e9 d2 3d 83 51 d5 bd
       -0.047321577 -0.080777295 0.1029841 -0.10415938
000300 67 bf 86 3b bb dc 6c bd 36 1d 18 3d 1a 62 f1 3d
       0.0041121724 -0.057827692 0.037137233 0.117862895
000310 31 50 0e bd 52 ba 44 3c b1 23 ba 3d 1b 93 0a be
       -0.034744445 0.012007313 0.09088839 -0.13532679
000320 65 d6 6d 3d d9 94 a2 bd e4 fd c4 bd ab e1 4c bd
       0.05806579 -0.07938547 -0.09618738 -0.0500199
000330 94 bc e8 bd 74 3a 91 bd 36 3b 98 bc bf b5 a0 3d
       -0.113640934 -0.07091227 -0.018582921 0.07847165
000340 44 d7 bb 3d 92 db 13 3d af 9f 92 bd a7 39 e9 bc
       0.09171918 0.03609807 -0.071593635 -0.028469874
000350 87 0d 44 3d 47 d9 a1 bd c5 bc c1 bd 9f 69 0c 3d
       0.047864463 -0.079027705 -0.09459833 0.034280416
000360 e2 5d 86 3d 31 0d 99 bd 77 9f 53 3d 1a 22 e8 bd
       0.065608755 -0.07473219 0.05166575 -0.11334629
000370 6c fa 15 be 76 40 b0 3d 61 4d 91 3a f0 ab 96 bd
       -0.1464631 0.08606045 0.0011085683 -0.07357013
000380 9e 3a 74 bd b4 54 b7 bd 5f e3 d4 bd a1 5d 83 3d
       -0.059626214 -0.08951703 -0.1039493 0.06414343
000390 c5 41 a6 bb a6 83 07 bd a0 dd f9 bc 2f c6 b6 bc
       -0.0050737583 -0.033084534 -0.030501187 -0.022311298
0003a0 fd 2c 1d bd 40 01 fd bd 2f 74 ed 3d 55 8c 00 3e
       -0.038372982 -0.12353754 0.11594426 0.12553532
0003b0 84 a8 da 3d 55 70 d7 3b 6d 7e 04 be ca ed 0a 3d
       0.10676673 0.0065746703 -0.12938853 0.03391818
0003c0 8b 60 bb bc 34 cf c5 bd 9b 3c bf bd de d1 24 3d
       -0.022873184 -0.096586615 -0.093377315 0.040239207
0003d0 a7 c5 3e bd a5 d9 72 3d 33 cf a9 3d f3 6c 98 bd
       -0.046575215 0.059289593 0.08291473 -0.074426554
0003e0 04 53 7a bd a0 72 6c 3d 00 f5 88 3d c9 08 36 bd
       -0.061114326 0.057726502 0.06687355 -0.044441972
0003f0 28 a7 ef bc 1b 9b f0 bd f2 1f c7 3d 20 8c a1 bb
       -0.029254511 -0.11748334 0.0972289 -0.0049300343

lstm.weight_hh_l1 f4 [256, 64]
000000 f6 3d 7f bd 42 e8 d0 3d 78 7c ca bd 40 bd 58 bd
       -0.06231495 0.1020055 -0.09887022 -0.052914858
000010 78 3d 21 3c 48 ca 97 bd 62 48 5a 3d 8e c4 16 bd
       0.009841315 -0.07411629 0.053291686 -0.036808543
000020 6e 6a 90 bd 39 9d 95 3d 7e 86 78 3d 1c 4c d1 3b
       -0.0705155 0.073053785 0.060675137 0.006387247
000030 3d 69 36 bd 95 43 e4 3c f1 be d6 bd 18 f2 fe bc
       -0.044533957 0.027864257 -0.10485638 -0.031121299
000040 2f 9d 7e 3c 88 10 0e bc 38 19 bc bd 27 11 ef 3c
       0.015540405 -0.008670934 -0.091844976 0.029182984
000050 90 cb 95 bc 84 6a 9f bd 91 a5 17 3e 29 d1 c8 3d
       -0.018285543 -0.07783988 0.14809252 0.09805519
000060 9a 90 b3 3d 10 04 37 bd 45 1e 9c 3d db 29 09 bc
       0.08767815 -0.04468161 0.07622961 -0.0083717955
000070 01 9d bc 3d 73 24 31 bd 7a a6 e6 3d 72 6d 13 3d
       0.092096336 -0.04324765 0.11262222 0.035993047
000080 98 5b 42 bd 96 f0 e9 bc e0 27 a7 3d 13 4d 19 be
       -0.04745063 -0.028557103 0.081619024 -0.14970808
000090 ec ea 55 3d 2c a5 01 3e 54 8b 6c bc 4f 6b 94 bd
       0.052225992 0.12660664 -0.014437515 -0.0724703
0000a0 d0 8d d2 bd 85 25 32 3c c1 d4 33 3d bb e8 17 3e
       -0.10280955 0.010873203 0.04390407 0.14834873
0000b0 62 49 27 3e 0f 97 0a be 53 09 e5 bd 4e 9d ed 3b
       0.16336587 -0.13534187 -0.11183419 0.007251418
0000c0 cc 01 f4 3c 14 99 6f bd e5 2e e3 bd 37 8b 8b bd
       0.029786013 -0.058495596 -0.11092929 -0.068136625
0000d0 60 cb e1 bd 44 da ab 3d ad e7 b0 3d c7 7f 79 3d
       -0.11025119 0.0839124 0.08637939 0.060912874
0000e0 d7 d8 1b be 9b 00 a6 3d b9 e5 d3 bd 3e ce 65 3d
       -0.15219437 0.08105584 -0.103465505 0.05610489
0000f0 59 7c 04 3d ab 25 b2 3d 8b 48 fe bd 5f df 96 3d
       0.03234515 0.08698591 -0.1241618 0.073668234
000100 52 c4 56 3c 72 5c e7 bc b7 e0 66 3d c1 03 2e 3d
       0.01310833 -0.028242324 0.05636665 0.04248405
000110 2c dd 94 3b 62 a4 2c 3d 8f 18 b1 3b ee fc d0 3d
       0.0045429673 0.042148955 0.005404539 0.102044925
000120 86 10 d1 bd fd 94 b3 3d 8f 1c ea bd 58 36 ff 3c
       -0.1020823 0.08768652 -0.11431228 0.031153843
000130 c8 96 95 3d 5a 37 bb 3d f3 59 d2 3d b8 05 2b 3d
       0.0730415 0.09141417 0.10271063 0.0417535
000140 df aa fb 3d a0 b3 fa 3d fe 8f 4c 3d 06 c2 68 bd
       0.122884504 0.12241292 0.04994201 -0.05682566
000150 e5 97 a3 bd fb a2 e5 3d 84 37 c1 bd 9b 63 a7 bd
       -0.07987956 0.11212727 -0.09434417 -0.08173295
000160 d2 68 67 3d 0e ba 01 3d 4b 22 8a 3d d8 7c 1d bc
       0.05649645 0.031671576 0.06744822 -0.009612285
000170 cd a3 ac 3d 2d b8 a3 bd 18 8e db bb 25 e9 9f bb
       0.0842968 -0.07994113 -0.0067002885 -0.004880088
000180 ec c2 80 3d 55 e6 9b 3d 67 6b eb bd 35 95 93 3c
       0.062871784 0.07612292 -0.11495095 0.018015483
000190 99 c2 e0 bd 0c da b5 bd 12 f0 03 bd 8c 90 04 3e
       -0.109746166 -0.0887948 -0.03221137 0.12945765
0001a0 07 70 29 bd 5a 49 51 bd ff b7 34 bc e9 7a 2b 3c
       -0.041366603 -0.051095344 -0.011030196 0.010466316
0001b0 db c8 e3 bd dd 1b 05 be c5 e1 b7 3d 39 bf 3b bc
       -0.111222945 -0.1299891 0.08978609 -0.011459165
0001c0 07 cf 4e bd c2 4d 36 3d 86 58 33 bd ca 7f 63 bd
       -0.050490405 0.04450775 -0.043785594 -0.05554179
0001d0 57 bc d3 bd 88 1c b0 bd aa 8e d2 bd bd 47 01 be
       -0.10338657 -0.08599192 -0.10281117 -0.12625022
0001e0 58 53 b4 3c 47 10 f6 bd 05 7a 7c 3d 63 c1 af 3d
       0.022012398 -0.120148234 0.061639804 0.085818075
0001f0 38 04 a2 3d 24 d1 83 3d 04 bc 87 bd 66 c0 04 3e
       0.07910961 0.06436375 -0.06627658 0.12964019
000200 57 7f db bd d2 14 d1 bd 7e 75 97 bd d3 cc 03 3c
       -0.107176475 -0.10209049 -0.07395457 0.008044439
000210 5b d8 99 3d 08 ae 9d 3c d6 b9 a8 3d 19 ac 18 3d
       0.0751197 0.019248024 0.082385704 0.0372735
000220 32 7c d6 bd fc 3f 21 3d 2b 90 b7 3d ef 3e 5a bd
       -0.10472907 0.03936766 0.08963045 -0.053282674
000230 33 37 97 bd 28 ab f6 bc e3 a7 dc bd c5 7f cd 3d
       -0.07383575 -0.03011091 -0.10774209 0.10034136
000240 a3 42 e0 3d a8 c6 84 3d 34 91 74 bd ce 2f 7e 3d
       0.1095021 0.06483203 -0.05970879 0.06205731
000250 0f 0a 85 bc cf 72 08 be db 1b 92 3d 07 9a 94 3d
       -0.016240148 -0.13325046 0.07134219 0.07255941
000260 f1 b1 21 3d b8 b3 ed 3d f2 6f 05 be bd 29 8b bc
       0.03947634 0.11606544 -0.13030985 -0.016987676
000270 81 1f de 3d 36 3d e9 bd 85 5d 79 3d 3b 26 0f be
       0.10845853 -0.11388628 0.060880203 -0.13979428
000280 2b 5c 5e 3d 9f 13 07 3e 5f 4c 22 3d 78 b4 32 bd
       0.054287117 0.13191079 0.039623614 -0.04362914
000290 b2 19 bb 3d aa 6d 8e 3c c5 06 83 3d b6 7a 9f bd
       0.0913576 0.017386276 0.063977756 -0.07787077
0002a0 b7 6d f7 3b bf 76 a0 3d 85 ca af 3d c2 79 d5 3d
       0.007550921 0.07835149 0.085835494 0.10423614
0002b0 6c 4c e9 bc 66 d7 7f bd 60 75 72 3d 9b 62 9a 3d
       -0.028478824 -0.06246128 0.05919397 0.07538339
0002c0 48 96 3a 3d ef 91 05 bd 19 00 d5 3d 7d 21 95 3d
       0.045553476 -0.032609876 0.10400409 0.07281778
0002d0 24 3d c5 bd e0 d9 44 bd 85 09 4f 3d e5 ae 8a bd
       -0.09630802 -0.048059344 0.050546188 -0.0677164
0002e0 c9 fe 2a bd 10 d2 96 3d 07 fa 8e 3d b5 5a 19 3d
       -0.04174689 0.07364285 0.06981283 0.03744002
0002f0 2f c1 f4 3d 63 6d bc bd 88 ab 1e 3d 57 fe 94 bc
       0.11950909 -0.09200551 0.038737804 -0.018187685
000300 3b 4f cd bd e1 fe 9e 3d 84 1c 2f bd 55 06 73 bb
       -0.10024878 0.07763458 -0.042751804 -0.0037082632
000310 bc 6e 12 bc ca 89 26 bd a3 e1 87 bd ba 4a 3d 3a
       -0.008937534 -0.04065875 -0.06634834 0.0007220913
000320 cc 81 b2 bd 30 28 be bd 92 97 85 3d 03 d2 7b 3c
       -0.08716163 -0.09285009 0.0652305 0.015369895
000330 ba 96 5f bd 3c 63 6d 3d e8 82 37 bd 93 96 60 bc
       -0.054587103 0.057955965 -0.044802576 -0.013707775
000340 fc 90 c2 3d d3 de a7 bd 7d 82 1c bd a1 a7 e8 3d
       0.0950031 -0.08196797 -0.03821038 0.11360098
000350 94 03 f0 3d 66 41 87 3d 56 e6 b8 3c ed 60 96 3d
       0.117194325 0.06604271 0.02257077 0.07342706
000360 c8 c5 c5 3d 1f 80 c8 3b c4 0c 5a 3d da 14 0d 3d
       0.096568644 0.006118789 0.05323483 0.034443714
000370 eb e0 3d bd 4c aa aa 3d d9 b0 c8 bd 72 5c 0b bd
       -0.046357077 0.08333263 -0.09799356 -0.03402371
000380 5e ad 1e bb b6 c1 e7 bc 15 6f 03 3d 5f ed 35 3d
       -0.0024212222 -0.02829061 0.032088358 0.044415828
000390 4b e9 cd bd d8 33 a3 3d 58 7f 0d 3d 97 9a 6d bc
       -0.10054263 0.07968873 0.034545273 -0.014502189
0003a0 1f 67 dc bd 17 f3 84 3d 4f 2a 91 3d 72 f4 23 3d
       -0.10761856 0.06491678 0.07088148 0.040028043
0003b0 60 30 69 bd 74 fa c4 3d 12 da e2 bd b7 ef 26 3d
       -0.0569309 0.09618083 -0.1107675 0.040755954
0003c0 ba 13 e4 bb 2c 9f a1 3d 46 fe ce bd 28 64 a8 3d
       -0.0069603594 0.07891688 -0.101070926 0.08222228
0003d0 06 9e 62 3d c3 ec cf bd c8 48 df 3d 68 84 24 3b
       0.055326484 -0.101525806 0.10902554 0.0025103334
0003e0 1e 3e 90 bd 81 61 9b 3d 4d e3 a4 3c d9 f6 3d bd
       -0.07043098 0.07586957 0.020127917 -0.04637799
0003f0 72 45 83 3d cf 7d ed bc b1 7d 71 3d 22 b4 05 3e
       0.0640973 -0.028990654 0.05895776 0.13056996

lstm.bias_ih_l1 f4 [256]
000000 c7 52 80 3d 25 b0 bb bd fe 7c d7 bc 5f ec 04 3d
       0.062657885 -0.09164456 -0.026304718 0.032451984
000010 fa de 1f 3c c0 dc ec bd 0c 23 d1 bd a8 c9 94 bd
       0.009757752 -0.11565542 -0.10211763 -0.072650254
000020 03 6c ad 3d d0 ba ae 3d 09 34 13 bd 80 89 61 3d
       0.08467867 0.085317254 -0.035938296 0.05506277
000030 e0 b9 b7 3d 64 85 8a 3d 2c f8 82 3d f2 c8 94 3d
       0.08971 0.067637235 0.06394991 0.0726489
000040 e0 92 aa bd bb d6 84 bd 86 a9 e9 3d a8 fa 5a bd
       -0.083287954 -0.06486269 0.11409287 -0.0534617
000050 d6 67 6e 3d d8 54 00 3e 3b 17 a9 bd e7 31 a1 bd
       0.058204494 0.12532365 -0.08256384 -0.07870846
000060 91 22 ec 3b 84 af 30 3d 2e 20 dc 3b 90 ec ba 3d
       0.007206269 0.043136135 0.0067177033 0.09127152
000070 cd a0 02 3e 0e 17 93 bc 92 9d d3 3d 40 c1 98 bd
       0.12756653 -0.01795533 0.103327885 -0.074587345
000080 39 db 9c bc 62 4b f2 3d 44 6c 8d 3d 9f c5 ad bc
       -0.019147502 0.118307844 0.06905416 -0.021212397
000090 4f 8b 11 bc 6c 4d fa 3d 7d 67 06 be 21 53 82 3d
       -0.008883311 0.12221798 -0.13125415 0.06363512
0000a0 57 00 bc bd 0d 44 ce bd 42 51 ef bd 89 3f 98 bd
       -0.09179752 -0.100715734 -0.116854206 -0.07433993
0000b0 6e a2 c6 bd 74 cc 34 3b 66 c4 96 3d d7 21 c0 3b
       -0.0969895 0.0027587684 0.07361679 0.005863409
0000c0 90 56 11 3c 3d 8e aa bd 43 9f 66 3d 9b 36 cf bb
       0.008870736 -0.08327911 0.056304228 -0.006323648
0000d0 8b 20 9e bc 2d cd b2 bd 6e c6 f3 3c e4 26 4f bd
       -0.019302627 -0.087305404 0.029757705 -0.0505742
0000e0 ad 71 15 3e 64 9d 07 3d 18 ab 4f 3d 33 a0 f2 3c
       0.14594145 0.033109084 0.050700277 0.029617405
0000f0 64 fc b0 3d 92 0f d5 3d ff 32 e1 3d 46 8b 6d 3d
       0.0864189 0.104033604 0.10996055 0.05799415
000100 2e 84 c1 bd 03 1b 33 bd 99 57 2a 3d 39 d4 d5 3d
       -0.094490394 -0.043726932 0.041587446 0.10440869
000110 8f 39 c8 bd ec 1a 93 bd dd 4a 85 3c d0 74 90 3b
       -0.097766034 -0.07182869 0.01627105 0.0044084564
000120 bd 07 21 3c 8e a3 10 3d bb 75 09 3d a3 a0 2e 3d
       0.009828505 0.035312228 0.033559542 0.042633664
000130 77 b4 1c bd b3 5c a7 3c 43 e0 41 3b 14 e0 a7 bd
       -0.038258042 0.020429945 0.0029583133 -0.081970364
000140 16 d2 95 3d fa b3 46 bc 14 f8 48 3d 2d da 15 3d
       0.07315461 -0.012127871 0.04906471 0.03658502
000150 13 f7 0f 3d 61 b7 ea 3d 46 58 03 3c c3 70 f4 bd
       0.035147738 0.11460758 0.0080166515 -0.1193557
000160 fc 15 d8 3d 15 3b 94 bd 00 a4 59 3d e7 30 6c 3c
       0.10551068 -0.072378315 0.05313492 0.014415956
000170 a4 c1 cd 3b 34 8a 7d bd 9f 4c ac bd c3 45 ea 3d
       0.0062791873 -0.06189938 -0.08413052 0.11439087
000180 94 e3 b1 3d 9d 7b fd 3a 14 96 da 3d e5 da c3 bd
       0.08685985 0.0019339208 0.106731564 -0.09563235
000190 d5 6c d3 3d 02 6a bc bd 61 d6 b9 bd d5 5a dc 3d
       0.103234924 -0.09199907 -0.09074093 0.10759512
0001a0 4a c8 39 3d e7 39 e1 3d 3a 5f c1 3d 03 42 03 3e
       0.045357026 0.10997372 0.09441991 0.1281815
0001b0 86 4d 97 3d ab 07 bb 3d 5c 02 06 be 9d 46 0e 3d
       0.07387833 0.09132322 -0.13086838 0.03473531
0001c0 09 00 e4 3c 6f f2 ff 3d 95 ca 09 be 79 7c 0d 3c
       0.027832048 0.124974124 -0.13456185 0.008635634
0001d0 99 21 c2 b9 ce f2 88 3d 5c 0d df 3d a8 8f de bd
       -0.00037027596 0.06686936 0.1089122 -0.10867244
0001e0 1b 6e 08 3e 1e cd 9d 3d 56 ff 77 bd 82 51 a2 bd
       0.13323252 0.077051386 -0.06054624 -0.07925703
0001f0 38 b6 32 bd c8 51 b8 bd 57 95 e8 b9 39 49 6c bd
       -0.04363081 -0.089999735 -0.00044361755 -0.057687018
000200 cf 2b a0 bb cc 29 b0 bd b0 e7 4a bc 96 2c 91 bd
       -0.004888035 -0.08601722 -0.01238434 -0.07088582
000210 84 3f 15 3c 76 53 18 3d 45 67 31 bd c3 fe 06 3e
       0.009109382 0.03718897 -0.043311376 0.13183121
000220 fc e0 37 bd 14 dc f0 bc e1 f0 08 3d a2 25 08 be
       -0.044892296 -0.029401816 0.033432845 -0.13295606
000230 75 b6 4d ba 31 91 2e 3d 94 38 75 3d ca 9a 9a 3d
       -0.00078473176 0.042618934 0.05986841 0.07549055
000240 64 25 25 3d 68 fe 7a bc 4c 82 8e bd b1 54 95 3d
       0.04031886 -0.015319444 -0.06958446 0.07291544
000250 b3 d3 89 3d 0d c6 2f 3d 3c 41 14 bd ef 1d 69 bd
       0.067298315 0.042913485 -0.036195025 -0.056913313
000260 bc a8 c7 bc f8 75 c6 3c ad 46 91 3c 29 36 50 bc
       -0.024372451 0.024226174 0.017733896 -0.012708225
000270 52 94 2c 3d c1 97 7a 3b 7b ce fa bd de 35 04 bd
       0.042133637 0.0038237425 -0.12246414 -0.032277934
000280 80 dc 0e 3e 0f b1 ae 3b 47 77 0c be ea 70 cb 3d
       0.13951302 0.0053311656 -0.13717376 0.09933646
000290 e7 f9 95 3d 84 6d 8c bd f8 37 9e bd 0f 6e b0 bd
       0.07323056 -0.06856826 -0.07725519 -0.08614742
0002a0 44 75 d7 bd f6 3d 9b 3d 7f d3 85 bd 87 27 fb bd
       -0.105204135 0.075801775 -0.0653448 -0.122633986
0002b0 da 5b c5 3d 61 2d 88 3b 5b 13 c2 bd 01 9c d7 3b
       0.0963666 0.0041558 -0.09476348 0.0065798764
0002c0 4c 47 fc 3d 8c dc df bb b1 b7 23 3d f6 c6 2b bd
       0.12318286 -0.006831711 0.039970104 -0.04193779
0002d0 2b eb 87 bd 3d 3a f5 bc d9 2e 91 3d db ea c3 3d
       -0.066366516 -0.029934997 0.070890136 0.095662795
0002e0 8b 64 4c 3c b0 f9 d7 bd 7a e0 d8 bd 39 9b 00 3e
       0.012475143 -0.10545671 -0.105896905 0.12559213
0002f0 df 96 0a 3d cf 7a cc 3d 7e 4f 99 bd 86 e4 cc bd
       0.033835288 0.099843614 -0.07485865 -0.10004525
000300 80 43 29 3d 14 88 0f 3d de c2 db bd 9b 1d 2c bd
       0.04132414 0.035041884 -0.10730527 -0.04202042
000310 dd 85 84 3d e9 5b 41 3d 99 17 a8 3c 7b b2 49 3c
       0.06470845 0.047206793 0.020519065 0.0123106195
000320 f7 22 c7 bb 65 5b 91 3c b0 ac 8a bc f9 42 b9 3d
       -0.006077166 0.017743776 -0.016928047 0.09045977
000330 ed 4b 8c bd 17 5d a0 3d a8 69 f8 3d 1a dd 64 bd
       -0.06850419 0.078302555 0.12129527 -0.05587492
000340 5b 5f e6 bc 9c e7 e2 3d dc 8a 91 3d f0 e3 45 bd
       -0.02812164 0.11079332 0.071065634 -0.04831308
000350 16 58 fe 3c 09 70 c0 bd bc 5f 1c bb d0 24 a4 3d
       0.031047862 -0.09396369 -0.0023860773 0.08014834
000360 00 ff d4 bd ac be d2 3d 1e 02 bd 3d 10 8a 4a bd
       -0.104002 0.10290274 0.092289194 -0.049448073
000370 dd 4e e9 bd 6e 3b 83 3d e9 ae 95 bd c7 38 77 3d
       -0.11391995 0.0640782 -0.07308752 0.06035688
000380 ee 17 c6 bd 6e c2 5d bb 94 74 c2 bd 3e 33 84 3d
       -0.09672533 -0.0033837813 -0.09494892 0.06455086
000390 43 fa c8 bc 5b 0a 13 3e 82 98 97 3d 39 43 be 3c
       -0.024533397 0.14359419 0.074021354 0.023225414
0003a0 52 d9 bb 3d 56 5e d2 3c a6 f2 cb 3c e9 a9 8d bd
       0.0917231 0.025679749 0.024895977 -0.069171734
0003b0 06 dd b1 bd de d2 91 3d d9 0b 30 bd 16 02 c8 bd
       -0.08684735 0.07120298 -0.04298005 -0.09766023
0003c0 27 aa df bc c7 87 b1 bc 35 77 9e bd 78 98 8b 3d
       -0.027302815 -0.021671189 -0.07737581 0.068161905
0003d0 98 6f 06 be 6f 8e 35 3c 2c cf a0 3c ee 77 37 3d
       -0.13128507 0.011081322 0.019630037 0.04479211
0003e0 66 66 e4 3d a7 18 54 3d 03 ee fc bd 13 93 c0 3d
       0.111523435 0.051781323 -0.12350085 0.09403052
0003f0 a8 ec 83 3c 5d cc 61 bc 4e 78 a1 bc 33 fe de bd
       0.016104057 -0.013781634 -0.019710686 -0.108883284
